experiments/output-gat/Cora/max/42/model.pth (torch, 210075 bytes, 10 tensors)

layers.0.bias f4 [30]
-0.04657098 -0.01480416 -0.025977563 -0.001969721 0.07085667 -0.011451555 0.023990866 0.12798667
-0.019058041 0.00044852612 0.13604854 -0.01986919 0.20726086 -0.018227126 0.028110772 0.01227881
-0.019203408 -0.015663423 0.01816679 0.1458868 0.012493445 0.030437592 0.0069758296 -0.005203198
-0.049233682 0.072773784 0.12715796 0.026284533 0.035879318 0.12820445
00000000: 36c1 3ebd 268d 72bc e6ce d4bc 6f16 01bb
00000010: 4d1d 913d 4e9f 3bbc 7e88 c43c f00e 033e
00000020: 9c1f 9cbc 2828 eb39 4f50 0b3e b6c4 a2bc
00000030: 313c 543e 0e51 95bc 9048 e63c 102d 493c
00000040: 7750 9dbc 9450 80bc 85d2 943c 5963 153e
00000050: 4eb1 4c3c 4258 f93c 8095 e43b 977f aabb
00000060: 42a9 49bd 6c0a 953d b235 023e a952 d73c
00000070: 31f6 123d 0748 033e

layers.0.combine_aggr.weight f4 [30, 120]
0.069792494 0.07576901 -0.02138605 0.08385736 -0.02000133 0.018420883 -0.04444358 0.053611323
0.08047348 -0.06697078 0.07934639 0.017085224 0.06744371 0.012363061 0.044017553 -0.012888916
0.070371926 0.013493046 -0.042616457 0.023268923 -0.042059306 -0.010705501 -0.037077013 0.0605572
-0.0720593 -0.04208429 -0.025777169 -0.054888416 0.008615963 -0.09016235 0.082442194 -0.07754549
0.07047613 0.01519192 -0.02964133 0.05641085 0.014227167 0.07375662 0.009979479 -0.028789502
0.024527349 -0.02475518 0.03841886 0.08150314 0.052769378 -0.039908208 0.05269681 0.016333655
0.04635878 -0.055639945 -0.090365864 -0.03526973 -0.07001928 0.074904606 0.026293546 0.037812352
0.02887056 -0.0015880242 0.07144204 -0.06486072 0.0057477728 -0.06230711 0.028148554 -0.031437658
0.027971849 -0.019018888 0.07571277 -0.054106034 -0.054443438 -0.054446723 0.082107514 0.030421525
0.087841064 -0.07533707 -0.09054548 -0.071419716 -0.061407827 0.036974937 0.0326877 0.07585268
-0.04714297 -0.06223149 0.048434928 -0.03689865 0.055404305 -0.021662481 0.052220404 -0.07092715
-0.04606801 0.027831286 0.019298777 -0.023274444 0.054413453 0.062057808 -0.06619897 -0.048735276
0.08358811 -0.030803233 -0.03236277 -0.0883289 -0.052277397 0.02280385 -0.012049273 -0.06626402
0.0021412969 -0.062356524 -0.07744766 -0.05026839 -0.07989556 -0.058125965 0.09125139 0.017241843
0.028131 -0.08514204 -0.05995497 -0.030385438 0.014274664 -0.080325454 -0.039333146 -0.054650713
0.000252977 -0.03396822 -0.006325811 -0.061858848 -0.06265902 -0.05325705 -0.031247336 -0.07205115
0.07654147 -0.018117204 0.07854311 0.028443426 -0.07730164 0.063173875 -0.025117166 -0.03499272
-0.07577472 -0.09075403 0.026118211 -0.019941106 0.03554018 -0.074915975 0.06777419 -0.06700963
-0.01576285 0.019067109 0.047127128 0.073697016 0.08315882 -0.07238355 0.02297397 -0.039264947
-0.0100036785 -0.06832749 0.08314964 -0.06700021 0.048788503 0.032081902 0.029664285 -0.049354017
0.08297554 0.020060375 0.011743173 -0.08044719 0.03832127 -0.013694942 -0.04182083 0.07841073
0.020352349 -0.050506994 -0.04620395 -0.0043594837 0.05097118 -0.02332694 -0.052086122 -0.031260613
-0.06819829 0.032555938 0.070659876 -0.08594135 0.021201491 0.047158167 0.01655303 -0.032509584
0.047646582 0.047972575 0.03413473 -0.016041093 -0.02417294 0.009765975 -0.016126238 -0.02720365
0.058351338 0.07845208 -0.009037182 -0.020438895 0.0013320893 -0.0054505914 0.021946445 0.02558171
-0.08291212 -0.03368838 0.07687555 0.035561338 -0.0045403987 -0.055037513 -0.055849906 -0.08177195
-0.029756162 0.030828029 0.058206618 0.04214701 -0.08069268 -0.05489663 -0.014406621 0.08830653
0.013205364 -0.023640685 0.03776686 -0.03476957 -0.059086088 0.06662929 -0.041508403 -0.018300027
-0.09081279 0.061095774 0.069162264 0.033269413 -0.063652135 -0.09009487 -0.07414146 0.06807281
0.04382746 0.076818496 0.04782255 0.02310405 -0.000893943 -0.06942438 -0.07821224 -0.085385256
0.03736946 -0.04481904 -0.01837176 -0.0525362 -0.016634658 -0.064251035 -0.059648417 0.030280918
-0.027130194 0.05635546 -0.0292857 -0.06696522 -0.016106598 -0.04425118 -0.027928516 -0.08690491
00000000: 5eef 8e3d c82c 9b3d cc31 afbc 68bd ab3d
00000010: d4d9 a3bc 64e7 963c 790a 36bd 8c97 5b3d
00000020: 48cf a43d fa27 89bd 5c80 a23d 50f6 8b3c
00000030: ee1f 8a3d 708e 4a3c c04b 343d 082c 53bc
00000040: 281f 903d f011 5d3c 988e 2ebd 789e be3c
00000050: 6146 2cbd 2066 2fbc 11de 17bd d40a 783d
00000060: d493 93bd 9460 2cbd a42a d3bc add2 60bd
00000070: f829 0d3c 0aa7 b8bd 74d7 a83d 2bd0 9ebd
00000080: ca55 903d 88e7 783c 60d2 f2bc 100f 673d
00000090: 1019 693c b60d 973d f880 233c f6d7 ebbc
000000a0: 94ed c83c 60cb cabc 185d 1d3d 1eeb a63d
000000b0: b424 583d ca76 23bd 9cd8 573d 28ce 853c
000000c0: b4e2 3d3d b6e6 63bd bd11 b9bd fe76 10bd
000000d0: 4566 8fbd 9667 993d 9065 d73c 20e1 1a3d
000000e0: f481 ec3c 4025 d0ba 3450 923d b2d5 84bd
000000f0: d057 bc3b bd35 7fbd cc97 e63c c6c4 00bd
00000100: 3825 e53c 80cd 9bbc 4c0f 9b3d 4a9e 5dbd
00000110: 1500 5fbd 8703 5fbd fc27 a83d 9036 f93c
00000120: 04e6 b33d 524a 9abd e96f b9bd 8044 92bd
00000130: c686 7bbd 0873 173d 8ae3 053d a658 9b3d
00000140: fd18 41bd 72e6 7ebd b463 463d 0a23 17bd
00000150: a0ef 623d 8475 b1bc 10e5 553d 4142 91bd
00000160: cfb1 3cbd 70fe e33c 7818 9e3c 0caa bebc
00000170: a4e0 5e3d 5430 7e3d 5393 87bd a49e 47bd
00000180: 3e30 ab3d 1057 fcbc d38e 04bd c8e5 b4bd
00000190: d320 56bd 24cf ba3c 506a 45bc 6eb5 87bd
000001a0: 0055 0c3b 8e69 7fbd e19c 9ebd 3ae6 4dbd
000001b0: 49a0 a3bd 7e15 6ebd 02e2 ba3d c43e 8d3c
000001c0: fc72 e63c f35e aebd 5893 75bd e2ea f8bc
000001d0: 48e0 693c ac81 a4bd cb1b 21bd 6dd9 5fbd
000001e0: 00a2 8439 4322 0bbd c048 cfbb b45f 7dbd
000001f0: 5f53 80bd 1124 5abd 6afa ffbc 8e8f 93bd
00000200: c6c1 9c3d 886a 94bc 36db a03d 3002 e93c
00000210: 5250 9ebd 4e61 813d 84c2 cdbc 8754 0fbd
00000220: c72f 9bbd 40dd b9bd dcf5 d53c 885b a3bc
00000230: 9492 113d 8c6d 99bd 32cd 8a3d 583c 89bd
00000240: 1821 81bc a032 9c3c 6008 413d 76ee 963d
00000250: 2c4f aa3d d43d 94bd e833 bc3c 48d4 20bd
00000260: 78e6 23bc 48ef 8bbd 5c4a aa3d 6837 89bd
00000270: 74d6 473d 5068 033d 8402 f33c 7027 4abd
00000280: 14ef a93d a855 a43c 7066 403c 7fc1 a4bd
00000290: c4f6 1c3d c060 60bc 524c 2bbd ce95 a03d
000002a0: f8b9 a63c 6ce0 4ebd 5a40 3dbd 00da 8ebb
000002b0: 28c7 503d 2418 bfbc 4258 55bd 210b 00bd
000002c0: 8cab 8bbd 6059 053d 20b6 903d 0502 b0bd
000002d0: c0ae ad3c ec28 413d 389a 873c c528 05bd
000002e0: 1029 433d e47e 443d dcd0 0b3d 9c68 83bc
000002f0: 5406 c6bc 7801 203c 2c1b 84bc 30da debc
00000300: d001 6f3d 7cab a03d b010 14bc 786f a7bc
00000310: 8099 ae3a e09a b2bb 08c9 b33c bc90 d13c
00000320: d4cd a9bd d4fc 09bd ee70 9d3d c4a8 113d
00000330: a0c7 94bb 046f 61bd dfc2 64bd 0d78 a7bd
00000340: 32c3 f3bc 108b fc3c 106a 6e3d 58a2 2c3d
00000350: 3442 a5bd 4adb 60bd c009 6cbc 0eda b43d
00000360: 505b 583c 1caa c1bc 6cb1 1a3d 896a 0ebd
00000370: 4104 72bd f074 883d b704 2abd f0e9 95bc
00000380: 0efc b9bd 903f 7a3d f2a4 8d3d 8245 083d
00000390: 0d5c 82bd a983 b8bd 7ad7 97bd c269 8b3d
000003a0: 6c84 333d 0453 9d3d 94e1 433d b444 bd3c
000003b0: 8057 6aba 5f2e 8ebd bd2d a0bd 77de aebd
000003c0: b810 193d 2b94 37bd 6080 96bc 3330 57bd
000003d0: 6845 88bc 0c96 83bd e651 74bd b00f f83c
000003e0: 2440 debc fcd4 663d 90e8 efbc 1025 89bd
000003f0: fcf1 83bc ba40 35bd 58ca e4bc 34fb b1bd

layers.0.lin_a.weight f4 [1, 60]
0.25286305 0.016031435 0.22195256 0.07675279 0.19965228 0.078885145 0.3022187 0.2701957
0.15099546 0.18539496 -0.20099288 -0.013938213 -0.20933811 0.18947996 0.1694597 0.2730283
0.14896911 0.1867963 -0.039971005 0.2472446 -0.17330657 0.23157798 0.23301396 0.1763177
0.28291297 0.21583222 0.06557883 -0.08931732 -0.32632905 0.24842747 0.042871345 -0.077814244
-0.020414682 -0.008316301 0.08029353 -0.020929728 0.14054571 0.09282547 0.11101216 0.13352598
0.09261138 0.07428387 -0.13660549 0.005984641 0.0019570899 0.0755937 -0.06700316 0.06277483
0.10362604 0.05622527 0.09853554 0.009082689 0.10675137 -0.07745921 0.09577147 -0.029216548
0.033127695 -0.026152592 0.1258932 0.007570607
00000000: 4477 813e 5b54 833c 8847 633e 9130 9d3d
00000010: a671 4c3e 898e a13d 69bc 9a3e 1757 8a3e
00000020: 8e9e 1a3e 2dd8 3d3e 14d1 4dbe 1a5d 64bc
00000030: bb5c 56be 0907 423e d886 2d3e 5eca 8b3e
00000040: 5c8b 183e 8747 3f3e a3b8 23bd b02d 7d3e
00000050: 4777 31be c722 6d3e 369b 6e3e a18c 343e
00000060: f8d9 903e 1f03 5d3e 324e 863d 00ec b6bd
00000070: 9a14 a7be c563 7e3e dd99 2f3d 135d 9fbd
00000080: b13c a7bc 1841 08bc ef70 a43d d274 abbc
00000090: 37eb 0f3e 481b be3d 585a e33d 09bb 083e
000000a0: 09ab bd3d 2422 983d 4fe2 0bbe cf1a c43b
000000b0: 8542 003b dfd0 9a3d f438 89bd 1790 803d
000000c0: e439 d43d 784c 663d 00cd c93d 8fcf 143c
000000d0: 76a0 da3d efa2 9ebd d523 c43d 8b57 efbc
000000e0: e8b0 073d f63d d6bc 26ea 003e db12 f83b

layers.0.lin.weight f4 [30, 1433]
0.025303498 0.19389392 0.014954138 0.1754449 -0.16954075 0.032576956 0.21319067 -0.13732587
0.12377451 -0.03148547 -0.053770058 0.10619748 -0.11121715 0.13794209 -0.04940681 -0.13204247
-0.11744495 -0.07299323 0.07716066 0.12412589 -0.044338554 -0.028924407 -0.094753765 0.020326683
-0.14828657 -0.20192932 -0.05640924 -0.0008108722 0.097570516 0.044743974 0.071040206 -0.1591269
0.13250792 -0.19127339 0.09644506 -0.09196876 0.115811706 0.14090468 -0.003365471 0.14386319
-0.06333193 -0.07872286 -0.06405287 -0.19260079 0.12045009 -0.07435005 0.041501187 0.119003855
0.032908592 0.115308605 0.13257377 -0.2014902 -0.006938018 0.18312004 -0.045328546 0.182199
0.036297794 0.025988733 -0.16296224 -0.055101875 -0.103256874 0.08256983 0.18779193 0.0044753226
-0.16695394 0.1412201 0.01458186 0.03690649 -0.1704918 -0.18632108 -0.06952023 -0.13558942
-0.07295999 0.11467884 0.16642246 -0.11975326 -0.124334574 -0.13397902 -0.11304784 -0.14578533
-0.11688646 -0.05482891 -0.22191803 0.20405805 -0.11434234 0.10988156 -0.102086544 -0.018185005
-0.07100767 -0.13036796 -0.08480578 -0.1379422 -0.019267527 0.044642054 0.03826939 -0.16970529
0.11622904 -0.103096925 -0.021258332 0.20626573 0.094719976 -0.1149044 0.03260694 0.08109812
-0.050138146 0.16559966 0.23151532 -0.077414565 0.11282035 -0.015184705 0.11028808 0.041737996
0.009366005 0.07781044 -0.15901479 -0.109779164 -0.037467226 0.013403954 0.19005929 -0.084553495
-0.021742085 0.20547713 0.07071997 0.12676603 -0.045435328 -0.12995254 0.14787237 -0.17312913
0.03352415 -0.16301738 0.07104551 0.04018889 0.15078303 -0.027102252 0.09559523 -0.056629658
0.064910546 0.075673 -0.07598658 0.013782392 0.1775242 0.2418171 0.12338931 0.17094241
-0.03343447 -0.0064707077 -0.15101603 -0.04354505 -0.12818733 -0.0751268 -0.13080823 -0.016798666
0.06742432 -0.012931157 0.1366186 0.0026714862 -0.10440313 0.120073855 -0.049214844 -0.06484271
0.13863789 -0.116815 -0.15021485 0.05218784 0.03605045 0.13711375 0.20456864 -0.017909676
-0.12933606 0.0035428768 -0.0878097 0.05314425 0.06043487 -0.027649455 0.06516682 0.0029262525
0.13669583 -0.005562599 -0.16151072 -0.08932265 0.015525416 0.16185494 0.017851027 0.0936722
-0.0456678 -0.06328882 -0.056943502 0.033651665 -0.09551884 -0.019852946 -0.115754396 0.19174315
-0.07103347 0.0012901828 -0.006142385 0.052468143 0.034378942 -0.1698984 -0.05162574 -0.013406739
-0.05544658 -0.03916988 0.18715619 0.12228324 -0.12798549 0.15109044 0.006975086 -0.17121466
-0.1127566 -0.025992189 0.048403308 -0.11234073 -0.06466324 0.19091491 -0.10783779 0.08391906
0.1816616 0.16023079 -0.016501471 0.07338191 0.10827875 0.09408078 -0.026077189 0.1166803
0.089831024 0.16347337 0.16709605 0.2059783 -0.054712456 -0.10550445 -0.0443044 -0.149883
-0.034659695 -0.1041551 -0.019115299 0.15073939 0.13074394 0.09627523 0.102160536 -0.12832995
0.12646921 0.1703037 -0.064868696 -0.15898924 -0.15585145 -0.11688484 -0.14343545 0.13935791
-0.14802457 -0.03459194 0.00097351964 0.09973485 -0.11884081 -0.06264083 0.14320318 0.12212769
00000000: 4849 cf3c 218c 463e 3302 753c d4a7 333e
00000010: 179c 2dbe 6a6f 053d a84e 5a3e 279f 0cbe
00000020: 7e7d fd3d e8f6 00bd fe3d 5cbd 107e d93d
00000030: d1c5 e3bd b140 0d3e cc5e 4abd 2436 07be
00000040: fa86 f0bd 797d 95bd 6806 9e3d b735 fe3d
00000050: 589c 35bd e1f2 ecbc 430e c2bd 2584 a63c
00000060: 6fd8 17be 8fc6 4ebe 600d 67bd b690 54ba
00000070: 0dd3 c73d 7545 373d 877d 913d 29f2 22be
00000080: 28b0 073e 2cdd 43be fd84 c53d 1e5a bcbd
00000090: b02e ed3d 5149 103e 3c8f 5cbb df50 133e
000000a0: 2cb4 81bd 7339 a1bd 272e 83bd 2439 45be
000000b0: 89ae f63d d744 98bd 26fd 293d 4bb8 f33d
000000c0: 29cb 063d eb26 ec3d 6bc1 073e 7253 4ebe
000000d0: 5058 e3bb d283 3b3e 6daa 39bd 6092 3a3e
000000e0: ffac 143d 53e6 d43c 93df 26be 81b2 61bd
000000f0: 5778 d3bd 5f1a a93d 874c 403e baa5 923b
00000100: f9f5 2abe 009c 103e c1e8 6e3c 422b 173d
00000110: 6795 2ebe f4ca 3ebe 9f60 8ebd f4d7 0abe
00000120: 0c6c 95bd bddc ea3d a66a 2a3e 3241 f5bd
00000130: 20a3 febd cc31 09be a085 e7bd c048 15be
00000140: 2b62 efbd 4794 60bd 7b3e 63be 98f4 503e
00000150: 512c eabd 9509 e13d c012 d1bd b8f8 94bc
00000160: 786c 91bd 2e7f 05be a7ae adbd b840 0dbe
00000170: efd6 9dbc 96da 363d 5dc0 1c3d 39c7 2dbe
00000180: 7e09 ee3d 7b24 d3bd f425 aebc 5337 533e
00000190: 8cfc c13d 0053 ebbd db8e 053d c516 a63d
000001a0: a85d 4dbd f592 293e 5a12 6d3e 878b 9ebd
000001b0: 5b0e e73d 45c9 78bc b8de e13d 76f5 2a3d
000001c0: df73 193c 145b 9f3d c6d4 22be e6d3 e0bd
000001d0: 3c77 19bd 429c 5b3c e79e 423e 622a adbd
000001e0: 751c b2bc 9968 523e a2d5 903d f4ce 013e
000001f0: 651a 3abd 4712 05be db6b 173e c348 31be
00000200: 9e50 093d 07ee 26be 4f80 913d 1b9d 243d
00000210: de66 1a3e 8b05 debc 6fc7 c33d 80f4 67bd
00000220: d2ef 843d 72fa 9a3d da9e 9bbd 8bcf 613c
00000230: e7c8 353e e79e 773e 89b3 fc3d 870b 2f3e
00000240: 95f2 08bd 3b08 d4bb f2a3 1abe 4b5c 32bd
00000250: 8a43 03be 14dc 99bd 98f2 05be 5b9d 89bc
00000260: c315 8a3d 34dd 53bc bfe5 0b3e 1a14 2f3b
00000270: 4fd1 d5bd 48e9 f53d 8195 49bd 41cc 84bd
00000280: 17f7 0d3e b43c efbd ecd1 19be ebc2 553d
00000290: a3a9 133d 8c67 0c3e 717a 513e 50b7 92bc
000002a0: ac70 04be 9c2f 683b 92d5 b3bd c9ad 593d
000002b0: 8e8a 773d 1c81 e2bc 2f76 853d 5fc6 3f3b
000002c0: fef9 0b3e 7646 b6bb 1163 25be cbee b6bd
000002d0: 505e 7e3c 4dbd 253e 513c 923c 36d7 bf3d
000002e0: 290e 3bbd 929d 81bd 973d 69bd 54d6 093d
000002f0: 629f c3bd a5a2 a2bc a410 edbd 5158 443e
00000300: ff79 91bd 5a1b a93a 0f46 c9bb d6e8 563d
00000310: efd0 0c3d d9f9 2dbe 8375 53bd f0a7 5bbc
00000320: f41b 63bd 9970 20bd dfa5 3f3e a36f fa3d
00000330: a10e 03be 74b7 1a3e 438f e43b e552 2fbe
00000340: efec e6bd 92ed d4bc 8c42 463d e612 e6bd
00000350: 296e 84bd 337f 433e 0fda dcbd c2dd ab3d
00000360: 8005 3a3e 8a13 243e 182e 87bc 4149 963d
00000370: 40c1 dd3d 6dad c03d d49f d5bc 15f6 ee3d
00000380: 54f9 b73d 9065 273e 3a1b 2b3e faeb 523e
00000390: 2b1a 60bd b812 d8bd 8878 35bd ee7a 19be
000003a0: 53f7 0dbd 454f d5bd b097 9cbc 6d5b 1a3e
000003b0: bde1 053e f32b c53d 8b39 d13d ed68 03be
000003c0: 2581 013e 1864 2e3e e1d9 84bd 13ce 22be
000003d0: 8697 1fbe 5261 efbd bee0 12be d7b3 0e3e
000003e0: c193 17be 47b0 0dbd cc33 7f3a c941 cc3d
000003f0: d062 f3bd d649 80bd dba3 123e 151e fa3d

layers.1.bias f4 [30]
0.09209275 0.0301104 -0.0063085854 0.16906242 0.048232995 0.011663679 0.021141479 0.010450759
-0.0046190103 0.021030352 0.014467374 -0.08487259 0.020031516 0.017478017 0.00031587807 0.15867141
0.0133866565 0.08157917 -0.036392484 0.13588886 0.0026393414 0.12966521 0.012930502 0.012037418
0.02479465 -0.07205418 0.025467597 0.07124271 0.037639305 0.00838413
00000000: 209b bc3d 16aa f63c 40b8 cebb b31e 2d3e
00000010: f68f 453d 0419 3f3c e530 ad3c a939 2b3c
00000020: 115b 97bb d847 ac3c 9108 6d3c aed1 adbd
00000030: 2219 a43c 0f2e 8f3c 709c a539 c27a 223e
00000040: b553 5b3c fb12 a73d 4910 15bd 7326 0b3e
00000050: cdf8 2c3b f5c6 043e 75da 533c 9738 453c
00000060: 261e cb3c 2491 93bd 6ca1 d03c b3e7 913d
00000070: ac2b 1a3d 975d 093c

layers.1.combine_aggr.weight f4 [30, 120]
0.007201232 -0.07478697 0.0038352087 -0.07366513 -0.018883295 0.05703439 -0.07522777 0.07574998
0.037492752 -0.004582353 0.0021523163 0.0023585781 -0.083396316 -0.008054197 -0.071920946 0.03391993
-0.041648895 -0.079894334 -0.06517873 0.08372475 -0.07484019 0.084252015 0.081321865 0.051585674
-0.05550398 0.025302395 -0.02884601 0.03891255 -0.066028364 -0.019345768 0.067820355 -0.034451663
0.040252715 -0.0014822856 -0.026515827 -0.014947623 -0.004740581 -0.045676988 -0.08268972 -0.055413388
-0.077589884 -0.016120158 -0.084220916 0.04026021 0.02645202 0.037531406 -0.059687823 -0.07852331
0.04322079 -0.0032474548 -0.047989797 0.013485514 0.04252954 -0.034497425 -0.047766514 0.087033734
-0.064995 -0.030251924 0.037853554 0.00962723 0.03983517 -0.027770884 0.01929605 0.06317176
-0.091267794 0.06760581 0.06405027 -0.055367768 -0.08201964 0.0027542487 -0.071662754 -0.03906047
0.031646587 0.07566357 0.037717536 -0.03270002 0.0137024075 0.04390891 -0.06789125 -0.038221456
-0.03954325 0.06146407 -0.013697684 -0.036187474 0.002147071 0.027648397 0.05290577 0.05162087
-0.05774169 -0.041840583 0.08353566 0.052754372 0.045350537 0.018072829 0.04230754 -0.05134912
0.061171353 0.034931034 -0.017951675 -0.046957668 0.040928125 0.009288579 0.028262123 -0.013469756
0.060093522 0.033925176 0.06146443 0.079109505 0.061296076 -0.061234973 -0.016894698 -0.006030962
0.009493671 -0.08525285 0.08883105 -0.05370819 -0.06890617 -0.009986557 0.043829635 -0.07013573
-0.028884102 0.016593575 0.086325705 -0.018505387 0.06843948 0.0894025 0.041388333 0.034447283
0.03853531 0.000551492 -0.037884846 -0.086548135 0.03101997 0.07077265 0.00449457 -0.044986475
-0.039730296 0.02565422 0.0007032752 0.064729676 -0.064488545 -0.0030769706 0.08177452 0.07750237
-0.030842494 0.07681656 0.035810158 -0.012979262 -0.015499987 -0.067258015 0.003704153 0.02508191
0.033170976 -0.008960992 0.060809568 0.068554595 -0.06347992 0.024859458 -0.074685514 0.055146515
-0.03811594 -0.053820528 0.0070901588 -0.013628878 0.031012632 -0.054116677 -0.08025573 -0.07099761
0.060552508 -0.07049146 -0.024852991 0.02764976 -0.04197744 -0.02475959 0.051514044 -0.02170214
-0.026517011 0.08384751 -0.031016741 0.04247825 0.02388917 -0.01739519 0.07163139 0.06849618
0.024917133 -0.02409479 0.07694206 -0.035294093 -0.054062527 0.056915298 0.082315445 -0.028008133
-0.04011541 0.090574995 0.0026181862 -0.051430684 -0.009544991 0.01909662 -0.062092878 0.06725718
0.023182638 -0.04251693 -0.018957078 -0.08476969 0.04501894 -0.07413755 -0.063735016 0.08225103
-0.06646326 0.008577503 -0.07320384 0.04491341 0.06432366 -0.025725588 -0.017490104 -0.014529601
0.06207852 -0.0008115247 -0.012763031 0.088570386 -0.06775765 0.00785134 0.06553908 0.015069813
-0.003404975 -0.0017002225 0.007544942 -0.08331646 0.01009272 -0.06577239 -0.07905528 -0.01137083
-0.00703682 0.019104436 -0.05304116 0.008666411 -0.086088784 -0.07988011 -0.044400234 -0.043316055
0.017594658 0.08955678 0.035152018 0.05947891 0.05927874 -0.02801098 0.07032147 0.013254024
0.0661391 0.0856843 0.06811099 -0.090710506 -0.08572337 -0.05417016 0.028154604 -0.012570247
00000000: 50f8 eb3b e929 99bd 2058 7b3b bedd 96bd
00000010: 24b1 9abc e49c 693d 0411 9abd ce22 9b3d
00000020: 0092 193d 9027 96bb e00d 0d3b 6092 1a3b
00000030: b0cb aabd c0f5 03bc 4a4b 93bd a0ef 0a3d
00000040: 0898 2abd a49f a3bd 6d7c 85bd e277 ab3d
00000050: d045 99bd 528c ac3d 148c a63d 804b 533d
00000060: 2458 63bd f846 cf3c 784e ecbc c462 1f3d
00000070: e139 87bd 047b 9ebc 66e5 8a3d 301d 0dbd
00000080: 08e0 243d 4049 c2ba b837 d9bc e0e6 74bc
00000090: e056 9bbb cb17 3bbd 3a59 a9bd 26f9 62bd
000000a0: 72e7 9ebd 6c0e 84bc 047c acbd e4e7 243d
000000b0: e8b1 d83c 88ba 193d 387b 74bd d4d0 a0bd
000000c0: 4808 313d 40d3 54bb f390 44bd 58f2 5c3c
000000d0: 7433 2e3d 2c4d 0dbd d2a6 43bd be3e b23d
000000e0: 191c 85bd e2d2 f7bc 540c 1b3d 88bb 1d3c
000000f0: 342a 233d c47f e3bc c012 9e3c 3260 813d
00000100: 9cea babd ea74 8a3d ca2c 833d 50c9 62bd
00000110: eaf9 a7bd a080 343b ecc3 92bd dffd 1fbd
00000120: da9f 013d 80f5 9a3d b47d 1a3d 75f0 05bd
00000130: 1080 603c d4d9 333d 910a 8bbd 1a8e 1cbd
00000140: 1af8 21bd c0c1 7b3d 406c 60bc 5139 14bd
00000150: e0b5 0c3b e47e e23c b8b3 583d 6870 533d
00000160: 8d82 6cbd 0861 2bbd be14 ab3d f814 583d
00000170: 7cc1 393d 780d 943c ac4a 2d3d 7453 52bd
00000180: d08e 7a3d d813 0f3d 640f 93bc af56 40bd
00000190: 40a4 273d 202f 183c f885 e73c 40b0 5cbc
000001a0: a024 763d 20f5 0a3d 20c2 7b3d 2a04 a23d
000001b0: 9811 7b3d 86d1 7abd c066 8abc 609f c5bb
000001c0: 588b 1b3c 0c99 aebd 0eed b53d 1efd 5bbd
000001d0: ae1e 8dbd a89e 23bc b486 333d 52a3 8fbd
000001e0: 5a9e ecbc 40ef 873c 88cb b03d 9c98 97bc
000001f0: 002a 8c3d a818 b73d d086 293d 9818 0d3d
00000200: 34d7 1d3d 0092 103a 242d 1bbd 2640 b1bd
00000210: 981d fe3c 40f1 903d 3047 933b bd43 38bd
00000220: 3cbc 22bd cc28 d23c 005c 383a fe90 843d
00000230: 9212 84bd 00a7 49bb 6679 a73d 90b9 9e3d
00000240: 66a9 fcbc 0052 9d3d acad 123d f8a6 54bc
00000250: a8f3 7dbc 92be 89bd 60c1 723b 9478 cd3c
00000260: 4ade 073d 20d1 12bc 7413 793d 5a66 8c3d
00000270: c301 82bd 10a6 cb3c b8f4 98bd 50e1 613d
00000280: 761f 1cbd ea72 5cbd 9054 e83b a84b 5fbc
00000290: 340e fe3c 73a9 5dbd 1e5d a4bd 3267 91bd
000002a0: e805 783d d45d 90bd 8098 cbbc c081 e23c
000002b0: 89f0 2bbd a0d4 cabc 6400 533d b0c8 b1bc
000002c0: 343a d9bc 3eb8 ab3d d216 febc acfd 2d3d
000002d0: 38b3 c33c 5c80 8ebc 7ab3 923d ba47 8c3d
000002e0: 041f cc3c 7062 c5bc cc93 9d3d 8a90 10bd
000002f0: ab70 5dbd 0420 693d 0095 a83d 5071 e5bc
00000300: 0e50 24bd 627f b93d e095 2b3b fba8 52bd
00000310: 9862 1cbc 8470 9c3c 1a55 7ebd 22be 893d
00000320: 84e9 bd3c 3b26 2ebd e04b 9bbc bb9b adbd
00000330: c865 383d 6ed5 97bd 8187 82bd 3a73 a83d
00000340: e41d 88bd a888 0c3c e5eb 95bd 20f7 373d
00000350: 20bc 833d 78be d2bc 6847 8fbc 900d 6ebc
00000360: 0c46 7e3d 80bc 54ba 081c 51bc 6464 b53d
00000370: 86c4 8abd e8a2 003c 5a39 863d 60e7 763c
00000380: 0026 5fbb 00da deba 903b f73b d2a1 aabd
00000390: f05b 253c adb3 86bd bce7 a1bd b84c 3abc
000003a0: 2095 e6bb e880 9c3c b041 59bd 90fd 0d3c
000003b0: 514f b0bd 2f98 a3bd 05dd 35bd 2d6c 31bd
000003c0: ac22 903c 8c69 b73d 90fb 0f3d 28a0 733d
000003d0: 44ce 723d 4877 e5bc b404 903d 6827 593c
000003e0: f073 873d 407b af3d c67d 8b3d 6ec6 b9bd
000003f0: bc8f afbd 88e1 5dbd 7ca4 e63c 70f3 4dbc

layers.1.lin_a.weight f4 [1, 60]
0.11498638 0.065462664 0.14079653 -0.024816802 0.25008553 0.23568025 0.121817365 0.16152048
0.122753106 0.14362535 0.050819658 0.3294932 0.09054783 0.16707298 0.29433644 -0.11878366
0.11776255 0.15865374 0.11833466 0.26659727 0.21232104 0.09155416 0.32587904 0.32328242
0.15599398 0.2495615 0.103171855 0.26697883 -0.007265891 0.20863204 0.021298727 0.093210466
0.07055673 0.050991345 -0.03624597 -0.0345174 0.139747 0.082650736 -0.086616784 -0.04183364
-0.027282428 -0.060580824 -0.046222728 0.118846305 -0.045898497 -0.06607491 0.14102499 -0.08080112
-0.03783228 0.0068366015 -0.062477455 -0.03147537 0.046728242 0.002484812 0.06407569 -0.08314092
0.1472547 -0.0067147766 -0.041861624 0.052520115
00000000: fb7d eb3d 4a11 863d f72c 103e 9b4c cbbc
00000010: 360b 803e 2a56 713e 627b f93d a065 253e
00000020: fb65 fb3d 8612 133e 4628 503d 55b3 a83e
00000030: 2471 b93d 2e15 2b3e 44b3 963e d944 f3bd
00000040: 7e2d f13d 2076 223e 7159 f23d 707f 883e
00000050: b06a 593e bf80 bb3d 9ed9 a63e 4685 a53e
00000060: e3bc 1f3e 0d8d 7f3e c44b d33d 73b1 883e
00000070: b616 eebb a3a3 553e ab7a ae3c 21e5 be3d
00000080: 0c80 903d 4ddc 503d a776 14bd 1e62 0dbd
00000090: d619 0f3e ca44 a93d 2464 b1bd c059 2bbd
000000a0: 667f dfbc 9923 78bd 0b54 3dbd b165 f33d
000000b0: 1000 3cbd 4852 87bd db68 103e 0f7b a5bd
000000c0: 05f6 1abd 9205 e03b 5ce8 7fbd 51ec 00bd
000000d0: 1d66 3f3d 3ad8 223b 1e3a 833d c945 aabd
000000e0: f0c9 163e a107 dcbb 1877 2bbd 551f 573d

layers.1.lin.weight f4 [30, 30]
-0.38415492 0.33016998 -0.2465037 0.3841838 -0.18468054 0.07182437 0.16363974 0.07243513
-0.13375372 0.0382999 0.13290788 0.049770437 0.29250273 0.2920699 0.3905204 0.10978377
-0.13614354 0.30130395 -0.15700613 -0.27846745 -0.21615012 0.16528155 0.24712972 -0.23014715
-0.23220935 0.12403608 0.25664985 -0.2473027 -0.2791584 0.41617775 -0.14445597 0.15188394
0.048953146 0.002890699 0.2961882 0.22934574 0.27419394 -0.34952408 0.0019821965 0.036295664
0.21356614 -0.15188049 0.05707623 0.1786748 0.3333105 0.16617453 0.132012 0.081025526
0.36102664 -0.32327068 0.098509885 0.11927806 0.15025431 -0.116976805 0.02004131 -0.28126693
0.072479986 0.024964433 -0.0071959756 -0.065280154 0.3464921 -0.07398992 0.26960328 0.16115433
0.19765863 0.15380989 -0.22451036 0.061974943 0.20803161 -0.17255718 -0.26891783 0.19474012
0.06383051 0.21214153 0.11002109 0.30316043 0.2703356 0.19600847 0.26951224 0.05563356
0.25820923 -0.21399052 0.30767328 0.39825556 0.13097663 0.34222555 -0.1837714 0.035680547
0.2515381 -0.04853282 -0.18738537 0.17600432 -0.25454202 0.32566488 0.072409175 0.380917
-0.020944336 0.3163387 -0.3677699 -0.18309517 -0.10237855 0.18129538 0.2790371 -0.28162333
0.26963386 0.23422652 0.055334948 0.22007343 0.1215906 -0.05317153 -0.068431765 -0.35753477
0.276465 -0.37367588 -0.35233343 0.3491616 0.026383404 -0.109791525 0.02788895 0.4317579
-0.042310726 -0.0018656603 0.35737228 0.34677622 0.2731852 0.29587883 0.290345 0.04283986
0.274069 0.24565132 -0.33774364 0.1575067 -0.06412444 0.12506849 0.26257843 0.25526685
0.31997135 0.19954403 0.36393562 0.33260155 0.31099397 0.37029058 0.1809096 0.18535614
0.33088055 -0.31605476 -0.30532563 0.1972731 0.16252196 -0.21815655 0.07746957 0.36984828
0.03446643 0.30436835 0.11181641 0.3604036 0.23463604 -0.042171117 0.21430139 0.24477898
0.007093802 0.032759257 -0.39450657 0.33076727 0.17310733 0.024055548 -0.05393886 0.34719256
0.008715921 -0.322718 -0.09991413 0.2788364 0.14819352 -0.09927217 -0.08487005 -0.1582772
0.21819286 -0.07048858 -0.01129862 -0.2051921 0.31047288 -0.0038925135 0.36585632 0.1978617
0.23258008 0.05794101 0.2661559 -0.28619683 -0.0023098374 0.32607296 -0.29500592 0.06544486
-0.22114325 0.28050438 -0.015540772 0.2306193 0.26116076 0.013575819 0.120923124 -0.29669982
0.27022046 0.043029528 0.16646557 0.04203188 0.11049647 0.021075353 -0.25588846 0.045031533
0.2517236 -0.27383396 0.22071847 0.09671786 0.19873111 0.30192533 -0.19031718 0.32378823
0.066677496 -0.24044889 0.30029052 0.3155699 -0.09500823 0.21833092 -0.32065693 0.14160816
0.26215488 0.27473047 0.1472707 0.32401067 0.02180322 -0.3657645 0.15554658 -0.036784682
0.18486464 0.032979876 0.024962477 -0.0076095127 0.068298884 0.0090731885 0.19693068 -0.26407582
0.25933492 0.32478178 -0.105365165 0.18138906 -0.18347016 0.14756912 0.2109905 -0.24413219
0.2580987 0.14330406 0.26199606 0.27479216 -0.30061403 0.37225193 0.04940458 0.06282547
00000000: f4af c4be 0a0c a93e 776b 7cbe bdb3 c43e
00000010: e51c 3dbe a818 933d 2d91 273e df58 943d
00000020: bcf6 08be 5be0 1c3d 0119 083e 16dc 4b3d
00000030: ebc2 953e 308a 953e 4af2 c73e 50d6 e03d
00000040: 3669 0bbe 8344 9a3e 37c6 20be 4993 8ebe
00000050: 7556 5dbe 913f 293e 930f 7d3e b2ab 6bbe
00000060: 4ac8 6dbe a106 fe3d 9c67 833e eb3c 7dbe
00000070: daed 8ebe 4015 d53e 44ec 13be 7787 1b3e
00000080: 1883 483d e271 3d3b fba5 973e 9cd9 6a3e
00000090: 2663 8c3e d2f4 b2be bde7 013b c3aa 143d
000000a0: 15b1 5a3e 8f86 1bbe c4c8 693d 87f6 363e
000000b0: ada7 aa3e a829 2a3e 272e 073e b6f0 a53d
000000c0: 7cd8 b83e bc83 a5be 8dbf c93d 0e48 f43d
000000d0: 44dc 193e 8991 efbd ac2d a43c 3802 90be
000000e0: 6370 943d 3682 cc3c 38cc ebbb 9ab1 85bd
000000f0: 6a67 b13e 0788 97bd 7109 8a3e a405 253e
00000100: 0667 4a3e 5780 1d3e 0be6 65be 70d9 7d3d
00000110: 3d06 553e d4b2 30be 99af 89be f469 473e
00000120: 92b9 823d a13b 593e bd52 e13d d837 9b3e
00000130: 6e69 8a3e 72b6 483e 82fd 893e 04e0 633d
00000140: 0034 843e 5520 5bbe 5a87 9d3e 27e8 cb3e
00000150: bd1e 063e 3038 af3e 922e 3cbe c425 123d
00000160: 9ac9 803e 5aca 46bd f3e1 3fbe 7a3a 343e
00000170: 5553 82be 8cbd a63e 434b 943d 8e07 c33e
00000180: 7593 abbc 25f7 a13e 564c bcbe 4d7d 3bbe
00000190: d8ab d1bd 7fa5 393e f3dd 8e3e ef30 90be
000001a0: 730d 8a3e 14d9 6f3e e6a6 623d ee5a 613e
000001b0: 7e04 f93d 64ca 59bd f425 8cbd cc0e b7be
000001c0: d28c 8d3e 7252 bfbe 0c65 b4be 4fc5 b23e
000001d0: 0222 d83c 61da e0bd 5e77 e43c 5f0f dd3e
000001e0: 034e 2dbd 2c89 f4ba 80f9 b63e a78c b13e
000001f0: eede 8b3e 6e7d 973e 1aa8 943e d978 2f3d
00000200: c652 8c3e 058c 7b3e bcec acbe 7049 213e
00000210: ad53 83bd f411 003e ae70 863e 56b2 823e
00000220: 49d3 a33e 4555 4c3e c555 ba3e c04a aa3e
00000230: 9a3a 9f3e ba96 bd3e 5e40 393e 00ce 3d3e
00000240: 2d69 a93e eed1 a1be a453 9cbe f601 4a3e
00000250: 286c 263e 6e64 5fbe 5ea8 9e3d c15c bd3e
00000260: ac2c 0d3d 2bd6 9b3e 0100 e53d d286 b83e
00000270: 6e44 703e 9fbb 2cbd d371 5b3e 57a7 7a3e
00000280: 2073 e83b 922e 063d c4fc c9be 545a a93e
00000290: 0c43 313e 2410 c53c feee 5cbd 39c3 b13e
000002a0: 39cd 0e3c 4b3b a5be c89f ccbd a5c3 8e3e
000002b0: 0bc0 173e 354f cbbd 59d0 adbd 6b13 22be
000002c0: f36d 5f3e 515c 90bd d91d 39bc e11d 52be
000002d0: 4df6 9e3e 8a19 7fbb 8551 bb3e 429c 4a3e
000002e0: 7929 6e3e 8d53 6d3d 9645 883e 6488 92be
000002f0: a460 17bb 09f3 a63e 040b 97be f407 863d
00000300: 6073 62be 459e 8f3e b99e 7ebc 7727 6c3e
00000310: ddb6 853e 1d6d 5e3c 8ba6 f73d 0ae9 97be
00000320: 565a 8a3e bb3f 303d f375 2a3e 9f29 2c3d
00000330: f94b e23d 38a6 ac3c d003 83be fc72 383d
00000340: eae1 803e f733 8cbe 0604 623e 0314 c63d
00000350: 2b80 4b3e f595 9a3e 82e2 42be 92c7 a53e
00000360: 368e 883d 3c38 76be aebf 993e 6192 a13e
00000370: ad93 c2bd 2492 5f3e 252d a4be bb01 113e
00000380: 2a39 863e 79a9 8c3e 21ce 163e bae4 a53e
00000390: ab9c b23c 7c45 bbbe 9a47 1f3e 89ab 16bd
000003a0: 284d 3d3e e815 073d 1c7e cc3c 3859 f9bb
000003b0: 49e0 8b3d b6a7 143c 32a8 493e f234 87be
000003c0: 8cc7 843e cc49 a63e b1c9 d7bd 0ebe 393e
000003d0: 9adf 3bbe 5c1c 173e e50d 583e cafd 79be
000003e0: 8325 843e 4dbe 123e 5924 863e 8fb1 8c3e
000003f0: 15ea 99be ce97 be3e 755c 4a3d a4aa 803d

linear.weight f4 [7, 30]
0.40757412 -0.02502421 -0.057174873 0.39412048 -0.2854288 0.14216392 -0.21310322 0.119037755
0.14784722 0.088276215 -0.046778023 0.0868999 0.073717736 -0.26847672 -0.13839725 -0.29448223
-0.29719767 -0.3751379 0.3486005 -0.38511685 -0.14081608 0.1458897 -0.11997224 0.1575733
-0.3167132 0.20171908 -0.055600177 0.20871043 0.33985072 0.08352442 -0.05686048 -0.19611813
0.19522026 0.19729525 0.17029163 0.0038715526 -0.048043422 -0.037358083 -0.17767532 -0.24036984
-0.1465041 -0.23468478 0.12490944 0.19767089 -0.114360705 0.10008633 0.070857935 -0.12842977
-0.24586281 -0.18708944 -0.13989438 -0.094494596 0.18173775 0.11720916 -0.05004847 0.16126741
-0.21969864 0.021567754 -0.00037603197 0.05529313 -0.37225887 -0.26275632 0.29833186 -0.24496453
-0.19508645 -0.07954298 0.052956313 0.12609789 0.19308913 0.18785666 -0.12784937 0.3738149
-0.12399939 0.26060292 -0.39101064 -0.091208085 0.22328138 -0.29351178 0.09686564 -0.29999855
-0.19735776 0.11826546 0.094243445 -0.3739949 0.34028298 0.24323453 -0.01522021 -0.24014305
-0.26564786 0.2621274 -0.27163023 0.27673128 0.103627264 -0.1633785 0.18775801 0.20053144
0.27571574 0.24445435 0.049734507 0.28864112 0.18254988 -0.18109272 0.3254132 0.24299243
0.072563455 -0.4153152 0.2686408 0.013256893 -0.07087436 -0.13318305 0.013295816 -0.3684364
0.075297 -0.060079206 0.048734672 -0.23749751 0.21526 -0.36426547 -0.19517444 0.109625265
0.25906637 0.23772986 -0.3193361 -0.15319493 -0.3336071 0.30375612 -0.10878661 0.20028324
0.18661161 -0.2819249 0.28411636 -0.23886825 0.38391584 -0.2647995 0.28866452 -0.41034326
0.2666389 -0.19428585 -0.093817964 -0.11174313 0.36597973 -0.2463408 -0.3661751 0.2280517
-0.33511433 -0.34555054 -0.051787365 0.34057096 0.3593816 -0.25560626 -0.12374426 0.11984107
-0.060826924 -0.36014244 0.050976153 -0.18124546 -0.36079147 -0.28344557 -0.09128111 -0.31371066
0.07676267 0.028855484 -0.120720856 -0.32260424 -0.33358392 0.31350413 0.04706996 0.34999096
-0.18192783 0.31359008 -0.08822962 0.097684085 0.09615951 -0.13712879 -0.12665816 -0.36771664
0.13344309 0.3974498 -0.23936163 -0.2834679 0.050280068 -0.089526 -0.09015816 0.28840402
-0.22488071 -0.24098486 0.06176905 -0.24675529 -0.008165259 -0.14873818 -0.27569902 0.06353177
-0.26076669 -0.03907287 -0.260038 0.094172284 -0.14020322 -0.08824475 -0.05173916 0.29267424
-0.1712909 0.40032423 0.058475796 -0.27563065 0.17166232 -0.26358297 -0.04291212 -0.05224443
-0.111466914 -0.10985178
00000000: 8ead d03e 92ff ccbc 3330 6abd 29ca c93e
00000010: b923 92be 6b93 113e bb37 5abe 11ca f33d
00000020: 4365 173e 29ca b43d 509a 3fbd 93f8 b13d
00000030: 53f9 963d c875 89be 02b8 0dbe 60c6 96be
00000040: 4b2a 98be 1312 c0be c47b b23e 092e c5be
00000050: 1732 10be 1c64 153e 01b4 f5bd e55a 213e
00000060: 3c28 a2be 728f 4e3e 03bd 63bd 30b8 553e
00000070: ea00 ae3e da0e ab3d 89e6 68bd 31d3 48be
00000080: d2e7 473e c407 4a3e ee60 2e3e e0b9 7d3b
00000090: 2ec9 44bd ca04 19bd 85f0 35be 8323 76be
000000a0: 2c05 16be 3551 70be 85d0 ff3d 3d6a 4a3e
000000b0: f235 eabd 10fa cc3d f71d 913d 1883 03be
000000c0: 76c3 7bbe 6094 3fbe 7940 0fbe 6286 c1bd
000000d0: 7619 3a3e 5b0b f03d a0ff 4cbd 4923 253e
000000e0: aef8 60be dcae b03c 2826 c5b9 0d7b 623d
000000f0: b798 bebe ff87 86be f4be 983e fbd7 7abe
00000100: bec4 47be 6ee7 a2bd b8e8 583d ce1f 013e
00000110: 28b9 453e 7f5d 403e f2ea 02be ab64 bf3e
00000120: 64f3 fdbd bf6d 853e 8c32 c8be 4ecb babd
00000130: e0a3 643e 2d47 96be 7e61 c63d 6999 99be
00000140: 2718 4abe 2935 f23d b502 c13d 427c bfbe
00000150: 9239 ae3e 7912 793e 305e 79bc 0fe8 75be
00000160: ff02 88be 9035 863e 1e13 8bbe b9af 8d3e
00000170: 883a d43d b24c 27be a343 403e 1d58 4d3e
00000180: 9d2a 8d3e 3e52 7a3e 69b6 4b3d c5c8 933e
00000190: 5bee 3a3e 5f70 39be 8f9c a63e 02d3 783e
000001a0: 269c 943d 32a4 d4be 498b 893e 7033 593c
000001b0: 9426 91bd 2361 08be b2d6 593c b2a3 bcbe
000001c0: 5035 9a3d 9d15 76bd 029e 473d 8c32 73be
000001d0: 1e6d 5c3e 0181 babe cfdb 47be 3683 e03d
000001e0: 59a4 843e 756f 733e 0580 a3be 22df 1cbe
000001f0: 8dce aabe ec85 9b3e 84cb debd 0d17 4d3e
00000200: 1d17 3f3e 7658 90be b377 913e e199 74be
00000210: 9e90 c43e cd93 87be d6cb 933e 8318 d2be
00000220: e584 883e dff2 46be a223 c0bd 95d9 e4bd
00000230: b261 bb3e c340 7cbe 4d7b bbbe 6386 693e
00000240: 1b94 abbe 00ec b0be fd1e 54bd 515f ae3e
00000250: dd00 b83e d3de 82be a16d fdbd 3c6f f53d
00000260: a725 79bd 9764 b8be 5fcc 503d 6998 39be
00000270: a9b9 b8be c71f 91be 97f1 babd af9e a0be
00000280: bf35 9d3d 5662 ec3c 7f3c f7bd 622c a5be
00000290: 83cb aabe 9d83 a03e 6ecc 403d 0432 b33e
000002a0: 4a4b 3abe e18e a03e bbb1 b4bd 980e c83d
000002b0: 47ef c43d 7d6b 0cbe adb2 01be 5b45 bcbe
000002c0: 4ea5 083e 8a7e cb3e 371b 75be b422 91be
000002d0: 79f2 4d3d 6859 b7bd d7a4 b8bd b1a9 933e
000002e0: 2147 66be bcc4 76be 8b01 7d3d 6bad 7cbe
000002f0: 94c7 05bc d24e 18be 6c28 8dbe f21c 823d
00000300: 3683 85be e00a 20bd b323 85be 66dd c03d
00000310: 6f91 0fbe aab9 b4bd 71ec 53bd 66d9 953e
00000320: e266 2fbe 4cf7 cc3e 5184 6f3d 761f 8dbe
00000330: 3fc8 2f3e 59f4 86be 9fc4 2fbd 41fe 55bd
00000340: c448 e4bd f8f9 e0bd

linear.bias f4 [7]
0.06717349 0.04683438 -0.1822176 -0.1347825 -0.02500523 0.031747866 -0.029632257
00000000: 4192 893d 68d5 3f3d 4097 3abe 6c04 0abe
00000010: c5d7 ccbc 0d0a 023d 59bf f2bc
