experiments/output-gat/Tree_Cycle/mean/42/model.pth (torch, 150205 bytes, 14 tensors)

layers.0.bias f4 [50]
-0.4850604 0.0 0.0 0.0 0.0 0.0 0.0 0.0
0.0 -0.47182348 -0.29390037 0.0 0.0 0.0 -0.451922 0.0
-0.49012804 0.0 0.0 -0.3874144 -0.0059993914 0.0 0.0 0.0
-0.46967816 -0.01619846 -0.34943095 0.0 0.0 0.0 0.0 -0.013253232
-0.48464325 0.0 0.0 -0.009468736 -0.4758855 0.0 -0.4809915 -0.5213702
-0.43550986 0.0 0.0 -0.4351241 -0.42467916 -0.25702342 -0.48301548 0.0
0.0 -0.36574185
00000000: d659 f8be 0000 0000 0000 0000 0000 0000
00000010: 0000 0000 0000 0000 0000 0000 0000 0000
00000020: 0000 0000 d992 f1be 1c7a 96be 0000 0000
00000030: 0000 0000 0000 0000 5262 e7be 0000 0000
00000040: 10f2 fabe 0000 0000 0000 0000 2e5b c6be
00000050: 8b96 c4bb 0000 0000 0000 0000 0000 0000
00000060: a879 f0be a2b2 84bc 9de8 b2be 0000 0000
00000070: 0000 0000 0000 0000 0000 0000 1624 59bc
00000080: 2923 f8be 0000 0000 0000 0000 c222 1bbc
00000090: 44a7 f3be 0000 0000 8544 f6be 8478 05bf
000000a0: 26fb debe 0000 0000 0000 0000 96c8 debe
000000b0: 8c6f d9be 9398 83be ce4d f7be 0000 0000
000000c0: 0000 0000 8442 bbbe

layers.0.combine_aggr.weight f4 [50, 200]
0.05406104 0.05869042 -0.016565565 0.06495563 -0.015492965 0.014268756 -0.03442585 0.04152716
0.0623345 -0.051875345 0.061461456 0.013234161 0.052241676 0.009576388 0.034095846 -0.009983711
0.054509856 0.010451667 -0.03301057 0.018024035 -0.032579 -0.008292444 -0.02871973 0.04690741
-0.055816904 -0.032598354 -0.019966912 -0.042516388 0.006673895 -0.06983946 0.063859455 -0.060066476
0.054590575 0.011767611 -0.022960078 0.043695666 0.011020318 0.05713164 0.007730067 -0.02230025
0.01899881 -0.019175284 0.029759124 0.063132055 0.040874988 -0.030912768 0.04081878 0.012651995
0.035909362 -0.043098517 -0.0699971 -0.027319815 -0.05423671 0.058020867 0.020366892 0.02928932
0.022363044 -0.0012300834 0.055338763 -0.0502409 0.004452206 -0.04826288 0.021803781 -0.024351507
0.021666907 -0.01473197 0.058646865 -0.041910358 -0.04217171 -0.042174254 0.06360022 0.023564413
0.06804141 -0.058355846 -0.070136234 -0.055321477 -0.047566302 0.028640665 0.025319785 0.058755226
-0.03651679 -0.048204303 0.03751754 -0.028581575 0.042916 -0.016779691 0.040449753 -0.054939937
-0.035684127 0.021558024 0.01494877 -0.018028308 0.04214848 0.048069775 -0.051277503 -0.037750185
0.06474707 -0.023860082 -0.025068097 -0.06841928 -0.0404939 0.017663784 -0.009333327 -0.05132789
0.0016586408 -0.04830116 -0.059990704 -0.03893773 -0.061886843 -0.045024183 0.070683025 0.013355479
0.021790184 -0.065950744 -0.04644092 -0.023536462 0.011057109 -0.062219836 -0.030467328 -0.04233226
0.00019595772 -0.026311673 -0.004899949 -0.04791566 -0.04853547 -0.04125274 -0.024204087 -0.05581059
0.059288777 -0.014033526 0.060839243 0.022032179 -0.059877593 0.04893428 -0.019455679 -0.027105246
-0.05869485 -0.07029778 0.020231076 -0.015446316 0.0275293 -0.058029674 0.05249767 -0.05190544
-0.012209851 0.014769316 0.036504515 0.057085462 0.06441455 -0.056068063 0.017795563 -0.0304145
-0.00774882 -0.052926242 0.06440743 -0.05189814 0.03779141 0.024850532 0.022977859 -0.03822946
0.064272575 0.0155387 0.009096228 -0.062314127 0.02968353 -0.010608058 -0.03239428 0.060736693
0.015764862 -0.03912255 -0.035789426 -0.0033768415 0.03948211 -0.01806897 -0.040345736 -0.024214368
-0.052826174 0.025217727 0.05473291 -0.06656989 0.016422607 0.036528558 0.01282192 -0.025181815
0.036906883 0.0371594 0.02644065 -0.012425382 -0.018724278 0.0075646937 -0.0124913305 -0.021071859
0.045198753 0.06076873 -0.0070001706 -0.015831899 0.0010318309 -0.004222013 0.016999647 0.019815512
-0.06422345 -0.02609491 0.05954755 0.027545698 -0.0035169795 -0.042631876 -0.043261155 -0.063340284
-0.023049027 0.02387929 0.04508666 0.03264693 -0.062504284 -0.04252275 -0.011159323 0.06840194
0.010228828 -0.018311996 0.029254086 -0.026932392 -0.04576789 0.051610827 -0.032152273 -0.014175139
-0.070343286 0.047324583 0.053572863 0.025770381 -0.049304735 -0.0697872 -0.057429727 0.052728973
0.033948608 0.059503354 0.0370432 0.017896317 -0.0006924495 -0.0537759 -0.060582943 -0.06613914
0.028946266 -0.03471668 -0.014230706 -0.04069437 -0.012885153 -0.049768645 -0.046203468 0.0234555
-0.021014959 0.043652758 -0.022684608 -0.05187104 -0.012476116 -0.03427682 -0.021633338 -0.06731626
00000000: 1c6f 5d3d 5e65 703d 82b4 87bc 7507 853d
00000010: 34d6 7dbc 80c7 693c 1f02 0dbd 6218 2a3d
00000020: 7652 7f3d 3e7b 54bd 02bf 7b3d 18d4 583c
00000030: 5efb 553d 48e6 1c3c 16a8 0b3d b892 23bc
00000040: ba45 5f3d 783d 2b3c 1736 07bd 24a7 933c
00000050: 8f71 05bd 08dd 07bc a445 ebbc fc21 403d
00000060: 44a0 64bd da85 05bd a691 a3bc aa25 2ebd
00000070: b0b0 da3b fe07 8fbd bfc8 823d 4408 76bd
00000080: 5e9a 5f3d f0cc 403c c616 bcbc 3afa 323d
00000090: 908e 343c de02 6a3d 804c fd3b 04af b6bc
000000a0: 64a3 9b3c 7c15 9dbc 68c9 f33c 614b 813d
000000b0: 886c 273d c63c fdbc 9831 273d 504a 4f3c
000000c0: b215 133d 1288 30bd a45a 8fbd cecd dfbc
000000d0: 5027 5ebd 4aa7 6d3d 78d8 a63c 28f0 ef3c
000000e0: b432 b73c c03a a1ba e6aa 623d 67c9 4dbd
000000f0: d0e3 913b 4caf 45bd d89d b23c d07c c7bc
00000100: cc7e b13c 5c5e 71bc b237 703d 32aa 2bbd
00000110: 3ebc 2cbd e9be 2cbd d540 823d 280a c13c
00000120: 4b59 8b3d 8a06 6fbd 96a3 8fbd c698 62bd
00000130: e2d4 42bd d49f ea3c 706b cf3c 52a9 703d
00000140: a192 15bd e071 45bd feab 193d e823 eabc
00000150: b0c8 2f3d 9075 89bc a4ae 253d b308 61bd
00000160: 8529 12bd 749a b03c b0eb 743c 1ab0 93bc
00000170: e2a3 2c3d d0e4 443d 5c08 52bd f09f 1abd
00000180: 1d9a 843d 3876 c3bc 9c5b cdbc 681f 8cbd
00000190: efdc 25bd a4b3 903c d0ea 18bc 323d 52bd
000001a0: c066 d93a 70d7 45bd d0b8 75bd 2b7d 1fbd
000001b0: 0f7d 7dbd 476b 38bd 43c2 903d f0d0 5a3c
000001c0: 5481 b23c 2f11 87bd d638 3ebd 8acf c0bc
000001d0: e028 353c 3ada 7ebd 9e96 f9bc 9864 2dbd
000001e0: 007a 4d39 948b d7bc c08f a0bb 3643 44bd
000001f0: 21cd 46bd a2f8 28bd a647 c6bc a599 64bd
00000200: cad8 723d e0ec 65bc 9232 793d d47c b43c
00000210: 3542 75bd 506f 483d 8461 9fbc d20b debc
00000220: 036a 70bd 48f8 8fbd a4bb a53c 8c12 7dbc
00000230: 2085 e13c 86b0 6dbd cc07 573d cc9a 54bd
00000240: d40b 48bc 00fb 713c c285 153d 72d2 693d
00000250: c7eb 833d a0a7 65bd 00c8 913c d427 f9bc
00000260: d0e9 fdbb 30c9 58bd 0be8 833d 2593 54bd
00000270: 2acb 1a3d 5893 cb3c 103c bc3c 7f96 1cbd
00000280: 57a1 833d 0896 7e3c 5808 153c 193d 7fbd
00000290: e02a f33c 6ccd 2dbc ddaf 04bd 0ac7 783d
000002a0: 5025 813c f83e 20bd ef97 12bd 004e 5dbb
000002b0: feb7 213d 6005 94bc 9241 25bd 365d c6bc
000002c0: 4260 58bd 6895 ce3c 9e2f 603d cb55 88bd
000002d0: b488 863c f89e 153d 0813 523c 184a cebc
000002e0: ac2b 173d 7434 183d 109a d83c d493 4bbc
000002f0: a863 99bc 40e1 f73b 70a8 4cbc e49e acbc
00000300: 5422 393d a2e8 783d b061 e5bb e6b1 81bc
00000310: 803e 873a d058 8abb d842 8b3c 2454 a23c
00000320: 9687 83bd fec4 d5bc 22e8 733d 84a7 e13c
00000330: 207d 66bb c39e 2ebd 9c32 31bd 8db8 81bd
00000340: 50d1 bcbc 809e c33c caac 383d cab8 053d
00000350: 3f02 80bd 562c 2ebd 98d5 36bc 5116 8c3d
00000360: d096 273c 0a03 96bc 44a6 ef3c 52a1 dcbc
00000370: 1c77 3bbd e065 533d 1ab2 03bd d83e 68bc
00000380: 2410 90bd 6cd7 413d 386f 5b3d 681c d33c
00000390: c3f3 49bd 97ec 8ebd 6f3b 6bbd 56fa 573d
000003a0: b20d 0b3d cab9 733d 9cba 173d 4c9b 923c
000003b0: 8085 35ba 1e44 5cbd d225 78bd f573 87bd
000003c0: b820 ed3c 1433 0ebd e827 69bc 24af 26bd
000003d0: 401c 53bc 35da 4bbd d93f 3dbd c025 c03c
000003e0: 9027 acbc 3ccd 323d 12d5 b9bc ba76 54bd
000003f0: a068 4cbc da65 0cbd 6638 b1bc 1bdd 89bd

layers.0.lin_a.weight f4 [1, 100]
0.054138787 -0.083105765 -0.060094383 -0.05853921 0.052826487 -0.003332302 -0.091775455 0.09807228
0.026063852 0.091974504 0.012482956 0.014335297 0.07208002 -0.06803429 0.09443886 -0.06431804
0.00906384 -0.06503737 -0.06625749 0.07696993 -0.026411518 -0.018767498 0.07813137 0.09796967
-0.09019428 -0.0017455071 0.02855546 0.0960129 -0.03986707 -0.03254465 -0.05861187 0.025551148
0.024663016 -0.0015769154 -0.010142282 -0.06961832 -0.04107349 -0.038032092 0.026267327 0.044160195
0.0466853 -0.07633214 -0.0077083334 -0.01908429 0.099749915 0.07216174 -0.07464584 -0.05494679
-0.075541556 -0.025027022 -0.08749568 0.04699848 -0.04410118 -0.050188817 0.004726127 -0.0319518
0.07554466 0.09064808 -0.08928662 0.044835694 0.0020865998 0.052486785 -0.03748949 -0.007571414
-0.0018705904 0.034287713 0.04985965 0.03900043 0.01227279 -0.07977484 -0.057445038 -0.056969214
-0.099655665 0.095790006 -0.045274317 -0.06646937 -0.04528575 0.054297097 -0.06268767 -0.083556995
-0.0747427 0.021976575 -0.004091248 -0.09022516 -0.06840354 -0.086662345 0.0343054 0.04525464
0.017034128 -0.03203821 -0.05357821 0.03953413 -0.02296362 -0.016052231 -0.0327819 0.017379679
0.023457453 0.0821609 0.088809825 -0.025772437
00000000: a2c0 5d3d 5b33 aabd 8725 76bd d0c6 6fbd
00000010: 9660 583d c062 5abb c5f4 bbbd 1fda c83d
00000020: dc83 d53c 215d bc3d 5085 4c3c 98de 6a3c
00000030: b19e 933d 9055 8bbd 2969 c13d 2db9 83bd
00000040: 8080 143c 5032 85bd 02b2 87bd 69a2 9d3d
00000050: f85c d8bc 4cbe 99bc 5703 a03d 53a4 c83d
00000060: c7b7 b8bd 80c9 e4ba 24ed e93c 69a2 c43d
00000070: a74b 23bd 8a4d 05bd 0013 70bd a450 d13c
00000080: 180a ca3c 80b0 ceba d02b 26bc 0d94 8ebd
00000090: ad3c 28bd 8ac7 1bbd 942e d73c 52e1 343d
000000a0: 1639 3f3d 0654 9cbd 3096 fcbb a856 9cbc
000000b0: af49 cc3d 89c9 933d ebdf 98bd e30f 61bd
000000c0: 88b5 9abd 7805 cdbc ef30 b3bd 7a81 403d
000000d0: 70a3 34bd ca92 4dbd a0dd 9a3b e4df 02bd
000000e0: 29b7 9a3d b3a5 b93d e7db b6bd a2a5 373d
000000f0: 56bf 083b 62fc 563d 948e 19bd a019 f8bb
00000100: 992e f5ba 4671 0c3d a239 4c3d eabe 1f3d
00000110: d013 493c fe60 a3bd 7d4b 6bbd 8d58 69bd
00000120: 4518 ccbd 8d2d c43d 9071 39bd 1821 88bd
00000130: 8d7d 39bd a266 5e3d 6562 80bd ee1f abbd
00000140: b312 99bd 3808 b43c e00f 86bb f8c7 b8bd
00000150: 2817 8cbd 077c b1bd d283 0c3d ee5c 393d
00000160: 288b 8b3c 803a 03bd d374 5bbd 8aee 213d
00000170: 341e bcbc f87f 83bc 5046 06bd d45f 8e3c
00000180: d829 c03c f943 a83d ede1 b53d b820 d3bc

layers.0.lin.weight f4 [50, 10]
0.40694818 0.30319968 0.2803465 -0.106361434 -0.11287873 0.29976168 0.1939087 0.37633368
0.34040782 -0.07153871 0.05820352 -0.24808098 -0.17480522 0.086903155 -0.017676175 -0.20195594
0.107228875 0.21944764 -0.31078225 0.29661527 0.17456657 -0.026653945 -0.30665103 -0.13386706
0.096508026 -0.13472864 -0.10394631 -0.13059223 0.27188805 0.2676237 -0.24664864 -0.09755978
0.2864279 -0.018214315 -0.15396401 0.038239777 0.25020942 -0.040241957 -0.2983967 -0.10570422
0.15738255 -0.04672429 0.22342917 0.10875633 0.0027733147 0.120792955 -0.042684942 -0.27108744
-0.2710088 -0.24874103 -0.050367117 -0.22865033 0.046343207 0.036259443 0.24061212 0.01778099
0.05389732 0.112446666 -0.08940303 -0.15757142 -0.29746887 -0.30798912 0.020793647 -0.14954016
0.0875434 0.07859206 0.24663523 -0.038604826 -0.0013372302 0.21825424 0.053625643 0.14473292
-0.17076132 -0.22856453 0.2410883 0.22541973 -0.11973593 0.052530706 -0.2812352 0.022131056
-0.29359666 0.17873529 -0.31342945 -0.07628219 0.29503968 -0.10713275 -0.18330015 0.28527048
-0.15995494 0.069744915 0.34011015 0.24834163 -0.055098873 0.45038062 0.31501615 -0.035478022
-0.01710346 0.09044322 0.26887766 0.28294796 0.3130025 0.47967055 0.586871 0.33734283
0.3961483 0.45212153 0.33497187 0.29178134 0.5566096 0.49059966 0.20653674 -0.12304711
-0.15118954 -0.1714712 -0.26481378 -0.03212878 0.17817354 0.046330065 -0.1118613 -0.043747276
-0.24233279 -0.20312595 0.029113263 -0.18373409 0.038974434 0.26079574 0.08097994 0.24207875
-0.20034778 0.008224338 -0.31064186 0.0021910667 -0.23295532 0.29679224 -0.2703385 0.1080986
-0.1891616 0.08753377 -0.0016494095 -0.040447086 0.10503789 0.4310978 0.17068642 0.2547218
0.13246971 -0.0026756946 0.09597703 0.5112967 0.5287743 0.08084868 0.031515002 0.051329404
0.27896813 0.044130027 0.014721096 -0.09198579 0.066690534 -0.31486464 -0.31550562 -0.036655635
-0.06469992 -0.06498867 0.10095692 0.33008084 0.31113994 0.044763956 0.13228561 0.44819862
0.22303964 0.36967972 -0.1309831 -0.28298596 -0.14661595 0.027790338 -0.07659006 -0.17266586
0.30409566 -0.29188854 0.008028984 0.12602255 -0.085313484 0.13715163 0.0011225045 -0.18797575
-0.17195003 -0.14225611 -0.30875954 0.19709215 0.28986862 -0.16244432 0.24368441 0.33372346
0.31759194 0.052532017 0.03589047 0.53588504 0.412201 0.5236675 0.45004302 0.20452544
0.216634 -0.016134156 -0.007953429 -0.14300793 0.2406207 -0.07322147 0.039921355 -0.25815064
0.102486216 -0.1563461 -0.07140748 -0.028277665 0.117231876 0.012908459 0.05510059 -0.2053937
-0.23893924 0.11388478 -0.1302162 -0.27264047 -0.13050748 -0.31023398 0.063183635 0.023485214
0.29201934 -0.17437841 -0.16354509 0.07550809 -0.083092734 0.2464386 0.048106253 -0.006871164
-0.1213211 0.19106767 -0.14802556 0.12716031 0.20314708 -0.24805161 -0.28018874 -0.17833467
0.2976189 -0.028546674 0.17577483 0.19362885 0.21227218 -0.015372091 0.15693955 0.36500993
0.3098043 0.20629336 -0.2676763 0.13258849 -0.14210744 0.20512448 0.11514799 -0.074233845
00000000: 835b d03e fd3c 9b3e 9489 8f3e 06d4 d9bd
00000010: f72c e7bd 5d7a 993e 0190 463e cfae c03e
00000020: ef49 ae3e e382 92bd d066 6e3d f108 7ebe
00000030: 2400 33be 48fa b13d a0cd 90bc 8acd 4ebe
00000040: d09a db3d e2b6 603e da1e 9fbe f5dd 973e
00000050: 94c1 323e 6059 dabc 5d01 9dbe 7214 09be
00000060: 00a6 c53d 4ef6 09be cee1 d4bd f8b9 05be
00000070: e934 8b3e f905 893e 7691 7cbe 6ccd c7bd
00000080: ada6 923e 3036 95bc bea8 1dbe 50a1 1c3d
00000090: 731b 803e c0d4 24bd 74c7 98be 747b d8bd
000000a0: e428 213e f861 3fbd 9eca 643e a4bb de3d
000000b0: 80c0 353b 4c62 f73d 68d6 2ebd f9cb 8abe
000000c0: aac1 8abe f8b5 7ebe c04d 4ebd 5023 6abe
000000d0: 60d2 3d3d c884 143d 0663 763e 70a9 913c
000000e0: 70c3 5c3d 704a e63d f018 b7bd 675a 21be
000000f0: d74d 98be c0b0 9dbe 7057 aa3c 0e21 19be
00000100: f449 b33d e0f4 a03d f28d 7c3e 1820 1ebd
00000110: 0046 afba 0a7e 5f3e 90a6 5b3d de34 143e
00000120: 0edc 2ebe d20c 6abe dadf 763e 6ed4 663e
00000130: 1c38 f5bd 702a 573d 0ffe 8fbe 304c b53c
00000140: 4d52 96be 6206 373e d379 a0be d639 9cbd
00000150: 710f 973e 6a68 dbbd 09b3 3bbe f90e 923e
00000160: 3acb 23be 6cd6 8e3d eb22 ae3e 454d 7e3e
00000170: 5baf 61bd 4a98 e63e cc49 a13e 6751 11bd
00000180: 8e1c 8cbc 4c3a b93d 55aa 893e 8ede 903e
00000190: dd41 a03e 6197 f53e 2e3d 163f 33b8 ac3e
000001a0: f3d3 ca3e 797c e73e 6f81 ab3e 5d64 953e
000001b0: f77d 0e3f e12f fb3e 5e7e 533e 2000 fcbd
000001c0: 6ed1 1abe 2596 2fbe ac95 87be 7899 03bd
000001d0: 2073 363e 98c4 3d3d 8a17 e5bd 5830 33bd
000001e0: 1626 78be 4000 50be f07e ee3c ca24 3cbe
000001f0: a8a3 1f3d 0587 853e d0d8 a53d 7ee3 773e
00000200: f827 4dbe 60bf 063c 730c 9fbe 0098 0f3b
00000210: d78b 6ebe 27f5 973e cf69 8abe cc62 dd3d
00000220: 94b3 41be e844 b33d 0031 d8ba d8ab 25bd
00000230: 1b1e d73d dab8 dc3e 6cc8 2e3e e56a 823e
00000240: 24a6 073e b55a 2fbb 9b8f c43d 57e4 023f
00000250: c15d 073f fe93 a53d e015 013d c83e 523d
00000260: e9d4 8e3e b0c1 343d c030 713c 0c63 bcbd
00000270: 0c95 883d f035 a1be f489 a1be 3824 16bd
00000280: 6481 84bd c818 85bd 80c2 ce3d 5b00 a93e
00000290: bc4d 9f3e 695a 373d e175 073e 4a7a e53e
000002a0: 8164 643e a946 bd3e 6f20 06be 89e3 90be
000002b0: 7e22 16be 90a8 e33c 40db 9cbd 52cf 30be
000002c0: 6db2 9b3e 6a72 95be 008c 033c 0e0c 013e
000002d0: d6b8 aebd 7a71 0c3e 0021 933a b77c 40be
000002e0: ab13 30be 96ab 11be bb15 9ebe 86d2 493e
000002f0: a969 943e ce57 26be 6888 793e cddd aa3e
00000300: 699b a23e d02b 573d e301 133d c32f 093f
00000310: 020c d33e 130f 063f 0a6c e63e 1e6f 513e
00000320: 4ed5 5d3e c72b 84bc 194f 02bc ac70 12be
00000330: 4665 763e 23f5 95bd 9384 233d 522c 84be
00000340: 4be4 d13d 3119 20be 163e 92bd 90a6 e7bc
00000350: 4417 f03d 007e 533c 28b1 613d ba52 52be
00000360: 7dac 74be 6c3c e93d 6557 05be 8897 8bbe
00000370: c1a3 05be fdd6 9ebe 6c66 813d 1064 c03c
00000380: 8f83 953e 4190 32be 5d78 27be fca3 9a3d
00000390: 862c aabd 665a 7c3e 100b 453d 8027 e1bb
000003a0: 3277 f8bd 3ea7 433e 0394 17be 5036 023e
000003b0: ca05 503e 3e01 7ebe e674 8fbe 5d9d 36be
000003c0: 8161 983e b7da e9bc 51fe 333e a446 463e
000003d0: e15d 593e 39db 7bbc c3b4 203e 95e2 ba3e
000003e0: ab9e 9e3e 913e 533e de0c 89be 47c5 073e
000003f0: 9d84 11be 270c 523e b6d2 eb3d ea07 98bd

layers.1.bias f4 [50]
-0.028939124 -0.46796155 -0.3142382 -0.27807763 -0.33192527 -0.34141505 -0.41203824 -0.24378966
-0.30141494 -0.050354518 -0.32688764 -0.32066473 -0.32545328 -0.35234326 -0.26261365 -0.35978112
-0.45541054 0.08554458 0.23246187 0.0 0.38606012 -0.28897774 -0.3084581 0.48493898
-0.43587643 -0.0060052425 -0.473871 -0.18739408 -0.29209033 0.0 0.04965704 -0.044260703
0.0 -0.2808715 0.0 -0.37930906 -0.40673316 -0.33294955 -0.02560514 0.14041486
-0.049710322 0.16356912 -0.3229497 -0.26660097 0.0 -0.2605704 0.11071221 -0.33605066
-0.120424114 -0.26890427
00000000: be11 edbc a898 efbe d4e3 a0be 3160 8ebe
00000010: 1cf2 a9be f4cd aebe adf6 d2be ffa3 79be
00000020: 0f53 9abe 8a40 4ebd d15d a7be 2b2e a4be
00000030: d0a1 a6be 5666 b4be 4c75 86be 3b35 b8be
00000040: 922b e9be ff31 af3d 7c0a 6e3e 0000 0000
00000050: aca9 c53e e4f4 93be 38ee 9dbe ec49 f83e
00000060: 322b dfbe a0c7 c4bb 389f f2be 3ce4 3fbe
00000070: dd8c 95be 0000 0000 2e65 4b3d b64a 35bd
00000080: 0000 0000 64ce 8fbe 0000 0000 cc34 c2be
00000090: 543f d0be 5d78 aabe dfc1 d1bc eac8 0f3e
000000a0: 0d9d 4bbd aa7e 273e aa59 a5be ec7f 88be
000000b0: 0000 0000 7c69 85be 15bd e23d d50e acbe
000000c0: eba0 f6bd d2ad 89be

layers.1.combine_aggr.weight f4 [50, 200]
-0.044581033 0.010587059 0.06990311 -0.013634086 -0.040664133 -0.0344687 -0.043887313 0.03582049
-0.041706376 0.049495317 0.04128138 0.042539842 -0.00339102 -0.014761176 0.025615029 -0.010562237
0.028416999 0.015784062 0.02459158 -0.030226626 0.043840595 -0.013562493 0.040179342 -0.004358977
-0.06949369 -0.0060243756 -0.022545699 -0.035058737 -0.0027663708 -0.027016334 0.0055402294 -0.020876303
-0.0438731 0.025958903 -0.057910178 -0.05474191 -0.011121593 -0.006156832 -0.06614368 0.035934046
0.005835563 0.029818878 -0.0006977916 -0.015433889 -0.02488419 -0.0063155442 -0.055569693 0.031054072
0.020098299 0.050569497 -0.06605577 -0.0073658004 -0.027730107 0.0021976233 0.010797143 -0.010528285
-0.005739711 -0.011674568 0.017199315 -0.03865316 -0.008194171 0.03495007 0.04761125 0.007908374
-0.007767454 0.011846796 0.03255433 0.0130073875 -0.041147657 -0.055721205 0.032893226 -0.030398592
0.026481181 -0.060756784 0.038671836 0.029729076 -0.013953928 -0.054016948 -0.007983349 0.040042974
0.053435758 -0.002619803 -0.005851567 0.058005266 0.012321562 0.06752402 0.0639692 -0.04591471
-0.049853303 -0.023469988 -0.010812219 0.06402097 -0.05318655 0.031537406 0.05425834 0.004445143
-0.059288066 -0.053384982 0.0105155185 0.020459048 0.016426288 0.04400056 0.045430698 -0.06161508
0.03332054 0.04391899 -0.03571235 -0.044114333 -0.063497715 -0.06976629 0.036945745 0.020102523
-0.038410567 -0.06321112 -0.065734416 0.06415809 0.023272738 0.011560425 -0.0058459863 0.028865568
0.007663317 0.03052529 0.018041499 -0.036428593 -0.033049934 0.018624395 0.017917715 0.04992556
-0.05230494 0.034346893 -0.06486522 0.0060584396 -0.057414066 -0.034779117 -0.040417008 0.06308558
0.06293521 -0.031360503 -0.0029652044 -0.059260596 -0.057934124 -0.035801068 0.006879352 -0.063650526
-0.014718454 0.009748928 0.00079619884 -0.002237603 0.012725309 0.069942944 -0.060393292 -0.05101295
0.036956392 0.021658964 0.06008155 0.05627837 -0.0525172 -0.016061272 -0.06367077 0.028498761
0.042203575 -0.056090545 -0.03849305 0.037768558 0.017226957 -0.044202108 -0.00035083294 -0.04700064
0.027418822 0.013097122 0.019203909 -0.003337033 0.003844671 -0.052448425 0.06600719 -0.0028931051
0.0019731894 0.006390907 -0.066512056 0.018270329 0.060871907 0.04113867 0.009843245 0.020528011
0.012563333 0.00018186867 0.030963905 0.023292556 0.022965327 -0.04263866 -0.008614849 0.04408703
0.046555176 -0.039809942 0.023079343 -0.04718146 0.01842831 0.024541698 -0.04258161 0.052486703
0.050488524 0.050783418 0.019391403 0.029102825 -0.0013030395 -0.03745578 0.021534748 -0.030519225
0.018239208 -0.03628934 -0.02994489 -0.05570431 -0.019066762 0.042656556 0.021984018 -0.005721718
0.04488112 0.050467864 -0.030284964 -0.052334495 0.0544542 -0.06413613 -0.054577038 -0.058004297
-0.045592465 -0.047848646 0.0021432936 -0.03097634 0.05441884 -0.06303226 -0.053371325 -0.06519942
-0.06231138 0.017156176 -0.048950218 -0.0154489875 -0.03607483 -0.019051962 -0.029603247 0.045015045
-0.031311207 -0.03527456 0.04019949 0.0642763 0.057555474 -0.01053752 0.012625933 -0.036685698
-0.0069216266 0.00798095 -0.041322157 -0.010328095 0.033802517 0.017664574 0.065805756 -0.02427189
00000000: 9a9a 36bd 5875 2d3c 5d29 8f3d 8061 5fbc
00000010: 6f8f 26bd 0d2f 0dbd 2fc3 33bd 82b8 123d
00000020: 4ed4 2abd 9abb 4a3d aa16 293d 423e 2e3d
00000030: e03b 5ebb dcd8 71bc 9cd6 d13c 3c0d 2dbc
00000040: c4ca e83c 944d 813c 4874 c93c d49d f7bc
00000050: 3292 333d 3835 5ebc 1893 243d c0d5 8ebb
00000060: b552 8ebd 2068 c5bb c2b1 b8bc c099 0fbd
00000070: 004c 35bb 5c51 ddbc d08a b53b c804 abbc
00000080: 48b4 33bd c4a7 d43c 3933 6dbd 0e39 60bd
00000090: 5837 36bc 40bf c9bb 5676 87bd 942f 133d
000000a0: 4038 bf3b b846 f43c 00ec 36ba 6cde 7cbc
000000b0: eed9 cbbc a0f2 cebb 0c9d 63bd 1c65 fe3c
000000c0: 30a5 a43c f621 4f3d 3f48 87bd d05c f1bb
000000d0: 402a e3bc 0006 103b 80e6 303c d47e 2cbc
000000e0: 3014 bcbb b046 3fbc 94e5 8c3c c752 1ebd
000000f0: d840 06bc ce27 0f3d 0404 433d 2092 013c
00000100: 2086 febb 1019 423c b057 053d f01c 553c
00000110: 728a 28bd eb3b 64bd 0cbb 063d 7806 f9bc
00000120: 10ef d83c 1bdc 78bd 5c66 1e3d 648a f33c
00000130: 049f 64bc e040 5dbd 98cc 02bc 1a04 243d
00000140: 74df 5a3d 00b1 2bbb 80be bfbb ee96 6d3d
00000150: 60e0 493c 094a 8a3d 4902 833d 1011 3cbd
00000160: fa32 4cbd 2244 c0bc bc25 31bc 6d1d 833d
00000170: 24da 59bd 5e2d 013d fe3d 5e3d 90a8 913b
00000180: 0bd8 72bd 36aa 5abd 4849 2c3c bc99 a73c
00000190: 6c90 863c ee39 343d 8a15 3a3d 1860 7cbd
000001a0: 1e7b 083d 66e4 333d 1d47 12bd 3bb1 34bd
000001b0: 170b 82bd a1e1 8ebd 6c54 173d 0cae a43c
000001c0: 6654 1dbd d574 81bd c49f 86bd 5165 833d
000001d0: 78a6 be3c f067 3d3c b08f bfbb 7c77 ec3c
000001e0: 901c fb3b 2c10 fa3c c4cb 933c 2636 15bd
000001f0: 5e5f 07bd 3092 983c 2cc8 923c be7e 4c3d
00000200: b43d 56bd 54af 0c3d 0ed8 84bd e085 c63b
00000210: 032b 6bbd 8c74 0ebd 4e8c 25bd 0333 813d
00000220: 2de4 803d df73 00bd e053 42bb 3dbb 72bd
00000230: 554c 6dbd 24a4 12bd 306c e13b 355b 82bd
00000240: ac25 71bc f8b9 1f3c 00b8 503a c0a4 12bb
00000250: d07d 503c 3f3e 8f3d f55e 77bd f4f2 50bd
00000260: 965f 173d 246e b13c 1218 763d 2684 663d
00000270: 471c 57bd ee92 83bc d265 82bd 3c76 e93c
00000280: a8dd 2c3d 33bf 65bd e3aa 1dbd 34b3 1a3d
00000290: 8c1f 8d3c 450d 35bd 00f0 b7b9 be83 40bd
000002a0: 709d e03c 5095 563c 8451 9d3c 20b2 5abb
000002b0: e0f6 7b3b 29d4 56bd c72e 873d 409a 3dbb
000002c0: a050 013b d06a d13b 7937 88bd a8ab 953c
000002d0: d254 793d 0681 283d 9045 213c 5c2a a83c
000002e0: 70d6 4d3c 00b4 3e39 04a8 fd3c 08d0 be3c
000002f0: c821 bc3c e0a5 2ebd 4c25 0dbc 9a94 343d
00000300: a4b0 3e3d c00f 23bd e410 bd3c 5941 41bd
00000310: f8f6 963c ac0b c93c 0e6a 2ebd 4cfc 563d
00000320: 0ecd 4e3d 4602 503d b8da 9e3c 0c69 ee3c
00000330: c0ca aaba 3b6b 19bd a469 b03c 7403 fabc
00000340: 646a 953c 22a4 14bd fc4e f5bc 342a 64bd
00000350: e631 9cbc a4b8 2e3d d417 b43c 407d bbbb
00000360: 44d5 373d 64b7 4e3d 2c18 f8bc b25c 56bd
00000370: 5e0b 5f3d ce59 83bd 2c8c 5fbd ea95 6dbd
00000380: 2abf 3abd f1fc 43bd 8076 0c3b 18c2 fdbc
00000390: 4ae6 5e3d 0f17 81bd e49b 5abd 4687 85bd
000003a0: 383a 7fbd 1c8b 8c3c 0680 48bd c01d 7dbc
000003b0: 33c3 13bd dc12 9cbc 8282 f2bc b261 383d
000003c0: 2e40 00bd 0f7c 10bd 38a8 243d 4ba3 833d
000003d0: 4abf 6b3d 90a5 2cbc 00dd 4e3c be43 16bd
000003e0: d0ce e2bb 88c2 023c 6c41 29bd 2c37 29bc
000003f0: 8274 0a3d 4cb5 903c 2bc5 863d d8d5 c6bc

layers.1.lin_a.weight f4 [1, 100]
-0.2501393 0.12249281 0.2625579 0.1528926 -0.057637542 -0.1011531 -0.08352481 0.14187577
0.15688808 -0.14944427 0.2772567 0.20917852 0.22022659 0.031397723 0.16096847 -0.24550836
0.0025629331 -0.33810496 -0.20562622 -0.20820895 -0.316518 -0.015690636 0.2374883 -0.2506057
0.004347387 -0.21986446 -0.18023348 0.2655333 -0.094772145 -0.13026093 -0.16081887 -0.49732637
-0.15576197 -0.06216688 -0.15341038 -0.12704071 -0.12676167 -0.094477035 -0.3018767 -0.22712906
0.5457144 -0.14536688 0.23356692 0.3290716 -0.18520188 0.045343775 -0.253874 0.2781714
-0.2649575 0.20055923 -0.19185226 0.27277136 0.08840583 0.24833354 0.11764525 0.19557178
0.1754256 0.2504141 0.06647695 0.21942496 0.2651741 0.19653104 0.25812492 0.25702417
-0.19032939 0.24572138 0.18590139 0.24028313 -0.05068169 -0.15318698 0.27986524 0.1141856
0.09791076 0.10064042 0.1979392 -0.12587105 0.22583441 -0.13377936 0.14507662 -0.045900755
-0.16015922 0.13848096 -0.050217286 0.23081928 -0.09342135 0.07771191 0.24456657 0.09331874
0.23773557 -0.037759807 -0.17361672 -0.1123661 0.08163002 0.055067528 -0.22608502 0.14180297
0.22320494 0.13377742 0.21138495 0.19204338
00000000: 4212 80be 83dd fa3d fd6d 863e e18f 1c3e
00000010: 5815 6cbd 5b29 cfbd 0e0f abbd e247 113e
00000020: 45a7 203e eb07 19be 97f4 8d3e e532 563e
00000030: 1483 613e e69a 003d ebd4 243e 8b66 7bbe
00000040: e2f6 273b 181c adbe ae8f 52be ba34 55be
00000050: a60e a2be a689 80bc 2230 733e 644f 80be
00000060: 8674 8e3b 2624 61be 208f 38be fbf3 873e
00000070: e617 c2bd 1f63 05be b4ad 24be 90a1 febe
00000080: 1180 1fbe b3a2 7ebd 9c17 1dbe f616 02be
00000090: d0cd 01be 2d7d c1bd 958f 9abe 8594 68be
000000a0: f0b3 0b3f 0edb 14be 2b2c 6f3e 137c a83e
000000b0: 90a5 3dbe 65ba 393d c6fb 81be 7b6c 8e3e
000000c0: 82a8 87be 665f 4d3e eb74 44be b0a8 8b3e
000000d0: 1e0e b53d 264b 7e3e feef f03d f843 483e
000000e0: c5a2 333e 4736 803e 1125 883d f0b0 603e
000000f0: e6c4 873e 6f3f 493e f328 843e ac98 833e
00000100: b5e5 42be 639e 7b3e ef5c 3e3e c80c 763e
00000110: 9b97 4fbd 0cdd 1cbe 7f4a 8f3e 24da e93d
00000120: 7085 c83d 911c ce3d 93b0 4a3e 57e4 00be
00000130: 2341 673e 75fd 08be f78e 143e 6e02 3cbd
00000140: c700 24be f4cd 0d3e a4b0 4dbd e45b 6c3e
00000150: b153 bfbd 6c27 9f3d a96f 7a3e e51d bf3d
00000160: f470 733e 07aa 1abd 95c8 31be 3320 e6bd
00000170: a42d a73d 7d8e 613d d582 67be cc34 113e
00000180: d68f 643e f3fc 083e 4c75 583e 05a7 443e

layers.1.lin.weight f4 [50, 50]
-0.24278334 -0.09501131 -0.008022621 -0.06860813 0.13020654 -0.14125435 -0.07115174 -0.05583694
0.06242448 -0.2345578 -0.08636113 -0.008247346 -0.045299657 0.13734631 0.17110808 0.11061163
-0.4311456 -0.03647597 -0.10838477 0.13638335 0.085190475 -0.11075409 -0.104531795 0.06987393
-0.28694603 0.04028341 -0.10660217 -0.11287117 -0.048144937 -0.11062635 0.086959854 -0.1114193
-0.24140523 -0.13836096 0.12976159 0.02702516 -0.3107774 -0.030977584 -0.2785512 -0.29351035
0.15209314 -0.032525502 0.13237275 0.1121412 0.11446328 0.012909418 -0.32470846 0.06016746
0.0888498 0.05635884 0.63698614 0.121600345 -0.07678067 -0.0305022 0.010760725 -0.01659923
-0.08128098 0.045349523 0.027175635 0.3094566 0.1806075 0.016214654 -0.014368296 0.04353714
0.24528347 -0.019515455 0.78393495 0.003910288 -0.016720265 0.20539136 -0.02328364 -0.016636156
-0.0689174 -0.10102836 0.44919258 0.14636655 0.33719352 0.0068615377 0.061247468 0.03110139
-0.07255007 0.052973833 0.52904296 -0.00937143 0.084328055 0.05211262 0.42930084 0.041210115
0.75221866 0.67516273 0.23313391 -0.130417 -0.055406675 0.3558732 0.17181087 0.1377923
0.50094646 -0.10704231 0.0429257 0.31416368 0.555484 0.09810282 -0.033892073 0.018292606
0.10429941 0.11714439 0.040487513 -0.120741725 0.034206018 0.35734537 0.09525567 -0.13929279
-0.04621903 -0.07245566 0.07657301 -0.11766067 0.75152045 -0.09060162 -0.085243 0.036889106
-0.01625827 0.08407377 -0.13932611 -0.06324044 0.34709862 0.045225043 0.0001984899 -0.03844951
-0.076043256 -0.031744167 0.07310964 -0.05795605 0.33306274 -0.0926384 0.039503053 -0.09460805
0.43039644 -0.14079562 0.70245373 0.56938124 0.08033082 -0.018002637 -0.084848955 0.12389046
0.20902619 -0.05239992 0.6282945 0.07147695 0.12679784 0.038286384 0.5071962 0.091544524
-0.033276334 -0.05567137 -0.06701837 0.13151743 -0.11003728 0.030716106 0.028105304 0.21681388
0.072612874 0.08182232 0.09513816 0.038107082 0.25955376 0.040055484 0.71402806 -0.1129979
0.0041407645 0.07655912 0.081541754 0.02382493 0.0039539933 -0.05010937 0.5337858 0.11552326
0.17979635 -0.009049892 -0.06941666 -0.114493586 -0.13917229 -0.12337543 0.3304934 0.11018543
-0.13036439 -0.04998539 0.5116764 0.06642753 0.7633952 0.53881633 0.16543156 -0.08861827
0.06966105 0.26621467 0.13234599 0.070056856 0.7247845 -0.13247104 -0.05559741 -0.06433973
0.7089623 -0.12687844 0.03358826 -0.114937544 0.07215491 -0.09685515 -0.12733607 -0.057133026
0.046750277 0.41868013 0.39027768 0.004516676 -0.07692031 -0.0078047216 0.58118415 -0.0866313
0.8313808 0.039299116 0.07351318 0.34931138 0.10488406 -0.10550237 -0.057079814 0.08875142
0.43920985 0.122765794 0.32247496 -0.13394275 0.13343854 0.11542995 0.058304235 -0.11994638
0.5680405 -0.033590853 0.13617627 0.030954285 0.5476607 -0.14103213 0.6770672 0.7056302
0.346348 0.014269739 -0.109804645 0.4418617 0.37550947 0.30913886 0.6345928 -0.040445603
-0.05239678 0.4585923 0.70504165 -0.07041815 0.07284817 0.13898863 0.07769634 0.062408432
00000000: 329c 78be 4a95 c2bd 5071 03bc 6b82 8cbd
00000010: dd54 053e fba4 10be 01b8 91bd 46b5 64bd
00000020: d0b0 7f3d ec2f 70be 1bde b0bd e01f 07bc
00000030: 228c 39bd 83a4 0c3e f536 2f3e 5a88 e23d
00000040: 1ebf dcbe d467 15bd d6f8 ddbd 14a8 0b3e
00000050: 5878 ae3d 0ad3 e2bd c414 d6bd 101a 8f3d
00000060: 97ea 92be 3800 253d 3d52 dabd 0029 e7bd
00000070: a033 45bd 1190 e2bd 0218 b23d cd2f e4bd
00000080: ef32 77be 7fae 0dbe 39e0 043e de63 dd3c
00000090: 371e 9fbe b4c4 fdbc 439e 8ebe fd46 96be
000000a0: 4ebe 1b3e 7639 05bd b98c 073e 49aa e53d
000000b0: b96b ea3d 0682 533c 3040 a6be 2872 763d
000000c0: e2f6 b53d 87d8 663d 8611 233f 9a09 f93d
000000d0: 2f3f 9dbd c0df f9bc c04d 303c 1cfb 87bc
000000e0: a476 a6bd 6cc0 393d 709f de3c 1871 9e3e
000000f0: 2cf1 383e 98d4 843c 0069 6bbc 0054 323d
00000100: 972b 7b3e e0de 9fbc f6af 483f e021 803b
00000110: f0f8 88bc 1d52 523e 55bd bebc 8c48 88bc
00000120: 9124 8dbd f5e7 cebd 92fc e53e 1de1 153e
00000130: a1a4 ac3e c0d6 e03b a0de 7a3d 58c8 fe3c
00000140: 2295 94bd 17fb 583d 5c6f 073f a08a 19bc
00000150: 30b4 ac3d 0b74 553d 52cd db3e f0cb 283d
00000160: 6791 403f 77d7 2c3f a8ba 6e3e 098c 05be
00000170: 1cf2 62bd 0335 b63e 30ef 2f3e 6d19 0d3e
00000180: 073e 003f 0039 dbbd dcd2 2f3d 10da a03e
00000190: 3334 0e3f 22ea c83d 6ad2 0abd 60da 953c
000001a0: ee9a d53d 66e9 ef3d 3cd6 253d 7047 f7bd
000001b0: 9c1b 0c3d f9f5 b63e 6815 c33d c5a2 0ebe
000001c0: 2a50 3dbd a263 94bd 4fd2 9c3d 14f8 f0bd
000001d0: a563 403f 588d b9bd e293 aebd 0819 173d
000001e0: 1030 85bc de2e ac3d 81ab 0ebe 3484 81bd
000001f0: e9b6 b13e e53d 393d ba21 5039 3c7d 1dbd
00000200: 91bc 9bbd 2c06 02bd 82ba 953d 5363 6dbd
00000210: 3387 aa3e 34b9 bdbd f4cd 213d dec1 c1bd
00000220: ec5c dc3e ba2c 10be 02d4 333f f8c2 113f
00000230: 7c84 a43d 447a 93bc 4ac5 adbd 48ba fd3d
00000240: f60a 563e 4ca1 56bd e9d7 203f 8262 923d
00000250: 4bd7 013e 2fd2 1c3d 9cd7 013f b27b bb3d
00000260: c44c 08bd aa07 64bd ed40 89bd 81ac 063e
00000270: 3a5b e1bd 58a0 fb3c 183d e63c 7504 5e3e
00000280: 0fb6 943d 7692 a73d ccd7 c23d 2c16 1c3d
00000290: 3be4 843e 3811 243d 8bca 363f 716b e7bd
000002a0: 40af 873b 07cb 9c3d 5dff a63d 802c c33c
000002b0: 8090 813b 7c3f 4dbd 30a6 083f 7597 ec3d
000002c0: 891c 383e 0046 14bc 522a 8ebd 9d7b eabd
000002d0: 2e83 0ebe 42ac fcbd 6e36 a93e e6a8 e13d
000002e0: 3e7e 05be 7bbd 4cbd 39fd 023f 280b 883d
000002f0: de6d 433f deef 093f e466 293e 7f7d b5bd
00000300: 74aa 8e3d 4a4d 883e b585 073e f879 8f3d
00000310: 7a8b 393f 7da6 07be 1cba 63bd 8cc4 83bd
00000320: 8e7e 353f 6cec 01be d893 093d 6064 ebbd
00000330: f4c5 933d fe5b c6bd 6364 02be 5204 6abd
00000340: 387d 3f3d 3e5d d63e 7ad2 c73e a000 943b
00000350: 6588 9dbd c0be ffbb 7cc8 143f c06b b1bd
00000360: 5fd5 543f 1cf8 203d 148e 963d f1d8 b23e
00000370: 74cd d63d a011 d8bd 86cc 69bd 4ec3 b53d
00000380: 1de0 e03e a26c fb3d 701b a53e 4a28 09be
00000390: 1da4 083e 8a66 ec3d 6cd0 6e3d 73a6 f5bd
000003a0: 1a6b 113f 9096 09bd cb71 0b3e d793 fd3c
000003b0: 7e33 0c3f ba6a 10be 4754 2d3f 2ea4 343f
000003c0: 8654 b13e a0cb 693c 42e1 e0bd b23b e23e
000003d0: c742 c03e 7347 9e3e ac74 223f 4aaa 25bd
000003e0: 029e 56bd 9ccc ea3e 9c7d 343f 6437 90bd
000003f0: 6c31 953d 0953 0e3e 421f 9f3d fc9f 7f3d

layers.2.bias f4 [50]
-0.4390655 0.0 -0.31361943 -0.44946045 0.43649077 -0.33757004 0.0 0.0
0.0 -0.39834163 -0.0061753537 -0.30542076 0.0 0.0 -0.38024494 0.20255321
-0.2557803 0.0 -0.2621824 0.0 -0.060171258 -0.007871198 -0.4095822 -0.009616654
-0.37195608 -0.19049503 -0.4593277 -0.31256622 -0.3827587 -0.012702761 -0.2493068 -0.28874487
0.0 -0.33223164 -0.36271286 0.0 -0.2822111 -0.3144445 -0.008952359 -0.006005438
-0.40033254 -0.39984727 0.0 -0.26990712 -0.4352552 -0.45580846 -0.364762 -0.37294856
-0.42509642 -0.25203276
00000000: 31cd e0be 0000 0000 ba92 a0be ae1f e6be
00000010: b87b df3e fbd5 acbe 0000 0000 0000 0000
00000020: 0000 0000 6ff3 cbbe 9f5a cabb 1c60 9cbe
00000030: 0000 0000 0000 0000 77af c2be 1c6a 4f3e
00000040: a3f5 82be 0000 0000 c63c 86be 0000 0000
00000050: 2376 76bd 32f6 00bc c2b4 d1be 2c8f 1dbc
00000060: 0771 bebe 2111 43be 002d ebbe ae08 a0be
00000070: f3f8 c3be 3e1f 50bc 484a 7fbe 5ed6 93be
00000080: 0000 0000 441a aabe 80b5 b9be 0000 0000
00000090: f97d 90be dffe a0be eaac 12bc 44c9 c4bb
000000a0: 63f8 ccbe c8b8 ccbe 0000 0000 4431 8abe
000000b0: c5d9 debe ba5f e9be 16c2 babe 1df3 bebe
000000c0: 3da6 d9be 700a 81be

layers.2.combine_aggr.weight f4 [50, 200]
-0.04740785 0.070137374 -0.010902438 -0.049067397 -0.040912405 0.07042625 -0.011320181 0.040083848
0.006729819 0.05831667 -0.052640826 0.022499315 0.030331992 -0.020139433 -0.042379856 -0.013380881
-0.006835647 -0.041221775 -0.057807945 0.023862377 0.008703664 -0.04305054 -0.019778386 -0.0043828934
0.032638714 0.027531266 0.062022217 0.0070618615 0.021331131 -0.05286278 0.030065812 -0.030183777
0.051777937 0.018623993 -0.0066406652 -0.025067277 0.034005307 0.029156096 0.01935058 0.011314556
-0.055217557 -0.037044164 -0.070343286 -0.024696723 -0.032806233 -0.01408219 0.05153825 0.01707235
0.031222709 0.029963128 0.057604708 0.05620689 0.014338434 0.060397096 -0.062892355 0.038170442
0.047307156 -0.067016155 -0.060186535 -0.01134149 0.030255847 0.059688635 -0.06433217 0.06456629
-0.0054196045 -0.016308978 -0.0180065 0.04664746 0.033022538 0.0063923225 -0.059235368 -0.0052915737
-0.05711596 -0.07019371 0.024370447 -0.017814882 -0.06764984 -0.05865379 0.06787173 0.066162966
-0.049868964 -0.035483696 0.042555824 -0.014916755 -0.005744405 -0.021055672 0.034199357 -0.065756746
-0.064263925 0.027133413 0.03522154 0.0395697 -0.020984747 -0.03113446 -0.034279972 -0.038188294
-0.06162382 0.026866823 -0.031048555 -0.06861775 0.011141896 0.056538917 -0.0029101893 -0.057573136
0.037648924 -0.038624275 0.04452549 -0.04863257 0.06411164 -0.017114773 0.06494669 0.03339923
0.05256898 0.012860157 -0.04117266 0.007406093 0.057757266 -0.061453816 0.019517154 0.010426968
0.047393754 -0.04854583 -0.05185905 0.019072108 -0.020018533 -0.024274562 0.015892968 0.05599744
-0.05300405 -0.0036308467 -0.029486671 -0.008703485 -0.030924879 0.067361064 0.0393051 0.015322112
-0.0199477 0.04375518 -0.03921831 -0.06357561 -0.047433667 -0.020909052 -0.048457265 0.0450271
-0.0038052946 -0.026533298 -0.048334166 0.061812736 0.06503906 -0.042521343 0.058756925 -0.0063774437
-0.026134402 0.026323825 -0.0553025 -0.06468736 -0.0058519095 0.04661709 0.05130267 0.060424395
0.036499217 0.01772575 0.009958662 -0.042606696 0.057859413 0.058438428 -0.060914844 -0.067132816
-0.017114758 -0.045287795 -0.024828296 0.06146764 -0.013933666 0.06393666 -0.006162703 0.0057542026
-0.0028879866 -0.02097594 -0.011870898 -0.033221614 -0.051023383 0.0051771626 0.015143722 0.015998662
0.016630366 -0.02625651 -0.0675358 0.033914387 0.013264932 -0.06706151 0.066992484 -0.017319337
-0.058227383 -0.04324078 -0.018069316 -0.055728775 0.012846395 -0.037230976 -0.038359787 0.06181463
-0.02360237 -0.0022206083 -0.04061927 -0.008289121 -0.04465381 -0.039396532 -0.04642795 -0.02611097
0.01639025 0.030929603 0.0409232 -0.034169655 -0.052880634 -0.010501698 0.0657954 0.0020803437
0.06590941 0.0544601 0.047634646 -0.006546907 0.011265077 -0.046344474 0.011238776 0.025129363
-0.044666667 -0.049570553 -0.035760988 0.0007961467 -0.012877103 0.028026998 -0.035401307 0.066280805
-0.033966027 0.043162733 0.06294974 0.064295314 -0.034393854 -0.037472133 -0.030131869 -0.04726634
-0.01825 -0.02053468 0.025827125 0.061256714 0.026058026 0.00073106587 -0.025013287 -0.020833433
0.059893183 -0.060980894 -0.008903008 -0.06840448 -0.025522228 -0.052303288 -0.068704806 0.02383975
00000000: bc2e 42bd 2fa4 8f3d 24a0 32bc e5fa 48bd
00000010: c493 27bd a33b 903d 4878 39bc f62e 243d
00000020: d085 dc3b 76dd 6e3d e89d 57bd 7c50 b83c
00000030: cc7a f83c 74fb a4bc 8096 2dbd 7c3b 5bbc
00000040: 90fd dfbb 2ad8 28bd 06c8 6cbd 087b c33c
00000050: d099 0e3c c355 30bd 4806 a2bc 609e 8fbb
00000060: 2cb0 053d 4089 e13c 020b 7e3d 3067 e73b
00000070: a0be ae3c a486 58bd 944c f63c f843 f7bc
00000080: 1a15 543d 5891 983c f099 d9bb e459 cdbc
00000090: 2649 0b3d c4d8 ee3c 1c85 9e3c b060 393c
000000a0: ce2b 62bd 9fbb 17bd 2410 90bd c850 cabc
000000b0: d45f 06bd fcb8 66bc c619 533d 50db 8b3c
000000c0: c4c6 ff3c 3c75 f53c eaf2 6b3d 3239 663d
000000d0: c0eb 6a3c f262 773d b5cd 80bd 9c58 1c3d
000000e0: 26c5 413d c43f 89bd 2886 76bd a8d1 39bc
000000f0: 1cdb f73c 127c 743d 96c0 83bd 553b 843d
00000100: f096 b1bb 689a 85bc 5e82 93bc 6811 3f3d
00000110: a442 073d b076 d13b c9a0 72bd f064 adbb
00000120: 6df2 69bd b8c1 8fbd 88a4 c73c 84f0 91bc
00000130: 008c 8abd f53e 70bd 5500 8b3d 7380 873d
00000140: 6643 4cbd 5a57 11bd 044f 2e3d 6865 74bc
00000150: 903b bcbb f27c acbc a014 0c3d 79ab 86bd
00000160: ce9c 83bd e446 de3c 7644 103d d613 223d
00000170: 34e8 abbc b20d ffbc 2869 0cbd 546b 1cbd
00000180: 4269 7cbd d017 dc3c 8a59 febc 7787 8cbd
00000190: 808c 363c 5a95 673d e0b8 3ebb cfd1 6bbd
000001a0: c235 1a3d 7d34 1ebd 5c60 363d f232 47bd
000001b0: f74c 833d 4834 8cbc c502 853d a2cd 083d
000001c0: 9252 573d 68b3 523c aaa4 28bd d0ae f23b
000001d0: e292 6c3d ffb6 7bbd 70e2 9f3c e0d5 2a3c
000001e0: f41f 423d fed7 46bd 286a 54bd 1c3d 9c3c
000001f0: e8fd a3bc 72db c6bc f831 823c 925d 653d
00000200: c61a 59bd 80f3 6dbb 088e f1bc 1099 0ebc
00000210: 2c56 fdbc 99f4 893d 62fe 203d 9809 7b3c
00000220: 5c69 a3bc a238 333d 61a3 20bd ee33 82bd
00000230: ce49 42bd 7649 abbc 207b 46bd 566e 383d
00000240: 4062 79bb 5c5c d9bc 0cfa 45bd 5a2f 7d3d
00000250: 3333 853d dc2a 2ebd 1aab 703d e0f9 d0bb
00000260: d017 d6bc 10a5 d73c e084 62bd ce7a 84bd
00000270: 60c1 bfbb 90f1 3e3d c022 523d 927f 773d
00000280: 3480 153d 9835 913c a829 233c 5c84 2ebd
00000290: fefd 6c3d 225d 6f3d d881 79bd ee7c 89bd
000002a0: 4034 8cbc b27f 39bd b664 cbbc 7ec5 7b3d
000002b0: 084a 64bc 39f1 823d 80f0 c9bb c08d bc3b
000002c0: 6044 3dbb bcd5 abbc 287e 42bc 6313 08bd
000002d0: e5fd 50bd 30a5 a93b 601d 783c a00f 833c
000002e0: 683c 883c e417 d7bc 3650 8abd d0e9 0a3d
000002f0: 2855 593c 8c57 89bd 5b33 893d 48e1 8dbc
00000300: d67f 6ebd 3e1d 31bd 1a06 94bc db43 64bd
00000310: b079 523c 827f 18bd 271f 1dbd 5631 7d3d
00000320: c259 c1bc a087 11bb 6460 26bd 18cf 07bc
00000330: eae6 36bd 425e 21bd 3c2b 3ebd ace6 d5bc
00000340: d844 863c 1460 fd3c 169f 273d 7bf5 0bbd
00000350: 5d99 58bd 500f 2cbc bdbf 863d 6056 083b
00000360: 83fb 863d 8e11 5f3d 8c1c 433d 7087 d6bb
00000370: 2891 383c b4d3 3dbd d822 383c 18dc cd3c
00000380: 65f4 36bd 7e0a 4bbd 1d7a 12bd 80b4 503a
00000390: 7cfa 52bc e098 e53c f600 11bd 3bbe 873d
000003a0: f61f 0bbd 68cb 303d cbeb 803d 43ad 833d
000003b0: 92e0 0cbd 617c 19bd 1cd7 f6bc 5a9a 41bd
000003c0: 0681 95bc 5838 a8bc 6893 d33c 52e8 7a3d
000003d0: a477 d53c 00a5 3f3a aae8 ccbc e0aa aabc
000003e0: 8e52 753d 1ac7 79bd ecdd 11bc a617 8cbd
000003f0: fe13 d1bc f93b 56bd 1bb5 8cbd 944b c33c

layers.2.lin_a.weight f4 [1, 100]
-0.21755679 -0.39556983 0.039257832 -0.4521091 1.1831367 0.1533535 -0.47048464 -0.42745805
-0.3109919 0.07476792 -0.55376935 0.10414097 -0.3639671 -0.36244828 0.14024842 1.1558993
0.14480206 -0.38607553 0.123072706 -0.32221285 1.2420707 -0.70924044 -0.004155046 -0.61041814
0.0032958216 -0.12590683 -0.26137725 0.16947804 0.08724264 -0.7329768 0.110262096 0.1934445
-0.3582529 0.06603533 0.062694155 -0.34965315 0.063744634 -0.06502798 -0.60649645 -0.49910635
0.06284514 -0.12229913 -0.30900335 -0.08246549 0.031420965 -0.15160285 0.07579568 -0.038208533
0.11882463 0.08153315 -0.035068423 -0.114628024 0.074788645 -0.17277731 0.13945502 0.07845194
-0.25388288 -0.050910056 -0.119873345 0.04954416 -0.24131742 0.0018720177 -0.28728625 -0.08409068
-0.066803284 0.07358114 -0.067615926 -0.2693867 0.101245806 -0.124584675 0.28815553 -0.26668173
-0.21724664 -0.3549551 0.028936615 0.041766383 -0.18645987 -0.028252708 -0.03980801 -0.11648745
-0.08203302 -0.16719863 -0.21709211 -0.10094321 -0.02248408 -0.25112477 -0.10527969 -0.11209188
-0.23116782 -0.253373 -0.077649094 0.15970074 -0.09893324 -0.12073135 -0.13062344 -0.26109734
0.045613218 0.07853112 0.13855965 -0.1928234
00000000: 35c7 5ebe 2188 cabe d2cc 203d d87a e7be
00000010: 0671 973f b308 1d3e 5de3 f0be c8db dabe
00000020: 553a 9fbe ec1f 993d d4c3 0dbf dc47 d53d
00000030: e559 babe d292 b9be 489d 0f3e 82f4 933f
00000040: fe46 143e b1ab c5be 8b0d fc3d 15f9 a4be
00000050: 2cfc 9e3f c890 35bf 0d27 88bb 5d44 1cbf
00000060: b6fe 573b b8ed 00be 3dd3 85be a78b 2d3e
00000070: 45ac b23d 5ea4 3bbf 18d1 e13d 5116 463e
00000080: ed6c b7be 883d 873d cb65 803d bd05 b3be
00000090: 8c8c 823d 642d 85bd 5a43 1bbf de8a ffbe
000000a0: f4b4 803d f777 fabd b035 9ebe abe3 a8bd
000000b0: 45b3 003d c73d 1bbe c43a 9b3d 8d80 1cbd
000000c0: 545a f33d dafa a63d e8a3 0fbd 19c2 eabd
000000d0: ca2a 993d 89ec 30be 4ccd 0e3e 69ab a03d
000000e0: f0fc 81be 1087 50bd 2880 f5bd d1ee 4a3d
000000f0: ea1b 77be 7e5e f53a 2f17 93be bc37 acbd
00000100: 29d0 88bd b5b1 963d 387a 8abd 0eed 89be
00000110: f659 cf3d 4026 ffbd 1f89 933e 828a 88be
00000120: e775 5ebe adbc b5be 7b0c ed3c 3a13 2b3d
00000130: 56ef 3ebe 3972 e7bc b90d 23bd f990 eebd
00000140: ee00 a8bd 1e36 2bbe 654d 5ebe 50bb cebd
00000150: 8930 b8bc 6d93 80be e19c d7bd 6d90 e5bd
00000160: 42b7 6cbe 1bba 81be 7d06 9fbd 9788 233e
00000170: 839d cabd ff41 f7bd 27c2 05be 8dae 85be
00000180: edd4 3a3d edd4 a03d 95e2 0d3e 7f73 45be

layers.2.lin.weight f4 [50, 50]
-0.070781976 0.13065581 0.6674201 0.4937473 0.3552565 0.0646413 0.04052207 0.28788894
0.75452983 0.022047568 0.65011686 0.85756993 0.7951987 0.21627468 0.8771267 -0.052036002
-0.0431935 -0.5165415 -0.5926706 0.05295579 -0.15477501 0.25755644 0.6130631 -0.2450404
0.07011071 0.10007931 -0.02786362 1.3635362 0.07604451 0.07405293 -0.079983726 -0.7421684
0.13147782 0.16223459 0.06346257 -0.119501434 0.119133875 0.30995834 -0.42872924 -0.2591993
-0.015291387 -0.09440294 0.6396106 1.0278189 0.09210731 0.28172147 -0.6561929 0.88919896
0.0447667 0.48338643 0.042298507 -0.9459574 0.15063646 -0.4756374 -0.016613116 -0.015600832
-0.04326189 -0.127666 0.16167341 0.1301851 0.18017983 0.16117461 -0.029172203 0.054262206
-0.07717468 -0.22615601 -0.10664979 -0.6157486 -0.6146077 0.0026273727 -0.4119263 0.1239003
0.07463521 -0.22118019 -0.08552065 0.005770246 -0.04961348 0.90537584 -0.20240225 0.07460883
0.09983771 -0.7277916 0.025462925 -0.01926637 -0.104887344 -0.42870757 -0.15169676 -0.15321329
-0.70137733 -0.36319944 -0.035300944 -0.017409042 0.1337507 0.11393776 -0.07711169 -0.25583085
-0.57311547 0.003936879 -0.1423392 -0.49721214 -0.053045068 0.38033682 0.5030457 0.37316754
0.20076206 0.16458392 0.045438614 0.2706142 0.6004589 -0.085002705 0.46539754 0.44362378
0.56984365 0.012603002 0.36476877 -0.10960807 0.10063407 0.42261806 0.33212113 0.10493083
-0.12452564 0.14152035 0.3544153 -0.19201809 0.049003754 -0.072882436 0.0028762645 1.1794468
0.008899021 0.02086249 0.053081617 -0.43328735 -0.1158071 0.1443658 -0.10729745 -0.0028616234
-0.09918381 0.12389811 -0.062695846 0.35216025 -0.079197496 -0.026472297 0.44658166 0.5243616
-0.0997536 0.24625805 0.40009442 0.3917268 -0.14434732 0.54882073 0.005530384 -0.10817765
1.0113903 0.4317191 0.11311939 0.26587826 0.025909003 0.40355015 0.8096161 0.045993052
0.7465709 0.91576016 0.882668 0.005542685 0.83801085 -0.0768216 0.18521458 -0.52848434
-0.4097901 0.08282934 -0.19255958 0.336325 0.88016 -0.11645461 0.1438413 -0.04810136
0.13480131 1.4182926 0.12169175 -0.06522916 -0.02558335 -0.73359317 0.044364646 0.24155672
0.08736326 -0.15468417 -0.018098716 0.104313806 -0.41771194 -0.51821786 0.03200695 -0.1605982
0.9198016 1.0578077 0.08628918 0.1627023 -0.4515336 0.85816944 -0.19609073 0.36099425
-0.036102735 1.2347369 -0.20311889 0.64412874 -0.33943135 -0.24444754 -0.23388226 -0.3182445
-0.16001877 0.12200015 -0.2089711 -0.094173715 -0.14886358 -0.36370116 -0.2164598 0.09968287
-0.17517704 0.83155435 0.7763152 0.12355645 0.6726664 -0.2150215 -0.2792938 0.75360954
-0.20796695 -0.035755485 -0.134122 -1.0797302 0.061662216 -0.032680012 -0.008563386 1.0139551
-0.10338993 -0.295303 0.021048397 0.37026912 0.048772793 -0.24902739 0.83633244 0.56117487
-0.037135154 0.2755371 -0.4277497 -0.6125994 0.03244023 0.082908385 0.88084894 -0.12432969
0.056411847 0.547718 0.056444526 0.4485808 0.5610808 0.511788 0.22479066 0.10350805
00000000: 24f6 90bd a3ca 053e 0bdc 2a3f 72cc fc3e
00000010: 2ee4 b53e a862 843d 78fa 253d 2e66 933e
00000020: de28 413f 1a9d b43c 0f6e 263f b489 5b3f
00000030: 2492 4b3f 1c77 5d3e 608b 603f b423 55bd
00000040: abeb 30bd 103c 04bf 43b9 17bf 2ce8 583d
00000050: 577d 1ebe 70de 833e b4f1 1c3f dfeb 7abe
00000060: 3496 8f3d 62f6 cc3d 3f42 e4bc 5b88 ae3f
00000070: 39bd 9b3d 10a9 973d 82ce a3bd c0fe 3dbf
00000080: 1fa2 063e d320 263e aaf8 813d 2bbd f4bd
00000090: 76fc f33d dcb2 9e3e 6682 dbbe c5b5 84be
000000a0: ba88 7abc 5456 c1bd 85bd 233f 928f 833f
000000b0: c2a2 bc3d cc3d 903e 42fc 27bf 8ba2 633f
000000c0: 4a5d 373d 6d7e f73e 3341 2d3d 442a 72bf
000000d0: 7240 1a3e bf86 f3be 3b18 88bc a29a 7fbc
000000e0: 6133 31bd e0ba 02be b78d 253e 3e4f 053e
000000f0: 1081 383e f50a 253e 8bfa eebc 0c42 5e3d
00000100: c20d 9ebd 7195 67be 356b dabd b3a1 1dbf
00000110: ee56 1dbf 0030 2c3b 01e8 d2be 71bf fd3d
00000120: 58da 983d 0f7d 62be 7325 afbd 5514 bd3b
00000130: 8137 4bbd b6c6 673f 8942 4fbe 84cc 983d
00000140: b777 cc3d 8d50 3abf a097 d03c 82d4 9dbc
00000150: 2dcf d6bd 8f7f dbbe 6556 1bbe f2e3 1cbe
00000160: 778d 33bf 47f5 b9be b997 10bd 689d 8ebc
00000170: f2f5 083e 3358 e93d bcec 9dbd 43fc 82be
00000180: b2b7 12bf ef00 813b 5ec1 11be 9792 febe
00000190: c945 59bd 82bb c23e 9ac7 003f d10f bf3e
000001a0: 9294 4d3e b088 283e d71d 3a3d f28d 8a3e
000001b0: adb7 193f e615 aebd 9648 ee3e a822 e33e
000001c0: 46e1 113f d27c 4e3c f9c2 ba3e 327a e0bd
000001d0: 3c19 ce3d 6561 d83e c80b aa3e fae5 d63d
000001e0: 4c07 ffbd b6ea 103e ec75 b53e 64a0 44be
000001f0: 29b8 483d 6343 95bd b67f 3c3b 1df8 963f
00000200: 33cd 113c d0e7 aa3c 1c6c 593d d7d7 ddbe
00000210: 462c edbd a1d4 133e c4be dbbd 138a 3bbb
00000220: e220 cbbd 4bbe fd3d ae66 80bd 594e b43e
00000230: 4c32 a2bd 6edc d8bc 5aa6 e43e 903c 063f
00000240: 9e4b ccbd 122b 7c3e 2dd9 cc3e 6a90 c83e
00000250: c9cf 13be 847f 0c3f 3938 b53b 3e8c ddbd
00000260: 3d75 813f 490a dd3e 24ab e73d 3221 883e
00000270: 1e3f d43c 209e ce3e 0043 4f3f 3663 3c3d
00000280: 451f 3f3f 426f 6a3f 88f6 613f 699f b53b
00000290: e187 563f a554 9dbd e4a8 3d3e c04a 07bf
000002a0: 02d0 d1be 6ea2 a93d 572e 45be ca32 ac3e
000002b0: 2a52 613f c17f eebd 224b 133e ef05 45bd
000002c0: 5b09 0a3e 9d8a b53f 8639 f93d de96 85bd
000002d0: 2c94 d1bc c3cc 3bbf b4b7 353d a55a 773e
000002e0: 82eb b23d 8765 1ebe c243 94bc 7aa2 d53d
000002f0: 57de d5be eda9 04bf b819 033d db73 24be
00000300: 1e78 6b3f 3e66 873f 62b8 b03d 6f9b 263e
00000310: 692f e7be feb0 5b3f 02cc 48be 3dd4 b83e
00000320: 76e0 13bd dc0b 9e3f 66fe 4fbe 9fe5 243f
00000330: f2c9 adbe 7550 7abe d57e 6fbe f1f0 a2be
00000340: f6db 23be 37db f93d 85fc 55be 26de c0bd
00000350: b26f 18be 0a37 babe a3a7 5dbe 8826 cc3d
00000360: 9c61 33be bfe0 543f 98bc 463f 2a0b fd3d
00000370: dd33 2c3f 992e 5cbe 99ff 8ebe 8eec 403f
00000380: 4af5 54be 5874 12bd 4757 09be 9934 8abf
00000390: 8591 7c3d 7adb 05bd 724d 0cbc 48c9 813f
000003a0: 1abe d3bd f431 97be b06d ac3c ea93 bd3e
000003b0: fbc5 473d 0901 7fbe e219 563f 28a9 0f3f
000003c0: 081b 18bd 3313 8d3e 0202 dbbe 50d3 1cbf
000003d0: 0ce0 043d dfcb a93d 517f 613f 91a0 febd
000003e0: 1c10 673d 3f37 0c3f 6032 673d 62ac e53e
000003f0: fea2 0f3f 8a04 033f 862f 663e 07fc d33d
