experiments/output-gat/Tree_Cycle/multi/42/model.pth (torch, 150205 bytes, 14 tensors)

layers.0.bias f4 [50]
00000000: 0000 0000 3e6c 903d 0000 0000 12f7 8bbc
00000010: 0000 0000 0000 0000 cac8 443d 0000 0000
00000020: 0000 0000 0000 0000 587d 9a3d 6cb5 533a
00000030: 0000 0000 0000 0000 0000 0000 0d2f 50bb
00000040: fc73 d63d 3ae0 603d 6403 523d e4b6 c4bb
00000050: 755f cabb 0000 0000 01a0 8f3c 3162 a73d
00000060: 0000 0000 b991 7cbc e34f 9e3d 0000 0000
00000070: 0000 0000 0000 0000 b2be c4bb 1c53 5f3d
00000080: 1664 de3d 0000 0000 70ba 43bd 0000 0000
00000090: 0000 0000 e05e 403b 0000 0000 0000 0000
000000a0: 0000 0000 0000 0000 8dec 1cbc 3aa2 873d
000000b0: 028c bebb 0000 0000 4ac5 a33d 2b6c ca3d
000000c0: 313d 06bc 733a 22bc
0.0 0.070518956 0.0 -0.017085586 0.0 0.0 0.04804305 0.0
0.0 0.0 0.07543439 0.0008076045 0.0 0.0 0.0 -0.0031766326
0.10471341 0.05490134 0.051272765 -0.0060032476 -0.00617593 0.0 0.01753235 0.081730254
0.0 -0.015415602 0.07730081 0.0 0.0 0.0 -0.006004178 0.05452262
0.10858934 0.0 -0.047785223 0.0 0.0 0.0029353425 0.0 0.0
0.0 0.0 -0.0095778825 0.06622739 -0.00581503 0.0 0.07996614 0.09883913
-0.0081933 -0.009901631

layers.0.combine_aggr.weight f4 [50, 200]
00000000: 1c6f 5d3d 5e65 703d 82b4 87bc 7507 853d
00000010: 34d6 7dbc 80c7 693c 1f02 0dbd 6218 2a3d
00000020: 7652 7f3d 3e7b 54bd 02bf 7b3d 18d4 583c
00000030: 5efb 553d 48e6 1c3c 16a8 0b3d b892 23bc
00000040: ba45 5f3d 783d 2b3c 1736 07bd 24a7 933c
00000050: 8f71 05bd 08dd 07bc a445 ebbc fc21 403d
00000060: 44a0 64bd da85 05bd a691 a3bc aa25 2ebd
00000070: b0b0 da3b fe07 8fbd bfc8 823d 4408 76bd
00000080: 5e9a 5f3d f0cc 403c c616 bcbc 3afa 323d
00000090: 908e 343c de02 6a3d 804c fd3b 04af b6bc
000000a0: 64a3 9b3c 7c15 9dbc 68c9 f33c 614b 813d
000000b0: 886c 273d c63c fdbc 9831 273d 504a 4f3c
000000c0: b215 133d 1288 30bd a45a 8fbd cecd dfbc
000000d0: 5027 5ebd 4aa7 6d3d 78d8 a63c 28f0 ef3c
000000e0: b432 b73c c03a a1ba e6aa 623d 67c9 4dbd
000000f0: d0e3 913b 4caf 45bd d89d b23c d07c c7bc
00000100: cc7e b13c 5c5e 71bc b237 703d 32aa 2bbd
00000110: 3ebc 2cbd e9be 2cbd d540 823d 280a c13c
00000120: 4b59 8b3d 8a06 6fbd 96a3 8fbd c698 62bd
00000130: e2d4 42bd d49f ea3c 706b cf3c 52a9 703d
00000140: a192 15bd e071 45bd feab 193d e823 eabc
00000150: b0c8 2f3d 9075 89bc a4ae 253d b308 61bd
00000160: 8529 12bd 749a b03c b0eb 743c 1ab0 93bc
00000170: e2a3 2c3d d0e4 443d 5c08 52bd f09f 1abd
00000180: 1d9a 843d 3876 c3bc 9c5b cdbc 681f 8cbd
00000190: efdc 25bd a4b3 903c d0ea 18bc 323d 52bd
000001a0: c066 d93a 70d7 45bd d0b8 75bd 2b7d 1fbd
000001b0: 0f7d 7dbd 476b 38bd 43c2 903d f0d0 5a3c
000001c0: 5481 b23c 2f11 87bd d638 3ebd 8acf c0bc
000001d0: e028 353c 3ada 7ebd 9e96 f9bc 9864 2dbd
000001e0: 007a 4d39 948b d7bc c08f a0bb 3643 44bd
000001f0: 21cd 46bd a2f8 28bd a647 c6bc a599 64bd
00000200: cad8 723d e0ec 65bc 9232 793d d47c b43c
00000210: 3542 75bd 506f 483d 8461 9fbc d20b debc
00000220: 036a 70bd 48f8 8fbd a4bb a53c 8c12 7dbc
00000230: 2085 e13c 86b0 6dbd cc07 573d cc9a 54bd
00000240: d40b 48bc 00fb 713c c285 153d 72d2 693d
00000250: c7eb 833d a0a7 65bd 00c8 913c d427 f9bc
00000260: d0e9 fdbb 30c9 58bd 0be8 833d 2593 54bd
00000270: 2acb 1a3d 5893 cb3c 103c bc3c 7f96 1cbd
00000280: 57a1 833d 0896 7e3c 5808 153c 193d 7fbd
00000290: e02a f33c 6ccd 2dbc ddaf 04bd 0ac7 783d
000002a0: 5025 813c f83e 20bd ef97 12bd 004e 5dbb
000002b0: feb7 213d 6005 94bc 9241 25bd 365d c6bc
000002c0: 4260 58bd 6895 ce3c 9e2f 603d cb55 88bd
000002d0: b488 863c f89e 153d 0813 523c 184a cebc
000002e0: ac2b 173d 7434 183d 109a d83c d493 4bbc
000002f0: a863 99bc 40e1 f73b 70a8 4cbc e49e acbc
00000300: 5422 393d a2e8 783d b061 e5bb e6b1 81bc
00000310: 803e 873a d058 8abb d842 8b3c 2454 a23c
00000320: 7da2 44bc 9e8f a3bd c621 9b3d c96b d6bc
00000330: 5635 6bbd 88de b3bc ded4 c5bd 40c9 efbd
00000340: 2f28 9dbd 7939 9d3d 0a41 cb3d ec35 b0bc
00000350: 2366 edbd 4a78 c5bd 2b21 2c3d 2072 703c
00000360: 8804 833d d30d 94bd 0250 cabc f8f1 dc3c
00000370: da54 d73b 5bea 13bb 96a0 b0bd 9c3e 8bbd
00000380: 8c30 89bc e675 cd3d 1243 dc3d 61ee dabc
00000390: be73 d3bd 3bb4 fcbd d0be e2bd a9d2 ab3d
000003a0: 1164 b43d 05a0 cd3b 7c48 87bc 4267 923d
000003b0: 21d0 573d 2a60 dcbd 26e2 e8bb 60a6 45bc
000003c0: 49a0 a93d 2e84 b5bd 098d 8abd 307b 553c
000003d0: 2885 283d 914d 8e3b 744e c43b c375 f8bc
000003e0: e4ab 99bd 92c2 c73d 55b9 843d b7d8 08be
000003f0: 9a9c d03d dbff e9bd 4688 d1bd 60c1 213d
0.05406104 0.05869042 -0.016565565 0.06495563 -0.015492965 0.014268756 -0.03442585 0.04152716
0.0623345 -0.051875345 0.061461456 0.013234161 0.052241676 0.009576388 0.034095846 -0.009983711
0.054509856 0.010451667 -0.03301057 0.018024035 -0.032579 -0.008292444 -0.02871973 0.04690741
-0.055816904 -0.032598354 -0.019966912 -0.042516388 0.006673895 -0.06983946 0.063859455 -0.060066476
0.054590575 0.011767611 -0.022960078 0.043695666 0.011020318 0.05713164 0.007730067 -0.02230025
0.01899881 -0.019175284 0.029759124 0.063132055 0.040874988 -0.030912768 0.04081878 0.012651995
0.035909362 -0.043098517 -0.0699971 -0.027319815 -0.05423671 0.058020867 0.020366892 0.02928932
0.022363044 -0.0012300834 0.055338763 -0.0502409 0.004452206 -0.04826288 0.021803781 -0.024351507
0.021666907 -0.01473197 0.058646865 -0.041910358 -0.04217171 -0.042174254 0.06360022 0.023564413
0.06804141 -0.058355846 -0.070136234 -0.055321477 -0.047566302 0.028640665 0.025319785 0.058755226
-0.03651679 -0.048204303 0.03751754 -0.028581575 0.042916 -0.016779691 0.040449753 -0.054939937
-0.035684127 0.021558024 0.01494877 -0.018028308 0.04214848 0.048069775 -0.051277503 -0.037750185
0.06474707 -0.023860082 -0.025068097 -0.06841928 -0.0404939 0.017663784 -0.009333327 -0.05132789
0.0016586408 -0.04830116 -0.059990704 -0.03893773 -0.061886843 -0.045024183 0.070683025 0.013355479
0.021790184 -0.065950744 -0.04644092 -0.023536462 0.011057109 -0.062219836 -0.030467328 -0.04233226
0.00019595772 -0.026311673 -0.004899949 -0.04791566 -0.04853547 -0.04125274 -0.024204087 -0.05581059
0.059288777 -0.014033526 0.060839243 0.022032179 -0.059877593 0.04893428 -0.019455679 -0.027105246
-0.05869485 -0.07029778 0.020231076 -0.015446316 0.0275293 -0.058029674 0.05249767 -0.05190544
-0.012209851 0.014769316 0.036504515 0.057085462 0.06441455 -0.056068063 0.017795563 -0.0304145
-0.00774882 -0.052926242 0.06440743 -0.05189814 0.03779141 0.024850532 0.022977859 -0.03822946
0.064272575 0.0155387 0.009096228 -0.062314127 0.02968353 -0.010608058 -0.03239428 0.060736693
0.015764862 -0.03912255 -0.035789426 -0.0033768415 0.03948211 -0.01806897 -0.040345736 -0.024214368
-0.052826174 0.025217727 0.05473291 -0.06656989 0.016422607 0.036528558 0.01282192 -0.025181815
0.036906883 0.0371594 0.02644065 -0.012425382 -0.018724278 0.0075646937 -0.0124913305 -0.021071859
0.045198753 0.06076873 -0.0070001706 -0.015831899 0.0010318309 -0.004222013 0.016999647 0.019815512
-0.012001631 -0.07986377 0.07574801 -0.026174443 -0.057423912 -0.021956697 -0.09659742 -0.11708307
-0.0767368 0.07676978 0.099245146 -0.021510087 -0.11591747 -0.09642084 0.04202382 0.014675647
0.06397349 -0.07229199 -0.024696354 0.026970848 0.0065713944 -0.0022570107 -0.08624379 -0.06799051
-0.016746782 0.10032253 0.1075498 -0.026724996 -0.103248104 -0.12339064 -0.11071551 0.083897896
0.08808149 0.0062751793 -0.016514055 0.07148601 0.05268872 -0.10760529 -0.007107037 -0.012063593
0.08282525 -0.08863102 -0.067651816 0.0130298585 0.041142613 0.0043427427 0.0059907977 -0.03032959
-0.07503489 0.09753908 0.06480662 -0.1336392 0.101861194 -0.11425754 -0.1023107 0.039491057

layers.0.lin_a.weight f4 [1, 100]
00000000: d601 523d f2dd 93bd acac 6ebd 2a0b 25bd
00000010: a514 a03d 096e 65bc 176d a5bd 7e70 d53d
00000020: 4688 fb3c 1293 2f3d 678b ca3c 08f1 443c
00000030: c174 a43d 263d 8abd bfee 843d 52f1 98bd
00000040: 1552 e53c f24e b3bd 6789 92bd 2322 823d
00000050: cbab 05bd 9990 d6bc 2c88 7c3d 0762 d03d
00000060: 565d bdbd 1615 a03b 4fe8 e43c 096c a73d
00000070: 4830 57bd e69c 7ebc 1420 80bd 4242 2d3d
00000080: 5fe8 623d 3f06 8fbc 5d0d 6e3c 8a96 94bd
00000090: b841 1dbd a18b efb9 f394 803c 3a04 8a3c
000000a0: d74e ee3c 0494 babd 90ff 83bc 145b 92bc
000000b0: ee60 823d 2145 743d baca 82bd 9216 33bd
000000c0: e126 80bd e96b 2cbd ca3a babd 07e3 6e3d
000000d0: 36df 2cbd 5d7f 02bd 4562 f53c 87b8 2cbd
000000e0: 825e b03d 2fdc c53d 0673 adbd a772 8cbb
000000f0: 549c 6b3c b9ac 4c3d 107a ebbc 016d ddbb
00000100: 913e 00bd 5724 c53c 5cfe 8c3d 6166 8f3c
00000110: 6d3f e63b bf5d bfbd 1031 83bd adbc 83bd
00000120: 1810 eebd edad cb3d afb3 42bd 9114 74bd
00000130: 9765 3dbd c325 263d 257c 9abd d693 88bd
00000140: 6493 a1bd 5131 1e3d 7948 d83c 9371 d9bd
00000150: 7558 32bd b504 b7bd ceaa 1e3d a4e3 a93d
00000160: c44b d83b b9ac 75bd ad9d 90bd 2588 cb3c
00000170: 74fa fcbc 6650 76bc 7c8c 8dbd 8c32 9a3b
00000180: d249 0c3d 9e1e bf3d 9970 d03d 8779 2fbd
0.051271282 -0.07220067 -0.05827014 -0.04029385 0.07816438 -0.014003285 -0.08077448 0.10421847
0.030704629 0.042864867 0.024724675 0.012020357 0.080300815 -0.067499444 0.0649085 -0.07467903
0.027993241 -0.08755292 -0.07155114 0.06354167 -0.032634538 -0.026191996 0.0616533 0.10174947
-0.09246318 0.004885326 0.027942805 0.08174903 -0.05253628 -0.015540337 -0.062561184 0.042299516
0.055397388 -0.017459033 0.014529553 -0.072552755 -0.038392752 -0.00045689664 0.015696025 0.016847719
0.029090328 -0.09110263 -0.016113073 -0.017865695 0.06366144 0.05963624 -0.06386323 -0.043722697
-0.062574156 -0.0420951 -0.090932444 0.05832198 -0.042205058 -0.031859744 0.029954085 -0.042168166
0.08611776 0.09661137 -0.084692046 -0.0042861286 0.014380533 0.04996941 -0.028744727 -0.006757379
-0.031309668 0.02406518 0.06884453 0.017504873 0.007026604 -0.093440525 -0.06405842 -0.064324714
-0.116241634 0.09945283 -0.04753464 -0.059589926 -0.04623946 0.040563356 -0.0754321 -0.066688225
-0.07889441 0.03862125 0.026401745 -0.10617366 -0.04354139 -0.08936445 0.03873711 0.08295372
0.006600829 -0.059979174 -0.07061324 0.024845192 -0.030881144 -0.015033817 -0.06911561 0.0047057327
0.034250088 0.09332012 0.10177726 -0.042840507

layers.0.lin.weight f4 [50, 10]
00000000: 4135 8f3e 812d 343e abc6 1c3e 7036 6fbe
00000010: e8e2 75be 3fa8 303e 1c87 883d 1511 7f3e
00000020: 5347 5a3e db8d 4bbe 16d3 09bc e01f a1be
00000030: 0937 77be f731 a63c 40a1 acbd 3082 89be
00000040: 0d5a 263d fd7f 1c3e 413a c1be 0b85 6b3e
00000050: 7ba5 6d3e 47c5 fc3c f41e 7fbe 3861 9cbd
00000060: e3b6 1d3e f024 9ebd 5434 3ebd 45ac 95bd
00000070: cea6 a83e de77 a63e a2af 9bbe 6bb4 1ebe
00000080: 9e7f 6a3e 11e9 9abd 7576 58be 782b 9dbc
00000090: 2f69 453e e705 c8bd 5c2e b6be 710b 27be
000000a0: 0c69 b23d b699 efbd 40d6 1c3e dda5 1d3d
000000b0: ae3a 8abd 2bf3 4e3d ee53 e7bd 24c6 aebe
000000c0: d5bb aebe 2755 a3be f176 7b3b 10a2 32be
000000d0: beeb cd3d f144 b93d 29f2 963e fb6c 933d
000000e0: 4364 dd3d 78a6 2a3e a52c 10bd 49b2 d3bd
000000f0: dcc0 b8be c523 bebe 2e6c 2ebd fe06 5abe
00000100: 0ef8 c53c 9947 793c 02a8 3b3e 03dc d0bd
00000110: 0b89 84bd 1a98 1e3e 4165 b7bc 2cbd 8c3d
00000120: 55b2 7cbe 8af1 9bbe 9309 293e 27fe 183e
00000130: 5772 48be 875d c0bc 32e9 b6be 2ab3 5cbd
00000140: a3ae b8be 689b e43d 29d6 c2be 93d5 12be
00000150: 3966 693e dd6c 32be da35 80be 4865 5f3e
00000160: e183 68be 90a0 2c3b 2046 643e 814d 063e
00000170: 9a6b 30be 7698 aa3e e293 4a3e 1e54 1cbe
00000180: 5883 09be f314 dbbc fc54 1b3e 72bd 293e
00000190: 42a2 e13d 0ebe 8d3e eba0 c43e cdbd 093e
000001a0: 3ef5 453e 4246 7f3e 4350 073e 532c b63d
000001b0: 9322 b53e 8b56 933e 5d0a 0f3e 1274 42be
000001c0: 6f45 5fbe 260a 74be a6cf a9be a8b4 cabd
000001d0: 53fe e33d 9d16 a8bc c8ff 36be 1880 e2bd
000001e0: e33f 9dbe fc2c 89be 2827 12bd 727e 7ebe
000001f0: ea85 d3bc 66b4 483e ee95 843c d689 353e
00000200: d7c0 87be ccb6 67bd 1b97 bebe de5b 73bd
00000210: 93d0 96be 08d5 703e 77f4 a9be 3370 3e3d
00000220: 6e64 80be ee68 d43c 738b 81bd 9700 d1bd
00000230: 8cbb 66bd d719 8a3e 6ca8 183c bb2f bf3d
00000240: 4bbe ecbc 5bfb 27be 43ec 85bd 9929 b33e
00000250: 871c bc3e d9e7 a4bd 9ddc 0cbd fbce 6ebc
00000260: 2d2d 5a3e a561 b2bc 4ca6 51bd 27ae 21be
00000270: 90e3 4d3a 3af4 c2be 3e48 c3be 5c0b d2bd
00000280: 4285 19be f4d0 19be 6fe5 803c 17bc 7a3e
00000290: cd56 673e f4b7 25bd 59c5 403d fbd7 b93e
000002a0: da1f 0d3e 52a4 913e f161 4cbe 3904 b4be
000002b0: 0064 5cbe 8d31 27bd 19af 14be d410 77be
000002c0: 6723 713e 1a93 b8be d322 78bd 652a 6b3d
000002d0: a73e 18be 9c1e 973d c7ef 7ebd 77af 80be
000002e0: e7f5 70be d18d 52be d286 bebe 4bf0 083e
000002f0: 17f1 673e 093a 67be 90c3 a53d d314 2f3e
00000300: 0490 1e3e 47b7 e1bd 23e6 01be 440c bf3e
00000310: 4171 7f3e deca b83e a018 933e de21 2b3d
00000320: c0c6 913e 08cb 543d 244d 763d f470 99bd
00000330: be0e 9e3e 5c4b a8bb b732 dd3d 7da0 42be
00000340: 5eaa 2e3e 03c2 b4bd 4b28 06be 27fc b3bd
00000350: 8309 6c3d 7145 3fbd 979e 93bb 01ae 87be
00000360: e0da 98be e053 5e3d a260 42be 2a1c aabe
00000370: 19cb 4cbe a26a c2be 0c85 cebb 866b 3cbd
00000380: cedf 633e 99b7 79be b59f 6ebe f053 c53b
00000390: 9c3d 1cbe 0e33 353e c542 a7bc a668 9abd
000003a0: bd66 42be 35f8 fa3d 26bf 5dbe de2c 703d
000003b0: a7da 093e 2716 a2be 6f8a b2be 80c8 7cbe
000003c0: 75b8 563e a88b eebd 9ae7 b33d 4278 d83d
000003d0: c0a6 fe3d 5d90 d3bd 8254 8d3d 53dd 8d3e
000003e0: b932 633e 2068 f23d 2058 49be e986 503e
000003f0: 0a86 91bd e966 8d3e 05ab 3e3e 8593 50bb
0.27970317 0.17595483 0.15310161 -0.2336061 -0.24012339 0.17251681 0.06666395 0.2490886
0.2131627 -0.19878332 -0.008412143 -0.3146963 -0.24142088 0.020287497 -0.084291935 -0.26857138
0.040613223 0.15283199 -0.37739757 0.2299997 0.23207657 0.030855788 -0.24914151 -0.076357305
0.15401797 -0.07721889 -0.046436623 -0.073082484 0.32939762 0.32513326 -0.30407435 -0.15498511
0.22900245 -0.07563985 -0.21138938 -0.019185767 0.19278406 -0.09766751 -0.35582244 -0.16312958
0.08711442 -0.1169924 0.15316105 0.038488258 -0.067494735 0.05052487 -0.11295305 -0.34135544
-0.3412768 -0.31900904 0.0038370455 -0.17444634 0.1005473 0.09046353 0.2948163 0.07198521
0.10810139 0.16665065 -0.035198826 -0.103367396 -0.3608464 -0.37136665 -0.042583637 -0.2129173
0.024166133 0.015214824 0.18325809 -0.10198214 -0.06471451 0.1548771 -0.022387149 0.06872019
-0.24677403 -0.30457717 0.16507559 0.14940701 -0.19574867 -0.023482097 -0.3572479 -0.0538818
-0.36070737 0.11162454 -0.38054016 -0.14339285 0.22792901 -0.1742434 -0.25041085 0.2181598
-0.22706558 0.002634082 0.22292376 0.13115503 -0.17228547 0.33319443 0.19782975 -0.15266463
-0.1342901 -0.026743388 0.15169138 0.16576174 0.11017276 0.27684063 0.3840402 0.1345131
0.19331834 0.24929145 0.13214211 0.08895173 0.3537794 0.28776965 0.13968797 -0.1898959
-0.2180383 -0.23831996 -0.33166236 -0.09897739 0.11132493 -0.020518595 -0.1787101 -0.11059588
-0.30712804 -0.26792133 -0.035681874 -0.24852923 -0.025820691 0.19600067 0.016184773 0.17728361
-0.26514313 -0.056570813 -0.3722466 -0.059413783 -0.29456005 0.23518765 -0.33194324 0.04649372
-0.25076622 0.02592894 -0.06325426 -0.10205191 -0.056331202 0.2697284 0.009317499 0.09335276
-0.028899333 -0.16404478 -0.06539204 0.34992674 0.36740515 -0.08052034 -0.03439008 -0.014575715
0.21306296 -0.021775076 -0.051183984 -0.1578909 0.0007854039 -0.38076955 -0.38141054 -0.10256073
-0.1499224 -0.15021116 0.015734402 0.24485813 0.22591706 -0.040458634 0.047063205 0.36297593
0.13781682 0.2844568 -0.19959237 -0.35159472 -0.21522522 -0.04081874 -0.1451992 -0.24127513
0.23548661 -0.3604973 -0.060580086 0.057413477 -0.1486765 0.07378885 -0.06224039 -0.2513387
-0.23531304 -0.20561911 -0.37212235 0.13372914 0.22650562 -0.22580732 0.08093941 0.17097788
0.15484625 -0.110212855 -0.12685446 0.37314045 0.24945547 0.36092275 0.28729725 0.041780345
0.28471947 0.05195144 0.06013216 -0.07492247 0.30870622 -0.0051359367 0.10800689 -0.19006534
0.17057177 -0.08826067 -0.13101308 -0.087883286 0.05762626 -0.046697084 -0.0045049894 -0.26499942
-0.29854488 0.05427921 -0.18982175 -0.33224612 -0.1999935 -0.3797198 -0.0063024815 -0.04600098
0.22253343 -0.24386443 -0.23303111 0.006021969 -0.15257877 0.17695257 -0.02041758 -0.07539491
-0.18984504 0.12254373 -0.21654949 0.05863654 0.13462315 -0.31657526 -0.3487124 -0.2468586
0.20968802 -0.11647731 0.08784409 0.10569812 0.12434149 -0.103302695 0.06900884 0.2770792
0.22187318 0.118362665 -0.19662523 0.20363964 -0.07105644 0.27617577 0.18619926 -0.003182621

layers.1.bias f4 [50]
00000000: 48bf 71bd 0000 0000 86f9 08bc 1fdc 373d
00000010: 0000 0000 be78 193c 851b 30bb b22a 27bd
00000020: e823 b6bb 0000 0000 0000 0000 7879 ffbc
00000030: 4170 17bd 5cc6 77bd 0000 0000 c6fb b0ba
00000040: 0000 0000 dac8 c4bb c91a 17bd 0000 0000
00000050: 2b92 26bd 0962 c9bb ffb8 aebb 5e89 dbbb
00000060: 0000 0000 0000 0000 8ee3 d33c a0c8 c4bb
00000070: d792 5e3c 02e3 94bc f4da b1bb 0000 0000
00000080: 0f15 58bd 3f70 163d 7c46 48bc 4664 f1ba
00000090: 0000 0000 8fc8 c4bb 41ce 3abd 6b9b 0abc
000000a0: 0000 0000 1da2 c4bb 0000 0000 37c2 e7bb
000000b0: ddb4 48bd 05a9 b5bb 0b72 fdbb ea10 babb
000000c0: 0000 0000 8f37 d3bb
-0.05902031 0.0 -0.008360272 0.04488766 0.0 0.009367166 -0.0026871872 -0.0408122
-0.0055584796 0.0 0.0 -0.03118585 -0.036972288 -0.060491905 0.0 -0.0013502769
0.0 -0.0060053887 -0.03689078 0.0 -0.04066674 -0.00614572 -0.005332112 -0.006699725
0.0 0.0 0.025865342 -0.0060053617 0.013584814 -0.018174652 -0.0054277126 0.0
-0.052754458 0.03672814 -0.012223836 -0.0018416725 0.0 -0.0060053538 -0.045606855 -0.008459906
0.0 -0.0060007707 0.0 -0.0070727128 -0.04900061 -0.0055438303 -0.0077345422 -0.005678286
0.0 -0.006445832

layers.1.combine_aggr.weight f4 [50, 200]
00000000: e3dd c4bd 8b47 25bd 5db9 8a3d 739a 8fbd
00000010: 37a6 07be 9627 503d 05a5 dd3c 99db 893d
00000020: 7b55 b9ba ed67 ec3d cd36 f33d 8641 c53d
00000030: 41bd a3bd b719 ea3c 4ae0 af3d 9a92 7d3d
00000040: b4b4 a03d a149 8f3d e512 bcbc bf4b bcbd
00000050: dcf3 ebbd 01ea 1b3d 8d42 e93d 20a9 873d
00000060: e560 11bd f67a 7fbd bb91 81bd be89 d4bd
00000070: 3148 fabc 85b6 2e3d ca43 943d 8eb3 7c3d
00000080: 5559 c1bd 2363 8d3d 63eb f2bd fcae d63c
00000090: 8815 82bd 399c 5c3d 1669 0abe 4677 1bbd
000000a0: 4f3a 693d 5cac 7bbc 06d4 c1bd cfbf b5bd
000000b0: 9ca3 3abd b439 85bd 2448 01be 97ad b63d
000000c0: 1b7b 953d 28d8 1cbb 20b6 acbc 4f85 643d
000000d0: 8eac f8bd a932 323d 3cd6 f43c 3b78 e5bc
000000e0: 71d2 44bd 6c6a 9ebd 53d7 16bd 4747 8cbd
000000f0: 64ef eabc 5116 73bb 2234 a43d 3875 54bd
00000100: faf4 68bd b20d a9bc 9e87 81bc c460 fbbc
00000110: e9df 243c a1b5 b1bc 3059 64be b4f5 a8bd
00000120: 09a0 a93b 0979 cebd 6b27 bebc 6469 973d
00000130: cdec 333d ff46 16bb 3abd 8c3d ccdf 1f3c
00000140: b2d2 833c 38dc 46bc 607d 263d 5758 533b
00000150: 389b 4d3d b84b 0e3e c919 d23d b33c b6bd
00000160: 5646 b8bc d2a2 a9ba 5ada 5abd 1289 063e
00000170: 8a87 86bd 75eb 8b3d c343 0c3e b7c4 4c3d
00000180: c4eb c4bc 51ac b1bd 529d 05bd 18da 873d
00000190: 1d6e 7cbd d5bc 0abd afba 7f3d a0bc 12be
000001a0: 09a9 7dbd 4b48 ce3d de27 cf3c 3e16 abbc
000001b0: 5373 3bbd c621 bfbc 7cfa af3d 8522 623d
000001c0: 918a 03be 8590 04bd 7748 09bd b738 ee3d
000001d0: cdb0 4d3d 8849 453d 7d22 aabd 7db2 54bd
000001e0: 13e7 3ebd b229 803d f6a3 843d 16b1 ab39
000001f0: 679a 64bc 730b 68bd e556 5fbd ade2 22bd
00000200: 7c33 f1bd d4a0 953d b4c3 e8bc 0824 0e3d
00000210: 9027 0bbe 63d3 d6bb 3ea8 f9bd dc25 e33d
00000220: 7fd7 1cbc bb35 9a3b a9c8 b3bd 4bb5 11be
00000230: 8740 04bd 1a59 dbbd 3a12 b0bd 0e4e 1dbe
00000240: a4d1 91bd 3ed3 9dbd 88fb b1bd 8db2 103d
00000250: 1fdd 3c3d 16df 2abc 4402 b5bd 08ee a4bd
00000260: f091 6c3d 6765 9ebc d8cc 46bb aaa0 193e
00000270: 0882 183d ca7d 203d 55e3 7c3b 1fd7 e83d
00000280: baec 033e 1f31 963c bdb4 63bd bc33 e33d
00000290: de5d d13d 262b 373d c568 9b3d f16c 073d
000002a0: 3ea2 87bb 9fd8 95bc 6a12 b5bd a961 a13d
000002b0: 2cd6 b83d 42c0 0d3d d627 0a3e a7e4 0abd
000002c0: 2e43 b8bc 3f28 bebc 537a 9fbd 73ea d33d
000002d0: 29fd 163e bc9a 003e cafc 85bc 64c1 c43d
000002e0: 622b b5bc b806 913d 14d2 bebb daf6 e13d
000002f0: 0df0 9cbc ec32 b1bd e487 8d3d fb82 093d
00000300: a4be 8fbc b294 b1bd 140c a93c e544 b0bd
00000310: d5c9 6ebc 65d0 d63d 9673 183d 27cc c43c
00000320: 0ecd 4e3d 4602 503d b8da 9e3c 0c69 ee3c
00000330: c0ca aaba 3b6b 19bd a469 b03c 7403 fabc
00000340: 646a 953c 22a4 14bd fc4e f5bc 342a 64bd
00000350: e631 9cbc a4b8 2e3d d417 b43c 407d bbbb
00000360: 44d5 373d 64b7 4e3d 2c18 f8bc b25c 56bd
00000370: 5e0b 5f3d ce59 83bd 2c8c 5fbd ea95 6dbd
00000380: 2abf 3abd f1fc 43bd 8076 0c3b 18c2 fdbc
00000390: 4ae6 5e3d 0f17 81bd e49b 5abd 4687 85bd
000003a0: 383a 7fbd 1c8b 8c3c 0680 48bd c01d 7dbc
000003b0: 33c3 13bd dc12 9cbc 8282 f2bc b261 383d
000003c0: 2e40 00bd 0f7c 10bd 38a8 243d 4ba3 833d
000003d0: 4abf 6b3d 90a5 2cbc 00dd 4e3c be43 16bd
000003e0: d0ce e2bb 88c2 023c 6c41 29bd 2c37 29bc
000003f0: 8274 0a3d 4cb5 903c 2bc5 863d d8d5 c6bc
-0.09612634 -0.04035143 0.067736365 -0.07011881 -0.13247 0.050819002 0.027056227 0.06731338
-0.0014139855 0.1154326 0.11875687 0.09631638 -0.07995082 0.028576715 0.085877016 0.06190739
0.078469664 0.069964655 -0.022958228 -0.09194135 -0.11521122 0.03806496 0.11389647 0.06624055
-0.035492796 -0.062373124 -0.06326624 -0.10377835 -0.030552002 0.042654533 0.07239492 0.061694674
-0.09440867 0.069036745 -0.11861303 0.026206486 -0.06351763 0.053859923 -0.1351665 -0.037955545
0.056940373 -0.015360918 -0.094642684 -0.08874475 -0.045566186 -0.065051466 -0.12625176 0.089198284
0.07298871 -0.002393255 -0.021082938 0.055791195 -0.12142287 0.043505345 0.029887311 -0.028011432
-0.048052255 -0.07735142 -0.036826443 -0.068495326 -0.028678603 -0.003709216 0.08017756 -0.0518696
-0.056874253 -0.020636413 -0.015811738 -0.03068579 0.01006315 -0.021693053 -0.22299647 -0.08249989
0.0051765484 -0.100816794 -0.023212155 0.073931485 0.043927003 -0.00229305 0.068720296 0.009757947
0.016091678 -0.012137465 0.04064691 0.00322487 0.050196856 0.13896072 0.102588244 -0.08898296
-0.022494476 -0.0012942201 -0.053430893 0.13138226 -0.06568821 0.06832019 0.13697724 0.04999229
-0.024038203 -0.08675445 -0.032620735 0.06633395 -0.06162845 -0.03387149 0.062433895 -0.14329767
-0.061928783 0.100723825 0.025287565 -0.02088463 -0.04576428 -0.023331534 0.08592698 0.0552087
-0.12845828 -0.032364387 -0.033516373 0.11631911 0.05021744 0.048165828 -0.08307359 -0.051928032
-0.04660709 0.06257953 0.064765856 0.000327476 -0.013952828 -0.056651544 -0.05452623 -0.039766956
-0.11777398 0.07306066 -0.028413631 0.03470233 -0.1358931 -0.006555961 -0.12190293 0.110912055
-0.009572863 0.004706112 -0.08778507 -0.14229314 -0.0322881 -0.10710354 -0.085972264 -0.15361807
-0.07120064 -0.07706307 -0.08690554 0.03532653 0.046109315 -0.010429164 -0.08838323 -0.08053213
0.057756364 -0.019335462 -0.0030334499 0.15002695 0.037233382 0.03918246 0.003858765 0.11369156
0.12883273 0.01833397 -0.055592287 0.11093852 0.10222982 0.044718884 0.075883426 0.03306288
-0.004139214 -0.01829177 -0.08841403 0.07879955 0.09025225 0.03460718 0.13491759 -0.033909466
-0.022492971 -0.02321255 -0.07787003 0.10347452 0.1474501 0.12559026 -0.01635589 0.09607199
-0.022115413 0.070813596 -0.005823383 0.11033411 -0.019157434 -0.08652291 0.06910685 0.03357218
-0.01754696 -0.086709395 0.020635642 -0.086068906 -0.014574488 0.10488967 0.037219606 0.024023129
0.050488524 0.050783418 0.019391403 0.029102825 -0.0013030395 -0.03745578 0.021534748 -0.030519225
0.018239208 -0.03628934 -0.02994489 -0.05570431 -0.019066762 0.042656556 0.021984018 -0.005721718
0.04488112 0.050467864 -0.030284964 -0.052334495 0.0544542 -0.06413613 -0.054577038 -0.058004297
-0.045592465 -0.047848646 0.0021432936 -0.03097634 0.05441884 -0.06303226 -0.053371325 -0.06519942
-0.06231138 0.017156176 -0.048950218 -0.0154489875 -0.03607483 -0.019051962 -0.029603247 0.045015045
-0.031311207 -0.03527456 0.04019949 0.0642763 0.057555474 -0.01053752 0.012625933 -0.036685698
-0.0069216266 0.00798095 -0.041322157 -0.010328095 0.033802517 0.017664574 0.065805756 -0.02427189

layers.1.lin_a.weight f4 [1, 100]
00000000: 465f babd 92bc c63d e3a8 183d e981 3ebd
00000010: 31e0 303b d033 c8bb a55a 94bc 8e2c ea3d
00000020: f968 753d f147 e83c d89b 983d 124e b23d
00000030: c630 f43c a9cc 3a3d 0139 4cbd acfa 83bc
00000040: 5a4c d83d 2706 673d 0dc2 fd3a f8ed b5bd
00000050: 2279 95bd 4f6c 5abc c03c 893d 854e 94bc
00000060: ef60 ca3d 4407 bdbd 6251 25bd 552e 833d
00000070: 9418 10bd 7344 d13c ef67 b5bb 3847 6d3d
00000080: ab67 97bd 032f 53bd 285b 7cbd f646 3e3d
00000090: edc0 44bd e1a0 55bd 2472 32bd f3f9 86bd
000000a0: 04bf da3d 4d75 22bd c4da a03c a821 913d
000000b0: 379d b6bd 637a 5b3c 7f6c 45bc 3093 dc3d
000000c0: 650e e73c 43cf 873b 6246 fdbd 205d a13d
000000d0: ea95 2cbd c826 0f3d fb7e 1fbc 7fe1 a53c
000000e0: 4600 6cbc 2c94 503d 93e3 bcbd 5b68 703d
000000f0: a4ed 9a3d 353d 873d aaaa ce3d efd1 a23c
00000100: ebd4 3f3c 7f54 893d 1289 003d 983e 6d3d
00000110: 6bca b2bd 9e1c 2f3b 435e 62bd c6b8 9cbd
00000120: 5977 04bd 05ec 09bd 8705 f33c d5c4 f4bc
00000130: 78cc b53d b43d 2c3d 0432 debc 9ea8 283d
00000140: 920f c9bd b1a7 87bd 2d4d ee3d d09c 873d
00000150: 599f 023d 5750 c7bd ab48 cb3d 0773 85bd
00000160: b9c1 fe3c fe1f 9ebd 527d 813d d0f2 debc
00000170: 6bbf c1bd af52 e2bd 671a b9bd cf1e 51bc
00000180: ade2 973a 4124 4cbb b341 fabc d8ec 6cbb
-0.09100203 0.09703936 0.037270438 -0.04651061 0.0026989097 -0.006109692 -0.018109629 0.114342794
0.059914563 0.028354617 0.074516 0.08706297 0.029808413 0.045605335 -0.04985905 -0.01611074
0.10561438 0.05640235 0.00193602 -0.088832796 -0.07298495 -0.013331487 0.0670104 -0.018103847
0.0988177 -0.092299014 -0.040360816 0.064053215 -0.03517969 0.025545334 -0.0055360715 0.057929248
-0.0739282 -0.051558506 -0.06161037 0.046454392 -0.04803555 -0.05215538 -0.043565884 -0.06590643
0.106809646 -0.039662648 0.019635566 0.070864975 -0.08916705 0.0133958785 -0.012049793 0.10770261
0.028205106 0.0041445806 -0.1236694 0.0787909 -0.042135157 0.034949094 -0.009734864 0.020249126
-0.014404362 0.050922558 -0.09223094 0.05869327 0.075648576 0.06603471 0.10091145 0.019875495
0.011708478 0.067055695 0.03138072 0.057921022 -0.087300144 0.0026719938 -0.055265676 -0.0765243
-0.03234038 -0.03367235 0.029665722 -0.029879013 0.0887689 0.042051032 -0.027123459 0.04117643
-0.09817423 -0.066237815 0.11635814 0.066217065 0.031890247 -0.097321205 0.0992597 -0.0651608
0.031098234 -0.07720946 0.06322731 -0.027215391 -0.09460338 -0.11050927 -0.09038239 -0.012763693
0.001158794 -0.0031149539 -0.030548906 -0.0036151912

layers.1.lin.weight f4 [50, 50]
00000000: 04b1 3b3d db4d 18be 5071 03bc f11e f5bd
00000010: dd54 053e fba4 10be dc6d fdbd 46b5 64bd
00000020: d0b0 7f3d 9b3d 81bd 1b7f 13be ce0b af3c
00000030: 228c 39bd 83a4 0c3e 7028 b23d 6962 9f3d
00000040: 97d9 30be 5a0a b8bd caa1 23be 7bab 083e
00000050: 1450 9f3d 0ad3 e2bd a1d8 20be 7900 733c
00000060: a2f7 92bd 700c 393d f27d 36be 0029 e7bd
00000070: a033 45bd 1190 e2bd d5e3 a53d 363c 24be
00000080: b499 c6bd 7fae 0dbe 9513 9e3d c010 bd3c
00000090: effa afbd 76cb aabd f4ac 2d3d 3e3a 46bd
000000a0: ce27 e73d 7639 05bd 571f fc3d fff8 be3c
000000b0: 0bae ce3d 4048 743b 128b b3bd 91e9 2f3c
000000c0: bdd7 a43d e099 433c d034 e73c 5ae0 543d
000000d0: 2f3f 9dbd 9fae ddbd c04d 303c 1cfb 87bc
000000e0: ae66 15be 6cc0 393d 709f de3c 3649 afbd
000000f0: e4df 9ebd 0ada 083d 0069 6bbc 0054 323d
00000100: 901e 05be 0086 21bd 5bf6 0b3d 88b3 81bd
00000110: 2617 a7bd 6274 0dbd 8c2b dcbc 8c48 88bc
00000120: 9d26 08be 024a 2dbe 6022 46bc c799 0f3e
00000130: 3692 1a3d c0d6 e03b a0de 7a3d 58c8 fe3c
00000140: db59 88bd aa87 6fbc a889 d4ba a08a 19bc
00000150: e720 003d a87d 663d 074b 89bd 616c c4bc
00000160: 3833 843d 92ce e43d 746b c5bd 098c 05be
00000170: 1a00 62bd c013 5dbd b35f e0bd ca2b 0fbd
00000180: e9c3 2ebe 62ce 2fbe b8ca 2b3d 663f 903d
00000190: 5818 9c3c c26f 163e 6ad2 0abd fb13 2b3c
000001a0: ee9a d53d 66e9 ef3d 65ee a93d 7047 f7bd
000001b0: 9c1b 0c3d 48b6 d03d 77b5 c83d e627 08be
000001c0: 2a50 3dbd a263 94bd 8456 02be c8d9 02be
000001d0: 4777 173e 3dbe 3ebd fd33 2bbd 4b9c 63bd
000001e0: d8ac 1abc de2e ac3d 9721 dabd d687 45bc
000001f0: a8e5 bcbc 56bc 203d d6c2 f5bc 3c7d 1dbd
00000200: 91bc 9bbd 2c06 02bd 3b01 a23d 0d37 84bc
00000210: d7fa 2b3d 34b9 bdbd 8474 6e3d c603 babd
00000220: a043 063d 3aeb efbd e432 623d dc83 503d
00000230: f3b1 dbbd 447a 93bc 017a a1bd 8d68 a4bc
00000240: 7a58 8b3d 7862 a5bd 4e2a 073e 45fd 013e
00000250: 7aa7 083e 3873 3cbd b06f 00be 4b70 ce3c
00000260: c44c 08bd 8d35 fabd ed40 89bd 81ac 063e
00000270: 9999 2fbe 58a0 fb3c 183d e63c c2d5 61bd
00000280: 05fe 573c 43fe db3d ccd7 c23d 2c16 1c3d
00000290: f8e6 193d d79e 393a 3d3c e4bd 30ec 35be
000002a0: d23f 67bd 0802 9c3c 2794 a63d 802c c33c
000002b0: 43c4 6abd fb7e ecbd 6674 f23d 630a 003e
000002c0: 0a5c 963d 0046 14bc 522a 8ebd 9d7b eabd
000002d0: dc61 08be 2a29 33be c1a1 d5bd e6a8 e13d
000002e0: 6912 43be 5c6b 2cbd 44a4 683d a1a6 c33a
000002f0: 00b4 cb3b 4c27 02bd 0049 dc3b 7f7d b5bd
00000300: 2036 933d 2945 a33c ffc0 dd3c 7247 cb3d
00000310: e7bb bf3c 0e44 43be 8a22 5fbd ab24 eebd
00000320: c0f8 523d 8fe7 3dbe d893 093d 5c1d 85be
00000330: f4c5 933d fe5b c6bd bd8c 3bbe 5204 6abd
00000340: 387d 3f3d 8a8a 77bd 090b 04bc 8095 223d
00000350: 6588 9dbd c0be ffbb fac0 b73d fcbe e3bd
00000360: b89a 9c3d a630 b7bc 519d af3c 7e6e aebc
00000370: c878 cb3d a011 d8bd cdb2 01be b1d0 083d
00000380: deb3 9bbd 8a30 f23d 97bf e0bd 4a28 09be
00000390: 1da4 083e 8a66 ec3d 3aaa 833d bc5d 37be
000003a0: 133f 923b 9096 09bd d7c1 243d c075 063d
000003b0: 90e8 36bc 0655 79be dc7e 54bd 42f6 d83d
000003c0: f99d debd a0cb 693c 9200 dcbd dbe7 83bd
000003d0: cdf9 fdbc b446 99bc 1e14 44bd 527c 94bd
000003e0: 1cda 5bbd aa3c 8d3d 7013 a43c a612 c5bc
000003f0: 6c31 953d 9c26 833e 421f 9f3d fc9f 7f3d
0.045823112 -0.1487345 -0.008022621 -0.11968792 0.13020654 -0.14125435 -0.1237447 -0.05583694
0.06242448 -0.063105784 -0.14403956 0.021367934 -0.045299657 0.13734631 0.08699119 0.07782442
-0.17270504 -0.089863494 -0.15979686 0.13346665 0.077789456 -0.11075409 -0.15707637 0.014831656
-0.071761385 0.045177877 -0.17821482 -0.11287117 -0.048144937 -0.11062635 0.08100096 -0.16038594
-0.09697285 -0.13836096 0.07718579 0.023079276 -0.08592784 -0.08339588 0.04240127 -0.048395388
0.11286889 -0.032525502 0.12310665 0.02331209 0.1009179 0.003727451 -0.0876676 0.010736839
0.08048961 0.011938542 0.028223425 0.05197177 -0.07678067 -0.10824322 0.010760725 -0.01659923
-0.1458995 0.045349523 0.027175635 -0.08558886 -0.077575475 0.033411063 -0.014368296 0.04353714
-0.1299994 -0.039434433 0.03417049 -0.06333071 -0.08158712 -0.03453482 -0.026876234 -0.016636156
-0.1329598 -0.16922763 -0.012093157 0.14023505 0.037737094 0.0068615377 0.061247468 0.03110139
-0.066577636 -0.014619747 -0.0016215341 -0.00937143 0.031281378 0.05627218 -0.067037635 -0.02397746
0.06455082 0.11172213 -0.09639636 -0.130417 -0.055175878 -0.053973913 -0.10955753 -0.03495387
-0.17066921 -0.17168573 0.041941375 0.07043342 0.019054577 0.1469107 -0.033892073 0.010441775
0.10429941 0.11714439 0.08297423 -0.120741725 0.034206018 0.101910174 0.09800237 -0.1329647
-0.04621903 -0.07245566 -0.12728316 -0.1277839 0.14791594 -0.046568144 -0.041797627 -0.055568974
-0.009440623 0.08407377 -0.10650938 -0.012056312 -0.023058727 0.03924211 -0.030000132 -0.03844951
-0.076043256 -0.031744167 0.07910391 -0.016139532 0.041987266 -0.0926384 0.058216587 -0.09082751
0.032779336 -0.11714788 0.055224314 0.050907 -0.107273005 -0.018002637 -0.078845985 -0.020069385
0.06803985 -0.08075422 0.13199732 0.12694271 0.13345137 -0.04600832 -0.12542605 0.02520003
-0.033276334 -0.12217245 -0.06701837 0.13151743 -0.17148437 0.030716106 0.028105304 -0.055135496
0.013183122 0.10741856 0.09513816 0.038107082 0.037573785 0.0007080859 -0.11144302 -0.1776588
-0.05645735 0.019043937 0.081337266 0.02382493 -0.057316076 -0.11547657 0.118386075 0.12503962
0.07341774 -0.009049892 -0.06941666 -0.114493586 -0.1331858 -0.17496172 -0.10431243 0.11018543
-0.19049992 -0.042094573 0.05679728 0.0014926979 0.006216526 -0.031775758 0.0067225695 -0.08861827
0.07188058 0.01993044 0.027069567 0.099257365 0.023405029 -0.1906893 -0.0544763 -0.116280876
0.051506758 -0.18545364 0.03358826 -0.25998962 0.07215491 -0.09685515 -0.18315406 -0.057133026
0.046750277 -0.060434856 -0.008059272 0.039693356 -0.07692031 -0.0078047216 0.08972354 -0.11120412
0.07646698 -0.022362065 0.021437319 -0.021292921 0.099351466 -0.10550237 -0.12665863 0.03340215
-0.07602666 0.11825664 -0.10974043 -0.13394275 0.13343854 0.11542995 0.064289525 -0.1790685
0.0044630854 -0.033590853 0.040223923 0.03282714 -0.011163846 -0.2434884 -0.051878795 0.10593845
-0.10869975 0.014269739 -0.10742296 -0.06440707 -0.031002903 -0.018710472 -0.047870748 -0.07250275
-0.053674802 0.068963364 0.0200288 -0.024056744 0.07284817 0.25615394 0.07769634 0.062408432

layers.2.bias f4 [50]
00000000: ca84 44bc 1a95 bcbb 0000 0000 b866 5ebc
00000010: 51da 20bc ecf3 11bd eb06 05bd bdb3 debb
00000020: 3bdc 00bd 0000 0000 0000 0000 fffe 11bd
00000030: 0000 0000 9d7b 1bbd d020 08bc d573 e7bb
00000040: 6928 dd3c be92 b5bb 6297 09bd 55ba 523c
00000050: e6c2 07bc bac8 c4bb 09ca 9e3c 7b52 7c3c
00000060: 0dbf 83bc 3659 0dbc 64c9 c4bb 7347 0bbd
00000070: 3dc8 c4bb 0867 0ebc 0000 0000 b0c9 c4bb
00000080: b423 13bd 0000 0000 f649 9c3c ea85 0fbd
00000090: 290a 04bd ecc8 eb3d 4658 b53c 08af 16bc
000000a0: 7079 f7bb 38f1 0abc 0169 09bd 70d9 c9bb
000000b0: f6ec 0ebc 76c8 c9bb 7145 bdbb 15bd 46bd
000000c0: fbe1 56bc 0000 0000
-0.01199455 -0.005755079 0.0 -0.013574295 -0.009817676 -0.035633013 -0.0324773 -0.006796329
-0.03146003 0.0 0.0 -0.035643574 0.0 -0.037959684 -0.008308604 -0.007063369
0.026996808 -0.0055411747 -0.033591636 0.012861808 -0.0082862135 -0.006005374 0.019383447 0.015400524
-0.016082311 -0.008627227 -0.006005453 -0.034003686 -0.0060053156 -0.008691557 0.0 -0.0060054883
-0.03592272 0.0 0.019078236 -0.03503982 -0.032236252 0.11512932 0.022136819 -0.009197004
-0.0075523183 -0.008480363 -0.033547405 -0.006159954 -0.008723488 -0.00615793 -0.0057761003 -0.048520166
-0.013115401 0.0

layers.2.combine_aggr.weight f4 [50, 200]
00000000: 9898 5fbd 3d72 863d 0c49 d239 64b2 76bd
00000010: 2a69 08bd fd3b 8c3d 7bee b6b7 730e 463d
00000020: 9231 5a3c 0d66 8c3d 466f 79bd 1e4e 3d3c
00000030: c6ed 9b3c c0ed f8bc c450 01bd 3917 c9bc
00000040: 61ff 8d3b 5529 1abd b720 8dbd ffc7 5c3c
00000050: 6427 a43c 7754 5cbd 23ea febc 7adf 78bc
00000060: f369 b93c aa25 ed3c 0009 963d 3250 6ebb
00000070: eaee 223c f534 2abd 6b62 123d da93 9bbc
00000080: cd2b 803d 9e95 053c 408c 5a3b 0ed1 13bd
00000090: 9908 023d 7ed0 253d 2ec9 223c 34c5 3c3a
000000a0: 3eab 86bd fc16 32bd 7287 73bd cee0 8bbc
000000b0: f3fe f8bc 3d66 cbbc c5ca 793d 9d4f c83b
000000c0: 492f a93c 4b28 053d 149e 4c3d 9c18 583d
000000d0: 1976 d63c 7add 463d bf71 60bd cfd8 123d
000000e0: 2f03 733d 355a 6dbd f7d9 61bd 9e9a f0b8
000000f0: a2fc b43c daae 443d b118 9cbd aa83 5a3d
00000100: 4007 bb3b b50c e7bc 4002 c8bb e0b6 4b3d
00000110: 7030 ae3c 2f41 a1bb c059 41bd 4477 88bc
00000120: 6581 8dbd 551f a7bd 2052 663c fbc1 8ebc
00000130: 740c 64bd 626d 8fbd 2baf 643d 3421 a03d
00000140: 2d70 2fbd 6de2 c0bc d648 5b3d 102d d6bc
00000150: b9dd 843b 9320 06bd 4743 063d 6301 5cbd
00000160: 5032 99bd 80a6 833c 832b c63c e2d8 053d
00000170: 51ee 19bc 79fb cbbc fe8b 05bd aeac 4abd
00000180: 94fd 55bd 3285 783c eb5c 2dbd 30d7 8abd
00000190: 48ea b43b 152f 6f3d 571d 053c a35f 8dbd
000001a0: fa18 433d 9ddf 01bd 2624 643d 237f 22bd
000001b0: 7189 983d f970 e1bb 1287 613d f7fb b53c
000001c0: 735b 2d3d dd43 003c 206a f6bc 478f 81bb
000001d0: dee1 8c3d 36a6 5ebd ffd3 053c 3225 363b
000001e0: 64d9 6f3d d4b9 72bd 39b7 81bd aeb7 073c
000001f0: de4b f0bc 0c48 adbc 006b dc3c 82db 393d
00000200: 1c18 84bd 513a f63b ce14 bbbc 5bb7 183b
00000210: 89f7 a1bc d7e2 683d f59d 4b3d 28d2 783b
00000220: 5ad9 88bc 214a 613d 5fe5 35bd 9940 99bd
00000230: 0b1d 6ebd bced dbbc 051f 1abd 4209 573d
00000240: 19c5 e93b 69a8 18bd 81da 1fbd 0394 503d
00000250: 3edf 5d3d e0f2 13bd e712 4a3d 7da2 6fbc
00000260: 67eb 6dbc 4851 7c3c 6247 47bd 2b4d 95bd
00000270: 0314 b83b f1ad 553d b711 413d 30d4 8f3d
00000280: 6ab8 e73c 3793 e53b f4e4 6aba 4518 5abd
00000290: 1997 853d 59fe 413d f82d 4bbd f881 90bd
000002a0: ff03 e6bc 6045 65bd d4f9 5cbc 87bd 4f3d
000002b0: b536 cebc 4eff 593d 261a 86bc 6c75 a23b
000002c0: 70e1 0e3c 9b06 02bd 79dd bdbc 2d94 b2bc
000002d0: bdb8 45bd 9895 873c 5c58 ad3c a46e bd3b
000002e0: 7abe 383c 53b6 17bd 9999 96bd 1e90 393d
000002f0: a89b 473b b519 9ebd baec 673d a739 c4bc
00000300: a7c4 85bd eb3c 11bd 17c7 b4bc b069 87bd
00000310: 577c b83c 0d57 45bd 8dcd 47bd 76c6 773d
00000320: 7a50 d5bc 9780 283c 2365 11bd 1583 9ebc
00000330: cf6a 0ebd 9e65 cabc d5ff 1bbd 83b7 46bc
00000340: 84ab 023d cc67 343d 2f50 fe3c 3ad4 28bd
00000350: 9072 80bd 63b0 76bc 8e97 a33d 6279 7f3a
00000360: 95c8 923d 5c23 2c3d 227a 1c3d 23cd 17bc
00000370: 9b50 a93c 5ff7 71bd 9a76 083b c635 f53c
00000380: 2798 25bd e943 45bd cb26 e7bc 5f2c 1dbc
00000390: 24cf c2bc e24a 203d 27c8 06bd 4e57 973d
000003a0: 50dd b0bc 2f03 163d a47d 433d 3e92 653d
000003b0: 7ac3 a1bc cdce eabc 430b cdbc 4c30 7fbd
000003c0: d383 b1bc 9ccf 08bd 5486 243d 2f0e 883d
000003d0: 6607 2b3d 86b2 4cbc fb88 20bd 1988 14bd
000003e0: 52bb 423d 7a3f 97bd de81 2fbc 3558 61bd
000003f0: c568 a7bc 059c 83bd 986d 6dbd 2382 1f3d
-0.054588884 0.06564758 0.00040108745 -0.06022872 -0.033303417 0.06847379 -2.1807142e-05 0.048353624
0.013317483 0.06855402 -0.060897134 0.011554269 0.019034278 -0.030386806 -0.031571165 -0.024547206
0.004333422 -0.037637074 -0.068910055 0.013475417 0.020038314 -0.05379149 -0.031117504 -0.01519
0.022633528 0.028948624 0.07325935 -0.0036363718 0.009944657 -0.04155441 0.03573839 -0.0189914
0.06258354 0.008153347 0.0033347756 -0.036088042 0.03174648 0.040482037 0.00993566 0.00072010164
-0.065756306 -0.04347895 -0.059455343 -0.017074969 -0.030395007 -0.024829024 0.06098439 0.0061130063
0.02065243 0.03250913 0.049955443 0.052757844 0.02617936 0.04855106 -0.054795977 0.035851296
0.059329208 -0.057947356 -0.055139508 -0.000114728915 0.022093121 0.048018314 -0.07621897 0.05334822
0.0057076514 -0.028204301 -0.006103784 0.04973495 0.021263331 -0.0049211006 -0.047204733 -0.016658433
-0.06909446 -0.08160273 0.014057666 -0.017426481 -0.05567594 -0.07003285 0.055831116 0.07818833
-0.04283159 -0.023545468 0.05353626 -0.026144534 0.0040547517 -0.03274591 0.032779004 -0.05371226
-0.074802995 0.016070604 0.02419067 0.03267754 -0.009395198 -0.024900185 -0.03260421 -0.049481086
-0.052243784 0.015168475 -0.04232494 -0.06779325 0.0055210926 0.05839451 0.008124671 -0.06903007
0.04763124 -0.031707395 0.055698536 -0.03967203 0.0744809 -0.0068799225 0.055060454 0.022214873
0.04232354 0.00782868 -0.030079901 -0.0039538476 0.06879018 -0.05435773 0.00816822 0.0027793166
0.05855693 -0.05925925 -0.06333775 0.008283539 -0.029333051 -0.021152519 0.02690649 0.045375355
-0.06449911 0.007514276 -0.022837069 0.0023302648 -0.019771354 0.056856956 0.049711186 0.003796706
-0.016705204 0.055002335 -0.0444082 -0.07483024 -0.058133166 -0.026846759 -0.03762724 0.052499063
0.0071340916 -0.037269983 -0.03902674 0.050922405 0.05416798 -0.036120296 0.049334433 -0.014626143
-0.014521456 0.015400238 -0.04865206 -0.07290109 0.00561762 0.052167837 0.047136035 0.070228934
0.028286178 0.007006075 -0.0008960508 -0.0532458 0.0652296 0.047361705 -0.049604386 -0.070560396
-0.028078077 -0.055974364 -0.013487298 0.050717857 -0.02517257 0.053221993 -0.01636989 0.0049578454
0.008720741 -0.03174458 -0.023176895 -0.021799171 -0.048271883 0.016550824 0.021160297 0.0057810117
0.011275882 -0.037039112 -0.07353515 0.045303456 0.0030457769 -0.07719747 0.056622244 -0.023953272
-0.06531649 -0.035458487 -0.02206759 -0.06611955 0.022520227 -0.04817872 -0.048780013 0.060492
-0.02603935 0.010284564 -0.035496842 -0.019349614 -0.03476983 -0.024706658 -0.038085777 -0.012128714
0.03190185 0.0440443 0.031044094 -0.04121802 -0.06271851 -0.015056702 0.07987891 0.00097455655
0.07167164 0.04202591 0.038202412 -0.009265217 0.020668318 -0.059073802 0.0020822645 0.029932868
-0.040428307 -0.048160467 -0.02821674 -0.009593098 -0.023780413 0.039133914 -0.032905724 0.07389699
-0.021589905 0.03662413 0.047727242 0.05604767 -0.01974653 -0.028663063 -0.025029784 -0.06230192
-0.021669304 -0.033401117 0.040167168 0.0664333 0.041755103 -0.012493735 -0.039193135 -0.036262605
0.047541924 -0.07385154 -0.010712115 -0.05501576 -0.0204357 -0.06426243 -0.057965845 0.038942467

layers.2.lin_a.weight f4 [1, 100]
00000000: 5e67 f13c 063e d0bd 4f92 8abd 2c12 b8bc
00000010: 4725 883c 832a 653d 8ede bbbd f860 713d
00000020: 0d10 53bd 1a95 42bc 8d5d 183d 36fc 9b3c
00000030: 7742 e8bc 99f2 70bd 148f a33d ab8b f63b
00000040: 4dc9 5c3d 52f0 7fbd 28e7 093d f322 3dbd
00000050: dbcf 543d b549 3bbd 2b96 c83d c1ce 513d
00000060: e360 b2bd d4a4 b23d 2aad 99bc abaf f53d
00000070: 9b51 de3a 6b33 dcbb e82a ffbb e70d ac3d
00000080: 33cb 8bbd b5cb 853d 13d0 c3bc 7a26 7abd
00000090: 2284 283d f0d5 cfbd e880 bbbd db1f 61bd
000000a0: 62fb 073e 6bbb bd3d d3dc 2abd b05b 63bd
000000b0: e149 0a3d 66db c23d b1be 4c3d f426 adbd
000000c0: 00ac b93c b2b1 d83b a444 583d 3832 4a3d
000000d0: 16fe 353d fc81 883b 7ae9 773b 7e2a b1bc
000000e0: b89a 94bd 975d 963d 1646 c03c 0574 b53c
000000f0: a1d7 243d afaf 40bd e48e 89bd 03ac 853d
00000100: 6f4d b5bd e306 1b3c 2d0f a93d d36f 85bd
00000110: c3fb 7d3d 2092 303d 9896 193d 5f99 3abd
00000120: 049c 91bd cb7e 46bd 8678 3cbd 7069 c4bd
00000130: 1df4 5dbd a649 43bc 1dfe 4f3c 8a16 163d
00000140: 8a6f 73bd 2375 87bd de75 ecbd 3656 d03c
00000150: 8a23 98bd 451a 86bd ad30 5dbc 0036 eebd
00000160: b22a c93c d826 00bd e437 0f3d aee4 b83d
00000170: 0b5d 753c 396e 113d 2f8a bbbd f09a 0fbd
00000180: 1397 fc3d f113 e03c b08a bd3d f567 62bd
0.029468235 -0.1016808 -0.067661874 -0.022469603 0.016619338 0.055948745 -0.09173308 0.058930367
-0.05152898 -0.011876369 0.037198592 0.019041162 -0.028352005 -0.05882511 0.07986274 0.007523974
0.053902913 -0.062485047 0.033667713 -0.04617591 0.05195604 -0.04572459 0.09794267 0.051222567
-0.08709886 0.08722845 -0.018759329 0.11996397 0.0016961576 -0.0067199967 -0.0077870972 0.08401089
-0.068258666 0.06532995 -0.023902928 -0.06107185 0.041141637 -0.10148227 -0.09155446 -0.05496202
0.13279489 0.09264263 -0.0417145 -0.055507362 0.033761863 0.09514503 0.049986545 -0.08454695
0.022665024 0.00661298 0.052799836 0.0493643 0.04443177 0.004165886 0.0037828372 -0.021626707
-0.07256073 0.073420696 0.02347092 0.022150049 0.040244702 -0.047042545 -0.06716707 0.06526949
-0.0885266 0.009462091 0.08254848 -0.065154694 0.062007677 0.043108106 0.037497133 -0.045556422
-0.07109836 -0.048460763 -0.046013378 -0.09590423 -0.054187883 -0.011919415 0.012694863 0.03664259
-0.059432544 -0.06614139 -0.11545919 0.025431734 -0.074286535 -0.06547979 -0.013500375 -0.116313934
0.024556492 -0.031287044 0.03496541 0.09027992 0.014975796 0.035505507 -0.09157216 -0.03505987
0.123335026 0.027353259 0.09254968 -0.055274922

layers.2.lin.weight f4 [50, 50]
00000000: 1e69 a13b 3857 fbbd ec74 c3bd 6749 fe3b
00000010: a791 073e 924a eebd 5928 0a3c a988 a53d
00000020: 174e 28bc a083 b73c 7212 5dbd 9df7 db3d
00000030: e18e a33d 049f 4f3e 22c3 e53d 4b56 783c
00000040: 5c7c a8bd aac9 b3bb 76a1 44bd 2ce8 583d
00000050: 518b cc3d 1f0a 83ba f9df 09be 608b bbbd
00000060: d63f 923d 4a0b d93d de50 dfbd a1ee cbbd
00000070: 1bfd 623d ef2d ad3d 428a 73bd e02f 60bc
00000080: c475 2b3e c84f 9ebd 8aea 4f3d 08cc b9bc
00000090: ce5b ed3d 6ee5 5a3d bfb4 f73d 53fb ed3d
000000a0: 8063 09bb 140d 44bd e234 f0bd bd44 fe3d
000000b0: 43a9 343e a7ab 07bd ed16 06be ecd0 0b3e
000000c0: 1a1d e03d cfe0 e7bd f203 0c3d 8015 f2bb
000000d0: 10a1 963d 7362 c4bd 66d4 58bd ac36 92bc
000000e0: 3d8f 143c aafd 1dbe c51f 9e3d 9bf5 053e
000000f0: 9dcb 0d3e 265f 1f3d 798f efbd e5ef 4e3c
00000100: b63b 4fbd 21b6 0b3b 6a70 adbd 929c 3ebd
00000110: 958f 22be 0030 2c3b 9ee7 f9ba 7a04 033e
00000120: 91a6 333d 23af 943d 12cc 8dbd a006 983b
00000130: 4403 5fbc a5ec 313c 132d 3bbe 698d 8a3d
00000140: cff4 113e d84a 753d 5ced 9d3c 8149 1c3a
00000150: 4da8 c3bd b83e bcbd b80f 8abd 4380 91bd
00000160: f746 12be 2bbe e93c e0d7 95bb b1c0 643c
00000170: fe0a 863d 8444 adbd 74c3 19be 764d f0bd
00000180: b126 1cbd 78be 7abd 8622 b13d 14eb 193c
00000190: cbc1 a2bd 9c06 2c3d b9f5 89bc 03a6 33bd
000001a0: 68cb a73d e804 043d 8892 033d 577a 743d
000001b0: 4e80 c63d 9f38 aebd 48f6 04bd eb43 f0bd
000001c0: a3e2 493d ea43 c7bd c6c6 6fbd 2eb0 2bbc
000001d0: fef6 ab3d f4d7 d9bd ee0b 17be fae5 d63d
000001e0: 157d ce3b 30aa 15bd 0de4 0ebe 75a8 bcbc
000001f0: 00b2 a23d a192 96bd d584 15bc 4a20 9cbd
00000200: e890 d9bd 4258 033d 8258 9a3d 1bc0 aabd
00000210: 5657 f2bd 77d2 8d3d ca6c c0bd 2e3a 893d
00000220: e074 a2bd ad86 d4bd 7d0a 4bbd 05f9 623d
00000230: 5536 d9bd 17d6 00bc cfdd 86bd 3a04 73bd
00000240: 05cf 1fbe 1d66 923d 5a7f 87bd 0461 d1bd
00000250: 8787 01be 9e9d 103e e86a 773c 00c5 96bb
00000260: 8f11 113e b5b8 4a3e ba54 1abd 11b4 ab3d
00000270: 5a21 00bc ac45 563e 3969 a6bd 0848 3f3d
00000280: fb53 ebbd 731c 95bb 2e8a cb3d 86de 85bd
00000290: 00b0 9c3b 4b6c 1cbb 2dd4 0a3e fb7f d23c
000002a0: 37f2 323e 6ea2 a93d 15c9 b23d 2100 9a3d
000002b0: 2cf6 3a3d e20e dc3d 8ab3 fd3d baae 2cbd
000002c0: 741b 553d a268 6b3d b70f 2f3e 92a5 a6bd
000002d0: 0688 173c 6828 913c 4d34 273d aa37 11b7
000002e0: f26f 9b3d 9787 49bd 84b4 e0bc 0c36 02be
000002f0: 1cb9 cd3d 3044 ffbd 20cd 223d ccd8 c6bd
00000300: c030 323d 29b0 a5bd a469 2e3e a7a5 e5bd
00000310: 9de1 c03d 03b2 dbbc 48a3 02be 0ccc 1cbd
00000320: d63b 11be e4bb 3d3d 977a db3d 4309 d13c
00000330: c004 31bb b37b 70bc 23ae f0bd d4ca 12be
00000340: 1779 ea3d ee32 e73d 40c8 efbb be84 3bbb
00000350: 670f d63c 90ef 43be 002b 6a3b de79 e1bd
00000360: 58c4 9b3c 1b24 0bbc 5128 bebd 2a0b fd3d
00000370: acab 33be 1e0b b93d 0ba6 1ebd cec0 023e
00000380: 00e1 9f3a 6a4d 10bd 10aa 8e3c 047e 4a3d
00000390: 5389 47bc 32a3 85bd 1f00 3bbd c0d9 dcbb
000003a0: ec23 29be bfe3 fcbc a7d2 863c a967 2fbd
000003b0: 34d4 ca3d d1b5 d2bd 8e76 a8bd 630d 2dbc
000003c0: f916 8abd 1fbf bf3d 7f93 bfbd 8c7a b43c
000003d0: a3cd 1abd 02e5 e03d 9567 a13d 5edc 873d
000003e0: a2b5 d4bd 9184 04bd e0a7 f0bc 4ce0 053d
000003f0: 02a4 d63d 94d6 d33d 8817 aa3d a741 00be
0.004925861 -0.12272495 -0.095437855 0.007760215 0.13239156 -0.11635317 0.008432471 0.080827065
-0.010272524 0.02240163 -0.05397267 0.10740588 0.07986236 0.20275503 0.11218859 0.015157293
-0.08226845 -0.0054866867 -0.048005544 0.05295579 0.0998751 -0.0009997523 -0.13464345 -0.09157443
0.07141082 0.10597856 -0.10904096 -0.09957624 0.05541716 0.08456027 -0.059458025 -0.013683289
0.16744143 -0.07730061 0.050760783 -0.022680297 0.11589776 0.053441457 0.120950215 0.11620202
-0.0020963848 -0.047864035 -0.117288366 0.124154545 0.17642693 -0.033122685 -0.13094683 0.13653916
0.10943051 -0.11322176 0.03418345 -0.007387817 0.07354939 -0.0958909 -0.052936934 -0.017848335
0.009067354 -0.15428796 0.07720903 0.13081972 0.13847204 0.0389091 -0.11697287 0.0126304375
-0.050594054 0.0021318274 -0.08468707 -0.046536036 -0.15875085 0.0026273727 -0.001906622 0.12794676
0.043860022 0.07259967 -0.06923689 0.0046394616 -0.013611618 0.010859643 -0.18278913 0.06765253
0.14253543 0.05988583 0.01927822 0.00059618807 -0.09553585 -0.0919165 -0.06741279 -0.07104542
-0.14284883 0.028533062 -0.0045728534 0.013961957 0.06545065 -0.08460334 -0.15015966 -0.117335245
-0.038122837 -0.0612168 0.08649163 0.009394426 -0.07947119 0.04199849 -0.016840803 -0.043859493
0.081930935 0.03223124 0.032122165 0.059686985 0.09692441 -0.08506893 -0.032461435 -0.11731704
0.049288403 -0.097297505 -0.058539174 -0.010479016 0.083967194 -0.10636893 -0.14750645 0.10493083
0.006301532 -0.036539257 -0.13954182 -0.023029545 0.07944107 -0.07352186 -0.009125908 -0.07623346
-0.10623342 0.03206659 0.07536413 -0.083374225 -0.11833064 0.069249086 -0.0939575 0.0670055
-0.079324484 -0.1037725 -0.04957055 0.055413265 -0.10606066 -0.007863543 -0.065852754 -0.059330203
-0.15606315 0.07148383 -0.06616087 -0.102235824 -0.12649356 0.14122626 0.015101172 -0.004601121
0.14166854 0.19797023 -0.037678458 0.08383954 -0.007820452 0.20925015 -0.081255384 0.046699554
-0.114906274 -0.0045505106 0.09938465 -0.065365836 0.004781723 -0.0023868259 0.13557501 0.025695791
0.1747521 0.08282934 0.087297596 0.07519556 0.045644924 0.10745026 0.1238776 -0.04215882
0.052028134 0.057472833 0.17095838 -0.08137049 0.009248739 0.017719463 0.040821362 -8.655634e-06
0.07589711 -0.049201574 -0.027429827 -0.1271593 0.100450724 -0.124641776 0.039746404 -0.097093195
0.043503523 -0.080902405 0.17032486 -0.11213236 0.09418032 -0.026818281 -0.127576 -0.03828053
-0.14182982 0.046321765 0.107167415 0.025517112 -0.0027010888 -0.01467793 -0.11751964 -0.14335185
0.11448877 0.11289011 -0.007317573 -0.0028613056 0.026130391 -0.19134355 0.0035731196 -0.110095724
0.019014522 -0.008492495 -0.092850335 0.12355645 -0.17545956 0.090353236 -0.03873257 0.12768862
0.0012197793 -0.035230078 0.017415076 0.049436584 -0.012178737 -0.06525268 -0.045654412 -0.006739825
-0.1651761 -0.030870317 0.016457869 -0.042823467 0.09903756 -0.10288585 -0.082257375 -0.010562274
-0.06742663 0.09362625 -0.093543045 0.022031091 -0.037793767 0.1098118 0.07881085 0.066338286
-0.10386206 -0.032352988 -0.029376924 0.03268461 0.10480501 0.10343662 0.083052695 -0.12525044
