experiments/output-gat/BA_Community/min/42/model.pth (torch, 119523 bytes, 26 tensors)

layers.0.bias f4 [30]
00000000: 0000 0000 0000 0000 0000 0000 0000 0000
00000010: 0000 0000 0000 0000 0000 0000 0000 0000
00000020: 0000 0000 0000 0000 0000 0000 0000 0000
00000030: 0000 0000 0000 0000 0000 0000 0000 0000
00000040: 0000 0000 0000 0000 0000 0000 0000 0000
00000050: 0000 0000 0000 0000 0000 0000 0000 0000
00000060: 0000 0000 0000 0000 0000 0000 0000 0000
00000070: 0000 0000 0000 0000
0.0 0.0 0.0 0.0 0.0 0.0 0.0 0.0
0.0 0.0 0.0 0.0 0.0 0.0 0.0 0.0
0.0 0.0 0.0 0.0 0.0 0.0 0.0 0.0
0.0 0.0 0.0 0.0 0.0 0.0

layers.0.combine_aggr.weight f4 [30, 120]
00000000: 5eef 8e3d c82c 9b3d cc31 afbc 68bd ab3d
00000010: d4d9 a3bc 64e7 963c 790a 36bd 8c97 5b3d
00000020: 48cf a43d fa27 89bd 5c80 a23d 50f6 8b3c
00000030: ee1f 8a3d 708e 4a3c c04b 343d 082c 53bc
00000040: 281f 903d f011 5d3c 988e 2ebd 789e be3c
00000050: 6146 2cbd 2066 2fbc 11de 17bd d40a 783d
00000060: d493 93bd 9460 2cbd a42a d3bc add2 60bd
00000070: f829 0d3c 0aa7 b8bd 74d7 a83d 2bd0 9ebd
00000080: ca55 903d 88e7 783c 60d2 f2bc 100f 673d
00000090: 1019 693c b60d 973d f880 233c f6d7 ebbc
000000a0: 94ed c83c 60cb cabc 185d 1d3d 1eeb a63d
000000b0: b424 583d ca76 23bd 9cd8 573d 28ce 853c
000000c0: b4e2 3d3d b6e6 63bd bd11 b9bd fe76 10bd
000000d0: 4566 8fbd 9667 993d 9065 d73c 20e1 1a3d
000000e0: f481 ec3c 4025 d0ba 3450 923d b2d5 84bd
000000f0: d057 bc3b bd35 7fbd cc97 e63c c6c4 00bd
00000100: 3825 e53c 80cd 9bbc 4c0f 9b3d 4a9e 5dbd
00000110: 1500 5fbd 8703 5fbd fc27 a83d 9036 f93c
00000120: 04e6 b33d 524a 9abd e96f b9bd 8044 92bd
00000130: c686 7bbd 0873 173d 8ae3 053d a658 9b3d
00000140: fd18 41bd 72e6 7ebd b463 463d 0a23 17bd
00000150: a0ef 623d 8475 b1bc 10e5 553d 4142 91bd
00000160: cfb1 3cbd 70fe e33c 7818 9e3c 0caa bebc
00000170: a4e0 5e3d 5430 7e3d 5393 87bd a49e 47bd
00000180: 3e30 ab3d 1057 fcbc d38e 04bd c8e5 b4bd
00000190: d320 56bd 24cf ba3c 506a 45bc 6eb5 87bd
000001a0: 0055 0c3b 8e69 7fbd e19c 9ebd 3ae6 4dbd
000001b0: 49a0 a3bd 7e15 6ebd 02e2 ba3d c43e 8d3c
000001c0: fc72 e63c f35e aebd 5893 75bd e2ea f8bc
000001d0: 48e0 693c ac81 a4bd cb1b 21bd 6dd9 5fbd
000001e0: 00a2 8439 4322 0bbd c048 cfbb b45f 7dbd
000001f0: 5f53 80bd 1124 5abd 6afa ffbc 8e8f 93bd
00000200: c6c1 9c3d 886a 94bc 36db a03d 3002 e93c
00000210: 5250 9ebd 4e61 813d 84c2 cdbc 8754 0fbd
00000220: c72f 9bbd 40dd b9bd dcf5 d53c 885b a3bc
00000230: 9492 113d 8c6d 99bd 32cd 8a3d 583c 89bd
00000240: 1821 81bc a032 9c3c 6008 413d 76ee 963d
00000250: 2c4f aa3d d43d 94bd e833 bc3c 48d4 20bd
00000260: 78e6 23bc 48ef 8bbd 5c4a aa3d 6837 89bd
00000270: 74d6 473d 5068 033d 8402 f33c 7027 4abd
00000280: 14ef a93d a855 a43c 7066 403c 7fc1 a4bd
00000290: c4f6 1c3d c060 60bc 524c 2bbd ce95 a03d
000002a0: f8b9 a63c 6ce0 4ebd 5a40 3dbd 00da 8ebb
000002b0: 28c7 503d 2418 bfbc 4258 55bd 210b 00bd
000002c0: 8cab 8bbd 6059 053d 20b6 903d 0502 b0bd
000002d0: c0ae ad3c ec28 413d 389a 873c c528 05bd
000002e0: 1029 433d e47e 443d dcd0 0b3d 9c68 83bc
000002f0: 5406 c6bc 7801 203c 2c1b 84bc 30da debc
00000300: d001 6f3d 7cab a03d b010 14bc 786f a7bc
00000310: 8099 ae3a e09a b2bb 08c9 b33c bc90 d13c
00000320: d4cd a9bd d4fc 09bd ee70 9d3d c4a8 113d
00000330: a0c7 94bb 046f 61bd dfc2 64bd 0d78 a7bd
00000340: 32c3 f3bc 108b fc3c 106a 6e3d 58a2 2c3d
00000350: 3442 a5bd 4adb 60bd c009 6cbc 0eda b43d
00000360: 505b 583c 1caa c1bc 6cb1 1a3d 896a 0ebd
00000370: 4104 72bd f074 883d b704 2abd f0e9 95bc
00000380: 0efc b9bd 903f 7a3d f2a4 8d3d 8245 083d
00000390: 0d5c 82bd a983 b8bd 7ad7 97bd c269 8b3d
000003a0: 6c84 333d 0453 9d3d 94e1 433d b444 bd3c
000003b0: 8057 6aba 5f2e 8ebd bd2d a0bd 77de aebd
000003c0: b810 193d 2b94 37bd 6080 96bc 3330 57bd
000003d0: 6845 88bc 0c96 83bd e651 74bd b00f f83c
000003e0: 2440 debc fcd4 663d 90e8 efbc 1025 89bd
000003f0: fcf1 83bc ba40 35bd 58ca e4bc 34fb b1bd
0.069792494 0.07576901 -0.02138605 0.08385736 -0.02000133 0.018420883 -0.04444358 0.053611323
0.08047348 -0.06697078 0.07934639 0.017085224 0.06744371 0.012363061 0.044017553 -0.012888916
0.070371926 0.013493046 -0.042616457 0.023268923 -0.042059306 -0.010705501 -0.037077013 0.0605572
-0.0720593 -0.04208429 -0.025777169 -0.054888416 0.008615963 -0.09016235 0.082442194 -0.07754549
0.07047613 0.01519192 -0.02964133 0.05641085 0.014227167 0.07375662 0.009979479 -0.028789502
0.024527349 -0.02475518 0.03841886 0.08150314 0.052769378 -0.039908208 0.05269681 0.016333655
0.04635878 -0.055639945 -0.090365864 -0.03526973 -0.07001928 0.074904606 0.026293546 0.037812352
0.02887056 -0.0015880242 0.07144204 -0.06486072 0.0057477728 -0.06230711 0.028148554 -0.031437658
0.027971849 -0.019018888 0.07571277 -0.054106034 -0.054443438 -0.054446723 0.082107514 0.030421525
0.087841064 -0.07533707 -0.09054548 -0.071419716 -0.061407827 0.036974937 0.0326877 0.07585268
-0.04714297 -0.06223149 0.048434928 -0.03689865 0.055404305 -0.021662481 0.052220404 -0.07092715
-0.04606801 0.027831286 0.019298777 -0.023274444 0.054413453 0.062057808 -0.06619897 -0.048735276
0.08358811 -0.030803233 -0.03236277 -0.0883289 -0.052277397 0.02280385 -0.012049273 -0.06626402
0.0021412969 -0.062356524 -0.07744766 -0.05026839 -0.07989556 -0.058125965 0.09125139 0.017241843
0.028131 -0.08514204 -0.05995497 -0.030385438 0.014274664 -0.080325454 -0.039333146 -0.054650713
0.000252977 -0.03396822 -0.006325811 -0.061858848 -0.06265902 -0.05325705 -0.031247336 -0.07205115
0.07654147 -0.018117204 0.07854311 0.028443426 -0.07730164 0.063173875 -0.025117166 -0.03499272
-0.07577472 -0.09075403 0.026118211 -0.019941106 0.03554018 -0.074915975 0.06777419 -0.06700963
-0.01576285 0.019067109 0.047127128 0.073697016 0.08315882 -0.07238355 0.02297397 -0.039264947
-0.0100036785 -0.06832749 0.08314964 -0.06700021 0.048788503 0.032081902 0.029664285 -0.049354017
0.08297554 0.020060375 0.011743173 -0.08044719 0.03832127 -0.013694942 -0.04182083 0.07841073
0.020352349 -0.050506994 -0.04620395 -0.0043594837 0.05097118 -0.02332694 -0.052086122 -0.031260613
-0.06819829 0.032555938 0.070659876 -0.08594135 0.021201491 0.047158167 0.01655303 -0.032509584
0.047646582 0.047972575 0.03413473 -0.016041093 -0.02417294 0.009765975 -0.016126238 -0.02720365
0.058351338 0.07845208 -0.009037182 -0.020438895 0.0013320893 -0.0054505914 0.021946445 0.02558171
-0.08291212 -0.03368838 0.07687555 0.035561338 -0.0045403987 -0.055037513 -0.055849906 -0.08177195
-0.029756162 0.030828029 0.058206618 0.04214701 -0.08069268 -0.05489663 -0.014406621 0.08830653
0.013205364 -0.023640685 0.03776686 -0.03476957 -0.059086088 0.06662929 -0.041508403 -0.018300027
-0.09081279 0.061095774 0.069162264 0.033269413 -0.063652135 -0.09009487 -0.07414146 0.06807281
0.04382746 0.076818496 0.04782255 0.02310405 -0.000893943 -0.06942438 -0.07821224 -0.085385256
0.03736946 -0.04481904 -0.01837176 -0.0525362 -0.016634658 -0.064251035 -0.059648417 0.030280918
-0.027130194 0.05635546 -0.0292857 -0.06696522 -0.016106598 -0.04425118 -0.027928516 -0.08690491

layers.0.lin_a.weight f4 [1, 60]
00000000: 40ab c03d 5798 a0bd eec4 9f3d fabe 91bd
00000010: 3811 8fbc 767e 7fbd a072 da3d cc4b b73d
00000020: a045 cb3b c0dd 4a3b 0a90 47bd 3353 8dbd
00000030: d803 48bd 5c27 2d3d 8039 bebc 4877 b33d
00000040: 2045 983c 00cb ba3a 9a4d a4bd 2852 553d
00000050: 6291 f4bd 5018 f73c d8bb 3d3d 0864 bf3c
00000060: 1a13 ba3d a8d3 fd3c 9a0a 12bd 1e03 b9bd
00000070: 0663 f5bd 946f 853d a6eb 8f3d ceac c9bd
00000080: 5092 0d3d 9272 42bd 3eb0 de3d 0a44 36bd
00000090: 40da da3d ca02 bb3d 443c 923d 72b0 b43d
000000a0: 68eb 243d 2c40 333d dac6 e0bd a071 f1bc
000000b0: 50c5 6fbc 6049 803d 82e8 4cbd 404b 723d
000000c0: a084 b33d d400 643d 2c15 883d 34f6 8cbc
000000d0: 144e 7d3d 2056 35bd b808 e53d c022 59bb
000000e0: 70c3 f6bb fdc6 e8bd ec88 f43d 08f8 93bc
0.09407663 -0.078415565 0.07801233 -0.07116504 -0.017464265 -0.062376462 0.10666394 0.08950004
0.0062033683 0.0030954927 -0.04872135 -0.069006346 -0.04883179 0.042273864 -0.023220778 0.087629855
0.018587649 0.0014251173 -0.08022614 0.052080303 -0.11941792 0.03016296 0.04632172 0.023363128
0.090856746 0.030984715 -0.03565464 -0.09033798 -0.11981778 0.065154225 0.07027368 -0.09847413
0.034563363 -0.047472544 0.10873459 -0.04449848 0.10686159 0.09131391 0.07140401 0.08822717
0.040263563 0.04376237 -0.10975428 -0.029473126 -0.014634445 0.06263995 -0.050026424 0.059153795
0.087655306 0.055664852 0.06644663 -0.017207243 0.06184204 -0.04427159 0.111833036 -0.0033132285
-0.007530622 -0.11366079 0.11940178 -0.018062606

layers.0.lin.weight f4 [30, 10]
00000000: e252 7bbe 8091 71bc a809 73bd 4c38 04be
00000010: 57bf 953e 7060 b53d 38fe 1b3e 9527 55be
00000020: 706e 4e3d cc8c ad3d 8219 283e 361a bfbd
00000030: 205c 7ebd c573 83be 02cf 443e 9a2a 583e
00000040: 20e6 173e ae91 243e 46f3 413e a79d 983e
00000050: d417 d43d 0cc9 e93d 1cb4 cb3d c6dd 36be
00000060: 747d a23d 8020 c33d 22df 80be d6ab bfbd
00000070: 20cb 47be ece7 4ebe b608 613e 1abe 7e3e
00000080: 908e 32bd 1c81 c63d c8ad 97bd 784f 893d
00000090: 48d6 58bd 5374 28be d13d 08be 69d3 a03e
000000a0: 2056 5a3d d014 31be d008 133d 6487 a1be
000000b0: 00d0 363b 5294 783e 3866 153d 344e 9a3d
000000c0: 4e83 98be 20a0 73bd 4e14 3f3e 786c 6dbe
000000d0: 0a7c 17be 66d6 5a3e 9cfc b93d 3e60 173e
000000e0: 88fb 96be de17 4e3e da41 8dbd 541c 883d
000000f0: f5de 823e 6035 95be c44b b93d 7f5e 92be
00000100: 02bc 6f3e 782a be3d b81f 103d 94b9 01be
00000110: 582e f43d 2a14 28be b899 773d dbf7 873e
00000120: d20e 73be 2ec9 b8bd 4444 973d a8d4 603d
00000130: c07f 8e3b 114b 8b3e f04b a8bd 040f a73d
00000140: 7c9c 2b3e 5824 7bbd c297 533e 267c 533e
00000150: 1832 103e 8400 9ebd a7a2 8c3e dc1b 3bbe
00000160: 6029 c83d e809 823d 1e8f 643e f8b5 84be
00000170: d8cf 613d b67b 3abe 26a2 2b3e b864 de3d
00000180: 7ee4 7bbe 502f a2bc 682a b53d 66f1 093e
00000190: 3b0a 903e 746c 113e 5805 773d 34bc 2c3e
000001a0: 8934 99be e6e5 573e 504a 18bd ce44 373e
000001b0: 6475 b93d e09c 88bc 36f0 633e 88c5 3cbe
000001c0: 48a2 b63d 1ef4 0d3e 487b e6bd d49d ea3d
000001d0: f126 a0be c98c 23be 0c71 1d3e dce6 263e
000001e0: 939d 94be 2c20 e03d 9095 f33c d70b 9e3e
000001f0: 57ec 9dbe a25a 9abd d963 37be 2a09 45be
00000200: 608d 53bd 6ace 94be 02b2 7d3e 3222 e5bd
00000210: 10ed e23d 318b 3ebe 007e df3a 2267 65be
00000220: 3f51 823e cb8c 883e 2af0 7e3e 58b8 e2bd
00000230: 268a 493e 6b46 87be 9894 143e 30e1 1fbd
00000240: 602b 86be a0f0 81be 2183 97be d0b8 723d
00000250: cc3d eabd 6f23 15be 4323 9a3e 9251 c5bd
00000260: 0472 da3d c805 64bd 9249 433e a843 c13d
00000270: 720f 4d3e 001c a93d e2f0 8dbd 8519 8f3e
00000280: c0ae b8bc dfd9 41be ec89 c93d 082d 1dbd
00000290: 2a27 70be b070 293d 327a 96bd 4bf4 00be
000002a0: 078c 1abe c2cd 09be 4422 03be 108b fe3c
000002b0: 2d6a 9c3e f8cc 3dbe 3111 17be e211 59be
000002c0: 6099 44bc 00a2 b53c 1944 5ebe ece8 133e
000002d0: e735 91be 47db 953e 28c1 733d 508b 02bd
000002e0: 4ce5 e7bd d664 113e 5a76 6c3e 1ace 53be
000002f0: a655 a2bd 4661 6e3e 08be 72bd 8e70 6ebe
00000300: aa20 d0bd 60f8 323c 38cf 71bd 1fe9 5dbe
00000310: 74de 4abe f01c af3d 1a2f 5e3e ad4a 933e
00000320: 4867 12bd f02d f93d 5b97 80be 328d 2c3e
00000330: 45b6 9a3e 52a0 283e f307 00be d701 843e
00000340: 0c57 99be 906d 1bbd d877 a0bd 987f a1be
00000350: dbba 38be bced 6bbe b810 ae3d 607b d7bc
00000360: 80b8 143e 32b0 91bd 1f8e 853e 70b6 123d
00000370: 7b36 863e 437a 833e 904e 89be 5a77 59be
00000380: 360b 433e 7bf7 983e 0031 8abe c0a8 973b
00000390: 80fd f8bd 536e 983e 5780 863e ceac 6b3e
000003a0: 9c42 2e3e c0fe f2bc 3366 953e c287 17be
000003b0: 0009 803c 5867 aabd fe39 6cbe e173 19be
000003c0: 8006 9d3d 7021 e7bc 5083 56be 58ab 24bd
000003d0: 60b3 5f3d 268f 62be 9a90 433e 1aa7 89be
000003e0: 0047 463b e971 84be 7700 92be 80e6 20bd
000003f0: b9f1 923e 290f 993e f0c3 e83d 8afd 7a3e
-0.24543336 -0.014744163 -0.05933538 -0.129121 0.29247543 0.088562846 0.15233696 -0.2081588
0.05039829 0.084741205 0.1641598 -0.09331171 -0.062099576 -0.25674263 0.19219592 0.21110001
0.1483388 0.16071197 0.18940458 0.2980778 0.10356107 0.114153 0.099464625 -0.17858037
0.079340845 0.09527683 -0.25170237 -0.09358947 -0.1951108 -0.20205659 0.21975979 0.24877205
-0.04359299 0.096925944 -0.07406193 0.067046106 -0.05293873 -0.16450624 -0.13304831 0.31411293
0.05330479 -0.17293096 0.035897076 -0.31548607 0.0027894974 0.2427533 0.036474437 0.07534447
-0.29787678 -0.05947888 0.1866009 -0.23185909 -0.14793411 0.21370849 0.090813845 0.14782807
-0.29488778 0.20126292 -0.06897326 0.06646028 0.25560728 -0.29142284 0.09047654 -0.2858772
0.23411563 0.09285444 0.0351865 -0.12668449 0.11922902 -0.16413942 0.060449332 0.26556286
-0.23736122 -0.09022747 0.073860675 0.054890305 0.004348725 0.2720571 -0.08217609 0.08157161
0.16758913 -0.061313957 0.2066336 0.20652828 0.14081609 -0.07714942 0.27467844 -0.18272346
0.09773517 0.06349546 0.2232022 -0.2592008 0.055129856 -0.18211254 0.16761073 0.10859054
-0.24598882 -0.019797951 0.08845979 0.13470992 0.28132805 0.14201528 0.06030783 0.16868669
-0.29922894 0.21083793 -0.037180245 0.1789734 0.090555936 -0.016676366 0.22259602 -0.18434727
0.089176714 0.13862655 -0.11253983 0.114558846 -0.3127971 -0.15971674 0.15375155 0.16299003
-0.2902647 0.10943636 0.029734403 0.30868408 -0.30844375 -0.07536818 -0.17909183 -0.19241777
-0.051648498 -0.2906373 0.24774936 -0.11188163 0.11080372 -0.18607785 0.0017051101 -0.22402623
0.2545261 0.26669917 0.24896303 -0.11070317 0.19681606 -0.26420912 0.14509809 -0.039033115
-0.26204967 -0.25378895 -0.2959223 0.059258282 -0.11437568 -0.14564298 0.30105028 -0.09634699
0.10666278 -0.055669576 0.19071034 0.094367325 0.20025423 0.08257294 -0.069307104 0.27949157
-0.022544265 -0.18930767 0.0984076 -0.038373023 -0.2345244 0.041367233 -0.07347526 -0.1259319
-0.15092479 -0.13457397 -0.1280604 0.03107217 0.30549756 -0.1853522 -0.14752652 -0.21198228
-0.011999458 0.022171974 -0.21705665 0.14444321 -0.28361437 0.29268858 0.05951038 -0.03187114
-0.11323032 0.14198622 0.23092023 -0.2068409 -0.079264924 0.23279294 -0.05926326 -0.23285124
-0.1016248 0.010923475 -0.05903551 -0.2167096 -0.19811422 0.08550441 0.21697655 0.2876791
-0.035743028 0.12166965 -0.25115475 0.16850737 0.30217186 0.16467407 -0.12503032 0.25782654
-0.29949224 -0.037946284 -0.078353584 -0.3154266 -0.1804003 -0.23039907 0.084992826 -0.026303947
0.14523506 -0.07113685 0.26084992 0.035818517 0.2621344 0.25679216 -0.2681775 -0.21236935
0.19047245 0.29876313 -0.2699051 0.004628271 -0.12157726 0.2977167 0.2626979 0.23015139
0.17017597 -0.02966249 0.29179534 -0.14797881 0.015629292 -0.083204925 -0.23068997 -0.1498561
0.076672554 -0.028214186 -0.20948529 -0.04020247 0.054614425 -0.2212492 0.1909813 -0.268853
0.0030254722 -0.25868157 -0.2851598 -0.039282322 0.28700045 0.2989438 0.11365497 0.2451078

layers.1.bias f4 [30]
00000000: 0000 0000 0000 0000 0000 0000 0000 0000
00000010: 0000 0000 0000 0000 0000 0000 0000 0000
00000020: 0000 0000 0000 0000 0000 0000 0000 0000
00000030: 0000 0000 0000 0000 0000 0000 0000 0000
00000040: 0000 0000 0000 0000 0000 0000 0000 0000
00000050: 0000 0000 0000 0000 0000 0000 0000 0000
00000060: 0000 0000 0000 0000 0000 0000 0000 0000
00000070: 0000 0000 0000 0000
0.0 0.0 0.0 0.0 0.0 0.0 0.0 0.0
0.0 0.0 0.0 0.0 0.0 0.0 0.0 0.0
0.0 0.0 0.0 0.0 0.0 0.0 0.0 0.0
0.0 0.0 0.0 0.0 0.0 0.0

layers.1.combine_aggr.weight f4 [30, 120]
00000000: b8be 45bd 57c3 4bbd 3094 7b3d 9077 17bd
00000010: 602a 6c3d 9a9b b5bd 2015 4e3b 292d 81bd
00000020: a2a2 043d c6d4 973d 8823 133d 968f 00bd
00000030: a962 afbd d828 31bd 1f8a 5cbd 0a87 b23d
00000040: e509 49bd 0893 103d f414 963d 4ccd 063d
00000050: 0f0e a4bd 40e6 29bc e4f3 ddbc 80ea 703d
00000060: 384c 0cbc 40c6 9dbb 864f a63d 24f4 b13c
00000070: 1c54 2d3d 3cbb f0bc 5487 743d b80b 573c
00000080: c837 96bc 981d 903c 5229 93bd e0fa 5b3b
00000090: 1c7b 2b3d 1c10 afbd 539d 46bd 8c43 6a3d
000000a0: 60ac 073b e0c7 4bbb 08a1 183c abd1 27bd
000000b0: 2099 9a3d 284c 14bc 2025 08bd c8d2 443d
000000c0: c69c 9bbd 50f0 89bc 70be 163c dc14 e8bc
000000d0: d480 4b3d 05a9 9fbd c497 d7bc 8627 1dbd
000000e0: 1eff ac3d 0439 153d 5376 8bbd 40ea 103d
000000f0: 40bf fdba f624 ab3d 4459 4e3d fa5f 5abd
00000100: 90a6 a63d 98c0 85bc 5c49 aabc bc9e df3c
00000110: 26be b93d e0a3 e13c 1263 b4bd 60b9 eebc
00000120: 4617 ae3d 4dc9 03bd 19e3 33bd 2805 95bd
00000130: 8367 4ebd 3e6f 4cbd bc99 b23c 2863 153d
00000140: 166d b23d f862 753d 40cc b03a 30a6 493d
00000150: 28b9 553d 1341 a1bd 94ac 3c3d ecc7 7fbd
00000160: dc5e 903d 68a1 22bd 142a 9b3c 00a1 7eba
00000170: 5479 2d3d 28a2 683c ee9d 87bd e077 173d
00000180: bc91 5c3d 52b8 42bd 258f 72bd 069c 7ebd
00000190: c9ed 35bd b890 3cbc 10a9 df3b 80c8 28ba
000001a0: 94ca c5bc bc08 683d 0015 9e3b e91c 59bd
000001b0: 5ce9 c5bc fad5 5bbd 40e9 03bd 3f5b b0bd
000001c0: e0aa 823c 40dc 90bd c09d 103d 8012 803d
000001d0: ea14 8bbd 3853 45bd 83b8 93bd 7c92 c73c
000001e0: 40b3 903c 66fe 40bd 7cdf 613d 5027 1b3d
000001f0: 02ec a8bd 20b6 a2bb 10f7 20bd 50aa 81bc
00000200: 2832 503d 50df 20bc eed7 81bd e482 833d
00000210: e4e2 aabd e869 00bd c412 103d 923f a53d
00000220: e072 b53d d0ad afbc d88b f93c cb30 a4bd
00000230: 0483 91bc 909d e8bc a049 d43c f0fc 74bd
00000240: b890 a13c 0c2d 413d 20b4 913d 38e5 7cbc
00000250: dccd aa3d 1aa3 b0bd fce9 d3bc 6cc1 0d3d
00000260: 08c3 bf3c d416 303d 611e 78bd cc3a 663d
00000270: 7876 afbd 0f31 80bd c06e cbbb 07a1 b5bd
00000280: 00b5 b1bd 86f7 a5bd 7e4f 963d f409 a43c
00000290: f09b eebc a0e0 75bb 4df4 a2bd 1892 b0bd
000002a0: 1261 82bd 4fde b4bd 5800 763d e7d7 02bd
000002b0: e8de c9bc 0eff a0bd f0b5 773c f865 60bc
000002c0: fc8d 7ebd d4bc 6f3d 4696 9d3d 2442 85bd
000002d0: e4d9 533d d0db 72bc 80ed 61ba b427 1f3d
000002e0: 7057 88bc 8cd8 9e3d 240e 663d d9b7 72bd
000002f0: 7c8c 63bd 693c b9bd 846d ef3c 35a0 8cbd
00000300: dbb3 9cbd 4eaa 6fbd 8dd6 b8bd 443a 98bd
00000310: 16c2 a63d 9cdc 503d daa5 a53d aa60 35bd
00000320: 4c5c 19bd 9531 03bd c0af e93a c730 86bd
00000330: d843 5b3c c4a3 6fbd a857 6c3c 4e40 ab3d
00000340: 109d 7c3c ba5f 883d d826 85bd 4812 53bc
00000350: f0e1 66bd 00f0 25bc b2bd 14bd 874d 54bd
00000360: 9e96 b4bd d5a4 0abd 784b 483c bc8e 83bc
00000370: da1e aebd f26f 8c3d 1aa0 8a3d 956e 61bd
00000380: 580a 183c e847 783d db8a b1bd be31 a5bd
00000390: 8478 4f3d 00fc ecba b422 ee3c 3d7e 1bbd
000003a0: 9c96 873c 60fe 773d 08f4 b6bc 1a8d f1bc
000003b0: 7604 b2bd 78ca 66bc 64ef 6c3d aeaf b0bd
000003c0: 5011 e7bb 5847 883d a070 d5bc 0c26 0abd
000003d0: 4091 e1bc 3a7e 17bd 2802 333c 7f00 b4bd
000003e0: b8e2 0e3d 08de bcbc 706c 3ebc f0d1 c9bb
000003f0: 50e1 503d c642 68bd 7c20 aabd 053c 87bd
-0.048277587 -0.049746837 0.06142062 -0.036979258 0.0576576 -0.08867569 0.0031445697 -0.06307442
0.03238166 0.0741363 0.035922557 -0.031386934 -0.0856374 -0.043251842 -0.05384266 0.08717163
-0.0490817 0.03529647 0.07328215 0.03291063 -0.08010494 -0.010369837 -0.027093835 0.058817387
-0.008563094 -0.004814893 0.08120637 0.02172286 0.04231654 -0.029386155 0.05969937 0.013125353
-0.018337145 0.017592236 -0.071856156 0.0033566281 0.041865453 -0.085479945 -0.04848988 0.057193324
0.0020702109 -0.0031094477 0.009315737 -0.04097144 0.075487375 -0.00905136 -0.03323853 0.04805258
-0.075982615 -0.016838223 0.009200677 -0.028330259 0.049683407 -0.0779591 -0.026317485 -0.03836777
0.08447097 0.036431327 -0.06809678 0.03537965 -0.0019359365 0.08356659 0.0503781 -0.053314187
0.08137238 -0.016327187 -0.020786934 0.02729737 0.09069471 0.027543962 -0.08807959 -0.029141128
0.08500533 -0.032174397 -0.04391775 -0.07276374 -0.050391685 -0.049910776 0.021801822 0.036471516
0.08712213 0.059908837 0.0013488606 0.049230754 0.052178532 -0.0787374 0.04606302 -0.06244652
0.07049343 -0.03970471 0.018940963 -0.0009713322 0.042352036 0.014198817 -0.066219196 0.036979556
0.05384992 -0.047539063 -0.059218545 -0.062160514 -0.044416223 -0.011509113 0.0068255737 -0.0006438568
-0.024144448 0.056648955 0.0048242807 -0.053006086 -0.024159126 -0.05367086 -0.032204866 -0.08611154
0.01595062 -0.07073259 0.035306692 0.062535286 -0.067910984 -0.048175067 -0.07212927 0.024361841
0.017663598 -0.047117613 0.055144772 0.03787929 -0.0824814 -0.0049655586 -0.039298117 -0.015828282
0.050829083 -0.009818867 -0.063400134 0.0642145 -0.08344057 -0.031351 0.035174146 0.08068766
0.08859801 -0.021445185 0.03046219 -0.08017119 -0.017762668 -0.028395444 0.025914013 -0.059811532
0.019722328 0.0471621 0.07114434 -0.015435509 0.08340046 -0.08624859 -0.025868408 0.03460829
0.023408428 0.04299052 -0.060575847 0.056208417 -0.08567518 -0.06259357 -0.006208271 -0.08868604
-0.08677101 -0.08103852 0.07339381 0.020024277 -0.029127091 -0.003751792 -0.07956753 -0.08621615
-0.06366171 -0.088314645 0.06005892 -0.03194418 -0.024642423 -0.07861148 0.015119061 -0.013696186
-0.062147126 0.05852969 0.07694678 -0.06506756 0.05172147 -0.014822915 -0.0008618459 0.038856223
-0.016643256 0.07756147 0.05616583 -0.059257362 -0.0555539 -0.090447254 0.029227026 -0.068664946
-0.07651492 -0.058512025 -0.09025297 -0.07432988 0.08142488 0.05099164 0.08088274 -0.04428164
-0.037441537 -0.032029707 0.0017828867 -0.06552272 0.013382874 -0.05850579 0.014425196 0.083618745
0.015418306 0.066588834 -0.065015495 -0.012882777 -0.056367815 -0.010128021 -0.03631372 -0.05183175
-0.088177904 -0.033848602 0.012225024 -0.016059272 -0.08501978 0.068572894 0.06768818 -0.0550371
0.00927981 0.06061545 -0.08669063 -0.08066128 0.050652042 -0.0018080473 0.029069282 -0.037962187
0.016551308 0.060545325 -0.02233316 -0.029486228 -0.08692257 -0.014086358 0.05784549 -0.08627258
-0.0070516244 0.06654233 -0.02605468 -0.03372769 -0.02753508 -0.036985613 0.010925807 -0.08789157
0.034884185 -0.023055092 -0.011622533 -0.0061590597 0.050996125 -0.056704305 -0.08306977 -0.06603245

layers.1.lin_a.weight f4 [1, 60]
00000000: 9caf 603d 68a4 f7bc 00b9 a73d 3ce9 9ebc
00000010: 842b d2bd 0edb 02be f07f 9ebb f8e3 1b3d
00000020: 18dc 9bbd fe04 d03d 48d2 7a3d 5070 9f3d
00000030: d8a0 733d c201 ffbd 48e9 c1bc 4456 893d
00000040: e2e1 823d b490 f0bd 6fde 95bd c6b6 c03d
00000050: e6e6 dabd 8c62 c83d 680b ccbc f02c 1b3c
00000060: 20f4 803d 145a 0e3d 0e7d a9bd 043e 2c3d
00000070: 5300 e3bd 536d 85bd 64c5 b9bc 508d d3bc
00000080: 5677 c03d 5e54 90bd e0db dd3d bc4d 763d
00000090: f012 2c3d 6c4b bc3d 3c90 b4bd d2cf e3bd
000000a0: 40cd 9d3b b056 823d 9876 853d a0eb af3b
000000b0: a2de fc3d 10df 3b3d a47c 643d 3e26 80bd
000000c0: 304d 213d 10f0 45bd 4196 d5bd 9aff abbd
000000d0: b0a0 9fbd 0477 9fbc 1a79 5dbd fce6 f23d
000000e0: 28a1 5a3d 4dd0 dbbd 2009 b23b 48ff e33d
0.054854974 -0.030229762 0.08189583 -0.019398324 -0.10262206 -0.12778875 -0.0048370287 0.038059205
-0.07610339 0.10157202 0.061235696 0.07785094 0.059479564 -0.12451507 -0.023670807 0.06705907
0.0639074 -0.1174635 -0.073178165 0.09409861 -0.10688572 0.09784421 -0.024907783 0.009471163
0.06296563 0.034753874 -0.082758054 0.04205133 -0.11084046 -0.065149926 -0.022677131 -0.025824219
0.093977615 -0.07047342 0.108329535 0.060132727 0.042010248 0.09194073 -0.08816573 -0.11123623
0.0048157275 0.063641906 0.065167606 0.005368665 0.12347151 0.045867026 0.05578293 -0.06257294
0.039380252 -0.048324645 -0.10429049 -0.083983615 -0.077943206 -0.01946593 -0.05407057 0.11860463
0.053376347 -0.107330896 0.0054332167 0.111326754

layers.1.lin.weight f4 [30, 30]
00000000: 0a0a 20be e0f1 96bb 1837 443d 8377 eabd
00000010: d63a 91bd fc87 cc3d 10d0 fcbd eec7 19be
00000020: 5c04 62bd 4837 163e 4040 5bbd c875 fdbd
00000030: 36a1 04be f8c0 2fbd acc9 043e 1c8a 8c3d
00000040: 62b0 79bd 5630 22be 3ce5 e2bd d8ec 1d3d
00000050: 1c34 1d3e c890 c03d 402d bfbc 2058 c63d
00000060: 906b 573c 7889 cd3c f854 ae3d 3015 38bd
00000070: 6cdd 593d 005b 853c 7c26 643d 90f6 1fbd
00000080: dcb4 f13d e16b 28be 0c5a f83d 9a41 1abe
00000090: 2792 fbbd 12ea e5bd 9067 90bc 9042 94bc
000000a0: 68cc 35be 2c67 c63d f4f9 373d 5aab 363e
000000b0: a06b 05be 3656 16be 70b2 333d ec06 103e
000000c0: 2ca1 f93d acad 973d 488a fb3c d461 ba3d
000000d0: d1cf 94bd 3479 3abe cca4 1bbe b120 efbd
000000e0: d8fd 263d 0863 273e 204e f13d 330e f4bd
000000f0: 7088 503d 0461 253e 2018 933b a054 0bbd
00000100: 438e cabd a060 59bc 9aaf 0c3e 9c27 53bd
00000110: 70de e1bc 746b b53d 3d56 8fbd c3bd acbd
00000120: e896 fc3c ae5c 073e e089 9f3c c0f1 f0bb
00000130: ac83 14be 7046 df3d b081 083c fd97 a4bd
00000140: d97b 24be 5467 b1bd 2c63 03be f022 193d
00000150: 02ff 083e d0d2 13bd 0897 e33d 70eb 1ebd
00000160: d3f4 b1bd 1218 2bbe 9990 fabd 3c58 0c3e
00000170: b4d7 fb3d d862 343e 28e7 96bc f0c9 7c3d
00000180: 7090 b7bc a40b 393e 6a13 15be 980e 4bbd
00000190: e541 33be a0b3 933c e68c 11be 821e 03be
000001a0: d8f1 2c3d 6c02 3a3e a2d3 1b3e 4473 003e
000001b0: 3c17 39bd 40a0 b4bb e811 28be cc59 fb3d
000001c0: 4c52 4c3d 86b0 1e3e b9c0 35be 645f 36bd
000001d0: c5cf f0bd 2913 0fbe ee4b debd 2c42 6c3d
000001e0: f491 f83d 74db a83d ac12 80bd 5cf0 a43d
000001f0: 0c24 383e 5048 123c eb8d 86bd 5ea0 13be
00000200: b228 043e 20e7 2abd 8aad 12be a83a d83d
00000210: f815 153d c0ea 96bd 1b06 38be f09e bb3c
00000220: 487a 5dbd 84ad 01bd b877 79bd 4cc5 193e
00000230: d878 c63d e237 143e b82b 8d3d 186a 553d
00000240: 6282 383e 00ea 29ba c8f4 d63d e40a 983d
00000250: 05ed 32be 1005 fe3d 28ab 92bc 127b fcbd
00000260: 94fb fb3d 636b 17be ac51 af3d 4cc9 19be
00000270: 947e 56bd 8366 2fbe 4eb4 053e 20e3 383d
00000280: 208e 183e 503d 643d 3666 b9bd 50e5 e03c
00000290: a809 fd3d 908a 10be 2270 f9bd 4c37 3ebd
000002a0: 4699 e9bd a4da 07bd a60a 313e 08ea cf3d
000002b0: 1893 17be c0c2 c9bd 5608 163e 9068 65bc
000002c0: 3771 9dbd 5434 123d 2875 edbc 6cf4 7b3d
000002d0: 806c 5c3b d49a d43d a4d4 cd3d fc45 833d
000002e0: c0a3 673d a80a 40bd 1f08 2dbe 00fe 8fbc
000002f0: d6fd 0dbe 198d 15be c19f 24be 2ce0 3abd
00000300: 9441 0abe e0e0 fc3c 6878 a13d 7c23 de3d
00000310: b272 34be 084e 1d3e ec82 5e3d 4eb7 173e
00000320: cc2c b53d 4cf2 073d 1489 0fbd d068 1c3e
00000330: 6c5d f3bd 66d4 113e 2211 233e 5842 f43c
00000340: 065a a0bd e006 17be 506a 24bc f6dc 1e3e
00000350: b046 0a3c e83b 3cbd fef3 b9bd 6086 5f3c
00000360: ccc8 ce3d e4af 113d 4cf1 003d b45f 01be
00000370: f0f3 b43d d874 9b3c d5c0 37be 4a81 1b3e
00000380: 44ca ed3d 8095 bb3a 5cb6 13bd 94eb 273e
00000390: 4e9a 393e a8bd f33c 6a8c 2d3e 5812 9e3d
000003a0: 5c71 b23d a029 31bc e07e 5abc dc20 ef3d
000003b0: 21c6 a3bd d58a 05be 6876 e93d 787c 33bd
000003c0: b6fe 033e c082 f8bc 94c9 e3bd 4073 4abb
000003d0: 786f acbc 80a6 2b3d 8e3c 10be 744a 1ebe
000003e0: 10b0 1a3c a0be 283e 165c ecbd 0f18 bcbd
000003f0: 88be 8e3c 1802 0c3e b046 0f3e 0826 1cbd
-0.1562883 -0.0046064705 0.047904104 -0.11448576 -0.070913 0.099868745 -0.12344372 -0.15017673
-0.05517994 0.14669526 -0.05352807 -0.123759806 -0.12952122 -0.04290864 0.12967557 0.0686228
-0.060959227 -0.15838751 -0.11078879 0.03855595 0.1535191 0.09402615 -0.023337007 0.09684777
0.0131482035 0.025089964 0.085123 -0.04494208 0.05318968 0.016278744 0.055700764 -0.0390535
0.11802074 -0.16447403 0.1212655 -0.15064088 -0.12283736 -0.11226286 -0.017627507 -0.018098146
-0.17753756 0.09687647 0.04491611 0.17838803 -0.13029337 -0.14681324 0.043871343 0.1406514
0.12188944 0.07406172 0.030705586 0.091006905 -0.072662 -0.18210298 -0.15199584 -0.11676157
0.040769428 0.16346371 0.11782479 -0.11916771 0.050911367 0.1615029 0.00448896 -0.03401625
-0.098904155 -0.013267666 0.13738862 -0.051551446 -0.027571887 0.08858386 -0.069988705 -0.08434632
0.030833676 0.13218948 0.019474924 -0.0073530376 -0.14503354 0.10902107 0.008331701 -0.08036802
-0.16062869 -0.086622864 -0.128308 0.037386835 0.13378528 -0.03608972 0.11112791 -0.03879875
-0.08689275 -0.16708401 -0.12234611 0.13705534 0.122970015 0.17615831 -0.01842077 0.06171602
-0.02240774 0.18070847 -0.14558187 -0.049574465 -0.17505606 0.018029988 -0.14213905 -0.12804607
0.042222828 0.18164986 0.1521745 0.1254397 -0.045188174 -0.0055122674 -0.1641308 0.12272987
0.049883172 0.15497026 -0.17749299 -0.044524565 -0.11758379 -0.13972153 -0.10854326 0.057680294
0.12137213 0.08244982 -0.062535614 0.080536574 0.17982501 0.008928373 -0.065700375 -0.14416644
0.12906149 -0.041724324 -0.14324012 0.10558063 0.036397904 -0.07368994 -0.17971079 0.022902936
-0.054071695 -0.031659618 -0.06090519 0.15016669 0.09691018 0.14474443 0.06893104 0.052103132
0.18018487 -0.0006481707 0.10495907 0.07423952 -0.17473228 0.12403309 -0.01790388 -0.12328161
0.12303844 -0.14787059 0.085604995 -0.15018195 -0.052366808 -0.17128949 0.13057062 0.04513848
0.14897966 0.055722535 -0.09052698 0.027453095 0.123553574 -0.14115357 -0.12179591 -0.046439454
-0.11406188 -0.033167496 0.17289218 0.1015206 -0.14802206 -0.09851599 0.14651617 -0.01400198
-0.0768761 0.035694435 -0.028986529 0.061512396 0.0033634007 0.103810936 0.100503236 0.06409833
0.05655265 -0.046885163 -0.16897629 -0.017577171 -0.13866362 -0.14604606 -0.16076566 -0.045623943
-0.13501579 0.030868948 0.07884294 0.10846612 -0.17621878 0.15361798 0.054324076 0.14816019
0.08846435 0.033190057 -0.035042837 0.15274358 -0.11883053 0.1424118 0.15924504 0.029816791
-0.078296706 -0.14748716 -0.0100351125 0.15513977 0.008439705 -0.04595557 -0.09079741 0.013642877
0.10096893 0.035568133 0.03148012 -0.12634164 0.0883559 0.018976614 -0.17944653 0.15186039
0.11610845 0.0014311522 -0.036062583 0.1639846 0.18125269 0.029753521 0.16948095 0.077183425
0.08713028 -0.010813147 -0.013335913 0.11676189 -0.079967745 -0.13041241 0.11399537 -0.043819875
0.12890133 -0.030335784 -0.11122432 -0.0030891448 -0.021049246 0.041906834 -0.140856 -0.15458089
0.009441391 0.16478968 -0.115410015 -0.09184276 0.017424837 0.13672674 0.13991809 -0.038122207

layers.2.bias f4 [30]
00000000: 0000 0000 0000 0000 0000 0000 0000 0000
00000010: 0000 0000 0000 0000 0000 0000 0000 0000
00000020: 0000 0000 0000 0000 0000 0000 0000 0000
00000030: 0000 0000 0000 0000 0000 0000 0000 0000
00000040: 0000 0000 0000 0000 0000 0000 0000 0000
00000050: 0000 0000 0000 0000 0000 0000 0000 0000
00000060: 0000 0000 0000 0000 0000 0000 0000 0000
00000070: 0000 0000 0000 0000
0.0 0.0 0.0 0.0 0.0 0.0 0.0 0.0
0.0 0.0 0.0 0.0 0.0 0.0 0.0 0.0
0.0 0.0 0.0 0.0 0.0 0.0 0.0 0.0
0.0 0.0 0.0 0.0 0.0 0.0

layers.2.combine_aggr.weight f4 [30, 120]
00000000: 6ecb 9b3d e082 3b3c aab6 013d c7d8 b9bd
00000010: 080c 1a3d 641d 7c3d 2695 0fbd cc11 8e3d
00000020: 6c69 283d 2282 88bd 7025 8cbd 40fb a73a
00000030: 1e53 b4bd 15a7 82bd 8040 123d e40c f6bc
00000040: 40fd 53bb 15c6 18bd f401 723d 4285 993d
00000050: 76e7 863d 2541 a6bd 4017 ddbc 8818 353d
00000060: c426 5d3d cc9a a7bc dcbd 4c3d 00e1 30bb
00000070: 8021 263c 48f0 7b3d f4c9 7f3d 30fc 83bd
00000080: a301 63bd 7e75 043d 04ba 603d ec1f aebc
00000090: ceca a53d b04c 2cbc e99d 3dbd 98aa 18bc
000000a0: 0f20 9fbd 08b4 e73c ede1 abbd 667a ad3d
000000b0: 76db 8dbd 5c66 733d ba3b 8cbd 30f9 59bc
000000c0: 7113 4fbd 7c10 3f3d 50dd 583d 01d3 aebd
000000d0: 3280 a0bd d8e4 443c 20b3 00bb 00c1 0a3a
000000e0: 3858 e33c 1ccc 93bc 26c4 9d3d 60c5 d43b
000000f0: 6841 2cbd 2cbe 013d 8f0d 91bd d8d2 32bd
00000100: 1408 da3c 27df 1cbd 447c b2bd ec23 3b3d
00000110: a878 c03c b4a8 d93c 4ef7 013d ab7b b8bd
00000120: 82e5 22bd 5ca2 35bd 44e4 b23d 7487 1dbd
00000130: b6a4 75bd ef3b 03bd 78b5 0f3c 5caf 163d
00000140: 44ae 893d c6f7 863d f899 193c 6651 aa3d
00000150: 78ce 463d e07f 473d c250 a0bd a061 f43b
00000160: 48d4 9ebc 10ac b1bd 4da8 38bd 0c40 8e3d
00000170: e41e 093d 36c8 ac3d 78f3 7e3d 8010 37ba
00000180: 5207 a83d f4bb 9d3c 10b2 5bbc d0e4 1fbd
00000190: 3001 713d 10a1 273d 94ce 813d 58e9 81bc
000001a0: 5207 adbd 549c 873c b8ac 233c 8262 73bd
000001b0: 184e b53c b003 35bc d080 9f3d 40c5 8c3b
000001c0: abab 38bd 92c7 953d 20c5 313b b831 7bbc
000001d0: 1c97 323d 3057 b43d 607e 2a3d c0b1 283b
000001e0: ca1e 993d 05fb 23bd 023a a53d 090a 55bd
000001f0: 803d db3a 6e26 aa3d a8e6 143d c4b8 9cbc
00000200: d05d 663d 748e 5c3d 7885 a8bd 60b2 26bc
00000210: f221 93bd ec30 a1bc f049 34bc d394 15bd
00000220: 03a9 08bd 9039 4a3d 60ac 31bb 5104 babd
00000230: bc8b 803c 19dc b7bd 9f41 80bd 788e 643d
00000240: deea 8e3d 19aa 04bd b90b 63bd d834 293d
00000250: db97 b2bd 58ae 663d 4ac7 803d 74c7 1d3d
00000260: f43d e43c 74a3 9a3c a852 8fbd a5c6 15bd
00000270: 3830 713d 8076 9d3d e0cb 1f3b 1020 c03c
00000280: 1a54 b1bd b8fa 833d 28c9 59bd d36f 48bd
00000290: ee79 b83d b85e d6bc abe7 3cbd b0bb 4d3c
000002a0: 9255 933d 60e0 a93d 1067 fa3b 588e 7e3d
000002b0: de54 853d d8f8 79bc 55ba 93bd a0f4 203b
000002c0: 0409 febc 9808 033d 0afb 88bd 3ace 7abd
000002d0: 40cc 8cbd dadc 8bbd 5835 8e3d a14a babd
000002e0: 2038 5cbb 74c4 66bd 9c44 1dbd d882 d7bc
000002f0: 446a 2f3d 246d 7b3d c041 a8bc 8015 433b
00000300: 409d 83ba f240 aa3d b01d 273d ec45 9bbc
00000310: f031 7d3d 67f5 96bd f031 143d 3c06 913d
00000320: 8812 42bd 8ce9 0b3d 2c72 2b3d b9d9 9cbd
00000330: c81e d73c 3062 8d3d 6859 093c c888 90bc
00000340: 2d89 12bd ae2a 78bd dc9b b53c f6ba b0bd
00000350: 3608 a0bd c44a 07bd 860a b1bd 3e93 ae3d
00000360: 68f6 f0bc b3cb 46bd 4cfc bb3c 20eb 203d
00000370: 66ca 8c3d d4f4 16bd 74ac 82bc 792d 8dbd
00000380: e43f a3bd 68b1 22bd c847 283c 415d 39bd
00000390: e86f cebc 220e 093d dc4c 9a3c 40b6 663d
000003a0: 40aa 2c3d b82b 453d 3d4d 41bd c48d 483d
000003b0: 4291 a7bd e04a e63c e3d1 6bbd c47f ce3c
000003c0: 260c abbd 80b7 77bc c8fc 653d 94fc 3abd
000003d0: 4078 673d a88b 68bc ce64 af3d 2e24 b03d
000003e0: 489d 5cbd c827 afbc f8d7 98bc fe60 0dbd
000003f0: 2cd3 f53c 3a39 aabd 1e3c 60bd c876 6abc
0.076071605 0.011444777 0.031668343 -0.0907455 0.03760913 0.061551467 -0.03505435 0.06936988
0.041116163 -0.06665446 -0.06843078 0.0012815967 -0.08804916 -0.063795246 0.035706043 -0.030035444
-0.0032346994 -0.03729828 0.059083894 0.0749612 0.065871164 -0.08117894 -0.026988626 0.044212848
0.053992048 -0.020459555 0.04998575 -0.002698958 0.010139823 0.061508447 0.062448457 -0.06444585
-0.055421483 0.03233861 0.0548649 -0.021255456 0.080953225 -0.010516331 -0.046293173 -0.0093180165
-0.077697866 0.028284088 -0.08392701 0.08470611 -0.069266245 0.05942379 -0.068473294 -0.01330404
-0.05055565 0.04664658 0.052945435 -0.085363396 -0.07836951 0.012017451 -0.0019638017 0.00052930415
0.027752027 -0.018041663 0.07703428 0.0064932555 -0.042054564 0.031675503 -0.07082664 -0.043658108
0.02661518 -0.038298752 -0.08715108 0.045688555 0.023495033 0.026569702 0.03172999 -0.09007963
-0.039769657 -0.04434429 0.087349445 -0.038459256 -0.059971534 -0.03203958 0.008771293 0.03678833
0.06722692 0.06590228 0.009375088 0.08316307 0.048536748 0.048705935 -0.07827903 0.007457927
-0.019388333 -0.086753964 -0.04508238 0.0694581 0.033476725 0.08436625 0.06224391 -0.00069833547
0.08204521 0.019254662 -0.013409153 -0.039036572 0.058839023 0.040925086 0.0633823 -0.015858337
-0.08448662 0.016554035 0.00998991 -0.059420116 0.022131965 -0.011048242 0.07788241 0.004295975
-0.04508559 0.07313456 0.0027125552 -0.015331678 0.04360114 0.08805692 0.041624427 0.0025740713
0.07476576 -0.040034313 0.08067705 -0.052011523 0.0016726702 0.08308111 0.036352783 -0.019131072
0.05624181 0.05384679 -0.08228582 -0.010174364 -0.07184209 -0.019676648 -0.011003956 -0.036518883
-0.033364307 0.049371302 -0.00271108 -0.090828545 0.01569163 -0.08977527 -0.06262516 0.05579993
0.06978391 -0.03238878 -0.0554311 0.04131016 -0.087203704 0.05631861 0.06288011 0.03852029
0.027861573 0.018876769 -0.06998187 -0.036566395 0.058883876 0.07688618 0.0024382994 0.023452789
-0.08658619 0.06444305 -0.053170353 -0.04893477 0.09007631 -0.026168212 -0.046119373 0.012556955
0.071940556 0.08294749 0.0076416805 0.06214747 0.06510328 -0.015257083 -0.072132744 0.002455987
-0.031010158 0.031990618 -0.06688507 -0.06123183 -0.06874895 -0.068292335 0.06943768 -0.090962656
-0.003360279 -0.056339696 -0.03839551 -0.026307508 0.042825952 0.06138338 -0.020539165 0.0029767454
-0.0010041371 0.083131686 0.040799797 -0.01895424 0.061815202 -0.073710255 0.036180437 0.07081267
-0.047380954 0.034158275 0.04185693 -0.07658715 0.026259795 0.069034934 0.0083831325 -0.017643347
-0.035775352 -0.060587578 0.022169046 -0.0862941 -0.07814066 -0.033030286 -0.08644585 0.08524178
-0.02941437 -0.048534106 0.022947453 0.039286733 0.06874542 -0.03685458 -0.015951373 -0.06893439
-0.079711705 -0.03971997 0.01027102 -0.04525495 -0.025199845 0.033460744 0.018835478 0.05632615
0.04215455 0.048137397 -0.0471928 0.048963323 -0.081820026 0.028111875 -0.05757321 0.025207408
-0.083519265 -0.015119433 0.056149274 -0.045651034 0.056511164 -0.014193453 0.08564149 0.08600651
-0.053860933 -0.021381274 -0.01865767 -0.034516327 0.030007921 -0.08311696 -0.054744832 -0.014310546

layers.2.lin_a.weight f4 [1, 60]
00000000: e6d2 cbbd 4e75 e83d a67c 893d b412 26bd
00000010: c5e1 d7bd 7638 8d3d 384a 7c3d 5a78 6fbd
00000020: d8bf 7b3d d4f0 1c3d 5521 023e 7e3e 873d
00000030: f847 a33c 21da 02be d62d d73d 6002 e33d
00000040: 1093 12bd d068 25bc c0cf a4bb 8028 01bc
00000050: 7aba 8f3d 28f3 8e3c b3f1 e5bd 3022 2a3d
00000060: 0868 a2bd 3cfa 163d 902c 663d bc7f 7cbd
00000070: 921b b33d 4010 583b d2fa 84bd 508f e23d
00000080: 90f2 a83d 1657 c13d aa0b b6bd 8480 c9bd
00000090: 1c77 e8bd e0f0 aa3d 5c33 9a3d aa2b a1bd
000000a0: e84c 4f3d 5092 d43c fc16 61bd 8030 913b
000000b0: 5582 9fbd 1cd2 1abd 4016 513d 8858 953c
000000c0: 03c2 c4bd 9412 053d 600a d3bc 943a c2bd
000000d0: f673 f4bd 806e b63b 7d96 c2bd ce9e a1bd
000000e0: 38d7 fe3c d06c 023c 3867 6fbd 10f4 a33c
-0.09952335 0.11350499 0.06713228 -0.04054518 -0.10541109 0.06895535 0.061594218 -0.058464386
0.061462253 0.03831561 0.12708028 0.06603716 0.019931778 -0.12778522 0.105067894 0.11084437
-0.03578478 -0.01009579 -0.0050296485 -0.007883191 0.070179895 0.01744993 -0.11227741 0.04153651
-0.07929999 0.036859736 0.05619484 -0.061645254 0.08745493 0.003296867 -0.06493153 0.11062491
0.0824939 0.094404384 -0.088889435 -0.098389655 -0.11350843 0.083467245 0.07529327 -0.078696564
0.050610453 0.025948673 -0.05495356 0.0044308305 -0.07788531 -0.037798032 0.05104661 0.018230692
-0.09607317 0.03248842 -0.025761783 -0.09483829 -0.1193618 0.005567372 -0.095013596 -0.07891618
0.031108484 0.007960513 -0.058448046 0.020013839

layers.2.lin.weight f4 [30, 30]
00000000: c8cb b73d 4b65 89bd c840 74bd d418 db3d
00000010: 8ec3 0d3e eee5 3a3e a8b7 ae3d e15a 8ebd
00000020: 44b0 a3bd 1a19 323e dad6 03be 9a5c 1dbe
00000030: 6076 9bbc a095 f4bc 942d ba3d a820 febd
00000040: 4045 2abd a49c 10be fc1a ff3d c0e7 293d
00000050: 4cc1 babd 9c21 49bd d8a7 eb3d ba40 143e
00000060: 63f9 2bbe f56f d9bd f866 003d c861 3d3d
00000070: 120b edbd 18c7 8e3d 40d0 0d3c 4f8d cfbd
00000080: 18fe 0ebe 8000 e9ba 0433 693d c078 aa3d
00000090: 18c9 8c3d 0279 033e b4c1 263e 1a3a e1bd
000000a0: 2dad 84bd 1800 1dbe 1475 113e 0cf1 31be
000000b0: 3bef b4bd 2950 29be f055 e9bc b514 93bd
000000c0: 5c3d db3d 2245 17be 7419 e13d 08f5 8bbd
000000d0: 3048 0f3d 7369 f0bd 70de 4d3d 6477 123e
000000e0: 489f 7e3d 18c2 623d b4c7 42bd db28 30be
000000f0: 8488 573d b07a 053e 0055 d23d 52b4 203e
00000100: d672 c5bd 5493 d53d d61a 003e 468a 0a3e
00000110: 8fe6 bfbd 1af7 0a3e 153c 22be c35b c8bd
00000120: 648a c33d 04ce 133e ccc3 f63d 78e7 43bd
00000130: 0361 0cbe a848 e63d f584 babd 90f8 013e
00000140: 00fd e0ba e0b1 963d 28c0 063d e0c2 c6bc
00000150: 98fd 9ebd 28fe 1ebd a499 45bd 369d 19be
00000160: 48fd 7d3d 68a9 933d eab5 3abe ac03 b3bd
00000170: 828b 14be 80ef d6ba 0e04 d1bd 2ce8 143e
00000180: 1893 0ebe fc4d 7bbd ce1a 253e 6095 eb3b
00000190: b2df 153e b562 b1bd d6ac 213e 262d fdbd
000001a0: 7fa6 94bd 9ba9 24be 4212 313e 3491 8e3d
000001b0: 5066 73bd b8d7 a83c 60e1 98bb b905 08be
000001c0: 8331 f7bd d8cb 993d 34aa 073e 00d8 7c3b
000001d0: b0bb 343e e036 3cbc c4be e03d 30d2 8f3d
000001e0: f8c6 393e 5c45 9d3d 2e8d eebd f441 f53d
000001f0: 337b b2bd 0246 15be e697 16be bc9a 393e
00000200: b01d 303d bc97 9b3d 7822 a1bd 1cf5 15be
00000210: f010 513d c043 19be 2888 1d3d 9052 c6bc
00000220: f061 943c a423 ed3d 9cc1 28be c408 a23d
00000230: 9690 a9bd 1cfd 0cbd d4d6 c0bd 34bc 79bd
00000240: 5c22 8e3d 749c b93d 920f 16be 38d4 fa3c
00000250: 0028 83b9 1cc3 f73d 001b 39ba 0e6b 2d3e
00000260: e8ca 143e 955e 27be f0fd 153e a05c 5e3c
00000270: b06c 94bc 97d1 e3bd 6d9e e8bd 0826 5c3d
00000280: ce1b 93bd 3225 873d 08a9 c5bc 203d 2fbd
00000290: 208c e03d f2ee 05be 91a2 81bd e041 013e
000002a0: 58b4 c83d 3e2a 363e 6e93 0c3e 42de fabd
000002b0: 28de d53d a0ae 783c 94ce 033e 6cfe 33bd
000002c0: a89e c63d 0457 2ebd 68df a73d 19dd b8bd
000002d0: 5c06 ba3d 68a4 db3d 841c 0e3e c4db c7bd
000002e0: 899b cbbd 5002 7e3d 8ff2 f6bd 65d6 e0bd
000002f0: 985e bc3c 4e57 303e c67b 04be d8ff 01bd
00000300: 0f99 09be 4820 9fbc 3c59 253e 4964 0fbe
00000310: c4d0 fb3d 748d cc3d a807 c43c 440e f63d
00000320: fcb7 b83d c822 6d3d b0aa d33c 3429 f3bd
00000330: ff8e 31be 3091 fa3d 949a 88bd fd21 29be
00000340: c866 74bd 4ca2 03be 5268 183e d417 0a3e
00000350: 6a69 26be 5cde 973d 6295 98bd 02b1 323e
00000360: 000a 8d3c 309d 37bc 9c24 933d fb59 20be
00000370: eb4e 94bd 3e6b 1a3e f028 203e cca3 03bd
00000380: a4ae 0c3e dd6d 19be 4e55 13be 64c2 17bd
00000390: 4003 2fbe b0bf 203e 2089 dbbc 8340 c7bd
000003a0: 5403 653d d8a3 fcbc 30ef db3d e887 d63d
000003b0: 46dc 09be 28ca 253d bc37 16bd f4da b73d
000003c0: 5713 02be 00b2 413b a0dc 613d 0185 14be
000003d0: 0c33 663d 607a 8fbd 0cbf 8a3d fd9c 9ebd
000003e0: 5c6b 22bd d3f9 32be 103c cbbc cac8 0c3e
000003f0: 08ba 833d d7a6 0cbe b7b8 1bbe 629e 0d3e
0.08974415 -0.06708773 -0.059632093 0.10698095 0.1384413 0.18251774 0.085311234 -0.069509275
-0.079926044 0.17392388 -0.12874928 -0.15367356 -0.018977344 -0.029856503 0.090907246 -0.124085724
-0.04156995 -0.14122254 0.12456319 0.04148078 -0.091189 -0.049104318 0.11506623 0.14477816
-0.16794352 -0.10617057 0.0313482 0.04623583 -0.11574377 0.06971568 0.008655608 -0.10134374
-0.13964117 -0.0017776638 0.056933418 0.083238125 0.06874293 0.1283913 0.1628483 -0.1099741
-0.06478343 -0.15332067 0.14204818 -0.17377108 -0.08834692 -0.16534485 -0.028483361 -0.07181684
0.10705063 -0.14772466 0.10991183 -0.068338454 0.034980953 -0.11738863 0.05026096 0.14303356
0.06216362 0.055360883 -0.047553733 -0.17203085 0.052620426 0.13035083 0.10270119 0.15693787
-0.09641044 0.10428491 0.12510237 0.1352931 -0.093701474 0.13570824 -0.15843232 -0.09783127
0.0954788 0.14434057 0.12049064 -0.047828168 -0.13708882 0.11244327 -0.09107391 0.12692475
-0.0017165244 0.07358146 0.0328981 -0.024262846 -0.07763213 -0.0388166 -0.048242226 -0.15001377
0.062009126 0.07210046 -0.18233457 -0.08740935 -0.14506343 -0.0016398281 -0.102058515 0.14541692
-0.139233 -0.06135367 0.16123506 0.0071894377 0.14636114 -0.08661405 0.15788588 -0.12362127
-0.07258319 -0.16080324 0.17292121 0.06961289 -0.059423745 0.020610675 -0.0046655387 -0.13283433
-0.120699905 0.07509583 0.13248521 0.0038580894 0.17649722 -0.011487693 0.10973886 0.07022512
0.18142307 0.07679245 -0.11648022 0.1197547 -0.08714905 -0.14577487 -0.14706382 0.18125433
0.042997062 0.075973004 -0.078679025 -0.14644283 0.051041543 -0.14967251 0.038459927 -0.02420929
0.018113106 0.115790635 -0.16480106 0.07911828 -0.08279531 -0.03442107 -0.09415975 -0.0609705
0.06940147 0.09063044 -0.14654377 0.030618772 -0.0002501607 0.12097761 -0.0007061213 0.1693537
0.14530528 -0.16344674 0.1464765 0.013571888 -0.018118232 -0.111239605 -0.11358342 0.053747207
-0.07183038 0.06598891 -0.024128452 -0.042782903 0.10964227 -0.13079432 -0.06329835 0.12622786
0.09800023 0.17789552 0.13728115 -0.122494236 0.104427636 0.015178353 0.12871772 -0.043943807
0.0969823 -0.042563453 0.08196908 -0.09026546 0.09083244 0.107247174 0.13878065 -0.09758714
-0.09941775 0.062013924 -0.12057983 -0.109783925 0.022994325 0.17220804 -0.12937841 -0.031738132
-0.13437293 -0.019424573 0.16147321 -0.140031 0.12295678 0.099879175 0.023929432 0.1201444
0.09019467 0.057894498 0.025838226 -0.11873093 -0.17339705 0.122347236 -0.066701084 -0.16516872
-0.059668332 -0.1285488 0.14883545 0.13485652 -0.1625115 0.074154586 -0.074503675 0.17450336
0.017216682 -0.01120691 0.07184717 -0.15659325 -0.07241615 0.15079972 0.15640616 -0.03213863
0.13738495 -0.14983316 -0.1438801 -0.03705062 -0.17091084 0.15698123 -0.026798785 -0.097291015
0.055911377 -0.030839846 0.10738981 0.10475141 -0.13462934 0.040475994 -0.036674246 0.08977309
-0.1270269 0.002955556 0.055142045 -0.14503862 0.056201026 -0.07005763 0.067747205 -0.07744787
-0.039653167 -0.17478113 -0.024808913 0.1374847 0.06431967 -0.1373552 -0.15207182 0.1382995

layers.3.bias f4 [30]
00000000: 0000 0000 0000 0000 0000 0000 0000 0000
00000010: 0000 0000 0000 0000 0000 0000 0000 0000
00000020: 0000 0000 0000 0000 0000 0000 0000 0000
00000030: 0000 0000 0000 0000 0000 0000 0000 0000
00000040: 0000 0000 0000 0000 0000 0000 0000 0000
00000050: 0000 0000 0000 0000 0000 0000 0000 0000
00000060: 0000 0000 0000 0000 0000 0000 0000 0000
00000070: 0000 0000 0000 0000
0.0 0.0 0.0 0.0 0.0 0.0 0.0 0.0
0.0 0.0 0.0 0.0 0.0 0.0 0.0 0.0
0.0 0.0 0.0 0.0 0.0 0.0 0.0 0.0
0.0 0.0 0.0 0.0 0.0 0.0
