experiments/output-gat/Tree_Cycle/max/42/model.pth (torch, 150205 bytes, 14 tensors)

layers.0.bias f4 [50]
0	0xbd44c286	-0.048037075
1	0x00000000	0.0
2	0x00000000	0.0
3	0x00000000	0.0
4	0x00000000	0.0
5	0x00000000	0.0
6	0xbcdc2930	-0.026875108
7	0xbc9d41c4	-0.019196399
8	0x00000000	0.0
9	0x3c60ee4c	0.013728689
10	0x3d46f75d	0.048575748
11	0x00000000	0.0
12	0x00000000	0.0
13	0x00000000	0.0
14	0x3cee66ed	0.029101813
15	0x00000000	0.0
16	0xbe70c040	-0.23510838
17	0x00000000	0.0
18	0x00000000	0.0
19	0xbdaae46b	-0.083443485
20	0xbbc4acdc	-0.0060020518
21	0x00000000	0.0
22	0x3c089734	0.008336831
23	0x00000000	0.0
24	0xbe09536b	-0.13410728
25	0xbc8640da	-0.016388346
26	0xbcb9106f	-0.022590844
27	0x3f84a675	1.0363299
28	0x00000000	0.0
29	0x00000000	0.0
30	0x00000000	0.0
31	0xbc835350	-0.016030937
32	0xbd799ac1	-0.0609386
33	0x00000000	0.0
34	0x00000000	0.0
35	0xbc25b120	-0.010113031
36	0xbe063ac8	-0.13108361
37	0x00000000	0.0
38	0xbdd18e10	-0.102321744
39	0xbe1679c0	-0.14694881
40	0x3dd46d8e	0.103724584
41	0x00000000	0.0
42	0x00000000	0.0
43	0xbdab7695	-0.08372227
44	0xbd947338	-0.07248539
45	0xbba749c4	-0.005105229
46	0xbe6b8aba	-0.23002139
47	0x00000000	0.0
48	0x00000000	0.0
49	0xbc77fdbe	-0.01513618

layers.0.combine_aggr.weight f4 [50, 200]
0	0x3d5d6f1c	0.05406104
1	0x3d70655e	0.05869042
2	0xbc87b482	-0.016565565
3	0x3d850775	0.06495563
4	0xbc7dd634	-0.015492965
5	0x3c69c780	0.014268756
6	0xbd0d021f	-0.03442585
7	0x3d2a1862	0.04152716
8	0x3d7f5276	0.0623345
9	0xbd547b3e	-0.051875345
10	0x3d7bbf02	0.061461456
11	0x3c58d418	0.013234161
12	0x3d55fb5e	0.052241676
13	0x3c1ce648	0.009576388
14	0x3d0ba816	0.034095846
15	0xbc2392b8	-0.009983711
16	0x3d5f45ba	0.054509856
17	0x3c2b3d78	0.010451667
18	0xbd073617	-0.03301057
19	0x3c93a724	0.018024035
20	0xbd05718f	-0.032579
21	0xbc07dd08	-0.008292444
22	0xbceb45a4	-0.02871973
23	0x3d4021fc	0.04690741
24	0xbd64a044	-0.055816904
25	0xbd0585da	-0.032598354
26	0xbca391a6	-0.019966912
27	0xbd2e25aa	-0.042516388
28	0x3bdab0b0	0.006673895
29	0xbd8f07fe	-0.06983946
30	0x3d82c8bf	0.063859455
31	0xbd760844	-0.060066476
32	0x3d5f9a5e	0.054590575
33	0x3c40ccf0	0.011767611
34	0xbcbc16c6	-0.022960078
35	0x3d32fa3a	0.043695666
36	0x3c348e90	0.011020318
37	0x3d6a02de	0.05713164
38	0x3bfd4c80	0.007730067
39	0xbcb6af04	-0.02230025
40	0x3c9ba364	0.01899881
41	0xbc9d157c	-0.019175284
42	0x3cf3c968	0.029759124
43	0x3d814b61	0.063132055
44	0x3d276c88	0.040874988
45	0xbcfd3cc6	-0.030912768
46	0x3d273198	0.04081878
47	0x3c4f4a50	0.012651995
48	0x3d1315b2	0.035909362
49	0xbd308812	-0.043098517
50	0xbd8f5aa4	-0.0699971
51	0xbcdfcdce	-0.027319815
52	0xbd5e2750	-0.05423671
53	0x3d6da74a	0.058020867
54	0x3ca6d878	0.020366892
55	0x3ceff028	0.02928932
56	0x3cb732b4	0.022363044
57	0xbaa13ac0	-0.0012300834
58	0x3d62aae6	0.055338763
59	0xbd4dc967	-0.0502409
60	0x3b91e3d0	0.004452206
61	0xbd45af4c	-0.04826288
62	0x3cb29dd8	0.021803781
63	0xbcc77cd0	-0.024351507
64	0x3cb17ecc	0.021666907
65	0xbc715e5c	-0.01473197
66	0x3d7037b2	0.058646865
67	0xbd2baa32	-0.041910358
68	0xbd2cbc3e	-0.04217171
69	0xbd2cbee9	-0.042174254
70	0x3d8240d5	0.06360022
71	0x3cc10a28	0.023564413
72	0x3d8b594b	0.06804141
73	0xbd6f068a	-0.058355846
74	0xbd8fa396	-0.070136234
75	0xbd6298c6	-0.055321477
76	0xbd42d4e2	-0.047566302
77	0x3cea9fd4	0.028640665
78	0x3ccf6b70	0.025319785
79	0x3d70a952	0.058755226
80	0xbd1592a1	-0.03651679
81	0xbd4571e0	-0.048204303
82	0x3d19abfe	0.03751754
83	0xbcea23e8	-0.028581575
84	0x3d2fc8b0	0.042916
85	0xbc897590	-0.016779691
86	0x3d25aea4	0.040449753
87	0xbd6108b3	-0.054939937
88	0xbd122985	-0.035684127
89	0x3cb09a74	0.021558024
90	0x3c74ebb0	0.01494877
91	0xbc93b01a	-0.018028308
92	0x3d2ca3e2	0.04214848
93	0x3d44e4d0	0.048069775
94	0xbd52085c	-0.051277503
95	0xbd1a9ff0	-0.037750185
96	0x3d849a1d	0.06474707
97	0xbcc37638	-0.023860082
98	0xbccd5b9c	-0.025068097
99	0xbd8c1f68	-0.06841928
100	0xbd25dcef	-0.0404939
101	0x3c90b3a4	0.017663784
102	0xbc18ead0	-0.009333327
103	0xbd523d32	-0.05132789
104	0x3ad966c0	0.0016586408
105	0xbd45d770	-0.04830116
106	0xbd75b8d0	-0.059990704
107	0xbd1f7d2b	-0.03893773
108	0xbd7d7d0f	-0.061886843
109	0xbd386b47	-0.045024183
110	0x3d90c243	0.070683025
111	0x3c5ad0f0	0.013355479
112	0x3cb28154	0.021790184
113	0xbd87112f	-0.065950744
114	0xbd3e38d6	-0.04644092
115	0xbcc0cf8a	-0.023536462
116	0x3c3528e0	0.011057109
117	0xbd7eda3a	-0.062219836
118	0xbcf9969e	-0.030467328
119	0xbd2d6498	-0.04233226
120	0x394d7a00	0.00019595772
121	0xbcd78b94	-0.026311673
122	0xbba08fc0	-0.004899949
123	0xbd444336	-0.04791566
124	0xbd46cd21	-0.04853547
125	0xbd28f8a2	-0.04125274
126	0xbcc647a6	-0.024204087
127	0xbd6499a5	-0.05581059
128	0x3d72d8ca	0.059288777
129	0xbc65ece0	-0.014033526
130	0x3d793292	0.060839243
131	0x3cb47cd4	0.022032179
132	0xbd754235	-0.059877593
133	0x3d486f50	0.04893428
134	0xbc9f6184	-0.019455679
135	0xbcde0bd2	-0.027105246
136	0xbd706a03	-0.05869485
137	0xbd8ff848	-0.07029778
138	0x3ca5bba4	0.020231076
139	0xbc7d128c	-0.015446316
140	0x3ce18520	0.0275293
141	0xbd6db086	-0.058029674
142	0x3d5707cc	0.05249767
143	0xbd549acc	-0.05190544
144	0xbc480bd4	-0.012209851
145	0x3c71fb00	0.014769316
146	0x3d1585c2	0.036504515
147	0x3d69d272	0.057085462
148	0x3d83ebc7	0.06441455
149	0xbd65a7a0	-0.056068063
150	0x3c91c800	0.017795563
151	0xbcf927d4	-0.0304145
152	0xbbfde9d0	-0.00774882
153	0xbd58c930	-0.052926242
154	0x3d83e80b	0.06440743
155	0xbd549325	-0.05189814
156	0x3d1acb2a	0.03779141
157	0x3ccb9358	0.024850532
158	0x3cbc3c10	0.022977859
159	0xbd1c967f	-0.03822946
160	0x3d83a157	0.064272575
161	0x3c7e9608	0.0155387
162	0x3c150858	0.009096228
163	0xbd7f3d19	-0.062314127
164	0x3cf32ae0	0.02968353
165	0xbc2dcd6c	-0.010608058
166	0xbd04afdd	-0.03239428
167	0x3d78c70a	0.060736693
168	0x3c812550	0.015764862
169	0xbd203ef8	-0.03912255
170	0xbd1297ef	-0.035789426
171	0xbb5d4e00	-0.0033768415
172	0x3d21b7fe	0.03948211
173	0xbc940560	-0.01806897
174	0xbd254192	-0.040345736
175	0xbcc65d36	-0.024214368
176	0xbd586042	-0.052826174
177	0x3cce9568	0.025217727
178	0x3d602f9e	0.05473291
179	0xbd8855cb	-0.06656989
180	0x3c8688b4	0.016422607
181	0x3d159ef8	0.036528558
182	0x3c521308	0.01282192
183	0xbcce4a18	-0.025181815
184	0x3d172bac	0.036906883
185	0x3d183474	0.0371594
186	0x3cd89a10	0.02644065
187	0xbc4b93d4	-0.012425382
188	0xbc9963a8	-0.018724278
189	0x3bf7e140	0.0075646937
190	0xbc4ca870	-0.0124913305
191	0xbcac9ee4	-0.021071859
192	0x3d392254	0.045198753
193	0x3d78e8a2	0.06076873
194	0xbbe561b0	-0.0070001706
195	0xbc81b1e6	-0.015831899
196	0x3a873e80	0.0010318309
197	0xbb8a58d0	-0.004222013
198	0x3c8b42d8	0.016999647
199	0x3ca25424	0.019815512
200	0xbd838796	-0.06422345
201	0xbcd5c4fe	-0.02609491
202	0x3d73e822	0.05954755
203	0x3ce1a784	0.027545698
204	0xbb667d20	-0.0035169795
205	0xbd2e9ec3	-0.042631876
206	0xbd31329c	-0.043261155
207	0xbd81b88d	-0.063340284
208	0xbcbcd150	-0.023049027
209	0x3cc39e80	0.02387929
210	0x3d38acca	0.04508666
211	0x3d05b8ca	0.03264693
212	0xbd80023f	-0.062504284
213	0xbd2e2c56	-0.04252275
214	0xbc36d598	-0.011159323
215	0x3d8c1651	0.06840194
216	0x3c2796d0	0.010228828
217	0xbc96030a	-0.018311996
218	0x3cefa644	0.029254086
219	0xbcdca152	-0.026932392
220	0xbd3b771c	-0.04576789
221	0x3d5365e0	0.051610827
222	0xbd03b21a	-0.032152273
223	0xbc683ed8	-0.014175139
224	0xbd901024	-0.070343286
225	0x3d41d76c	0.047324583
226	0x3d5b6f38	0.053572863
227	0x3cd31c68	0.025770381
228	0xbd49f3c3	-0.049304735
229	0xbd8eec97	-0.0697872
230	0xbd6b3b6f	-0.057429727
231	0x3d57fa56	0.052728973
232	0x3d0b0db2	0.033948608
233	0x3d73b9ca	0.059503354
234	0x3d17ba9c	0.0370432
235	0x3c929b4c	0.017896317
236	0xba358580	-0.0006924495
237	0xbd5c441e	-0.0537759
238	0xbd7825d2	-0.060582943
239	0xbd8773f5	-0.06613914
240	0x3ced20b8	0.028946266
241	0xbd0e3314	-0.03471668
242	0xbc6927e8	-0.014230706
243	0xbd26af24	-0.04069437
244	0xbc531c40	-0.012885153
245	0xbd4bda35	-0.049768645
246	0xbd3d3fd9	-0.046203468
247	0x3cc025c0	0.0234555
248	0xbcac2790	-0.021014959
249	0x3d32cd3c	0.043652758
250	0xbcb9d512	-0.022684608
251	0xbd5476ba	-0.05187104
252	0xbc4c68a0	-0.012476116
253	0xbd0c65da	-0.03427682
254	0xbcb13866	-0.021633338
255	0xbd89dd1b	-0.06731626

layers.0.lin_a.weight f4 [1, 100]
0	0x3dbe26e3	0.09284761
1	0xbcf85748	-0.030315056
2	0xbdff5706	-0.1246777
3	0xbe0025d5	-0.12514432
4	0xbcb79d85	-0.022413978
5	0xbca705da	-0.020388532
6	0xbe31ceab	-0.17363994
7	0x3cf8999b	0.030346682
8	0xbe4a8917	-0.19778858
9	0x3ec25ec6	0.3796293
10	0x3dd36d8c	0.10323629
11	0x3c4adb2f	0.012381359
12	0x3d0be2d0	0.034151852
13	0xbe2c0320	-0.16798067
14	0x3e78f75e	0.24313113
15	0xbe46f12b	-0.19427936
16	0x3d953b88	0.07286745
17	0xbdd1f02c	-0.10250887
18	0xbe6a3c53	-0.22874574
19	0x3ea53627	0.32267877
20	0xbd067fa5	-0.032836575
21	0xbd9041db	-0.07043811
22	0x3bcac3b5	0.006187881
23	0xbd2d962b	-0.04237954
24	0xbe1464c2	-0.14491561
25	0x3c912124	0.017715998
26	0x3e5c7018	0.21527135
27	0x3e3c3878	0.18380916
28	0xbdf109a8	-0.1176942
29	0xbe057788	-0.13033879
30	0xbe34e0dc	-0.17663902
31	0xbd6f9cda	-0.058499195
32	0x3dc262fb	0.09491535
33	0xbda976fd	-0.08274648
34	0xbe7ee0bf	-0.24890421
35	0xbdd733bb	-0.10507914
36	0x3e044b76	0.12919411
37	0xbde23599	-0.11045379
38	0x3e6a13e0	0.22859144
39	0x3dec8718	0.115492046
40	0x3df46aac	0.119344085
41	0xbe58b946	-0.21164426
42	0x3d4a4813	0.04938514
43	0xbca68bb8	-0.020330295
44	0x3e3a3189	0.18182959
45	0x3d89502b	0.06704744
46	0xbd9968ef	-0.074907176
47	0xbe06f864	-0.13180691
48	0xbe7fccd8	-0.24980485
49	0x3da772e8	0.081762135
50	0xbd49f8a9	-0.049309406
51	0x3dcaddff	0.09905624
52	0xbddd1d30	-0.10796583
53	0xbdf0c209	-0.11755759
54	0xbd8d6f87	-0.06906038
55	0xbd48a41e	-0.04898464
56	0xbbe00ed2	-0.006837704
57	0x3cb22e6d	0.021750653
58	0xbea121e5	-0.31471172
59	0x3eaa31b3	0.33241042
60	0x3dbb9431	0.09159125
61	0x3d4f6024	0.050628796
62	0xbd9b7dbd	-0.07592342
63	0xbddb5b21	-0.10710741
64	0x3e1825dd	0.14858194
65	0xbdc5a748	-0.09651047
66	0x3de9dbf0	0.11418903
67	0x3a1fbe50	0.00060937274
68	0xbe18ada2	-0.14909986
69	0x3e2af5e8	0.16695368
70	0xbd815428	-0.0631488
71	0xbddee946	-0.10884337
72	0xbe2f818e	-0.17139265
73	0xbd364284	-0.044497028
74	0xbdcd1d32	-0.10015334
75	0xbd3a4743	-0.045478117
76	0x3e0c728a	0.13715568
77	0x3e122f26	0.14275798
78	0xbe0e2e87	-0.13884936
79	0xbe387a80	-0.1801548
80	0xbe472153	-0.19446306
81	0xbd815211	-0.06314481
82	0x3d848bc6	0.06471972
83	0xbe2f85ee	-0.17140934
84	0xbe9d2faa	-0.30700427
85	0xbdf92faa	-0.12167294
86	0x3e51bbd0	0.20481801
87	0xbce058cf	-0.027386097
88	0x3e5e88dd	0.21731897
89	0x3d270d56	0.040784203
90	0x3c9f3408	0.01943399
91	0xbdc5960f	-0.09647762
92	0x3d0ed505	0.03487112
93	0xbc96a292	-0.018388066
94	0x3d36371b	0.044486146
95	0x3c37f3c5	0.011227553
96	0x3cc5122a	0.024056513
97	0x3bb4d0cb	0.005518054
98	0xbdaf0223	-0.085453294
99	0x3da5ec18	0.08101672

layers.0.lin.weight f4 [50, 10]
0	0x3f03040c	0.5117805
1	0x3ed0e986	0.40803164
2	0x3ec5361c	0.38517845
3	0xbac85ae6	-0.0015285879
4	0xbc03d33b	-0.008045967
5	0x3ecf26e6	0.40459365
6	0x3e98f48e	0.2987408
7	0x3ef65b52	0.48116547
8	0x3ee3f670	0.44523954
9	0x3d085f4a	0.033294
10	0x3d03f471	0.03221554
11	0xbe8c52a5	-0.27406803
12	0xbe4d9cb1	-0.20079304
13	0x3d79821f	0.06091511
14	0xbd32d91e	-0.04366409
15	0xbe696a17	-0.22794376
16	0x3da6619b	0.081240855
17	0x3e461a55	0.19345982
18	0xbeac6d09	-0.33676937
19	0x3e8a8fc6	0.27062815
20	0x3e156453	0.14589052
21	0xbd62a1e5	-0.055330176
22	0xbeabb004	-0.33532727
23	0xbe2671b3	-0.1625431
24	0x3d8aeb5b	0.06783172
25	0xbe27538f	-0.16340469
26	0xbe07ce2d	-0.13262244
27	0xbe231739	-0.15926827
28	0x3e790c8b	0.24321191
29	0x3e74aeaf	0.23894762
30	0xbe898d33	-0.2686554
31	0xbdf4dee7	-0.11956578
32	0x3e876241	0.2644215
33	0xbd24be00	-0.04022026
34	0xbe343187	-0.17597018
35	0x3c84fcac	0.016233765
36	0x3e69ae31	0.22820355
37	0xbd7ef7ba	-0.06224797
38	0xbea40be0	-0.3204031
39	0xbe02c671	-0.12771012
40	0x3e32343d	0.1740274
41	0xbcf668b2	-0.03007922
42	0x3e75d5f7	0.24007402
43	0x3e006939	0.1254014
44	0x3c9f137c	0.01941847
45	0x3e0cbc87	0.13743792
46	0xbcd5518b	-0.02603986
47	0xbe82462d	-0.25444165
48	0xbe823bde	-0.254363
49	0xbe6daa9f	-0.23209618
50	0xbd62f196	-0.055406176
51	0xbe6f4c33	-0.23368911
52	0x3d292e8a	0.04130415
53	0x3cffc1e3	0.031220382
54	0x3e713a23	0.23557334
55	0x3c50c407	0.012742049
56	0x3d481f9a	0.048858263
57	0x3ddbf887	0.10740762
58	0xbdc16ad9	-0.09444208
59	0xbe26834a	-0.1626102
60	0xbe9f08b2	-0.31061321
61	0xbea46b9b	-0.32113346
62	0x3bfaa9da	0.0076496424
63	0xbe269688	-0.1626836
64	0x3d985eaa	0.07439931
65	0x3d860996	0.06544797
66	0x3e6f186c	0.2334916
67	0xbd53f691	-0.051748816
68	0xbc6d42cd	-0.014481259
69	0x3e520890	0.20511079
70	0x3d25c95f	0.040475246
71	0x3e06bda4	0.1315828
72	0xbe3c5348	-0.18391144
73	0xbe77840c	-0.24171466
74	0x3e6968a0	0.22793818
75	0x3e595d34	0.2122696
76	0xbe081348	-0.13288605
77	0x3d214d3f	0.03938031
78	0xbe96b9ae	-0.29438537
79	0x3c1323ef	0.008980735
80	0xbeba523a	-0.3639086
81	0x3dde0d0a	0.10842331
82	0xbec479c0	-0.38374138
83	0xbe161cd6	-0.14659438
84	0x3e661f04	0.22472769
85	0xbe35b41f	-0.17744492
86	0xbe81d976	-0.25361222
87	0x3e5c1e26	0.21495876
88	0xbe6bcb1f	-0.23026703
89	0xba14a938	-0.00056709675
90	0x3ed5f808	0.41790795
91	0x3ea6fbbf	0.32613942
92	0x3cb9f2bf	0.022698758
93	0x3f0736c5	0.52817947
94	0x3ec91eeb	0.392814
95	0x3d2d576d	0.042319704
96	0x3d789a7b	0.0606942
97	0x3e2c475a	0.16824093
98	0x3eb17f7c	0.34667575
99	0x3eb8b3b6	0.3607461
100	0x3e670532	0.22560576
101	0x3ec8d82a	0.3922742
102	0x3effbb03	0.49947366
103	0x3e7ff1de	0.24994609
104	0x3e9e14bd	0.30875197
105	0x3ebabd43	0.3647252
106	0x3e7d8458	0.24757516
107	0x3e514a3a	0.20438471
108	0x3ef03cab	0.46921286
109	0x3ece70a9	0.40320328
110	0x3e62c824	0.2214666
111	0xbddd6c78	-0.108117044
112	0xbe0b87a8	-0.13625968
113	0xbe204c5f	-0.15654133
114	0xbe7fe17d	-0.2498836
115	0xbc8ce45d	-0.017198736
116	0x3e45bce6	0.1931034
117	0x3d7aebea	0.06126014
118	0xbdc683de	-0.096931204
119	0xbcec121f	-0.028817235
120	0xbe6d01b0	-0.23145175
121	0xbe44dbda	-0.19224492
122	0x3d23d0b3	0.039993953
123	0xbe310064	-0.17285305
124	0x3d4c34e1	0.049855117
125	0x3e8b1943	0.2716771
126	0x3dbc2146	0.09186034
127	0x3e8183ed	0.25295964
128	0xbe420392	-0.18946674
129	0x3c9c8214	0.019104995
130	0xbea88bfe	-0.32919306
131	0xbc86053b	-0.016359916
132	0xbe80c56f	-0.2515063
133	0x3e8e759c	0.27824104
134	0xbe93e95a	-0.2888897
135	0x3db764b7	0.08954757
136	0xbe54b291	-0.20771243
137	0x3d8d46d0	0.06898272
138	0xbca57b46	-0.020200383
139	0xbd71a7dc	-0.058997974
140	0x3e07f4c7	0.13276969
141	0x3eeaeba5	0.45882908
142	0x3e4b2e31	0.1984184
143	0x3e909dc0	0.28245354
144	0x3e240bdb	0.16020148
145	0x3ccd4272	0.025056098
146	0x3dfd5b0c	0.123708814
147	0x3f09fdad	0.53902704
148	0x3f0e7726	0.55650556
149	0x3dde5f74	0.1085805
150	0xbd3c65a6	-0.045995377
151	0xbcd6797e	-0.026180979
152	0x3e4e4ad8	0.20145738
153	0xbd08b9db	-0.03338037
154	0xbd8097a6	-0.06278925
155	0xbe2d9074	-0.16949636
156	0xbc3145d2	-0.010819869
157	0xbec8e571	-0.3923755
158	0xbec93975	-0.3930165
159	0xbde9cfe8	-0.11416608
160	0xbd12f306	-0.035876296
161	0xbd1421ce	-0.03616505
162	0x3e04e544	0.12978083
163	0x3eb7c23e	0.35890383
164	0x3eae0f9b	0.3399628
165	0x3d96b504	0.07358745
166	0x3e24f9e4	0.1611095
167	0x3ef43c35	0.47702184
168	0x3e80f432	0.25186306
169	0x3ecc088f	0.3985028
170	0xbe2361d8	-0.15955293
171	0xbe9f8434	-0.3115555
172	0xbe3363e6	-0.17518577
173	0xba4c5067	-0.00077939633
174	0xbdd75e11	-0.105159886
175	0xbe4e10ba	-0.20123568
176	0x3e8d11c2	0.2755261
177	0xbea41315	-0.32045808
178	0xbca8450e	-0.02054074
179	0x3dc79535	0.09745256
180	0xbdc7c2c6	-0.09753947
181	0x3dffd92d	0.12492595
182	0xbc35ead7	-0.011103353
183	0xbe4d019c	-0.20020145
184	0xbe3c9890	-0.18417573
185	0xbe1e307b	-0.15448181
186	0xbea4582e	-0.32098526
187	0x3e3d4da1	0.18486644
188	0x3e8e2736	0.2776429
189	0xbe32dcb3	-0.17467003
190	0x3e50084c	0.20315665
191	0x3e961db9	0.29319552
192	0x3e8ddb4d	0.27706376
193	0x3c44ae4e	0.012004448
194	0xbb97f23c	-0.004637031
195	0x3efd9fa2	0.49535853
196	0x3ebe4bf1	0.37167314
197	0x3ef75e3c	0.48314083
198	0x3ed1abfa	0.4095152
199	0x3e27ef12	0.16399792
200	0x3e5d94d1	0.216388
201	0xbc862fa9	-0.016380148
202	0xbc0656f4	-0.008199442
203	0xbe12b129	-0.14325394
204	0x3e7624c9	0.2403747
205	0xbd96761a	-0.07346745
206	0x3d2282a4	0.03967537
207	0xbe844c8c	-0.2583965
208	0x3dd16354	0.102240235
209	0xbe2059ae	-0.1565921
210	0xbdc78d42	-0.0974374
211	0xbd5e7186	-0.054307483
212	0x3dbac818	0.09120196
213	0xbc56fb1f	-0.013121395
214	0x3cee2594	0.029070653
215	0xbe6cfa47	-0.23142348
216	0xbe87aa0f	-0.26496932
217	0x3db3ed40	0.08785486
218	0xbe1ffeed	-0.1562459
219	0xbe98eb4a	-0.2986701
220	0xbe12192d	-0.14267416
221	0xbea511b4	-0.3224007
222	0x3d50f761	0.05101717
223	0x3c397227	0.01131872
224	0x3e8f48d8	0.27985263
225	0xbe3f05a9	-0.18654503
226	0xbe33edc5	-0.1757117
227	0x3d81b94e	0.06334172
228	0xbdc31734	-0.0952591
229	0x3e6fe506	0.2342721
230	0x3d424f93	0.04743917
231	0xbbf70372	-0.0075382525
232	0xbdf9d4e6	-0.1219881
233	0x3e42f87f	0.19040106
234	0xbe1842c2	-0.14869216
235	0x3e018784	0.12649351
236	0x3e4f570b	0.20248048
237	0xbe7eb00b	-0.24871843
238	0xbe8fcc66	-0.2808563
239	0xbe374c1c	-0.17900127
240	0x3ea6df0b	0.32592043
241	0xb9806584	-0.00024489698
242	0x3e50f95b	0.20407622
243	0x3e6341a9	0.22193016
244	0x3e7658ee	0.24057361
245	0x3c53d6fc	0.012929674
246	0x3e3dafd3	0.18524103
247	0x3ec96019	0.3933113
248	0x3ead1c30	0.33810568
249	0x3e703999	0.23459472
250	0xbe88fd23	-0.26755628
251	0x3e07e4b6	0.1327084
252	0xbe11652e	-0.14198753
253	0x3e522b96	0.20524439
254	0x3dec118b	0.115267836
255	0xbd97c915	-0.074114

layers.1.bias f4 [50]
0	0xbbab50ed	-0.005228153
1	0xbe971476	-0.29507798
2	0xbf116e5f	-0.5680904
3	0xbe919665	-0.28435054
4	0xbec67605	-0.38761917
5	0x3e3b93d9	0.18318118
6	0xbed31ab5	-0.41231313
7	0xbe6a968c	-0.22908992
8	0xbecdd280	-0.4019966
9	0x00000000	0.0
10	0xbed5555b	-0.41666684
11	0xbefbc646	-0.49174708
12	0xbf1df4cc	-0.61701655
13	0xbeaf2f7f	-0.34215924
14	0xbeb2453a	-0.3481844
15	0xbed193d2	-0.4093309
16	0xbea69240	-0.32533455
17	0xbef0d434	-0.47036898
18	0xbc86b6c6	-0.016444575
19	0x00000000	0.0
20	0xbcc2d174	-0.023781516
21	0xbd962f8e	-0.07333289
22	0xbecd09ed	-0.40046635
23	0xbc10abfd	-0.008830068
24	0xbe96d42a	-0.29458743
25	0x3e8be2ac	0.27321374
26	0xbe06d93a	-0.13168803
27	0xbf0404c5	-0.5156978
28	0xbedbea86	-0.42952365
29	0x00000000	0.0
30	0x00000000	0.0
31	0xbf023a57	-0.5087027
32	0x00000000	0.0
33	0xbd8312bb	-0.06400057
34	0x00000000	0.0
35	0xbe9c591f	-0.30536744
36	0x3e1d0c8a	0.15336815
37	0xbf07d7da	-0.5306374
38	0xbebef526	-0.37296408
39	0xbc018dcf	-0.007907345
40	0xbd173a4f	-0.03692084
41	0x00000000	0.0
42	0xbf1abea5	-0.6044715
43	0xbf04da6b	-0.5189578
44	0x00000000	0.0
45	0x3e949a84	0.29024136
46	0xbbab3bf8	-0.0052256547
47	0xbef5e446	-0.4802572
48	0xbecc7be9	-0.39938286
49	0xbe8db5df	-0.2767782

layers.1.combine_aggr.weight f4 [50, 200]
0	0xbd369a9a	-0.044581033
1	0x3c2d7558	0.010587059
2	0x3d8f295d	0.06990311
3	0xbc5f6180	-0.013634086
4	0xbd268f6f	-0.040664133
5	0xbd0d2f0d	-0.0344687
6	0xbd33c32f	-0.043887313
7	0x3d12b882	0.03582049
8	0xbd2ad44e	-0.041706376
9	0x3d4abb9a	0.049495317
10	0x3d2916aa	0.04128138
11	0x3d2e3e42	0.042539842
12	0xbb5e3be0	-0.00339102
13	0xbc71d8dc	-0.014761176
14	0x3cd1d69c	0.025615029
15	0xbc2d0d3c	-0.010562237
16	0x3ce8cac4	0.028416999
17	0x3c814d94	0.015784062
18	0x3cc97448	0.02459158
19	0xbcf79dd4	-0.030226626
20	0x3d339232	0.043840595
21	0xbc5e3538	-0.013562493
22	0x3d249318	0.040179342
23	0xbb8ed5c0	-0.004358977
24	0xbd8e52b5	-0.06949369
25	0xbbc56820	-0.0060243756
26	0xbcb8b1c2	-0.022545699
27	0xbd0f99c0	-0.035058737
28	0xbb354c00	-0.0027663708
29	0xbcdd515c	-0.027016334
30	0x3bb58ad0	0.0055402294
31	0xbcab04c8	-0.020876303
32	0xbd33b448	-0.0438731
33	0x3cd4a7c4	0.025958903
34	0xbd6d3339	-0.057910178
35	0xbd60390e	-0.05474191
36	0xbc363758	-0.011121593
37	0xbbc9bf40	-0.006156832
38	0xbd877656	-0.06614368
39	0x3d132f94	0.035934046
40	0x3bbf3840	0.005835563
41	0x3cf446b8	0.029818878
42	0xba36ec00	-0.0006977916
43	0xbc7cde6c	-0.015433889
44	0xbccbd9ee	-0.02488419
45	0xbbcef2a0	-0.0063155442
46	0xbd639d0c	-0.055569693
47	0x3cfe651c	0.031054072
48	0x3ca4a530	0.020098299
49	0x3d4f21f6	0.050569497
50	0xbd87483f	-0.06605577
51	0xbbf15cd0	-0.0073658004
52	0xbce32a40	-0.027730107
53	0x3b100600	0.0021976233
54	0x3c30e680	0.010797143
55	0xbc2c7ed4	-0.010528285
56	0xbbbc1430	-0.005739711
57	0xbc3f46b0	-0.011674568
58	0x3c8ce594	0.017199315
59	0xbd1e52c7	-0.03865316
60	0xbc0640d8	-0.008194171
61	0x3d0f27ce	0.03495007
62	0x3d430404	0.04761125
63	0x3c019220	0.007908374
64	0xbbfe8620	-0.007767454
65	0x3c421910	0.011846796
66	0x3d0557b0	0.03255433
67	0x3c551cf0	0.0130073875
68	0xbd288a72	-0.041147657
69	0xbd643beb	-0.055721205
70	0x3d06bb0c	0.032893226
71	0xbcf90678	-0.030398592
72	0x3cd8ef10	0.026481181
73	0xbd78dc1b	-0.060756784
74	0x3d1e665c	0.038671836
75	0x3cf38a64	0.029729076
76	0xbc649f04	-0.013953928
77	0xbd5d40e0	-0.054016948
78	0xbc02cc98	-0.007983349
79	0x3d24041a	0.040042974
80	0x3d5adf74	0.053435758
81	0xbb2bb100	-0.002619803
82	0xbbbfbe80	-0.005851567
83	0x3d6d96ee	0.058005266
84	0x3c49e060	0.012321562
85	0x3d8a4a09	0.06752402
86	0x3d830249	0.0639692
87	0xbd3c1110	-0.04591471
88	0xbd4c32fa	-0.049853303
89	0xbcc04422	-0.023469988
90	0xbc3125bc	-0.010812219
91	0x3d831d6d	0.06402097
92	0xbd59da24	-0.05318655
93	0x3d012d5e	0.031537406
94	0x3d5e3dfe	0.05425834
95	0x3b91a890	0.004445143
96	0xbd72d80b	-0.059288066
97	0xbd5aaa36	-0.053384982
98	0x3c2c4948	0.0105155185
99	0x3ca799bc	0.020459048
100	0x3c86906c	0.016426288
101	0x3d3439ee	0.04400056
102	0x3d3a158a	0.045430698
103	0xbd7c6018	-0.06161508
104	0x3d087b1e	0.03332054
105	0x3d33e466	0.04391899
106	0xbd12471d	-0.03571235
107	0xbd34b13b	-0.044114333
108	0xbd820b17	-0.063497715
109	0xbd8ee1a1	-0.06976629
110	0x3d17546c	0.036945745
111	0x3ca4ae0c	0.020102523
112	0xbd1d5466	-0.038410567
113	0xbd8174d5	-0.06321112
114	0xbd869fc4	-0.065734416
115	0x3d836551	0.06415809
116	0x3cbea678	0.023272738
117	0x3c3d67f0	0.011560425
118	0xbbbf8fb0	-0.0058459863
119	0x3cec777c	0.028865568
120	0x3bfb1c90	0.007663317
121	0x3cfa102c	0.03052529
122	0x3c93cbc4	0.018041499
123	0xbd153626	-0.036428593
124	0xbd075f5e	-0.033049934
125	0x3c989230	0.018624395
126	0x3c92c82c	0.017917715
127	0x3d4c7ebe	0.04992556
128	0xbd563db4	-0.05230494
129	0x3d0caf54	0.034346893
130	0xbd84d80e	-0.06486522
131	0x3bc685e0	0.0060584396
132	0xbd6b2b03	-0.057414066
133	0xbd0e748c	-0.034779117
134	0xbd258c4e	-0.040417008
135	0x3d813303	0.06308558
136	0x3d80e42d	0.06293521
137	0xbd0073df	-0.031360503
138	0xbb4253e0	-0.0029652044
139	0xbd72bb3d	-0.059260596
140	0xbd6d4c55	-0.057934124
141	0xbd12a424	-0.035801068
142	0x3be16c30	0.006879352
143	0xbd825b35	-0.063650526
144	0xbc7125ac	-0.014718454
145	0x3c1fb9f8	0.009748928
146	0x3a50b800	0.00079619884
147	0xbb12a4c0	-0.002237603
148	0x3c507dd0	0.012725309
149	0x3d8f3e3f	0.069942944
150	0xbd775ef5	-0.060393292
151	0xbd50f2f4	-0.05101295
152	0x3d175f96	0.036956392
153	0x3cb16e24	0.021658964
154	0x3d761812	0.06008155
155	0x3d668426	0.05627837
156	0xbd571c47	-0.0525172
157	0xbc8392ee	-0.016061272
158	0xbd8265d2	-0.06367077
159	0x3ce9763c	0.028498761
160	0x3d2cdda8	0.042203575
161	0xbd65bf33	-0.056090545
162	0xbd1daae3	-0.03849305
163	0x3d1ab334	0.037768558
164	0x3c8d1f8c	0.017226957
165	0xbd350d45	-0.044202108
166	0xb9b7f000	-0.00035083294
167	0xbd4083be	-0.04700064
168	0x3ce09d70	0.027418822
169	0x3c569550	0.013097122
170	0x3c9d5184	0.019203909
171	0xbb5ab220	-0.003337033
172	0x3b7bf6e0	0.003844671
173	0xbd56d429	-0.052448425
174	0x3d872ec7	0.06600719
175	0xbb3d9a40	-0.0028931051
176	0x3b0150a0	0.0019731894
177	0x3bd16ad0	0.006390907
178	0xbd883779	-0.066512056
179	0x3c95aba8	0.018270329
180	0x3d7954d2	0.060871907
181	0x3d288106	0.04113867
182	0x3c214590	0.009843245
183	0x3ca82a5c	0.020528011
184	0x3c4dd670	0.012563333
185	0x393eb400	0.00018186867
186	0x3cfda804	0.030963905
187	0x3cbed008	0.023292556
188	0x3cbc21c8	0.022965327
189	0xbd2ea5e0	-0.04263866
190	0xbc0d254c	-0.008614849
191	0x3d34949a	0.04408703
192	0x3d3eb0a4	0.046555176
193	0xbd230fc0	-0.039809942
194	0x3cbd10e4	0.023079343
195	0xbd414159	-0.04718146
196	0x3c96f6f8	0.01842831
197	0x3cc90bac	0.024541698
198	0xbd2e6a0e	-0.04258161
199	0x3d56fc4c	0.052486703
200	0x3d4ecd0e	0.050488524
201	0x3d500246	0.050783418
202	0x3c9edab8	0.019391403
203	0x3cee690c	0.029102825
204	0xbaaacac0	-0.0013030395
205	0xbd196b3b	-0.03745578
206	0x3cb069a4	0.021534748
207	0xbcfa0374	-0.030519225
208	0x3c956a64	0.018239208
209	0xbd14a422	-0.03628934
210	0xbcf54efc	-0.02994489
211	0xbd642a34	-0.05570431
212	0xbc9c31e6	-0.019066762
213	0x3d2eb8a4	0.042656556
214	0x3cb417d4	0.021984018
215	0xbbbb7d40	-0.005721718
216	0x3d37d544	0.04488112
217	0x3d4eb764	0.050467864
218	0xbcf8182c	-0.030284964
219	0xbd565cb2	-0.052334495
220	0x3d5f0b5e	0.0544542
221	0xbd8359ce	-0.06413613
222	0xbd5f8c2c	-0.054577038
223	0xbd6d95ea	-0.058004297
224	0xbd3abf2a	-0.045592465
225	0xbd43fcf1	-0.047848646
226	0x3b0c7680	0.0021432936
227	0xbcfdc218	-0.03097634
228	0x3d5ee64a	0.05441884
229	0xbd81170f	-0.06303226
230	0xbd5a9be4	-0.053371325
231	0xbd858746	-0.06519942
232	0xbd7f3a38	-0.06231138
233	0x3c8c8b1c	0.017156176
234	0xbd488006	-0.048950218
235	0xbc7d1dc0	-0.0154489875
236	0xbd13c333	-0.03607483
237	0xbc9c12dc	-0.019051962
238	0xbcf28282	-0.029603247
239	0x3d3861b2	0.045015045
240	0xbd00402e	-0.031311207
241	0xbd107c0f	-0.03527456
242	0x3d24a838	0.04019949
243	0x3d83a34b	0.0642763
244	0x3d6bbf4a	0.057555474
245	0xbc2ca590	-0.01053752
246	0x3c4edd00	0.012625933
247	0xbd1643be	-0.036685698
248	0xbbe2ced0	-0.0069216266
249	0x3c02c288	0.00798095
250	0xbd29416c	-0.041322157
251	0xbc29372c	-0.010328095
252	0x3d0a7482	0.033802517
253	0x3c90b54c	0.017664574
254	0x3d86c52b	0.065805756
255	0xbcc6d5d8	-0.02427189

layers.1.lin_a.weight f4 [1, 100]
0	0xbdbee1c1	-0.09320403
1	0x3d5960c1	0.053070787
2	0x3c1a2cb8	0.009410076
3	0x3ca8cf26	0.020606589
4	0x3c63337f	0.013867258
5	0xbc89dd46	-0.016829144
6	0xbb8cde6f	-0.004298977
7	0x3e0a3474	0.13496572
8	0xbd3dbc20	-0.046321988
9	0xbcc3893e	-0.023869153
10	0x3d978b13	0.07399573
11	0xbd4ab2fa	-0.04948709
12	0xbc81c610	-0.015841514
13	0x3d96b325	0.07358388
14	0xbcd77d11	-0.026304753
15	0xbbc9c57d	-0.0061575756
16	0x3df704bb	0.12061449
17	0xbd386474	-0.045017675
18	0x37079ed0	8.0836035e-06
19	0xbdc3fc53	-0.095696114
20	0xbc99d23f	-0.018777011
21	0xbc9ba1a6	-0.018997978
22	0x3d2abbab	0.04168288
23	0xbd900ea6	-0.07034044
24	0x3ddf7421	0.10910822
25	0xbdd86bee	-0.10567461
26	0x3bd57e5b	0.006515307
27	0xbe0def54	-0.13860828
28	0x3b2ed616	0.0026677898
29	0xbd043677	-0.032278504
30	0xbd6e0c51	-0.058117215
31	0xbd0dda38	-0.034631938
32	0xbdb006a2	-0.08595015
33	0xbd343bca	-0.04400233
34	0xbd936e91	-0.07198823
35	0x3da66eb0	0.08126581
36	0x3ab4b557	0.0013786954
37	0xbd358e3c	-0.0443251
38	0x3c214959	0.009844148
39	0xbd9fc901	-0.0780201
40	0x3e592350	0.21204877
41	0xbd390b65	-0.045176882
42	0xbd3b54cf	-0.045735177
43	0xbde7ea8a	-0.11324032
44	0xbdd64e41	-0.104641445
45	0x3d684b03	0.05671216
46	0xbc2bd530	-0.01048784
47	0x3d4f64a7	0.0506331
48	0xbd4d3297	-0.050097074
49	0x3d2e6c08	0.042583495
50	0xbe246f28	-0.16058028
51	0x3dead0f3	0.11465635
52	0xbd8fdda4	-0.070246965
53	0x3e4cbfd7	0.19995056
54	0xbd0cab36	-0.034342967
55	0x3d7862ac	0.060640976
56	0x3c559de7	0.013038135
57	0x3e3031b9	0.17206468
58	0xbcfc3d9e	-0.0307911
59	0x3cd8f8f2	0.026485894
60	0x3d998f66	0.07498054
61	0x3dee776e	0.11643873
62	0x3e71c8f9	0.23611821
63	0x3e8a2342	0.26980025
64	0x3d620497	0.05518016
65	0x3d76e866	0.060280226
66	0x3d3d9846	0.046287797
67	0x3d8649d4	0.0655705
68	0xbd7484c3	-0.059696924
69	0xbd802b7b	-0.06258293
70	0xbd803ff0	-0.06262195
71	0xbd09d7e0	-0.03365314
72	0x3cac5559	0.02103679
73	0xbd4355f0	-0.04768938
74	0x3df6a732	0.12043609
75	0xbcbdaf85	-0.023154983
76	0x3dd9bf52	0.106321946
77	0x3ccf7b5d	0.025327379
78	0x3cc77a9e	0.02435046
79	0x3d7f5bf9	0.06234357
80	0xbddc145b	-0.1074607
81	0xbde65813	-0.112472676
82	0x3cd63a6e	0.026150908
83	0x3e10d15d	0.14142366
84	0x3d683e46	0.056700014
85	0xbd97288a	-0.07380779
86	0x3e0e5ff0	0.13903785
87	0xbdace57c	-0.08442208
88	0xbb8c0cfd	-0.0042740093
89	0xbdb9f96b	-0.09080776
90	0xbc910c05	-0.017705927
91	0xbba0c0ad	-0.0049057812
92	0xbdc37e49	-0.09545571
93	0xba43b329	-0.00074653566
94	0xbe0d3087	-0.13788043
95	0xbd7cc9da	-0.06171594
96	0x3c6156ff	0.013753652
97	0xbbe80782	-0.007080973
98	0xbced1331	-0.028939815
99	0xbcb3a207	-0.021927847

layers.1.lin.weight f4 [50, 50]
0	0x3cb8c6d7	0.022555752
1	0xbdc2954a	-0.09501131
2	0xbc037150	-0.008022621
3	0xbd8c826b	-0.06860813
4	0x3e0554dd	0.13020654
5	0xbe10a4fb	-0.14125435
6	0xbd84a840	-0.06477404
7	0xbd42aed4	-0.04753001
8	0x3d7fb0d0	0.06242448
9	0xbdc3d2c6	-0.09561686
10	0xbe025ca7	-0.12730657
11	0xbc071fe0	-0.008247346
12	0xbd398c22	-0.045299657
13	0x3e0ca483	0.13734631
14	0x3d5b256e	0.053502493
15	0x3de2885a	0.11061163
16	0xbe113a75	-0.14182456
17	0xbd1567d4	-0.03647597
18	0xbdddf8d6	-0.10838477
19	0x3db7446c	0.08948597
20	0x3db3428a	0.08752926
21	0xbde2d30a	-0.11075409
22	0xbdd4fcc9	-0.103997774
23	0x3d8f1a10	0.06987393
24	0xbddd34fe	-0.10801123
25	0x3d265ab9	0.040613864
26	0xbe25e6a6	-0.16201267
27	0xbdff0f94	-0.12454143
28	0xbd4533a0	-0.048144937
29	0xbde29011	-0.11062635
30	0x3db21802	0.086959854
31	0xbde412df	-0.11136412
32	0xbd9dd75f	-0.077070944
33	0xbe0dae7f	-0.13836096
34	0x3e04e039	0.12976159
35	0x3cefedf1	0.029288264
36	0xbde8c7b3	-0.113662146
37	0xbcfdc4b4	-0.030977584
38	0x3c83b3a9	0.01607688
39	0xbd9c466a	-0.07630618
40	0x3d995c3a	0.07488294
41	0xbd053976	-0.032525502
42	0x3e078cb9	0.13237275
43	0x3d2cd52f	0.042195495
44	0x3d82c9f9	0.063861795
45	0xbd0e16af	-0.0346896
46	0xbd8d9344	-0.06912854
47	0x3d767228	0.06016746
48	0x3db5f6e2	0.0888498
49	0xbc7b4437	-0.015336088
50	0x3e828cd5	0.2549807
51	0x3df9099a	0.121600345
52	0xbd9d3f2f	-0.07678067
53	0xbcf9dfc0	-0.0305022
54	0x3c304dc0	0.010760725
55	0xbc87fb1c	-0.01659923
56	0xbdac413b	-0.08410879
57	0x3d1f9f5d	0.03897034
58	0x3cde9f70	0.027175635
59	0x3ddae204	0.1068764
60	0x3e243567	0.16035996
61	0x3c84d498	0.016214654
62	0xbc6b6900	-0.014368296
63	0x3d325400	0.04353714
64	0x3d858948	0.06520325
65	0xbc9fdee0	-0.019515455
66	0x3eb0d875	0.34540144
67	0x3b8021e0	0.003910288
68	0xbc88f8f0	-0.016720265
69	0x3e0a6df5	0.13518508
70	0xbcd237f5	-0.025661448
71	0xbc88488c	-0.016636156
72	0xbd910cd7	-0.07082527
73	0xbdcee7f5	-0.10102836
74	0x3e315299	0.17316665
75	0x3e14ec3f	0.14543246
76	0x3e8f1c27	0.27951166
77	0xbdbaa6f7	-0.09113877
78	0x3d7adea0	0.061247468
79	0x3cfec858	0.03110139
80	0xbd949522	-0.07255007
81	0x3d589e87	0.05288556
82	0x3e879a26	0.26484793
83	0xbc198aa0	-0.00937143
84	0x3dacb430	0.084328055
85	0x3d4c9f9f	0.049956914
86	0x3e17bdd9	0.14818515
87	0x3d28cbf0	0.041210115
88	0x3e94bb6c	0.29049242
89	0x3eac8376	0.33694047
90	0x3db193a8	0.08670741
91	0xbe058c09	-0.130417
92	0xbd62f21c	-0.055406675
93	0x3e496188	0.19666111
94	0x3d938c1b	0.07204457
95	0x3e087879	0.13327207
96	0x3def5c26	0.11687498
97	0xbddb3900	-0.10704231
98	0x3d2fd2dc	0.0429257
99	0x3e82a4bf	0.25516316
100	0x3ead8085	0.33887115
101	0x3dc8ea22	0.09810282
102	0xbd0ad26a	-0.033892073
103	0x3c95da60	0.018292606
104	0x3dd59aee	0.10429941
105	0x3defe966	0.11714439
106	0x3d1e0cbf	0.038586374
107	0xbdfff31b	-0.124975406
108	0x3d0c1b9c	0.034206018
109	0x3eba1afa	0.36348706
110	0x3e95e1d3	0.29273853
111	0xbe0ea2c5	-0.13929279
112	0xbd3d502a	-0.04621903
113	0xbd9463a2	-0.07245566
114	0x3e0678b1	0.13131978
115	0xbdf0f814	-0.11766067
116	0x3f10543a	0.5637852
117	0xbdb98d58	-0.09060162
118	0xbdae93e2	-0.085243
119	0x3e733bc9	0.23753275
120	0xbc97fc85	-0.018553028
121	0x3dac2ede	0.08407377
122	0xbe0bd64a	-0.13655964
123	0xbd818434	-0.06324044
124	0x3eaa2296	0.33229512
125	0x3d360d1b	0.044446092
126	0x3e430c7c	0.19047731
127	0xbee5dd51	-0.44895414
128	0xbd9bbc91	-0.076043256
129	0xbd02062c	-0.031744167
130	0x3d95ba82	0.07310964
131	0xbd6d5895	-0.057945807
132	0x3e86dcdd	0.2634038
133	0xbdbdb934	-0.0926384
134	0x3d21cdf4	0.039503053
135	0xbdc69b7f	-0.09697627
136	0x3ec054da	0.37564737
137	0xbe102cba	-0.14079562
138	0x3ec156b7	0.3776147
139	0x3ed483d7	0.41506836
140	0x3e0c2082	0.13684276
141	0xbc937a44	-0.018002637
142	0xbdadc54a	-0.084848955
143	0x3e728ff8	0.23687732
144	0x3eb458c1	0.35223964
145	0x3e367ac5	0.1782027
146	0x3f0f2614	0.5591748
147	0x3d926282	0.07147695
148	0x3e01d74b	0.12679784
149	0x3e5eda2b	0.21762912
150	0xbce8fcef	-0.02844092
151	0x3dbb7bb2	0.091544524
152	0xbd084cc4	-0.033276334
153	0xbd6407aa	-0.05567137
154	0xbd8940ed	-0.06701837
155	0x3e06ac81	0.13151743
156	0xbde40fe4	-0.111358434
157	0x3cc64576	0.024203043
158	0x3ce63d18	0.028105304
159	0x3d1a2697	0.03763446
160	0x3e31ccd6	0.17363295
161	0x3da79276	0.08182232
162	0x3dc2d7cc	0.09513816
163	0x3d1c162c	0.038107082
164	0x3e080172	0.13281801
165	0x3d241138	0.040055484
166	0x3d4ad7b4	0.049522117
167	0xbde76b71	-0.1129979
168	0x3b87af40	0.0041407645
169	0x3dced261	0.1009872
170	0x3da6c50e	0.08143054
171	0x3cc32c80	0.02382493
172	0x3b8a6944	0.0042239744
173	0xbd4d3f7c	-0.05010937
174	0x3e536245	0.20642956
175	0x3de5cd24	0.11220768
176	0x3e6b1e8c	0.22960871
177	0x3e192b00	0.1495781
178	0xbd8e2a52	-0.06941666
179	0xbdea7b9d	-0.114493586
180	0xbe0e832e	-0.13917229
181	0xbe005c86	-0.12535295
182	0x3d42936e	0.04750388
183	0x3de1a8e6	0.11018543
184	0xbe057e3e	-0.13036439
185	0xbd4dd721	-0.05025399
186	0x3e17a455	0.14808781
187	0x3d880b28	0.06642753
188	0x3dd0dada	0.101979926
189	0x3d93d563	0.07218435
190	0x3de82a17	0.11336153
191	0xbdb57d7f	-0.08861827
192	0x3d8eaa74	0.06966105
193	0x3e2e83a7	0.17042409
194	0x3dee50f4	0.11636534
195	0x3e423e09	0.18968977
196	0x3e34ff37	0.17675482
197	0xbe07a67d	-0.13247104
198	0xbd63ba1c	-0.05559741
199	0xbcf44cd3	-0.029821789
200	0x3e8536f5	0.2601849
201	0xbe01ec6c	-0.12687844
202	0x3d0993d8	0.03358826
203	0xbdeb6460	-0.114937544
204	0x3d93c5f4	0.07215491
205	0xbdc65bfe	-0.09685515
206	0xbe0261c3	-0.12732606
207	0xbd77186b	-0.06032602
208	0x3d3f7d38	0.046750277
209	0x3de1387c	0.10997102
210	0x3e4d12eb	0.20026748
211	0x3b9400a0	0.004516676
212	0xbd9d8865	-0.07692031
213	0xbbffbec0	-0.0078047216
214	0x3e85a332	0.2610107
215	0xbdb16bc0	-0.0866313
216	0x3ec0b027	0.37634394
217	0x3d20f81c	0.039299116
218	0x3d968e14	0.07351318
219	0x3e0b17c9	0.13583292
220	0x3dd3eddf	0.10348105
221	0xbdd811a0	-0.10550237
222	0xbdafcc4f	-0.08583891
223	0x3db5c34e	0.08875142
224	0x3ddb4f91	0.107085355
225	0x3dfc57a1	0.123214014
226	0x3dd799c6	0.10527377
227	0xbe1f8a9f	-0.15580224
228	0x3e08a41d	0.13343854
229	0x3dec668a	0.11542995
230	0x3d6ed06c	0.058304235
231	0xbdf4557d	-0.11930368
232	0x3e5b9561	0.21443702
233	0xbd099690	-0.033590853
234	0x3e0b71cb	0.13617627
235	0x3ce5f9b8	0.028073177
236	0x3e48af9b	0.19598238
237	0xbe106aba	-0.14103213
238	0x3e23bd53	0.1599019
239	0x3ea60407	0.32424948
240	0x3d46543d	0.04842018
241	0x3c69cba0	0.014269739
242	0xbde0e142	-0.109804645
243	0x3e25770f	0.16158698
244	0x3e0c425d	0.1369719
245	0x3e06fc98	0.13182294
246	0x3e6adae6	0.22935066
247	0xbd25aa4a	-0.040445603
248	0xbd569e02	-0.05239678
249	0x3e71a554	0.23598224
250	0x3eda1d80	0.42600632
251	0xbd903764	-0.07041815
252	0x3d95316c	0.07284817
253	0x3e0e5309	0.13898863
254	0x3d9f1f42	0.07769634
255	0x3d7f9ffc	0.062408432

layers.2.bias f4 [50]
0	0xbc8d2ec5	-0.017234216
1	0x00000000	0.0
2	0xbeb3ca43	-0.3511525
3	0xbf58ade1	-0.8464032
4	0xbf674574	-0.9034035
5	0xbeec2340	-0.46120644
6	0x00000000	0.0
7	0x3f5c7abf	0.86124796
8	0x00000000	0.0
9	0xbf40ac0e	-0.75262535
10	0xbc99fc02	-0.018796925
11	0xbe9ba318	-0.30397868
12	0x00000000	0.0
13	0x00000000	0.0
14	0xbf11a203	-0.56887835
15	0xbcd6f7b6	-0.026241165
16	0xbe932f63	-0.2874709
17	0x00000000	0.0
18	0xbe857b31	-0.2607055
19	0x00000000	0.0
20	0xbcae4aa2	-0.021275822
21	0xbc69e5c9	-0.014275976
22	0xbf556ec7	-0.8337216
23	0xbcd75ed4	-0.026290335
24	0xbf0f2f22	-0.55931294
25	0xbf4f79ba	-0.81045115
26	0xbcf87da2	-0.030333344
27	0xbeaa5e01	-0.33274844
28	0xbf1e359c	-0.6180055
29	0xbf15dc2d	-0.58539087
30	0xbe6943d9	-0.22779788
31	0xbeb71d67	-0.3576462
32	0xbed9a598	-0.4250915
33	0xbefd7612	-0.49504143
34	0xbf118042	-0.5683633
35	0x3f5f5453	0.87238044
36	0xbebc5017	-0.36779854
37	0xbed17d05	-0.40915695
38	0xbce95238	-0.028481588
39	0xbbc4c945	-0.0060054385
40	0xbf4a03ae	-0.78911865
41	0xbcb8bf87	-0.022552265
42	0x00000000	0.0
43	0xbea6f272	-0.32606846
44	0xbf387e77	-0.7206797
45	0xbf59c383	-0.8506395
46	0xbee40425	-0.44534412
47	0xbeefd4b9	-0.46841982
48	0xbf3980da	-0.72462237
49	0xbe81d1b7	-0.25355312

layers.2.combine_aggr.weight f4 [50, 200]
0	0xbd422ebc	-0.04740785
1	0x3d8fa42f	0.070137374
2	0xbc32a024	-0.010902438
3	0xbd48fae5	-0.049067397
4	0xbd2793c4	-0.040912405
5	0x3d903ba3	0.07042625
6	0xbc397848	-0.011320181
7	0x3d242ef6	0.040083848
8	0x3bdc85d0	0.006729819
9	0x3d6edd76	0.05831667
10	0xbd579de8	-0.052640826
11	0x3cb8507c	0.022499315
12	0x3cf87acc	0.030331992
13	0xbca4fb74	-0.020139433
14	0xbd2d9680	-0.042379856
15	0xbc5b3b7c	-0.013380881
16	0xbbdffd90	-0.006835647
17	0xbd28d82a	-0.041221775
18	0xbd6cc806	-0.057807945
19	0x3cc37b08	0.023862377
20	0x3c0e99d0	0.008703664
21	0xbd3055c3	-0.04305054
22	0xbca20648	-0.019778386
23	0xbb8f9e60	-0.0043828934
24	0x3d05b02c	0.032638714
25	0x3ce18940	0.027531266
26	0x3d7e0b02	0.062022217
27	0x3be76730	0.0070618615
28	0x3caebea0	0.021331131
29	0xbd5886a4	-0.05286278
30	0x3cf64c94	0.030065812
31	0xbcf743f8	-0.030183777
32	0x3d54151a	0.051777937
33	0x3c989158	0.018623993
34	0xbbd999f0	-0.0066406652
35	0xbccd59e4	-0.025067277
36	0x3d0b4926	0.034005307
37	0x3ceed8c4	0.029156096
38	0x3c9e851c	0.01935058
39	0x3c3960b0	0.011314556
40	0xbd622bce	-0.055217557
41	0xbd17bb9f	-0.037044164
42	0xbd901024	-0.070343286
43	0xbcca50c8	-0.024696723
44	0xbd065fd4	-0.032806233
45	0xbc66b8fc	-0.01408219
46	0x3d5319c6	0.05153825
47	0x3c8bdb50	0.01707235
48	0x3cffc6c4	0.031222709
49	0x3cf5753c	0.029963128
50	0x3d6bf2ea	0.057604708
51	0x3d663932	0.05620689
52	0x3c6aebc0	0.014338434
53	0x3d7762f2	0.060397096
54	0xbd80cdb5	-0.062892355
55	0x3d1c589c	0.038170442
56	0x3d41c526	0.047307156
57	0xbd893fc4	-0.067016155
58	0xbd768628	-0.060186535
59	0xbc39d1a8	-0.01134149
60	0x3cf7db1c	0.030255847
61	0x3d747c12	0.059688635
62	0xbd83c096	-0.06433217
63	0x3d843b55	0.06456629
64	0xbbb196f0	-0.0054196045
65	0xbc859a68	-0.016308978
66	0xbc93825e	-0.0180065
67	0x3d3f1168	0.04664746
68	0x3d0742a4	0.033022538
69	0x3bd176b0	0.0063923225
70	0xbd72a0c9	-0.059235368
71	0xbbad64f0	-0.0052915737
72	0xbd69f26d	-0.05711596
73	0xbd8fc1b8	-0.07019371
74	0x3cc7a488	0.024370447
75	0xbc91f084	-0.017814882
76	0xbd8a8c00	-0.06764984
77	0xbd703ef5	-0.05865379
78	0x3d8b0055	0.06787173
79	0x3d878073	0.066162966
80	0xbd4c4366	-0.049868964
81	0xbd11575a	-0.035483696
82	0x3d2e4f04	0.042555824
83	0xbc746568	-0.014916755
84	0xbbbc3b90	-0.005744405
85	0xbcac7cf2	-0.021055672
86	0x3d0c14a0	0.034199357
87	0xbd86ab79	-0.065756746
88	0xbd839cce	-0.064263925
89	0x3cde46e4	0.027133413
90	0x3d104476	0.03522154
91	0x3d2213d6	0.0395697
92	0xbcabe834	-0.020984747
93	0xbcff0db2	-0.03113446
94	0xbd0c6928	-0.034279972
95	0xbd1c6b54	-0.038188294
96	0xbd7c6942	-0.06162382
97	0x3cdc17d0	0.026866823
98	0xbcfe598a	-0.031048555
99	0xbd8c8777	-0.06861775
100	0x3c368c80	0.011141896
101	0x3d67955a	0.056538917
102	0xbb3eb8e0	-0.0029101893
103	0xbd6bd1cf	-0.057573136
104	0x3d1a35c2	0.037648924
105	0xbd1e347d	-0.038624275
106	0x3d36605c	0.04452549
107	0xbd4732f2	-0.04863257
108	0x3d834cf7	0.06411164
109	0xbc8c3448	-0.017114773
110	0x3d8502c5	0.06494669
111	0x3d08cda2	0.03339923
112	0x3d575292	0.05256898
113	0x3c52b368	0.012860157
114	0xbd28a4aa	-0.04117266
115	0x3bf2aed0	0.007406093
116	0x3d6c92e2	0.057757266
117	0xbd7bb6ff	-0.061453816
118	0x3c9fe270	0.019517154
119	0x3c2ad5e0	0.010426968
120	0x3d421ff4	0.047393754
121	0xbd46d7fe	-0.04854583
122	0xbd546a28	-0.05185905
123	0x3c9c3d1c	0.019072108
124	0xbca3fde8	-0.020018533
125	0xbcc6db72	-0.024274562
126	0x3c8231f8	0.015892968
127	0x3d655d92	0.05599744
128	0xbd591ac6	-0.05300405
129	0xbb6df380	-0.0036308467
130	0xbcf18e08	-0.029486671
131	0xbc0e9910	-0.008703485
132	0xbcfd562c	-0.030924879
133	0x3d89f499	0.067361064
134	0x3d20fe62	0.0393051
135	0x3c7b0998	0.015322112
136	0xbca3695c	-0.0199477
137	0x3d3338a2	0.04375518
138	0xbd20a361	-0.03921831
139	0xbd8233ee	-0.06357561
140	0xbd4249ce	-0.047433667
141	0xbcab4976	-0.020909052
142	0xbd467b20	-0.048457265
143	0x3d386e56	0.0450271
144	0xbb796240	-0.0038052946
145	0xbcd95c5c	-0.026533298
146	0xbd45fa0c	-0.048334166
147	0x3d7d2f5a	0.061812736
148	0x3d853333	0.06503906
149	0xbd2e2adc	-0.042521343
150	0x3d70ab1a	0.058756925
151	0xbbd0f9e0	-0.0063774437
152	0xbcd617d0	-0.026134402
153	0x3cd7a510	0.026323825
154	0xbd6284e0	-0.0553025
155	0xbd847ace	-0.06468736
156	0xbbbfc160	-0.0058519095
157	0x3d3ef190	0.04661709
158	0x3d5222c0	0.05130267
159	0x3d777f92	0.060424395
160	0x3d158034	0.036499217
161	0x3c913598	0.01772575
162	0x3c2329a8	0.009958662
163	0xbd2e845c	-0.042606696
164	0x3d6cfdfe	0.057859413
165	0x3d6f5d22	0.058438428
166	0xbd7981d8	-0.060914844
167	0xbd897cee	-0.067132816
168	0xbc8c3440	-0.017114758
169	0xbd397fb2	-0.045287795
170	0xbccb64b6	-0.024828296
171	0x3d7bc57e	0.06146764
172	0xbc644a08	-0.013933666
173	0x3d82f139	0.06393666
174	0xbbc9f080	-0.006162703
175	0x3bbc8dc0	0.0057542026
176	0xbb3d4460	-0.0028879866
177	0xbcabd5bc	-0.02097594
178	0xbc427e28	-0.011870898
179	0xbd081363	-0.033221614
180	0xbd50fde5	-0.051023383
181	0x3ba9a530	0.0051771626
182	0x3c781d60	0.015143722
183	0x3c830fa0	0.015998662
184	0x3c883c68	0.016630366
185	0xbcd717e4	-0.02625651
186	0xbd8a5036	-0.0675358
187	0x3d0ae9d0	0.033914387
188	0x3c595528	0.013264932
189	0xbd89578c	-0.06706151
190	0x3d89335b	0.066992484
191	0xbc8de148	-0.017319337
192	0xbd6e7fd6	-0.058227383
193	0xbd311d3e	-0.04324078
194	0xbc94061a	-0.018069316
195	0xbd6443db	-0.055728775
196	0x3c5279b0	0.012846395
197	0xbd187f82	-0.037230976
198	0xbd1d1f27	-0.038359787
199	0x3d7d3156	0.06181463
200	0xbcc159c2	-0.02360237
201	0xbb1187a0	-0.0022206083
202	0xbd266064	-0.04061927
203	0xbc07cf18	-0.008289121
204	0xbd36e6ea	-0.04465381
205	0xbd215e42	-0.039396532
206	0xbd3e2b3c	-0.04642795
207	0xbcd5e6ac	-0.02611097
208	0x3c8644d8	0.01639025
209	0x3cfd6014	0.030929603
210	0x3d279f16	0.0409232
211	0xbd0bf57b	-0.034169655
212	0xbd58995d	-0.052880634
213	0xbc2c0f50	-0.010501698
214	0x3d86bfbd	0.0657954
215	0x3b085660	0.0020803437
216	0x3d86fb83	0.06590941
217	0x3d5f118e	0.0544601
218	0x3d431c8c	0.047634646
219	0xbbd68770	-0.006546907
220	0x3c389128	0.011265077
221	0xbd3dd3b4	-0.046344474
222	0x3c3822d8	0.011238776
223	0x3ccddc18	0.025129363
224	0xbd36f465	-0.044666667
225	0xbd4b0a7e	-0.049570553
226	0xbd127a1d	-0.035760988
227	0x3a50b480	0.0007961467
228	0xbc52fa7c	-0.012877103
229	0x3ce598e0	0.028026998
230	0xbd1100f6	-0.035401307
231	0x3d87be3b	0.066280805
232	0xbd0b1ff6	-0.033966027
233	0x3d30cb68	0.043162733
234	0x3d80ebcb	0.06294974
235	0x3d83ad43	0.064295314
236	0xbd0ce092	-0.034393854
237	0xbd197c61	-0.037472133
238	0xbcf6d71c	-0.030131869
239	0xbd419a5a	-0.04726634
240	0xbc958106	-0.01825
241	0xbca83858	-0.02053468
242	0x3cd39368	0.025827125
243	0x3d7ae852	0.061256714
244	0x3cd577a4	0.026058026
245	0x3a3fa500	0.00073106587
246	0xbccce8aa	-0.025013287
247	0xbcaaaae0	-0.020833433
248	0x3d75528e	0.059893183
249	0xbd79c71a	-0.060980894
250	0xbc11ddec	-0.008903008
251	0xbd8c17a6	-0.06840448
252	0xbcd113fe	-0.025522228
253	0xbd563bf9	-0.052303288
254	0xbd8cb51b	-0.068704806
255	0x3cc34b94	0.02383975

layers.2.lin_a.weight f4 [1, 100]
0	0x3ef27c62	0.47360522
1	0xbe849ff1	-0.25903276
2	0xbd6c5ba3	-0.05770458
3	0xbe3d3037	-0.18475424
4	0x3e8a86dc	0.27056015
5	0x3d0d623b	0.034517508
6	0xbe731bbc	-0.23741049
7	0x3e787dd2	0.24266747
8	0xbe47975c	-0.19491333
9	0x3cf9b367	0.030481054
10	0xbe53047a	-0.20607176
11	0x3d15d1d8	0.036577076
12	0xbe4f1680	-0.20223427
13	0xbe82ae15	-0.2552344
14	0x3dda934e	0.106726274
15	0x3ee62e7e	0.44957346
16	0x3da90ed8	0.08254784
17	0xbe5bfa36	-0.21482167
18	0x3d9cdf96	0.07659833
19	0xbe60be15	-0.2194751
20	0x3f06b403	0.52618426
21	0xbeccb183	-0.3997918
22	0x3dfac72c	0.1224502
23	0xbf0f1540	-0.558918
24	0xbd3e9bb1	-0.046535198
25	0x3da02133	0.07818832
26	0xbed6257a	-0.41825467
27	0x3e07efde	0.13275096
28	0x3caa8ae8	0.020818189
29	0xbe216c5c	-0.15763992
30	0x3ce146e9	0.027499633
31	0x3e09811c	0.13428158
32	0xbd0c7ea8	-0.034300476
33	0x3c597882	0.01327336
34	0x3cb86a9b	0.022511771
35	0x3eaa867d	0.3330573
36	0x3d440178	0.047852963
37	0xbd799b94	-0.060939386
38	0xbeac714c	-0.3368019
39	0xbe71478d	-0.2356245
40	0x3e5374d3	0.20650034
41	0x3f1f0587	0.6211781
42	0xbe4383d0	-0.19093251
43	0xbd8286d0	-0.0637337
44	0x3da7005b	0.08154365
45	0x3e6551fc	0.22394556
46	0x3d7e96d5	0.062155563
47	0xbdc185a3	-0.09449317
48	0x3da8e77c	0.08247277
49	0xb9fbd319	-0.0004803173
50	0x3d3a1248	0.04542759
51	0x3d6252a2	0.055254586
52	0x3d21da3e	0.039514773
53	0xbbe23f75	-0.0069045373
54	0x3db07763	0.08616521
55	0xbd25b159	-0.040452335
56	0xbdafbf92	-0.08581461
57	0x3e4c82db	0.19971792
58	0x3c0b86d2	0.00851603
59	0xbc5f99c4	-0.0136475
60	0x3ba9ae4a	0.0051782476
61	0xbdad413d	-0.08459709
62	0xbdfa3206	-0.122165725
63	0x3d88b1b1	0.06674517
64	0xbd9c59ab	-0.0763429
65	0x3bdcc157	0.006736915
66	0x3dbc8bd0	0.092063546
67	0xbdea341a	-0.11435719
68	0x3de7e048	0.11322075
69	0x3cbad5a8	0.022806957
70	0x3d4586a1	0.048224095
71	0xbe43c04f	-0.19116329
72	0xbdf4129e	-0.119176134
73	0xbe85ff89	-0.2617152
74	0xbd94b546	-0.07261138
75	0xbe1a6868	-0.1507889
76	0xbee9af35	-0.45641485
77	0x3cf39104	0.029732235
78	0xbc61621c	-0.013756301
79	0xbd1b72bd	-0.03795122
80	0x3cfc7ec4	0.030822165
81	0xbd75fc21	-0.060054902
82	0xbdd79300	-0.10526085
83	0xbd241a42	-0.040064104
84	0xbdf2f96a	-0.11863978
85	0x3dcd295b	0.100176536
86	0x3c01eb01	0.007929564
87	0xbdceff04	-0.10107234
88	0xbdeb2b69	-0.11482889
89	0xbdded86a	-0.108811215
90	0xbc820850	-0.015873104
91	0x3d1600bf	0.036621805
92	0x3c67b13b	0.014141376
93	0xbd3fb8f3	-0.04680724
94	0xbd3ecd32	-0.04658241
95	0xbe0c9d04	-0.13731772
96	0x3dd2354e	0.10264073
97	0x3ca2b5c1	0.019862058
98	0x3da2fabe	0.079579815
99	0xbcdd1b52	-0.026990566
