experiments/output-gat/Tree_Cycle/add/42/model.pth (torch, 150205 bytes, 14 tensors)

layers.0.bias f4 [50]
00000000: 0bfc 1ebc 0000 0000 0000 0000 0000 0000
00000010: 0000 0000 0000 0000 0000 0000 0000 0000
00000020: 0000 0000 873d a6bb 426a 5bbc 0000 0000
00000030: 0000 0000 0000 0000 c000 ba3b 0000 0000
00000040: b21b 2fbc 0000 0000 0000 0000 f864 913b
00000050: d396 c1bb 0000 0000 0000 0000 0000 0000
00000060: 2666 14bb 8c59 4cbc 5656 c2ba 0000 0000
00000070: 0000 0000 0000 0000 0000 0000 5bb1 6bbc
00000080: 78a0 4cbc 0000 0000 0000 0000 2015 10bc
00000090: 07db 2bbc 0000 0000 6d38 3e3c 185a 15bc
000000a0: 048d c03b 0000 0000 0000 0000 5952 5ebc
000000b0: 69e2 613b 65e9 733b b56b 5bbc 0000 0000
000000c0: 0000 0000 72c7 133c
-0.009703646 0.0 0.0 0.0 0.0 0.0 0.0 0.0
0.0 -0.0050732526 -0.013392033 0.0 0.0 0.0 0.005676359 0.0
-0.010687755 0.0 0.0 0.0044370852 -0.005907872 0.0 0.0 0.0
-0.0022643893 -0.0124725215 -0.0014826756 0.0 0.0 0.0 0.0 -0.014385547
-0.012489431 0.0 0.0 -0.008794099 -0.010489232 0.0 0.011610133 -0.009115718
0.0058761854 0.0 0.0 -0.013569438 0.0034467226 0.0037217971 -0.013392379 0.0
0.0 0.009019719

layers.0.combine_aggr.weight f4 [50, 200]
00000000: 1c6f 5d3d 5e65 703d 82b4 87bc 7507 853d
00000010: 34d6 7dbc 80c7 693c 1f02 0dbd 6218 2a3d
00000020: 7652 7f3d 3e7b 54bd 02bf 7b3d 18d4 583c
00000030: 5efb 553d 48e6 1c3c 16a8 0b3d b892 23bc
00000040: ba45 5f3d 783d 2b3c 1736 07bd 24a7 933c
00000050: 8f71 05bd 08dd 07bc a445 ebbc fc21 403d
00000060: 44a0 64bd da85 05bd a691 a3bc aa25 2ebd
00000070: b0b0 da3b fe07 8fbd bfc8 823d 4408 76bd
00000080: 5e9a 5f3d f0cc 403c c616 bcbc 3afa 323d
00000090: 908e 343c de02 6a3d 804c fd3b 04af b6bc
000000a0: 64a3 9b3c 7c15 9dbc 68c9 f33c 614b 813d
000000b0: 886c 273d c63c fdbc 9831 273d 504a 4f3c
000000c0: b215 133d 1288 30bd a45a 8fbd cecd dfbc
000000d0: 5027 5ebd 4aa7 6d3d 78d8 a63c 28f0 ef3c
000000e0: b432 b73c c03a a1ba e6aa 623d 67c9 4dbd
000000f0: d0e3 913b 4caf 45bd d89d b23c d07c c7bc
00000100: cc7e b13c 5c5e 71bc b237 703d 32aa 2bbd
00000110: 3ebc 2cbd e9be 2cbd d540 823d 280a c13c
00000120: 4b59 8b3d 8a06 6fbd 96a3 8fbd c698 62bd
00000130: e2d4 42bd d49f ea3c 706b cf3c 52a9 703d
00000140: a192 15bd e071 45bd feab 193d e823 eabc
00000150: b0c8 2f3d 9075 89bc a4ae 253d b308 61bd
00000160: 8529 12bd 749a b03c b0eb 743c 1ab0 93bc
00000170: e2a3 2c3d d0e4 443d 5c08 52bd f09f 1abd
00000180: 1d9a 843d 3876 c3bc 9c5b cdbc 681f 8cbd
00000190: efdc 25bd a4b3 903c d0ea 18bc 323d 52bd
000001a0: c066 d93a 70d7 45bd d0b8 75bd 2b7d 1fbd
000001b0: 0f7d 7dbd 476b 38bd 43c2 903d f0d0 5a3c
000001c0: 5481 b23c 2f11 87bd d638 3ebd 8acf c0bc
000001d0: e028 353c 3ada 7ebd 9e96 f9bc 9864 2dbd
000001e0: 007a 4d39 948b d7bc c08f a0bb 3643 44bd
000001f0: 21cd 46bd a2f8 28bd a647 c6bc a599 64bd
00000200: cad8 723d e0ec 65bc 9232 793d d47c b43c
00000210: 3542 75bd 506f 483d 8461 9fbc d20b debc
00000220: 036a 70bd 48f8 8fbd a4bb a53c 8c12 7dbc
00000230: 2085 e13c 86b0 6dbd cc07 573d cc9a 54bd
00000240: d40b 48bc 00fb 713c c285 153d 72d2 693d
00000250: c7eb 833d a0a7 65bd 00c8 913c d427 f9bc
00000260: d0e9 fdbb 30c9 58bd 0be8 833d 2593 54bd
00000270: 2acb 1a3d 5893 cb3c 103c bc3c 7f96 1cbd
00000280: 57a1 833d 0896 7e3c 5808 153c 193d 7fbd
00000290: e02a f33c 6ccd 2dbc ddaf 04bd 0ac7 783d
000002a0: 5025 813c f83e 20bd ef97 12bd 004e 5dbb
000002b0: feb7 213d 6005 94bc 9241 25bd 365d c6bc
000002c0: 4260 58bd 6895 ce3c 9e2f 603d cb55 88bd
000002d0: b488 863c f89e 153d 0813 523c 184a cebc
000002e0: ac2b 173d 7434 183d 109a d83c d493 4bbc
000002f0: a863 99bc 40e1 f73b 70a8 4cbc e49e acbc
00000300: 5422 393d a2e8 783d b061 e5bb e6b1 81bc
00000310: 803e 873a d058 8abb d842 8b3c 2454 a23c
00000320: 9687 83bd fec4 d5bc 22e8 733d 84a7 e13c
00000330: 207d 66bb c39e 2ebd 9c32 31bd 8db8 81bd
00000340: 50d1 bcbc 809e c33c caac 383d cab8 053d
00000350: 3f02 80bd 562c 2ebd 98d5 36bc 5116 8c3d
00000360: d096 273c 0a03 96bc 44a6 ef3c 52a1 dcbc
00000370: 1c77 3bbd e065 533d 1ab2 03bd d83e 68bc
00000380: 2410 90bd 6cd7 413d 386f 5b3d 681c d33c
00000390: c3f3 49bd 97ec 8ebd 6f3b 6bbd 56fa 573d
000003a0: b20d 0b3d cab9 733d 9cba 173d 4c9b 923c
000003b0: 8085 35ba 1e44 5cbd d225 78bd f573 87bd
000003c0: b820 ed3c 1433 0ebd e827 69bc 24af 26bd
000003d0: 401c 53bc 35da 4bbd d93f 3dbd c025 c03c
000003e0: 9027 acbc 3ccd 323d 12d5 b9bc ba76 54bd
000003f0: a068 4cbc da65 0cbd 6638 b1bc 1bdd 89bd
0.05406104 0.05869042 -0.016565565 0.06495563 -0.015492965 0.014268756 -0.03442585 0.04152716
0.0623345 -0.051875345 0.061461456 0.013234161 0.052241676 0.009576388 0.034095846 -0.009983711
0.054509856 0.010451667 -0.03301057 0.018024035 -0.032579 -0.008292444 -0.02871973 0.04690741
-0.055816904 -0.032598354 -0.019966912 -0.042516388 0.006673895 -0.06983946 0.063859455 -0.060066476
0.054590575 0.011767611 -0.022960078 0.043695666 0.011020318 0.05713164 0.007730067 -0.02230025
0.01899881 -0.019175284 0.029759124 0.063132055 0.040874988 -0.030912768 0.04081878 0.012651995
0.035909362 -0.043098517 -0.0699971 -0.027319815 -0.05423671 0.058020867 0.020366892 0.02928932
0.022363044 -0.0012300834 0.055338763 -0.0502409 0.004452206 -0.04826288 0.021803781 -0.024351507
0.021666907 -0.01473197 0.058646865 -0.041910358 -0.04217171 -0.042174254 0.06360022 0.023564413
0.06804141 -0.058355846 -0.070136234 -0.055321477 -0.047566302 0.028640665 0.025319785 0.058755226
-0.03651679 -0.048204303 0.03751754 -0.028581575 0.042916 -0.016779691 0.040449753 -0.054939937
-0.035684127 0.021558024 0.01494877 -0.018028308 0.04214848 0.048069775 -0.051277503 -0.037750185
0.06474707 -0.023860082 -0.025068097 -0.06841928 -0.0404939 0.017663784 -0.009333327 -0.05132789
0.0016586408 -0.04830116 -0.059990704 -0.03893773 -0.061886843 -0.045024183 0.070683025 0.013355479
0.021790184 -0.065950744 -0.04644092 -0.023536462 0.011057109 -0.062219836 -0.030467328 -0.04233226
0.00019595772 -0.026311673 -0.004899949 -0.04791566 -0.04853547 -0.04125274 -0.024204087 -0.05581059
0.059288777 -0.014033526 0.060839243 0.022032179 -0.059877593 0.04893428 -0.019455679 -0.027105246
-0.05869485 -0.07029778 0.020231076 -0.015446316 0.0275293 -0.058029674 0.05249767 -0.05190544
-0.012209851 0.014769316 0.036504515 0.057085462 0.06441455 -0.056068063 0.017795563 -0.0304145
-0.00774882 -0.052926242 0.06440743 -0.05189814 0.03779141 0.024850532 0.022977859 -0.03822946
0.064272575 0.0155387 0.009096228 -0.062314127 0.02968353 -0.010608058 -0.03239428 0.060736693
0.015764862 -0.03912255 -0.035789426 -0.0033768415 0.03948211 -0.01806897 -0.040345736 -0.024214368
-0.052826174 0.025217727 0.05473291 -0.06656989 0.016422607 0.036528558 0.01282192 -0.025181815
0.036906883 0.0371594 0.02644065 -0.012425382 -0.018724278 0.0075646937 -0.0124913305 -0.021071859
0.045198753 0.06076873 -0.0070001706 -0.015831899 0.0010318309 -0.004222013 0.016999647 0.019815512
-0.06422345 -0.02609491 0.05954755 0.027545698 -0.0035169795 -0.042631876 -0.043261155 -0.063340284
-0.023049027 0.02387929 0.04508666 0.03264693 -0.062504284 -0.04252275 -0.011159323 0.06840194
0.010228828 -0.018311996 0.029254086 -0.026932392 -0.04576789 0.051610827 -0.032152273 -0.014175139
-0.070343286 0.047324583 0.053572863 0.025770381 -0.049304735 -0.0697872 -0.057429727 0.052728973
0.033948608 0.059503354 0.0370432 0.017896317 -0.0006924495 -0.0537759 -0.060582943 -0.06613914
0.028946266 -0.03471668 -0.014230706 -0.04069437 -0.012885153 -0.049768645 -0.046203468 0.0234555
-0.021014959 0.043652758 -0.022684608 -0.05187104 -0.012476116 -0.03427682 -0.021633338 -0.06731626

layers.0.lin_a.weight f4 [1, 100]
00000000: a2c0 5d3d 5b33 aabd 8725 76bd d0c6 6fbd
00000010: 9660 583d c062 5abb c5f4 bbbd 1fda c83d
00000020: dc83 d53c 215d bc3d 5085 4c3c 98de 6a3c
00000030: b19e 933d 9055 8bbd 2969 c13d 2db9 83bd
00000040: 8080 143c 5032 85bd 02b2 87bd 69a2 9d3d
00000050: f85c d8bc 4cbe 99bc 5703 a03d 53a4 c83d
00000060: c7b7 b8bd 80c9 e4ba 24ed e93c 69a2 c43d
00000070: a74b 23bd 8a4d 05bd 0013 70bd a450 d13c
00000080: 180a ca3c 80b0 ceba d02b 26bc 0d94 8ebd
00000090: ad3c 28bd 8ac7 1bbd 942e d73c 52e1 343d
000000a0: 1639 3f3d 0654 9cbd 3096 fcbb a856 9cbc
000000b0: af49 cc3d 89c9 933d ebdf 98bd e30f 61bd
000000c0: 88b5 9abd 7805 cdbc ef30 b3bd 7a81 403d
000000d0: 70a3 34bd ca92 4dbd a0dd 9a3b e4df 02bd
000000e0: 29b7 9a3d b3a5 b93d e7db b6bd a2a5 373d
000000f0: 60bf 083b 62fc 563d 948e 19bd a019 f8bb
00000100: c02e f5ba 4671 0c3d a239 4c3d eabe 1f3d
00000110: d013 493c fe60 a3bd 7d4b 6bbd 8d58 69bd
00000120: 4518 ccbd 8d2d c43d 9071 39bd 1821 88bd
00000130: 8d7d 39bd a266 5e3d 6562 80bd ee1f abbd
00000140: b312 99bd 3808 b43c e00f 86bb f8c7 b8bd
00000150: 2817 8cbd 077c b1bd d283 0c3d ee5c 393d
00000160: 288b 8b3c 803a 03bd d374 5bbd 8aee 213d
00000170: 341e bcbc f87f 83bc 5046 06bd d45f 8e3c
00000180: d829 c03c f943 a83d ede1 b53d b820 d3bc
0.054138787 -0.083105765 -0.060094383 -0.05853921 0.052826487 -0.003332302 -0.091775455 0.09807228
0.026063852 0.091974504 0.012482956 0.014335297 0.07208002 -0.06803429 0.09443886 -0.06431804
0.00906384 -0.06503737 -0.06625749 0.07696993 -0.026411518 -0.018767498 0.07813137 0.09796967
-0.09019428 -0.0017455071 0.02855546 0.0960129 -0.03986707 -0.03254465 -0.05861187 0.025551148
0.024663016 -0.0015769154 -0.010142282 -0.06961832 -0.04107349 -0.038032092 0.026267327 0.044160195
0.0466853 -0.07633214 -0.0077083334 -0.01908429 0.099749915 0.07216174 -0.07464584 -0.05494679
-0.075541556 -0.025027022 -0.08749568 0.04699848 -0.04410118 -0.050188817 0.004726127 -0.0319518
0.07554466 0.09064808 -0.08928662 0.044835694 0.0020866022 0.052486785 -0.03748949 -0.007571414
-0.0018705949 0.034287713 0.04985965 0.03900043 0.01227279 -0.07977484 -0.057445038 -0.056969214
-0.099655665 0.095790006 -0.045274317 -0.06646937 -0.04528575 0.054297097 -0.06268767 -0.083556995
-0.0747427 0.021976575 -0.004091248 -0.09022516 -0.06840354 -0.086662345 0.0343054 0.04525464
0.017034128 -0.03203821 -0.05357821 0.03953413 -0.02296362 -0.016052231 -0.0327819 0.017379679
0.023457453 0.0821609 0.088809825 -0.025772437

layers.0.lin.weight f4 [50, 10]
00000000: df3f 5c3e b605 e43d 1638 b53d 89b0 98be
00000010: c706 9cbe 36fb dc3d 773a 063b 6fe6 3c3e
00000020: ad1c 183e 3fdc 86be d066 6e3d f108 7ebe
00000030: 2400 33be 48fa b13d a0cd 90bc 8acd 4ebe
00000040: d09a db3d e2b6 603e da1e 9fbe f5dd 973e
00000050: 94c1 323e 6059 dabc 5d01 9dbe 7214 09be
00000060: 00a6 c53d 4ef6 09be cee1 d4bd f8b9 05be
00000070: e934 8b3e f905 893e 7691 7cbe 6ccd c7bd
00000080: ada6 923e 3036 95bc bea8 1dbe 50a1 1c3d
00000090: 731b 803e c0d4 24bd 74c7 98be 747b d8bd
000000a0: e428 213e f861 3fbd 9eca 643e a4bb de3d
000000b0: 80c0 353b 4c62 f73d 68d6 2ebd f9cb 8abe
000000c0: aac1 8abe f8b5 7ebe c04d 4ebd 5023 6abe
000000d0: 60d2 3d3d c884 143d 0663 763e 70a9 913c
000000e0: 70c3 5c3d 704a e63d f018 b7bd 675a 21be
000000f0: d74d 98be c0b0 9dbe 7057 aa3c 0e21 19be
00000100: f449 b33d e0f4 a03d f28d 7c3e 1820 1ebd
00000110: 0046 afba 0a7e 5f3e 90a6 5b3d de34 143e
00000120: 0edc 2ebe d20c 6abe dadf 763e 6ed4 663e
00000130: 1c38 f5bd 702a 573d 0ffe 8fbe 304c b53c
00000140: 4d52 96be 6206 373e d379 a0be d639 9cbd
00000150: 710f 973e 6a68 dbbd 09b3 3bbe f90e 923e
00000160: 3acb 23be 6cd6 8e3d 6bc7 2f3e 969d a33d
00000170: 50ea 64be 1759 903e 2d15 163e d4d2 50be
00000180: 0e02 3ebe acc2 9fbd 8eac cd3d 797d ea3d
00000190: ccda df3c 59a6 463e 0636 9a3e 25a0 533d
000001a0: 0a3f e23d 8770 2a3e 05ea 493d 7c0c c83b
000001b0: aeb7 8a3e 55d7 513e 5e7e 533e 2000 fcbd
000001c0: 6ed1 1abe 2596 2fbe ac95 87be 7899 03bd
000001d0: 2073 363e 98c4 3d3d 8a17 e5bd 5830 33bd
000001e0: 1626 78be 4000 50be f07e ee3c ca24 3cbe
000001f0: a8a3 1f3d 0587 853e d0d8 a53d 7ee3 773e
00000200: f827 4dbe 60bf 063c 730c 9fbe 0098 0f3b
00000210: d78b 6ebe 27f5 973e cf69 8abe cc62 dd3d
00000220: 94b3 41be e844 b33d 0031 d8ba d8ab 25bd
00000230: f7b9 efbd a005 563e 488e 52bd 10a7 053d
00000240: c58b b7bd 7229 66be 3524 01be 9412 943e
00000250: 8205 9d3e 03a2 10be e015 013d c83e 523d
00000260: e9d4 8e3e b0c1 343d c030 713c 0c63 bcbd
00000270: 0c95 883d f035 a1be f489 a1be 3824 16bd
00000280: 778a 6bbe 29d6 6bbe 05d1 83bd e2b6 283e
00000290: 9851 153e 5fe6 f6bd 754f 07bd 67d5 903e
000002a0: a36a 6c3d 8243 513e 6f20 06be 89e3 90be
000002b0: 7e22 16be 90a8 e33c 40db 9cbd 52cf 30be
000002c0: 6db2 9b3e 6a72 95be 008c 033c 0e0c 013e
000002d0: d6b8 aebd 7a71 0c3e 0021 933a b77c 40be
000002e0: ab13 30be 96ab 11be bb15 9ebe 86d2 493e
000002f0: a969 943e ce57 26be 5764 a43c 337f e13d
00000300: 9375 c03d e630 2fbe 5e3b 40be b4e1 9f3e
00000310: 061c 413e 4ea0 993e 16dc 673e e965 9cbc
00000320: 2deb 5d3e 967c 83bc aaf0 00bc cd5a 12be
00000330: 257b 763e 5dc9 95bd 2fdc 233d 6521 84be
00000340: 1110 d23d 5203 20be 163e 92bd 90a6 e7bc
00000350: 4417 f03d 007e 533c 28b1 613d ba52 52be
00000360: 7dac 74be 6c3c e93d 6557 05be 8897 8bbe
00000370: c1a3 05be fdd6 9ebe 6c66 813d 1064 c03c
00000380: 8f83 953e 4190 32be 5d78 27be fca3 9a3d
00000390: 862c aabd 665a 7c3e 100b 453d 8027 e1bb
000003a0: 3277 f8bd 3ea7 433e 0394 17be 5036 023e
000003b0: ca05 503e 3e01 7ebe e674 8fbe 5d9d 36be
000003c0: 320f 193e 23ef 34be d353 e23c 3b4b 3a3d
000003d0: 1c54 833d 7f71 27be 4a0f 103c 4411 5e3e
000003e0: 7689 253e fb2a 6e3d dc25 87be 5593 0b3e
000003f0: 8fb6 0dbe 35da 553e df6e f33d c06b 90bd
0.2150874 0.11133902 0.08848588 -0.29822186 -0.3047392 0.10790102 0.0020481625 0.18447278
0.14854689 -0.2633991 0.05820352 -0.24808098 -0.17480522 0.086903155 -0.017676175 -0.20195594
0.107228875 0.21944764 -0.31078225 0.29661527 0.17456657 -0.026653945 -0.30665103 -0.13386706
0.096508026 -0.13472864 -0.10394631 -0.13059223 0.27188805 0.2676237 -0.24664864 -0.09755978
0.2864279 -0.018214315 -0.15396401 0.038239777 0.25020942 -0.040241957 -0.2983967 -0.10570422
0.15738255 -0.04672429 0.22342917 0.10875633 0.0027733147 0.120792955 -0.042684942 -0.27108744
-0.2710088 -0.24874103 -0.050367117 -0.22865033 0.046343207 0.036259443 0.24061212 0.01778099
0.05389732 0.112446666 -0.08940303 -0.15757142 -0.29746887 -0.30798912 0.020793647 -0.14954016
0.0875434 0.07859206 0.24663523 -0.038604826 -0.0013372302 0.21825424 0.053625643 0.14473292
-0.17076132 -0.22856453 0.2410883 0.22541973 -0.11973593 0.052530706 -0.2812352 0.022131056
-0.29359666 0.17873529 -0.31342945 -0.07628219 0.29503968 -0.10713275 -0.18330015 0.28527048
-0.15995494 0.069744915 0.17165916 0.079890415 -0.22355008 0.2819297 0.14656515 -0.20392925
-0.18555471 -0.078008026 0.10042678 0.11449713 0.02732601 0.19399394 0.30119342 0.051666398
0.1104718 0.16644488 0.049295444 0.006105004 0.2709326 0.20492299 0.20653674 -0.12304711
-0.15118954 -0.1714712 -0.26481378 -0.03212878 0.17817354 0.046330065 -0.1118613 -0.043747276
-0.24233279 -0.20312595 0.029113263 -0.18373409 0.038974434 0.26079574 0.08097994 0.24207875
-0.20034778 0.008224338 -0.31064186 0.0021910667 -0.23295532 0.29679224 -0.2703385 0.1080986
-0.1891616 0.08753377 -0.0016494095 -0.040447086 -0.11705392 0.20900583 -0.05140522 0.032630026
-0.08962206 -0.22476748 -0.12611468 0.28920424 0.30668265 -0.14124303 0.031515002 0.051329404
0.27896813 0.044130027 0.014721096 -0.09198579 0.066690534 -0.31486464 -0.31550562 -0.036655635
-0.23002039 -0.23030914 -0.06436352 0.16476014 0.14581907 -0.120556585 -0.03303476 0.28287813
0.057718884 0.20435908 -0.1309831 -0.28298596 -0.14661595 0.027790338 -0.07659006 -0.17266586
0.30409566 -0.29188854 0.008028984 0.12602255 -0.085313484 0.13715163 0.0011225045 -0.18797575
-0.17195003 -0.14225611 -0.30875954 0.19709215 0.28986862 -0.16244432 0.020067377 0.110105895
0.093974255 -0.17108497 -0.18772647 0.31226885 0.18858346 0.30005115 0.2264255 -0.019091563
0.21671744 -0.016050618 -0.007869879 -0.1429245 0.24070413 -0.073137976 0.040004905 -0.25806728
0.10256971 -0.15626267 -0.07140748 -0.028277665 0.117231876 0.012908459 0.05510059 -0.2053937
-0.23893924 0.11388478 -0.1302162 -0.27264047 -0.13050748 -0.31023398 0.063183635 0.023485214
0.29201934 -0.17437841 -0.16354509 0.07550809 -0.083092734 0.2464386 0.048106253 -0.006871164
-0.1213211 0.19106767 -0.14802556 0.12716031 0.20314708 -0.24805161 -0.28018874 -0.17833467
0.14947203 -0.17669348 0.027627861 0.0454819 0.06412527 -0.16351889 0.008792708 0.21686274
0.16165718 0.058146458 -0.26396072 0.13630421 -0.13839172 0.2088402 0.11886381 -0.07051802

layers.1.bias f4 [50]
00000000: 5607 f23b 0000 0000 0000 0000 cb4c 58bc
00000010: 0000 0000 b053 133c 3fcc 1a3c 323a 7ebb
00000020: 0000 0000 0000 0000 52f0 bbbb 3115 06bc
00000030: 0000 0000 87c8 51bc 9392 d6bb 621c a03b
00000040: c6d5 09bc f8b3 94bb 0000 0000 0000 0000
00000050: 302c ddbb ccd4 68bc 2fa5 fdbb db40 27bc
00000060: d05d ac3b da9f c1bb 5e69 373c 0000 0000
00000070: aaf5 f83b 0000 0000 0000 0000 7afd f6bb
00000080: 0000 0000 afc5 c43b 0000 0000 36ec 233c
00000090: f2e2 df3a e4b6 26bc 58db 32bc 4a44 22bc
000000a0: ff62 f8bb 0000 0000 0000 0000 0000 0000
000000b0: 0000 0000 61d2 5e3b e219 393c 0000 0000
000000c0: 95fa 3abc 0000 0000
0.0073861284 0.0 0.0 -0.013201903 0.0 0.008992121 0.00944811 -0.0038792011
0.0 0.0 -0.0057354355 -0.008183763 0.0 -0.012804157 -0.0065482347 0.004886196
-0.008412784 -0.0045380555 0.0 0.0 -0.0067496523 -0.014210891 -0.0077406387 -0.010208334
0.0052602068 -0.0059089484 0.011194555 0.0 0.007597645 0.0 0.0 -0.007537541
0.0 0.006005011 0.0 0.010005048 0.0017081185 -0.01017544 -0.010916553 -0.009903977
-0.0075801606 0.0 0.0 0.0 0.0 0.0033999907 0.011297675 0.0
-0.0114122825 0.0

layers.1.combine_aggr.weight f4 [50, 200]
00000000: 9a9a 36bd 5875 2d3c 5d29 8f3d 8061 5fbc
00000010: 6f8f 26bd 0d2f 0dbd 2fc3 33bd 82b8 123d
00000020: 4ed4 2abd 9abb 4a3d aa16 293d 423e 2e3d
00000030: e03b 5ebb dcd8 71bc 9cd6 d13c 3c0d 2dbc
00000040: c4ca e83c 944d 813c 4874 c93c d49d f7bc
00000050: 3292 333d 3835 5ebc 1893 243d c0d5 8ebb
00000060: b552 8ebd 2068 c5bb c2b1 b8bc c099 0fbd
00000070: 004c 35bb 5c51 ddbc d08a b53b c804 abbc
00000080: 48b4 33bd c4a7 d43c 3933 6dbd 0e39 60bd
00000090: 5837 36bc 40bf c9bb 5676 87bd 942f 133d
000000a0: 4038 bf3b b846 f43c 00ec 36ba 6cde 7cbc
000000b0: eed9 cbbc a0f2 cebb 0c9d 63bd 1c65 fe3c
000000c0: 30a5 a43c f621 4f3d 3f48 87bd d05c f1bb
000000d0: 402a e3bc 0006 103b 80e6 303c d47e 2cbc
000000e0: 3014 bcbb b046 3fbc 94e5 8c3c c752 1ebd
000000f0: d840 06bc ce27 0f3d 0404 433d 2092 013c
00000100: 2086 febb 1019 423c b057 053d f01c 553c
00000110: 728a 28bd eb3b 64bd 0cbb 063d 7806 f9bc
00000120: 10ef d83c 1bdc 78bd 5c66 1e3d 648a f33c
00000130: 049f 64bc e040 5dbd 98cc 02bc 1a04 243d
00000140: 74df 5a3d 00b1 2bbb 80be bfbb ee96 6d3d
00000150: 60e0 493c 094a 8a3d 4902 833d 1011 3cbd
00000160: fa32 4cbd 2244 c0bc bc25 31bc 6d1d 833d
00000170: 24da 59bd 5e2d 013d fe3d 5e3d 90a8 913b
00000180: 0bd8 72bd 36aa 5abd 4849 2c3c bc99 a73c
00000190: 6c90 863c ee39 343d 8a15 3a3d 1860 7cbd
000001a0: 1e7b 083d 66e4 333d 1d47 12bd 3bb1 34bd
000001b0: 170b 82bd a1e1 8ebd 6c54 173d 0cae a43c
000001c0: 6654 1dbd d574 81bd c49f 86bd 5165 833d
000001d0: 78a6 be3c f067 3d3c b08f bfbb 7c77 ec3c
000001e0: 901c fb3b 2c10 fa3c c4cb 933c 2636 15bd
000001f0: 5e5f 07bd 3092 983c 2cc8 923c be7e 4c3d
00000200: b43d 56bd 54af 0c3d 0ed8 84bd e085 c63b
00000210: 032b 6bbd 8c74 0ebd 4e8c 25bd 0333 813d
00000220: 2de4 803d df73 00bd e053 42bb 3dbb 72bd
00000230: 554c 6dbd 24a4 12bd 306c e13b 355b 82bd
00000240: ac25 71bc f8b9 1f3c 00b8 503a c0a4 12bb
00000250: d07d 503c 3f3e 8f3d f55e 77bd f4f2 50bd
00000260: 965f 173d 246e b13c 1218 763d 2684 663d
00000270: 471c 57bd ee92 83bc d265 82bd 3c76 e93c
00000280: a8dd 2c3d 33bf 65bd e3aa 1dbd 34b3 1a3d
00000290: 8c1f 8d3c 450d 35bd 00f0 b7b9 be83 40bd
000002a0: 709d e03c 5095 563c 8451 9d3c 20b2 5abb
000002b0: e0f6 7b3b 29d4 56bd c72e 873d 409a 3dbb
000002c0: a050 013b d06a d13b 7937 88bd a8ab 953c
000002d0: d254 793d 0681 283d 9045 213c 5c2a a83c
000002e0: 70d6 4d3c 00b4 3e39 04a8 fd3c 08d0 be3c
000002f0: c821 bc3c e0a5 2ebd 4c25 0dbc 9a94 343d
00000300: a4b0 3e3d c00f 23bd e410 bd3c 5941 41bd
00000310: f8f6 963c ac0b c93c 0e6a 2ebd 4cfc 563d
00000320: 0ecd 4e3d 4602 503d b8da 9e3c 0c69 ee3c
00000330: c0ca aaba 3b6b 19bd a469 b03c 7403 fabc
00000340: 646a 953c 22a4 14bd fc4e f5bc 342a 64bd
00000350: e631 9cbc a4b8 2e3d d417 b43c 407d bbbb
00000360: 44d5 373d 64b7 4e3d 2c18 f8bc b25c 56bd
00000370: 5e0b 5f3d ce59 83bd 2c8c 5fbd ea95 6dbd
00000380: 2abf 3abd f1fc 43bd 8076 0c3b 18c2 fdbc
00000390: 4ae6 5e3d 0f17 81bd e49b 5abd 4687 85bd
000003a0: 383a 7fbd 1c8b 8c3c 0680 48bd c01d 7dbc
000003b0: 33c3 13bd dc12 9cbc 8282 f2bc b261 383d
000003c0: 2e40 00bd 0f7c 10bd 38a8 243d 4ba3 833d
000003d0: 4abf 6b3d 90a5 2cbc 00dd 4e3c be43 16bd
000003e0: d0ce e2bb 88c2 023c 6c41 29bd 2c37 29bc
000003f0: 8274 0a3d 4cb5 903c 2bc5 863d d8d5 c6bc
-0.044581033 0.010587059 0.06990311 -0.013634086 -0.040664133 -0.0344687 -0.043887313 0.03582049
-0.041706376 0.049495317 0.04128138 0.042539842 -0.00339102 -0.014761176 0.025615029 -0.010562237
0.028416999 0.015784062 0.02459158 -0.030226626 0.043840595 -0.013562493 0.040179342 -0.004358977
-0.06949369 -0.0060243756 -0.022545699 -0.035058737 -0.0027663708 -0.027016334 0.0055402294 -0.020876303
-0.0438731 0.025958903 -0.057910178 -0.05474191 -0.011121593 -0.006156832 -0.06614368 0.035934046
0.005835563 0.029818878 -0.0006977916 -0.015433889 -0.02488419 -0.0063155442 -0.055569693 0.031054072
0.020098299 0.050569497 -0.06605577 -0.0073658004 -0.027730107 0.0021976233 0.010797143 -0.010528285
-0.005739711 -0.011674568 0.017199315 -0.03865316 -0.008194171 0.03495007 0.04761125 0.007908374
-0.007767454 0.011846796 0.03255433 0.0130073875 -0.041147657 -0.055721205 0.032893226 -0.030398592
0.026481181 -0.060756784 0.038671836 0.029729076 -0.013953928 -0.054016948 -0.007983349 0.040042974
0.053435758 -0.002619803 -0.005851567 0.058005266 0.012321562 0.06752402 0.0639692 -0.04591471
-0.049853303 -0.023469988 -0.010812219 0.06402097 -0.05318655 0.031537406 0.05425834 0.004445143
-0.059288066 -0.053384982 0.0105155185 0.020459048 0.016426288 0.04400056 0.045430698 -0.06161508
0.03332054 0.04391899 -0.03571235 -0.044114333 -0.063497715 -0.06976629 0.036945745 0.020102523
-0.038410567 -0.06321112 -0.065734416 0.06415809 0.023272738 0.011560425 -0.0058459863 0.028865568
0.007663317 0.03052529 0.018041499 -0.036428593 -0.033049934 0.018624395 0.017917715 0.04992556
-0.05230494 0.034346893 -0.06486522 0.0060584396 -0.057414066 -0.034779117 -0.040417008 0.06308558
0.06293521 -0.031360503 -0.0029652044 -0.059260596 -0.057934124 -0.035801068 0.006879352 -0.063650526
-0.014718454 0.009748928 0.00079619884 -0.002237603 0.012725309 0.069942944 -0.060393292 -0.05101295
0.036956392 0.021658964 0.06008155 0.05627837 -0.0525172 -0.016061272 -0.06367077 0.028498761
0.042203575 -0.056090545 -0.03849305 0.037768558 0.017226957 -0.044202108 -0.00035083294 -0.04700064
0.027418822 0.013097122 0.019203909 -0.003337033 0.003844671 -0.052448425 0.06600719 -0.0028931051
0.0019731894 0.006390907 -0.066512056 0.018270329 0.060871907 0.04113867 0.009843245 0.020528011
0.012563333 0.00018186867 0.030963905 0.023292556 0.022965327 -0.04263866 -0.008614849 0.04408703
0.046555176 -0.039809942 0.023079343 -0.04718146 0.01842831 0.024541698 -0.04258161 0.052486703
0.050488524 0.050783418 0.019391403 0.029102825 -0.0013030395 -0.03745578 0.021534748 -0.030519225
0.018239208 -0.03628934 -0.02994489 -0.05570431 -0.019066762 0.042656556 0.021984018 -0.005721718
0.04488112 0.050467864 -0.030284964 -0.052334495 0.0544542 -0.06413613 -0.054577038 -0.058004297
-0.045592465 -0.047848646 0.0021432936 -0.03097634 0.05441884 -0.06303226 -0.053371325 -0.06519942
-0.06231138 0.017156176 -0.048950218 -0.0154489875 -0.03607483 -0.019051962 -0.029603247 0.045015045
-0.031311207 -0.03527456 0.04019949 0.0642763 0.057555474 -0.01053752 0.012625933 -0.036685698
-0.0069216266 0.00798095 -0.041322157 -0.010328095 0.033802517 0.017664574 0.065805756 -0.02427189

layers.1.lin_a.weight f4 [1, 100]
00000000: b83d 8bbd 5122 9e3d a23e 793d acd1 bdbc
00000010: c05b 8e3c f4e0 fabc ad93 38bd 716f cb3d
00000020: 0ade 243d 5094 d03b f12f 823d f70c 893d
00000030: 5e25 5b3d d256 363d 332e 99bd dd0e 24bd
00000040: fd3a aa3d c448 f93c 3c11 e13c 7c45 86bd
00000050: 50d4 43bd 93c3 19bd 2e11 433d 17a4 24bd
00000060: 638f 9c3d 2b4e 91bd 48b4 8cbc 47dc ad3d
00000070: e7e5 2bbd 4003 eb3a 88b3 f0bc b291 103d
00000080: 6daa 4ebd 83bf 9abd 402a 1abd 9631 253d
00000090: 486c d4bc 4e0e 9dbd 6cf2 aabc 63ba 32bd
000000a0: f542 aa3d 282c 6ebc 22c3 353d 09f5 c43d
000000b0: 9862 8fbd 7e4e 1d3d f0e4 5e3c 538b ad3d
000000c0: a0a4 4a3b 8447 f03c 8a7c c8bd bf70 c43d
000000d0: a28e 9bbd 15cd 973d eec4 85bd 60b4 af3c
000000e0: 40b5 963a b9f3 983d d0af bebd 997a ab3d
000000f0: aba2 c63d 8cce ed3c 3f43 bd3d d972 a53d
00000100: e08c 9f3b 660b 673d 5038 e13b 1881 c83c
00000110: 9324 8ebd 60b5 ddbc ddf5 5ebd 9a20 71bd
00000120: 1474 82bd 23b9 2ebd 74e2 8e3c 0081 44bb
00000130: 6259 383d 4649 333d ac0d e6bc d574 903d
00000140: 627c 8ebd 930a 68bd 3942 c63d 3a45 453d
00000150: ea3b 463d 73c0 c0bd 4161 943d f8b3 a7bd
00000160: 68cd 773c 4747 4ebd ded5 1a3d dd36 64bd
00000170: 387e afbd af81 b8bd c80d 9dbd ca3c 19bd
00000180: 40d8 563b 909f 10bd 5042 08bd e8fd 8e3c
-0.06798881 0.07721389 0.060850747 -0.023171268 0.017377734 -0.030624844 -0.04506271 0.09933365
0.040250815 0.0063653365 0.063568 0.06691926 0.053502433 0.044516392 -0.07479515 -0.040053237
0.08312032 0.030430205 0.027474038 -0.06556222 -0.0478099 -0.03754003 0.047623806 -0.04019555
0.07644536 -0.070949875 -0.017175809 0.0848928 -0.0419673 0.0017930046 -0.029382482 0.035295196
-0.0504555 -0.07556059 -0.03763795 0.040330492 -0.025930539 -0.07668744 -0.020867549 -0.043634783
0.08313552 -0.014536895 0.044375546 0.09617049 -0.07001227 0.038404934 0.013604388 0.084738396
0.0030920878 0.029330976 -0.09789379 0.09591817 -0.075955644 0.07412163 -0.06531702 0.021448314
0.0011498109 0.074683614 -0.09310877 0.08372993 0.09698995 0.029029153 0.09241342 0.08078546
0.0048690885 0.056407355 0.006873168 0.02447562 -0.0694057 -0.027064025 -0.054433692 -0.058868982
-0.063697964 -0.04265703 0.017441966 -0.0029984117 0.045007117 0.04377105 -0.028082691 0.07053534
-0.06957318 -0.05665071 0.096806 0.048161723 0.048396982 -0.09411707 0.07245112 -0.08188623
0.015124656 -0.050360944 0.037801616 -0.055716384 -0.08568996 -0.0900911 -0.07668644 -0.03741149
0.0032782704 -0.03530842 -0.033266366 0.017455056

layers.1.lin.weight f4 [50, 50]
00000000: 473f 533d 4a95 c2bd 5071 03bc 6b82 8cbd
00000010: dd54 053e fba4 10be 01b8 91bd 46b5 64bd
00000020: d0b0 7f3d 2c43 61bd 5224 a7bd e01f 07bc
00000030: 228c 39bd 83a4 0c3e 5848 c33d 5a88 e23d
00000040: b245 e3bd d467 15bd d6f8 ddbd ca61 0a3e
00000050: 82c3 ab3d 0ad3 e2bd c414 d6bd 101a 8f3d
00000060: eb3c 83bd 980f 393d fbbf eebd 0029 e7bd
00000070: a033 45bd 1190 e2bd 0218 b23d 7a31 ddbd
00000080: 52b8 1cbd 7fae 0dbe 39e0 043e c010 bd3c
00000090: 3d2c 9dbd b4c4 fdbc 50bc 483d a41a 28bd
000000a0: f516 f63d 7639 05bd b98c 073e fa4f ae3d
000000b0: db57 db3d 31ae 373c 99b4 04bd 2872 763d
000000c0: e2f6 b53d 7c1f db3c d034 e73c 9a09 f93d
000000d0: 2f3f 9dbd c0df f9bc c04d 303c 1cfb 87bc
000000e0: a476 a6bd 6cc0 393d 709f de3c 3649 afbd
000000f0: 80c4 02bc 98d4 843c 0069 6bbc 0054 323d
00000100: 901e 05be e0de 9fbc 84b4 d53d e021 803b
00000110: f0f8 88bc 8261 1ebd b8db b2bc 8c48 88bc
00000120: 9124 8dbd f5e7 cebd 6022 46bc f798 0f3e
00000130: e86a da3d c0d6 e03b a0de 7a3d 58c8 fe3c
00000140: 2295 94bd f01f 513d ee52 843d a08a 19bc
00000150: 30b4 ac3d a87d 663d 074b 89bd f0cb 283d
00000160: 3833 843d 92ce e43d 746b c5bd 098c 05be
00000170: 1cf2 62bd 6094 433c 347c e4bd ca2b 0fbd
00000180: b3dd d3bd 0039 dbbd dcd2 2f3d ac6b 8d3d
00000190: 5818 9c3c 22ea c83d 6ad2 0abd 60da 953c
000001a0: ee9a d53d 66e9 ef3d 3cd6 253d 7047 f7bd
000001b0: 9c1b 0c3d 48b6 d03d c852 453d c5a2 0ebe
000001c0: 2a50 3dbd a263 94bd 8456 02be 14f8 f0bd
000001d0: 4236 bb3d 588d b9bd e293 aebd 0816 7cbd
000001e0: e074 76bc de2e ac3d 81ab 0ebe 3484 81bd
000001f0: a8e5 bcbc c8ba 203d abb4 a0bd 3c7d 1dbd
00000200: 91bc 9bbd 2c06 02bd 82ba 953d 12ed 74bd
00000210: ccb2 9bbc 34b9 bdbd f4cd 213d c603 babd
00000220: a043 063d ba2c 10be e432 623d dc83 503d
00000230: f3b1 dbbd 447a 93bc 4ac5 adbd fa4f 8abd
00000240: d82f 863d 7862 a5bd 6a84 a33d 8262 923d
00000250: 4bd7 013e 84c3 58bd 0079 0bbe b27b bb3d
00000260: c44c 08bd aa07 64bd ed40 89bd 81ac 063e
00000270: 3a5b e1bd 58a0 fb3c 183d e63c 6627 8dbd
00000280: 69ef 893d 7692 a73d ccd7 c23d 2c16 1c3d
00000290: b2b4 9d3c 3811 243d 2aef 6abd 716b e7bd
000002a0: 40af 873b fbf9 c6b9 acdf a63d 802c c33c
000002b0: 8090 813b 7c3f 4dbd 5370 d73d 6c48 eb3d
000002c0: 56bc 003e 0046 14bc 522a 8ebd 9d7b eabd
000002d0: 2e83 0ebe fa2f fcbd 7210 6cbd e6a8 e13d
000002e0: 3e7e 05be f7fe 4cbd 426e 353d 280b 883d
000002f0: b6d3 0dbc 17e1 36bd cf5c d9bb 7f7d b5bd
00000300: 74aa 8e3d dc26 8f3d 54b2 2a3c 21ef af3d
00000310: 9a3e 923d 7da6 07be 1cba 63bd bd39 09be
00000320: c0f8 523d 6cec 01be d893 093d 6064 ebbd
00000330: f4c5 933d fe5b c6bd 6364 02be 5204 6abd
00000340: 387d 3f3d 8a8a 77bd 9442 583d a000 943b
00000350: 6588 9dbd c0be ffbb fac0 b73d c06b b1bd
00000360: 26e6 fc3d 1cf8 203d 148e 963d 401e dfbc
00000370: 16aa d73d a011 d8bd 86cc 69bd 4ec3 b53d
00000380: deb3 9bbd c630 f23d 5eff 51bd 4a28 09be
00000390: 1da4 083e 8a66 ec3d 6cd0 6e3d b115 f8bd
000003a0: 807d fa3c 9096 09bd cb71 0b3e c075 063d
000003b0: 90e8 36bc ba6a 10be dc7e 54bd 42f6 d83d
000003c0: f99d debd a0cb 693c 42e1 e0bd 4070 51bc
000003d0: 6a60 06bd b446 99bc a039 a7bb 4aaa 25bd
000003e0: 029e 56bd 882e 8c3d c194 f93c 6437 90bd
000003f0: 6c31 953d 0953 0e3e 421f 9f3d fc9f 7f3d
0.051574018 -0.09501131 -0.008022621 -0.06860813 0.13020654 -0.14125435 -0.07115174 -0.05583694
0.06242448 -0.0549957 -0.081612244 -0.008247346 -0.045299657 0.13734631 0.09535283 0.11061163
-0.11097278 -0.03647597 -0.10838477 0.13513866 0.083868995 -0.11075409 -0.104531795 0.06987393
-0.064081036 0.045180887 -0.11657711 -0.11287117 -0.048144937 -0.11062635 0.086959854 -0.108004525
-0.03826172 -0.13836096 0.12976159 0.023079276 -0.076744534 -0.030977584 0.049007714 -0.04104103
0.120160975 -0.032525502 0.13237275 0.08511348 0.107101165 0.011210964 -0.032398794 0.06016746
0.0888498 0.026748411 0.028223425 0.121600345 -0.07678067 -0.0305022 0.010760725 -0.01659923
-0.08128098 0.045349523 0.027175635 -0.08558886 -0.00798142 0.016214654 -0.014368296 0.04353714
-0.1299994 -0.019515455 0.10434821 0.003910288 -0.016720265 -0.03866721 -0.021833286 -0.016636156
-0.0689174 -0.10102836 -0.012093157 0.14023195 0.10664922 0.0068615377 0.061247468 0.03110139
-0.07255007 0.05105585 0.0646113 -0.00937143 0.084328055 0.05627218 -0.067037635 0.041210115
0.06455082 0.11172213 -0.09639636 -0.130417 -0.055406675 0.011937231 -0.11156502 -0.03495387
-0.1034502 -0.10704231 0.0429257 0.069053024 0.019054577 0.09810282 -0.033892073 0.018292606
0.10429941 0.11714439 0.040487513 -0.120741725 0.034206018 0.101910174 0.04817465 -0.13929279
-0.04621903 -0.07245566 -0.12728316 -0.11766067 0.09141208 -0.09060162 -0.085243 -0.061544448
-0.015042514 0.08407377 -0.13932611 -0.06324044 -0.023058727 0.03924063 -0.0784696 -0.03844951
-0.076043256 -0.031744167 0.07310964 -0.0597964 -0.019006155 -0.0926384 0.039503053 -0.09082751
0.032779336 -0.14079562 0.055224314 0.050907 -0.107273005 -0.018002637 -0.084848955 -0.067535356
0.06552094 -0.08075422 0.0798424 0.07147695 0.12679784 -0.052920833 -0.13620377 0.091544524
-0.033276334 -0.05567137 -0.06701837 0.13151743 -0.11003728 0.030716106 0.028105304 -0.0689228
0.06735117 0.08182232 0.09513816 0.038107082 0.019251201 0.040055484 -0.05735699 -0.1129979
0.0041407645 -0.00037951753 0.08148131 0.02382493 0.0039539933 -0.05010937 0.10519471 0.11488423
0.12571844 -0.009049892 -0.06941666 -0.114493586 -0.13917229 -0.12313838 -0.05763287 0.11018543
-0.13036439 -0.05004784 0.044294603 0.06642753 -0.008656433 -0.044648256 -0.006633378 -0.08861827
0.06966105 0.06989834 0.010418493 0.08590532 0.071408466 -0.13247104 -0.05559741 -0.13400932
0.051506758 -0.12687844 0.03358826 -0.114937544 0.07215491 -0.09685515 -0.12733607 -0.057133026
0.046750277 -0.060434856 0.05279787 0.004516676 -0.07692031 -0.0078047216 0.08972354 -0.0866313
0.12348585 0.039299116 0.07351318 -0.027236104 0.10530488 -0.10550237 -0.057079814 0.08875142
-0.07602666 0.11825709 -0.051268928 -0.13394275 0.13343854 0.11542995 0.058304235 -0.12113512
0.030577421 -0.033590853 0.13617627 0.03282714 -0.011163846 -0.14103213 -0.051878795 0.10593845
-0.10869975 0.014269739 -0.109804645 -0.01278311 -0.03280679 -0.018710472 -0.005103305 -0.040445603
-0.05239678 0.06844813 0.03046644 -0.07041815 0.07284817 0.13898863 0.07769634 0.062408432

layers.2.bias f4 [50]
00000000: f5d2 26bc 0000 0000 0000 0000 d6a8 22bc
00000010: 0000 0000 0000 0000 0000 0000 0000 0000
00000020: 0000 0000 2544 36bc 0000 0000 ad5b 0e3c
00000030: 0000 0000 0000 0000 0000 0000 ce49 21bc
00000040: 9858 a9bb 0000 0000 a2ff 163c 0000 0000
00000050: a213 1fbc abf1 22bc 0000 0000 48a0 c1bb
00000060: e012 3dbc 0000 0000 ef2b 56bc de8e 0b3c
00000070: e5c3 36bc c65a 23bc ff5d 173c 0000 0000
00000080: 0000 0000 0000 0000 90d3 30bc 0000 0000
00000090: 0000 0000 cbc5 e13b 2b21 59bc 71a0 c1bb
000000a0: 9af6 20bc f851 ddbb 0000 0000 c138 163c
000000b0: 0000 0000 37d3 0dbc 5c50 63bc 80f3 2bbc
000000c0: 5fcf 2cbc 2bfd 173c
-0.010182132 0.0 0.0 -0.009927949 0.0 0.0 0.0 0.0
0.0 -0.011124645 0.0 0.008688849 0.0 0.0 0.0 -0.009844257
-0.005168032 0.0 0.009216221 0.0 -0.009709271 -0.009945313 0.0 -0.0059089996
-0.011540145 0.0 -0.013071998 0.008517949 -0.011155103 -0.009970373 0.009238719 0.0
0.0 0.0 -0.010792628 0.0 0.0 0.006890034 -0.013252537 -0.0059090187
-0.009824419 -0.006754156 0.0 0.009168805 0.0 -0.008656315 -0.01387414 -0.010495067
-0.010547488 0.009276669

layers.2.combine_aggr.weight f4 [50, 200]
00000000: bc2e 42bd 2fa4 8f3d 24a0 32bc e5fa 48bd
00000010: c493 27bd a33b 903d 4878 39bc f62e 243d
00000020: d085 dc3b 76dd 6e3d e89d 57bd 7c50 b83c
00000030: cc7a f83c 74fb a4bc 8096 2dbd 7c3b 5bbc
00000040: 90fd dfbb 2ad8 28bd 06c8 6cbd 087b c33c
00000050: d099 0e3c c355 30bd 4806 a2bc 609e 8fbb
00000060: 2cb0 053d 4089 e13c 020b 7e3d 3067 e73b
00000070: a0be ae3c a486 58bd 944c f63c f843 f7bc
00000080: 1a15 543d 5891 983c f099 d9bb e459 cdbc
00000090: 2649 0b3d c4d8 ee3c 1c85 9e3c b060 393c
000000a0: ce2b 62bd 9fbb 17bd 2410 90bd c850 cabc
000000b0: d45f 06bd fcb8 66bc c619 533d 50db 8b3c
000000c0: c4c6 ff3c 3c75 f53c eaf2 6b3d 3239 663d
000000d0: c0eb 6a3c f262 773d b5cd 80bd 9c58 1c3d
000000e0: 26c5 413d c43f 89bd 2886 76bd a8d1 39bc
000000f0: 1cdb f73c 127c 743d 96c0 83bd 553b 843d
00000100: f096 b1bb 689a 85bc 5e82 93bc 6811 3f3d
00000110: a442 073d b076 d13b c9a0 72bd f064 adbb
00000120: 6df2 69bd b8c1 8fbd 88a4 c73c 84f0 91bc
00000130: 008c 8abd f53e 70bd 5500 8b3d 7380 873d
00000140: 6643 4cbd 5a57 11bd 044f 2e3d 6865 74bc
00000150: 903b bcbb f27c acbc a014 0c3d 79ab 86bd
00000160: ce9c 83bd e446 de3c 7644 103d d613 223d
00000170: 34e8 abbc b20d ffbc 2869 0cbd 546b 1cbd
00000180: 4269 7cbd d017 dc3c 8a59 febc 7787 8cbd
00000190: 808c 363c 5a95 673d e0b8 3ebb cfd1 6bbd
000001a0: c235 1a3d 7d34 1ebd 5c60 363d f232 47bd
000001b0: f74c 833d 4834 8cbc c502 853d a2cd 083d
000001c0: 9252 573d 68b3 523c aaa4 28bd d0ae f23b
000001d0: e292 6c3d ffb6 7bbd 70e2 9f3c e0d5 2a3c
000001e0: f41f 423d fed7 46bd 286a 54bd 1c3d 9c3c
000001f0: e8fd a3bc 72db c6bc f831 823c 925d 653d
00000200: c61a 59bd 80f3 6dbb 088e f1bc 1099 0ebc
00000210: 2c56 fdbc 99f4 893d 62fe 203d 9809 7b3c
00000220: 5c69 a3bc a238 333d 61a3 20bd ee33 82bd
00000230: ce49 42bd 7649 abbc 207b 46bd 566e 383d
00000240: 4062 79bb 5c5c d9bc 0cfa 45bd 5a2f 7d3d
00000250: 3333 853d dc2a 2ebd 1aab 703d e0f9 d0bb
00000260: d017 d6bc 10a5 d73c e084 62bd ce7a 84bd
00000270: 60c1 bfbb 90f1 3e3d c022 523d 927f 773d
00000280: 3480 153d 9835 913c a829 233c 5c84 2ebd
00000290: fefd 6c3d 225d 6f3d d881 79bd ee7c 89bd
000002a0: 4034 8cbc b27f 39bd b664 cbbc 7ec5 7b3d
000002b0: 084a 64bc 39f1 823d 80f0 c9bb c08d bc3b
000002c0: 6044 3dbb bcd5 abbc 287e 42bc 6313 08bd
000002d0: e5fd 50bd 30a5 a93b 601d 783c a00f 833c
000002e0: 683c 883c e417 d7bc 3650 8abd d0e9 0a3d
000002f0: 2855 593c 8c57 89bd 5b33 893d 48e1 8dbc
00000300: d67f 6ebd 3e1d 31bd 1a06 94bc db43 64bd
00000310: b079 523c 827f 18bd 271f 1dbd 5631 7d3d
00000320: c259 c1bc a087 11bb 6460 26bd 18cf 07bc
00000330: eae6 36bd 425e 21bd 3c2b 3ebd ace6 d5bc
00000340: d844 863c 1460 fd3c 169f 273d 7bf5 0bbd
00000350: 5d99 58bd 500f 2cbc bdbf 863d 6056 083b
00000360: 83fb 863d 8e11 5f3d 8c1c 433d 7087 d6bb
00000370: 2891 383c b4d3 3dbd d822 383c 18dc cd3c
00000380: 65f4 36bd 7e0a 4bbd 1d7a 12bd 80b4 503a
00000390: 7cfa 52bc e098 e53c f600 11bd 3bbe 873d
000003a0: f61f 0bbd 68cb 303d cbeb 803d 43ad 833d
000003b0: 92e0 0cbd 617c 19bd 1cd7 f6bc 5a9a 41bd
000003c0: 0681 95bc 5838 a8bc 6893 d33c 52e8 7a3d
000003d0: a477 d53c 00a5 3f3a aae8 ccbc e0aa aabc
000003e0: 8e52 753d 1ac7 79bd ecdd 11bc a617 8cbd
000003f0: fe13 d1bc f93b 56bd 1bb5 8cbd 944b c33c
-0.04740785 0.070137374 -0.010902438 -0.049067397 -0.040912405 0.07042625 -0.011320181 0.040083848
0.006729819 0.05831667 -0.052640826 0.022499315 0.030331992 -0.020139433 -0.042379856 -0.013380881
-0.006835647 -0.041221775 -0.057807945 0.023862377 0.008703664 -0.04305054 -0.019778386 -0.0043828934
0.032638714 0.027531266 0.062022217 0.0070618615 0.021331131 -0.05286278 0.030065812 -0.030183777
0.051777937 0.018623993 -0.0066406652 -0.025067277 0.034005307 0.029156096 0.01935058 0.011314556
-0.055217557 -0.037044164 -0.070343286 -0.024696723 -0.032806233 -0.01408219 0.05153825 0.01707235
0.031222709 0.029963128 0.057604708 0.05620689 0.014338434 0.060397096 -0.062892355 0.038170442
0.047307156 -0.067016155 -0.060186535 -0.01134149 0.030255847 0.059688635 -0.06433217 0.06456629
-0.0054196045 -0.016308978 -0.0180065 0.04664746 0.033022538 0.0063923225 -0.059235368 -0.0052915737
-0.05711596 -0.07019371 0.024370447 -0.017814882 -0.06764984 -0.05865379 0.06787173 0.066162966
-0.049868964 -0.035483696 0.042555824 -0.014916755 -0.005744405 -0.021055672 0.034199357 -0.065756746
-0.064263925 0.027133413 0.03522154 0.0395697 -0.020984747 -0.03113446 -0.034279972 -0.038188294
-0.06162382 0.026866823 -0.031048555 -0.06861775 0.011141896 0.056538917 -0.0029101893 -0.057573136
0.037648924 -0.038624275 0.04452549 -0.04863257 0.06411164 -0.017114773 0.06494669 0.03339923
0.05256898 0.012860157 -0.04117266 0.007406093 0.057757266 -0.061453816 0.019517154 0.010426968
0.047393754 -0.04854583 -0.05185905 0.019072108 -0.020018533 -0.024274562 0.015892968 0.05599744
-0.05300405 -0.0036308467 -0.029486671 -0.008703485 -0.030924879 0.067361064 0.0393051 0.015322112
-0.0199477 0.04375518 -0.03921831 -0.06357561 -0.047433667 -0.020909052 -0.048457265 0.0450271
-0.0038052946 -0.026533298 -0.048334166 0.061812736 0.06503906 -0.042521343 0.058756925 -0.0063774437
-0.026134402 0.026323825 -0.0553025 -0.06468736 -0.0058519095 0.04661709 0.05130267 0.060424395
0.036499217 0.01772575 0.009958662 -0.042606696 0.057859413 0.058438428 -0.060914844 -0.067132816
-0.017114758 -0.045287795 -0.024828296 0.06146764 -0.013933666 0.06393666 -0.006162703 0.0057542026
-0.0028879866 -0.02097594 -0.011870898 -0.033221614 -0.051023383 0.0051771626 0.015143722 0.015998662
0.016630366 -0.02625651 -0.0675358 0.033914387 0.013264932 -0.06706151 0.066992484 -0.017319337
-0.058227383 -0.04324078 -0.018069316 -0.055728775 0.012846395 -0.037230976 -0.038359787 0.06181463
-0.02360237 -0.0022206083 -0.04061927 -0.008289121 -0.04465381 -0.039396532 -0.04642795 -0.02611097
0.01639025 0.030929603 0.0409232 -0.034169655 -0.052880634 -0.010501698 0.0657954 0.0020803437
0.06590941 0.0544601 0.047634646 -0.006546907 0.011265077 -0.046344474 0.011238776 0.025129363
-0.044666667 -0.049570553 -0.035760988 0.0007961467 -0.012877103 0.028026998 -0.035401307 0.066280805
-0.033966027 0.043162733 0.06294974 0.064295314 -0.034393854 -0.037472133 -0.030131869 -0.04726634
-0.01825 -0.02053468 0.025827125 0.061256714 0.026058026 0.00073106587 -0.025013287 -0.020833433
0.059893183 -0.060980894 -0.008903008 -0.06840448 -0.025522228 -0.052303288 -0.068704806 0.02383975

layers.2.lin_a.weight f4 [1, 100]
00000000: 60eb c33b 4b51 b9bd d3e1 39bd c3f2 27bd
00000010: fab8 143d 470a a63d a247 81bd 80a0 ee3a
00000020: 70a5 6fbc 3060 2c3c 3c9d d63c 40b4 37bb
00000030: eafd 6bbd 66ce 96bd 51fb b63d 5095 05bc
00000040: c1cd 833d 8056 a8bd 98f4 333c 13fc 7dbd
00000050: fdf1 803d 6338 6bbd e96a a73d c218 1b3d
00000060: 4fe9 acbd 2f25 9d3d 507e fbbb 35f1 b33d
00000070: 2020 8abc d0b5 ec3b b0b3 8d3b a35c c33d
00000080: 577a 37bd bab8 303d e0df aebc 9d3c 9cbd
00000090: e6da 733d f58c a3bd 3d95 6dbd dbfa 90bd
000000a0: 89cf c93d 2126 8b3d 3462 b2bc 43d0 65bd
000000b0: d2c9 4e3d 5715 933d 10a5 203c dd7f abbd
000000c0: 0056 0c39 7011 45bc e669 693d d77c 973d
000000d0: 36bc 293d 80c6 abbc aca3 eb3c 40e7 743b
000000e0: 6309 43bd a910 c83d 7e9c 473d 6620 423d
000000f0: 809d 753c 30c6 89bd 5023 bdbd 7b6d 8b3d
00000100: 9a77 81bd b01c 5f3c ed32 ae3d 28f1 b8bd
00000110: e258 183d 4efd 403d 8177 803d 0224 91bd
00000120: 882a c5bd 1d3d 34bd ea51 2bbd d2c3 bbbd
00000130: 7845 f1bc 602c 18bd f00f 4ebc f68e 7d3d
00000140: c2f0 81bd 23a5 2abd 2f81 b8bd 980e 4d3c
00000150: 7adf cbbd 537a b7bd 98a3 423c ed2e bbbd
00000160: e473 ef3c 80af 67bd 16e7 1f3d 2516 853d
00000170: 62f3 243d f214 223d 3259 88bd 3d27 77bd
00000180: e9f0 c83d c085 0c3b 19cc 893d dbe9 a4bd
0.0059789866 -0.090487085 -0.04538138 -0.041003 0.03630922 0.08107429 -0.06312491 0.0018205792
-0.014626846 0.01052098 0.026198022 -0.0028031021 -0.0576152 -0.07363586 0.089346536 -0.008153275
0.06435729 -0.082196236 0.010983609 -0.062007975 0.062961556 -0.05742682 0.08174688 0.037865408
-0.084429376 0.07673108 -0.0076749697 0.08786241 -0.016861022 0.007223822 0.004324399 0.095391534
-0.044794407 0.04314492 -0.021346986 -0.076287486 0.05953493 -0.0798587 -0.058003653 -0.07079097
0.09854037 0.06794382 -0.021775343 -0.056106817 0.05048544 0.071818046 0.009804979 -0.08373997
0.00013383478 -0.012028083 0.05698576 0.07396858 0.041439258 -0.020968676 0.028764568 0.003736928
-0.047616374 0.09768803 0.048733227 0.04739418 0.014991164 -0.067272544 -0.09235251 0.06807991
-0.0632164 0.0136176795 0.08505807 -0.09030372 0.03719414 0.04711657 0.062727936 -0.07086946
-0.09627253 -0.044003595 -0.041826166 -0.09168209 -0.02945207 -0.037151694 -0.012577042 0.061903916
-0.06344749 -0.041661393 -0.09009015 0.012515686 -0.09954734 -0.08958878 0.011879824 -0.0913981
0.029230066 -0.056563854 0.03903874 0.06498364 0.04027117 0.039570756 -0.06657638 -0.060340155
0.09811575 0.0021442026 0.06728382 -0.08052417

layers.2.lin.weight f4 [50, 50]
00000000: 0db5 86bd 3857 fbbd f16b c2bd 8451 18bc
00000010: a791 073e 1190 08be ef0f a13b eb10 f0bb
00000020: 00ed 9cbb a083 b73c df06 85bd 2867 473d
00000030: 5851 ff3c 94c8 e33d 40c5 d03d e4a4 973c
00000040: cf94 bdbd 00b0 8039 a546 ddbd 2ce8 583d
00000050: 5e9a aa3c 434f 40bc c48c 0ebe 5717 bebd
00000060: 0a3d 7e3d edf5 cc3d 5fac c5bd f700 c0bd
00000070: a2e0 9a3c 10a9 973d ea06 47bd e200 b4bc
00000080: 1fa2 063e 5e35 87bd aaf8 813d 8de9 f2bc
00000090: e532 da3d fdb4 473d 05cc 2a3d 52dd d63d
000000a0: bd9d 56bc 8a87 21bd e234 f0bd 9dcd 053e
000000b0: c2a2 bc3d 8bb6 0cbd 034d fabd 735f 103e
000000c0: 56b7 c83d 8235 f4bd ec6c 2f3d 8015 f2bb
000000d0: f4ef ae3d 4087 03bc 66d4 58bd 4018 12bc
000000e0: 1010 7f3c 2095 a6bd c676 a93d 9bf5 053e
000000f0: 9dcb 0d3e 7e72 c13d f491 a6bd d432 513d
00000100: b63b 4fbd c079 fe3b 6a70 adbd 3449 2cbd
00000110: db67 dabd 0030 2c3b 107d 433c a949 033e
00000120: a0be 523d 860b a63d 12cc 8dbd a006 983b
00000130: f845 85bc e01b 8a3c 3670 74bd 84cc 983d
00000140: 83d5 093e d84a 753d a097 d03c 20ac 87bb
00000150: 2dcf d6bd 30b4 abbd b80f 8abd df42 85bd
00000160: 131e 06be 48b2 f33c e0d7 95bb b82d b23c
00000170: fe0a 863d 7a1a bbbd bcec 9dbd c802 ddbd
00000180: 247d fdbc 469d 5ebd 8622 b13d 009f 7b3c
00000190: 6a7f 59bd 9c06 2c3d 200b 28bc 201c 1ebc
000001a0: 68cb a73d 5066 a33c 54e3 1d3d 7a5b ed3d
000001b0: 92b6 d13d 9f38 aebd 48f6 04bd 40c7 90bd
000001c0: 20a5 823d 98d0 4dbd c6c6 6fbd 6003 73bc
000001d0: fef6 ab3d 56d9 e5bd 00ee e7bd fae5 d63d
000001e0: d41c 033d bc0b 15bd e210 0ebe 1090 edbc
000001f0: 00b2 a23d a192 96bd ece2 27bd 6f62 a8bd
00000200: 18b3 aebc d0e7 aa3c 0cfa 823d 1bc0 aabd
00000210: 462c edbd 3c17 153d c4be dbbd 6c68 9c3d
00000220: e074 a2bd 9ca9 e0bd c431 c5bc 8ea9 823d
00000230: 5536 d9bd 60db 43bc cfdd 86bd a91d 87bd
00000240: 9e4b ccbd 9088 8b3d a826 93bd 0a51 ddbd
00000250: 8787 01be 7b9d 0a3e e054 c93b 00c5 96bb
00000260: df63 033e c6be b93d ba54 1abd 9734 be3d
00000270: 3c1e c8bc 051e d23d d99f b1bd 0848 3f3d
00000280: d160 ffbd 7a15 85bd 0034 faba 3b96 eabd
00000290: 2590 aebb 4c5e 8dbc 67b9 003e 909a a23c
000002a0: 5e6f b43d 6ea2 a93d 775d 993d 1469 863d
000002b0: 40d7 053d 2e83 c43d e53e e93d 4fdd 44bd
000002c0: 7e51 853d b0f3 523d b663 963d de96 85bd
000002d0: 60f5 233c 4ff1 193c b4b7 353d 1e1d 643c
000002e0: 82eb b23d ab77 8cbd 0e7e 19bd 202f 12be
000002f0: 20b3 bb3d 5443 0fbe d11c f53c 7d1c d8bd
00000300: c030 323d 99e2 9bbd 62b8 b03d 5d23 06be
00000310: ad5f a53d 7a27 09bd 0789 0cbe ec33 35bd
00000320: c88b 3cbd e4bb 3d3d 5e67 f73d 6c11 3d3d
00000330: c004 31bb 50c0 523c 8c44 e3bd 687d 8dbd
00000340: ae7e f53d ee32 e73d 40c8 efbb 1872 453d
00000350: 0875 db3d 30d2 b7bd 002b 6a3b 6750 d4bd
00000360: 58c4 9b3c 00f2 29bb 1c19 eabc 2a0b fd3d
00000370: 507f b9bd f8bf b93d 28de 04bd 8d13 0a3e
00000380: 00e1 9f3a 6a4d 10bd b08d a63c 500b 633d
00000390: 007f 9dba 7adb 05bd a4f1 68bd c0d9 dcbb
000003a0: 1abe d3bd dc4b 07bd b06d ac3c 1cd7 0ebd
000003b0: 34d4 ca3d 0e82 c6bd 60b4 d23b e0dc 76bc
000003c0: f916 8abd fcec cc3d 7f93 bfbd 70de 863c
000003d0: 0ce0 043d 1237 f03d fab2 ae3d 84c8 943d
000003e0: a2b5 d4bd 74d7 d7bc 6458 663d 4ce0 053d
000003f0: 9a77 de3d 88bc c43d 8817 aa3d f868 7dbd
-0.065775014 -0.12272495 -0.094932444 -0.009296779 0.13239156 -0.13336207 0.0049152295 -0.0073262355
-0.004788995 0.02240163 -0.06495451 0.04868236 0.031166717 0.111222416 0.101938725 0.018511243
-0.092568986 0.00024545193 -0.1080449 0.05295579 0.020825561 -0.0117376475 -0.13920885 -0.092817955
0.06206993 0.10007844 -0.09652018 -0.09375184 0.018905941 0.07405293 -0.04859058 -0.021973077
0.13147782 -0.06601976 0.06346257 -0.029652381 0.106542386 0.04875659 0.041698474 0.10491432
-0.013099131 -0.0394359 -0.117288366 0.13066716 0.09210731 -0.034353774 -0.1222172 0.14098911
0.098005936 -0.11924268 0.042828485 -0.007387817 0.08541861 -0.008027852 -0.052936934 -0.008916914
0.015567794 -0.08133912 0.08274607 0.13081972 0.13847204 0.09445666 -0.08133307 0.051073864
-0.050594054 0.0077659786 -0.08468707 -0.042062 -0.1066434 0.0026273727 0.011931673 0.12821068
0.051451325 0.08107667 -0.06923689 0.0046394616 -0.016268715 0.016858995 -0.059677325 0.07460883
0.13460355 0.05988583 0.025462925 -0.004140392 -0.104887344 -0.083839774 -0.06741279 -0.06506895
-0.1309741 0.029748097 -0.0045728534 0.021750316 0.06545065 -0.091359094 -0.07711169 -0.10791546
-0.03094346 -0.054349206 0.08649163 0.015357733 -0.053100027 0.04199849 -0.010256559 -0.00965026
0.081930935 0.019946247 0.038546875 0.115897134 0.10239901 -0.08506893 -0.032461435 -0.07069254
0.06379151 -0.05024776 -0.058539174 -0.014832348 0.083967194 -0.11223094 -0.11324692 0.10493083
0.032009915 -0.036388144 -0.13873628 -0.028999358 0.07944107 -0.07352186 -0.040987894 -0.082219
-0.021325633 0.02086249 0.06395349 -0.083374225 -0.1158071 0.03639911 -0.10729745 0.076371044
-0.079324484 -0.109698504 -0.024071582 0.06379996 -0.10606066 -0.011954159 -0.065852754 -0.06597454
-0.0997536 0.068131566 -0.071851075 -0.108064726 -0.12649356 0.13536637 0.006144151 -0.004601121
0.12831067 0.0906959 -0.037678458 0.092873745 -0.02442848 0.10259632 -0.08673067 0.046699554
-0.12469638 -0.06498237 -0.0019088984 -0.114544354 -0.005327242 -0.017256878 0.12570725 0.019849092
0.08810304 0.08282934 0.0748853 0.06563011 0.03267598 0.09595333 0.11388949 -0.04806262
0.06509684 0.05150193 0.07343237 -0.06522916 0.010007232 0.009395911 0.044364646 0.013922958
0.08736326 -0.06858762 -0.03747373 -0.1427579 0.09165025 -0.13990527 0.029920967 -0.10552309
0.043503523 -0.076115794 0.08628918 -0.13099428 0.08074889 -0.033484913 -0.13724147 -0.04423897
-0.046031743 0.046321765 0.120802626 0.046159193 -0.0027010888 0.012863234 -0.11097059 -0.06908685
0.11987053 0.11289011 -0.007317573 0.04820451 0.10715681 -0.08975637 0.0035731196 -0.10366898
0.019014522 -0.0025931597 -0.028576426 0.12355645 -0.09057486 0.09069818 -0.032438427 0.1348402
0.0012197793 -0.035230078 0.020331234 0.05543071 -0.0012015998 -0.032680012 -0.05687107 -0.006739825
-0.10338993 -0.03303133 0.021048397 -0.034873113 0.09903756 -0.09692775 0.006430194 -0.015067309
-0.06742663 0.10006139 -0.093543045 0.016463488 0.03244023 0.11729254 0.08530231 0.07264808
-0.10386206 -0.026347853 0.05623664 0.03268461 0.10862656 0.09606272 0.083052695 -0.061867684
