experiments/output-gat/BA_Shapes/multi/42/model.pth (torch, 39135 bytes, 18 tensors)

layers.0.bias f4 [20]
000000 55 ab a1 3d 0a e1 d6 3d 14 80 c7 3d 2a b5 f6 3d
       0.07894007 0.104921415 0.09741226 0.12046273
000010 b0 08 31 bc 51 fe 3c bc 00 00 00 00 00 00 00 00
       -0.010805294 -0.011535243 0.0 0.0
000020 0e 84 8d bc 69 9e e2 3d 6c 13 94 bb a7 bc e4 3d
       -0.017274883 0.110653706 -0.004518917 0.11168795
000030 00 00 00 00 d8 5c e5 3d 00 00 00 00 61 03 ec 3d
       0.0 0.11199349 0.0 0.11524082
000040 2f a9 e3 3d 82 28 87 bc 37 11 d2 3d c6 16 f4 3d
       0.111162536 -0.016498808 0.1025719 0.11918406

layers.0.combine_aggr.weight f4 [20, 80]
000000 6f 11 4a bd ae 8c 65 3e a0 77 da 3d 85 a0 e8 bc
       -0.049333032 0.22416946 0.10667348 -0.028396854
000010 86 52 ec 3d 90 c7 de bd 49 5e 9d 3d d2 2c 4e 3e
       0.115391776 -0.10877907 0.07683999 0.20134285
000020 32 e6 0f bd c9 38 5b be c7 80 6b 3e ea 5c e3 bd
       -0.03513164 -0.2140838 0.22998343 -0.11101706
000030 20 b5 5b 3e 41 5e 16 3e d7 ea 3d 3e 98 aa f2 3d
       0.21455812 0.14684393 0.18546616 0.118489444
000040 fe a1 37 bd 2b 63 17 3e e9 9c 3d be 91 ec d6 bd
       -0.044832222 0.14783923 -0.18516888 -0.1049434
000050 86 01 0a be fb cf 89 3d a0 60 14 3d d7 61 c5 bb
       -0.13477144 0.06729122 0.03622496 -0.0060236263
000060 fa 3c 53 ba 38 19 07 be 22 a7 47 3d d8 9b 89 3c
       -0.00080580974 -0.13193214 0.048743375 0.016797945
000070 52 07 93 bd 92 f1 43 be 37 ee 3a 3e 05 09 34 be
       -0.071791306 -0.1913512 0.18254934 -0.17581566
000080 2d 35 2b 3e 3a 54 cb 3d 4e 41 35 3d 00 71 1b 3e
       0.16719504 0.09928174 0.044251733 0.15179825
000090 af 66 80 bd b7 c5 2e 3e 28 58 8e bd 36 5f f0 bd
       -0.06269585 0.1706761 -0.06950408 -0.1173691
0000a0 56 92 d6 bd cc f4 ce 3d c2 3c 38 3e a1 1f 00 bd
       -0.1047713 0.10105285 0.17991927 -0.031280164
0000b0 f8 6c 51 3e e1 8a 38 be ff 82 48 3e 79 6c 1f 3e
       0.20451725 -0.18021728 0.19581221 0.15568723
0000c0 c9 84 9d bd e8 02 4d be 55 48 b5 3c 88 57 33 be
       -0.076913424 -0.2002064 0.022129217 -0.1751386
0000d0 5a 3d 3d 3d d1 cd 64 3e 61 b0 27 3e 6f eb 38 3e
       0.046201088 0.22344138 0.16375877 0.18058561
0000e0 cb e9 c3 bd 3d 79 04 3e 71 45 3a bd 37 fd 59 be
       -0.09566077 0.12936874 -0.04547638 -0.21288
0000f0 87 d6 02 be 08 88 61 3d 64 5b 2b 3e a4 ac 2d be
       -0.12777148 0.05506137 0.16734082 -0.16960388
000100 7d 53 32 3e 27 58 1e be 7f 60 65 3e 40 2a 8e 3d
       0.17414661 -0.15463315 0.22400092 0.06941652
000110 ec 2d 4d be d0 83 4b be 43 f7 6e 3e 6e e9 c1 bd
       -0.20037049 -0.19874501 0.2333651 -0.09468351
000120 e8 49 75 3e 23 85 21 3d 9f 40 a9 3c b8 b5 3f 3d
       0.23953974 0.03943361 0.020660697 0.04680416
000130 a3 2d 53 be 42 d6 34 3e 9c 57 be bd 22 0f 26 bd
       -0.20622878 0.17659858 -0.09294054 -0.040541776
000140 f4 2e 3e be 2f db 42 3d 08 56 3d 3e 0e b1 2c be
       -0.18572599 0.04757231 0.1848985 -0.16864416
000150 31 01 4f 3e 5c e0 19 be 28 20 40 3e 93 cc 2c 3d
       0.20215298 -0.15026993 0.18762267 0.042187285
000160 f5 67 3b be 1d 64 b9 bd 87 ba 18 3e e8 98 1c be
       -0.18301375 -0.09052298 0.14914905 -0.15292704
000170 69 b0 43 3e 76 fa 4c 3e 1a da 2f 3d 4b 57 8a 3d
       0.19110264 0.20017418 0.042932607 0.06754931
000180 19 05 ac bc f5 12 b0 3d 9d 4b 29 be 8c 16 70 be
       -0.020998525 0.08597366 -0.1653275 -0.23446101
000190 ca 38 31 be e4 7b 09 3e 03 ee bd 3d 0a c6 3f be
       -0.1730682 0.13426167 0.09273913 -0.1872789
0001a0 16 7f ed 3d 24 12 3b be 10 a4 3a 3c 5a 68 45 3d
       0.11596505 -0.18268639 0.011391655 0.04819522
0001b0 85 f5 52 be 0c 54 36 be fd 76 60 3e 8f 77 af bd
       -0.20601471 -0.17805499 0.2192039 -0.08567726
0001c0 49 a0 10 3e 56 30 17 3b 6b 53 07 3d 94 57 92 3d
       0.14123644 0.0023069582 0.033038538 0.071456105
0001d0 fe 65 b5 bd 49 ab 01 3c 28 85 1f be 41 15 33 be
       -0.08857344 0.007914373 -0.15578139 -0.17488576
0001e0 0d be 02 be f7 51 a8 3d 39 51 f1 3d c2 fe 4b be
       -0.12767811 0.082187586 0.1178307 -0.19921401
0001f0 4a bf 6b 3d 14 80 41 be 08 e4 ae 3d 13 29 27 3d
       0.057555474 -0.18896514 0.08539587 0.040810656
000200 01 8c 06 bd 48 52 16 be 80 07 63 3e ce 78 b7 bd
       -0.032848362 -0.14679825 0.2217083 -0.089585885
000210 22 00 f4 3c c9 60 4e 3e 71 f8 be 3d a8 cf ac 3d
       0.02978522 0.20154108 0.0932473 0.08438045
000220 9b 5d 5d be 69 9b 4d 3c 6b e7 bf bd fe 51 1a be
       -0.21617739 0.01254926 -0.09370311 -0.1507034
000230 7e f9 ac bd 40 39 03 3d 17 97 55 3e 78 74 52 be
       -0.08446024 0.03203702 0.20858417 -0.20552242
000240 86 80 eb 3d 80 97 cd bd e8 bc 39 3e 1d 94 60 3e
       0.11499123 -0.10038662 0.18138468 0.219315
000250 8d b3 ca bc 03 61 5a be 7c 56 1d 3e d1 a6 30 be
       -0.02474382 -0.2132607 0.15365022 -0.17251135
000260 5a cd e5 3d 2c d4 25 3d 52 44 67 3e 13 0e 39 3d
       0.11220808 0.040485546 0.22584656 0.045179438
000270 c7 4a 82 bd 5f e7 26 3e 6b 02 b7 bd 49 35 3f be
       -0.06361919 0.16299199 -0.08936008 -0.1867267
000280 da 83 dc bc e9 1c 19 3e 08 41 10 3e ed 8e 64 be
       -0.02691834 0.14952435 0.14087307 -0.22320147
000290 ab 19 39 3e 7c 15 11 be c4 d0 96 3d 9a ea 66 3e
       0.18076198 -0.14168352 0.07364038 0.22550431
0002a0 13 c8 d1 bd 09 0a 40 be 9b 10 8f 3d e8 fe 05 be
       -0.10243239 -0.18753828 0.06985589 -0.1308552
0002b0 4c 77 40 3e 69 11 c6 3d 35 57 7b 3d 21 91 b7 3d
       0.18795508 0.096712895 0.061362464 0.08963228
0002c0 a3 1f 55 be 31 b5 28 3e ff f8 23 bd a9 f1 6d be
       -0.2081285 0.16475369 -0.040032383 -0.23236717
0002d0 ae 0d 9a bd 98 37 20 3e 82 db f5 3d 4d ac 0d be
       -0.075221404 0.15646207 0.120047584 -0.13835259
0002e0 d6 64 27 3e 20 96 23 bd 86 d3 0f 3e d6 75 a8 3d
       0.1634706 -0.039938092 0.14045534 0.082256004
0002f0 40 1f 05 be 20 bb b2 bd 35 d3 a3 3d ca ab 07 be
       -0.13000202 -0.087270975 0.07999269 -0.13249126
000300 b1 ac 2e 3e 50 b4 47 3e 1c c7 b3 3d 94 53 9b 3d
       0.17058064 0.19502378 0.087782115 0.07584301
000310 88 52 c6 bd e6 6a bc 3d c3 70 95 bd 80 1c 8d bd
       -0.0968371 0.09200077 -0.07296898 -0.068902016
000320 43 9c 6b be b9 68 ab 3d 64 f0 61 3e 85 22 a6 bd
       -0.23008828 0.08369584 0.22064358 -0.08112053
000330 85 58 03 3e e8 ee 44 be d7 40 67 3d 9a 33 f0 3c
       0.12826736 -0.1923176 0.05645832 0.02932148
000340 d0 bb 27 be 59 11 b4 bd 58 7a 4a 3e 20 57 97 bd
       -0.16380239 -0.08792371 0.19773233 -0.07389665
000350 14 bb da 3c ce c3 6d 3d 56 2e dc 3d b9 bc 71 3e
       0.026700534 0.058048062 0.107510254 0.23607148
000360 6a 10 de bd 75 75 c4 3d bf 7d a4 bd 75 c4 2d be
       -0.108429745 0.09592716 -0.08031797 -0.16969474
000370 b3 ba 4d be 49 84 53 3e 32 f0 9a 3d 00 9e 16 be
       -0.20090751 0.20655932 0.07565345 -0.1470871
000380 8e 2f b9 3c d1 24 4d bd 8f 98 56 3e 8c 4d 2e 3e
       0.022605684 -0.05008394 0.20956634 0.1702177
000390 6e 3e 52 be 18 b0 71 be cd fa 11 3d 5a 9f 2c bd
       -0.20531628 -0.2360233 0.035639573 -0.042144157
0003a0 bf 81 37 3e 5c a1 60 3e 74 22 3c 3e d9 f6 1f 3e
       0.17920588 0.21936554 0.18372518 0.15621509
0003b0 ef b6 00 be bf 3d 23 3d 1a b3 63 be 1f 3f 6d be
       -0.12569784 0.039853808 -0.2223629 -0.2316861
0003c0 e5 99 8e bd 23 d1 63 3d 9c a0 b8 3d 82 a4 32 be
       -0.06962947 0.05561937 0.09015009 -0.17445567
0003d0 34 39 cf 3d 7b b7 41 be ba ae 18 3d 96 51 1d 3e
       0.101183325 -0.18917648 0.037276007 0.15363154
0003e0 45 8d 16 be 64 91 2d bd d3 f6 9c 3d 64 c6 45 be
       -0.14702328 -0.042374983 0.076642655 -0.19313961
0003f0 9d b9 bb 3d a5 ac 68 3d d3 bb 9c 3d 6c 49 01 3c
       0.09166262 0.05680527 0.07653012 0.00789104

layers.0.lin_a.weight f4 [1, 40]
000000 c9 c4 10 be f3 2a 97 3d c4 84 0c be 8e 3a 70 bc
       -0.14137568 0.07381239 -0.13722521 -0.014662398
000010 4c 53 1c 3c 1d 7f e0 3d 7e 68 68 bd 44 59 4a 3d
       0.009541344 0.10961745 -0.056740277 0.049401537
000020 8b e5 cc 3c ee a7 bc 3d 32 9e 44 3c af e5 81 3d
       0.025011798 0.092117175 0.012000607 0.06342637
000030 ac 16 c5 bd d0 3c e9 bd 57 b1 0f 3e b9 0e e6 bd
       -0.09623465 -0.11388552 0.14032494 -0.11233277
000040 05 75 b7 bc 27 31 9f bc 3b a9 1a 3e f7 50 12 bd
       -0.022394666 -0.019432617 0.15103619 -0.035721745
000050 57 a0 f6 bd 76 aa 39 bd 08 6f b1 3d 1c b5 89 3d
       -0.12042301 -0.04532858 0.08663756 0.06723997
000060 37 0f 06 3e ae ff 0f bd 1c 84 99 3d 7e 60 14 be
       0.13091742 -0.035155945 0.07495901 -0.14489934
000070 ae b8 7c 3d ba e8 92 3d 55 37 d6 3d 80 0b b1 bd
       0.06169956 0.07173295 0.104597725 -0.086447716
000080 ff d9 2f bd 50 41 0c 3d 1e 45 e7 bd 75 b1 fb bd
       -0.042932507 0.034241974 -0.1129248 -0.122897066
000090 c1 21 17 be 21 5f 0b 3c 15 c1 c1 3d 65 ff 1f 3d
       -0.1475897 0.008506567 0.094606556 0.039061923

layers.0.lin.weight f4 [20, 1]
000000 fe e8 9e be 82 da 47 3f ab b1 e9 3e 2d 4f 82 bf
       -0.31037134 0.7806779 0.45643362 -1.0180413
000010 20 4d 55 3e 41 96 53 bf 59 ef 5f 3f 94 35 99 3e
       0.20830202 -0.82651144 0.8747459 0.2992369
000020 f4 6f c8 be 4b 3d 21 bf d3 be f3 3e d5 64 35 bf
       -0.39147913 -0.6298415 0.47606525 -0.7085698
000030 ac be 18 3f c6 73 2c 3f 16 ff 3e 3f 14 87 bf 3e
       0.5966594 0.67364156 0.7460798 0.37407744
000040 16 84 81 bf 3b 96 57 3f 1f ac df be 20 a2 da be
       -1.0118434 0.8421361 -0.43686005 -0.42701817

layers.1.bias f4 [20]
000000 00 00 00 00 8c 37 06 bc c9 44 7e bc 1b 83 42 3d
       0.0 -0.008191954 -0.015519329 0.047488313
000010 00 00 00 00 47 4f ca 3d 9f 0d b4 3d 00 00 00 00
       0.0 0.09878402 0.087916605 0.0
000020 fe 7b e7 bc 00 00 00 00 b1 b8 b1 3d 5b ac 9c 3d
       -0.028257366 0.0 0.08677805 0.07650062
000030 4e 1d 9b 3d 9f f9 45 3c ea c7 c7 3d 37 ca 7b 3d
       0.07573949 0.01208344 0.097549275 0.061472144
000040 a0 0f ca 3d aa 29 7e 3d 70 19 09 bc 89 6e 8d 3d
       0.098662615 0.062051453 -0.008367881 0.069058485

layers.1.combine_aggr.weight f4 [20, 80]
000000 20 ce 44 bc 10 69 a7 3d 50 10 b0 3d c8 6c 8d 3c
       -0.012012035 0.08174336 0.08596861 0.017263785
000010 98 82 5a 3d 08 67 d5 bd 00 78 8a 39 a8 91 ca bd
       0.0533472 -0.10420042 0.00026410818 -0.09891063
000020 a8 dc 1b 3d c6 21 a3 bd e0 36 23 bd 3e 0f a0 3d
       0.03805223 -0.07965426 -0.039847255 0.07815407
000030 32 d4 da 3d 9c 78 89 bd 59 2a 7e bd 10 dc 62 3c
       0.10685004 -0.067124575 -0.062052105 0.013846412
000040 70 05 34 3d 78 2c 95 bc 28 03 0f bd 52 66 96 bd
       0.043950498 -0.01820968 -0.03491512 -0.07343735
000050 80 7c 43 3d e0 56 e0 3d b5 ae 5d bd 30 ff 57 3d
       0.047726154 0.1095407 -0.05412169 0.0527336
000060 a0 a8 5f 3d 50 0c b8 3d 50 8e 50 bc 00 ca 66 3b
       0.054604173 0.089867234 -0.012729242 0.0035215616
000070 fa 39 a8 3d bc bc 90 3d 9c 28 e2 3d dc 3b 03 bd
       0.08214183 0.07067248 0.11042902 -0.03203951
000080 10 34 35 3d fa e2 9f 3d 47 6e 9b bd 48 f3 b5 3c
       0.044239104 0.07806964 -0.07589393 0.022210732
000090 04 ef cc bc 8c 30 93 3d 24 ad 4d bd 98 7a 00 3c
       -0.025016315 0.07186994 -0.050213948 0.007841729
0000a0 4a ff 88 3d 31 c4 d1 bd 20 56 c1 bd 91 8d 6a bd
       0.066893175 -0.10242499 -0.09440255 -0.057263914
0000b0 10 de 92 3d 74 88 99 3d c7 61 9c bd 38 a6 ae 3c
       0.07171261 0.074967295 -0.07635837 0.021319494
0000c0 3f a8 72 bd a5 8e 54 bd 7a 78 c5 3d 44 31 5d 3d
       -0.059242483 -0.05189385 0.0964212 0.05400206
0000d0 30 7b fa bc 28 d2 86 3c f0 75 b1 3c 30 8a d6 3c
       -0.030576319 0.016457632 0.021662682 0.02618894
0000e0 d4 be 1c bd d0 d6 86 bd 50 98 97 3d 50 24 76 3c
       -0.038267925 -0.06583941 0.07402098 0.015023306
0000f0 68 ac 3f 3d 22 70 2d bd c0 d0 5d 3d 92 a3 a6 3d
       0.04679528 -0.042343266 0.054154158 0.08136667
000100 6a 41 8b 3d 10 07 f9 3c 70 48 e1 3d 00 32 80 b9
       0.06799586 0.030398875 0.110001445 -0.00024451315
000110 b0 fd c2 3c ee 8d d9 3d dc 89 de 3d b4 5a 41 bd
       0.023802608 0.10622774 0.10866138 -0.047205642
000120 8c 42 ce 3d 84 02 29 3d c0 0b 4d bc 5c ed c7 3d
       0.100712866 0.041262165 -0.012515008 0.097620696
000130 d3 3a 6d bd 6e c6 94 3d 5a e6 e2 3d 65 ec 9d bd
       -0.057917427 0.0726441 0.11079092 -0.07711104
000140 e6 01 85 bd 97 9b cf bd 7a 57 ef bc 99 86 ca bd
       -0.06494503 -0.10137098 -0.029216517 -0.09888954
000150 b2 ce f8 bc 7d ee db 3c 55 e5 8d 3d 54 a6 5f 3d
       -0.030371998 0.026847119 0.06928507 0.054601982
000160 88 6b 90 3d 84 33 60 3d 22 f9 a0 bd 1c 57 c0 bd
       0.0705176 0.05473663 -0.07860018 -0.09391615
000170 05 bd 6b bb c2 7a c7 3d ac 8f 74 3c b4 5d 43 bc
       -0.0035970819 0.09740211 0.014926832 -0.011924196
000180 fd c8 af bd 59 5d 44 bd 72 c6 c3 bd 86 48 a2 3d
       -0.08583257 -0.047940586 -0.09559335 0.07923989
000190 fe 8c 83 bc 6f cb b7 bd f8 e2 46 3b 6c 88 30 3c
       -0.016058441 -0.08974349 0.0030347686 0.010774713
0001a0 0e 29 f2 bb 0e 86 0a 3d 84 f1 4d 3d df f4 e6 bd
       -0.007390148 0.03381925 0.050279155 -0.11277174
0001b0 10 55 9f bd 1b 1d 31 3b 83 49 e9 bd 88 f0 db bd
       -0.07779896 0.0027025405 -0.113909744 -0.10739237
0001c0 8f e9 b9 3d 01 7a 88 bc f2 a9 40 bd ab 30 22 bd
       0.09077751 -0.016659738 -0.047037072 -0.039597195
0001d0 2c 7d c8 bd 99 96 c0 3d f6 56 09 bd 70 ef 99 bd
       -0.097895 0.09403724 -0.033530198 -0.07516372
0001e0 ec 82 a6 bd 7d 36 99 3d 52 9d c8 bc c9 c0 85 bb
       -0.0813044 0.07481096 -0.024489079 -0.0040818197
0001f0 b8 ba b2 bc bb 77 73 bd 9c fe 2d 3c f7 1e a1 3d
       -0.02181755 -0.059440356 0.010619786 0.07867234
000200 6b 81 65 bd 58 cd 62 3c 57 58 bd bd 79 81 5e bd
       -0.056031626 0.013842903 -0.09245365 -0.054322693
000210 cc 77 b8 3d e3 e4 e0 bb bc 17 ee 3d f1 38 65 bc
       0.090072244 -0.006863223 0.11625621 -0.013990627
000220 76 6a 8f bd bf 54 71 bd 0c fc b7 3d 5d a5 b5 bd
       -0.07002728 -0.05891871 0.08983621 -0.08869431
000230 50 66 68 3d 0f fd 17 3d e7 5b c4 3c ff 34 5a 3d
       0.056738198 0.03710657 0.023969604 0.053273197
000240 29 87 b7 bc 6e b5 7a 3d a6 27 cb bd 51 c8 40 bd
       -0.022403317 0.06120818 -0.09919672 -0.047066037
000250 17 f4 b7 3d 6d d2 29 3d 41 54 cf bc a1 a2 09 bd
       0.08982103 0.041460443 -0.02530873 -0.03360236
000260 82 3c 9d bd 7e a5 71 3d b3 30 a7 3b 5e 91 1f bc
       -0.076775566 0.058995716 0.005102241 -0.009739248
000270 50 64 81 3c 4c 81 b7 3d 4c 0b 88 bd 37 09 47 bd
       0.015794903 0.08960208 -0.0664278 -0.048592772
000280 9b e4 b7 3d d2 07 99 3d 91 84 88 bd 2c 7d d1 bd
       0.0897915 0.07472195 -0.0666591 -0.10228953
000290 d7 9b fa 3c a6 cd 8c 3d 14 3b 83 3c 72 1c 8c 3d
       0.030591888 0.06875162 0.016019382 0.06841363
0002a0 79 d5 98 bd da 9a 89 3d c8 44 a5 bd b8 d9 62 3d
       -0.07462592 0.06718989 -0.080697596 0.055383414
0002b0 8b f4 94 3d 74 fd b6 3c 21 33 cf 3d ec cc 86 bd
       0.07273205 0.022337653 0.10117174 -0.065820545
0002c0 ea 2f e2 bd 3d 2f c4 bd 0e 68 71 3d af 44 e1 3c
       -0.11044295 -0.095793225 0.058937125 0.027498571
0002d0 da 09 90 bd cb 49 90 3d 79 75 af 3d 62 9e d2 bd
       -0.07033129 0.07045325 0.08567328 -0.102841154
0002e0 ca de c4 3d 8c 3b 03 3d 3e 77 b3 bb a7 4c ad 3d
       0.09612806 0.03203921 -0.0054768613 0.08461886
0002f0 6d 93 ef 3d fc 16 81 3d 38 d0 93 3d 4a ad 27 3d
       0.11698041 0.06303212 0.07217449 0.040936746
000300 6c 24 2d 3b ce 6b ea bd d9 b2 16 3d 3d f3 8e bd
       0.0026419414 -0.11446343 0.036791656 -0.06979988
000310 ab 5a 9a 3c 54 b1 12 3d 4d 38 60 bc a6 0a be bd
       0.018842062 0.035813645 -0.013685298 -0.09279375
000320 6d 68 58 bd 60 60 c1 3d 8c 3c 30 3d 1b 0f 99 3d
       -0.052833963 0.0944221 0.043026492 0.07473584
000330 f5 3f bf bc 6f 5f 07 bc 51 8e 20 bd 7f 5f 87 3d
       -0.023345927 -0.008262499 -0.039198224 0.06610011
000340 6e c2 12 bd 8d 9e a6 3d 33 50 87 3d c8 05 dd bd
       -0.035829954 0.0813571 0.06607094 -0.10792118
000350 b1 9a 1f bc 07 42 0e bd 5b 83 51 bd 3f 80 6c 3d
       -0.009741471 -0.034730937 -0.05115066 0.057739493
000360 52 a0 c4 bc 9d 07 e0 3d 91 f0 a5 bd df ed 25 3d
       -0.024002228 0.10938952 -0.08102525 0.040510055
000370 09 e7 ae bd 49 cb 36 bd 34 de 8d bb cf 0a b6 3d
       -0.0854016 -0.04462746 -0.004329467 0.0888878
000380 92 9c 8c 3d e5 ca b6 bd 3b 95 c1 3a e5 b1 9d bd
       0.06865801 -0.08925418 0.0014769206 -0.07699946
000390 79 2a a9 3c 51 aa a8 bd ed 73 35 bd 36 28 8c 3d
       0.020650135 -0.0823561 -0.04430001 0.06843607
0003a0 1a 97 e7 bd b2 de f3 bd 2f d4 fe 3c 90 f5 97 3c
       -0.11308117 -0.1190771 0.031107036 0.01854971
0003b0 0d 97 fe bc 41 85 df 3d fc 7a a1 bd a3 90 a3 bd
       -0.031077886 0.10914088 -0.078847855 -0.07986572
0003c0 43 87 49 be 7c e4 0d be df ad b8 3d d4 1d 20 bd
       -0.19680505 -0.13856691 0.09017538 -0.039090946
0003d0 24 39 08 be 8b 92 a6 bd cb 5b 9a 3d 7c 3d 57 3e
       -0.13303047 -0.081334196 0.07537039 0.21019548
0003e0 5a a5 f9 bc 29 e7 5e be 7d a3 b6 3d d1 fb 11 3d
       -0.030474354 -0.21767868 0.08917902 0.03564054
0003f0 af 0c 2d 3e 3e 4d db 3c 42 60 34 be 57 ad 52 bc
       0.1689937 0.02677023 -0.17614844 -0.01285871

layers.1.lin_a.weight f4 [1, 40]
000000 66 54 26 bd 05 79 d4 3c 89 d1 f6 3d 10 aa 3a bd
       -0.040607832 0.025936613 0.120516844 -0.04557234
000010 15 f5 bc 3d de 1f 85 3d a3 7d b0 3d 67 38 b0 3d
       0.09226433 0.06500219 0.08617713 0.08604508
000020 4f a5 72 3d ae 32 0d bd 74 71 80 bd bf 1e 2b 3d
       0.05923968 -0.03447216 -0.062716395 0.04177737
000030 23 ad 9d 3d 79 ac b8 bb 02 bf 9d 3d 5a e9 a2 bd
       0.07699039 -0.0056357947 0.077024475 -0.079546645
000040 7c 7f 90 3d 76 a8 c5 bd 7d 13 f3 bd 84 5c be bd
       0.07055566 -0.09651272 -0.118689515 -0.0929499
000050 3e b5 d0 bd 13 62 3b 3d 22 df db bd 8f 65 eb bc
       -0.10190819 0.045747828 -0.107359186 -0.02873495
000060 14 16 f0 3b 7b 1e 9f bd 72 ea 1e bc 8b 4c 0a bd
       0.0073268507 -0.077694856 -0.009699451 -0.033764403
000070 a4 05 86 3d a2 16 03 3e 52 a8 e2 bd 2e 7d 94 3d
       0.065440446 0.12801602 -0.11067261 0.07250439
000080 9b a1 8d bc 12 e2 d7 bd ed 14 68 bd 0f bb 6a 3d
       -0.017288974 -0.10541166 -0.05666058 0.0573073
000090 86 28 9f 3c 5f e0 40 3c eb 9e bc bd d5 e8 7d 3d
       0.019428503 0.011772244 -0.09209999 0.061989624

layers.1.lin.weight f4 [20, 20]
000000 4a a2 a2 3d d7 44 82 3b de 3e 27 be d0 b4 8f 3d
       0.079411104 0.0039754915 -0.16332576 0.07016909
000010 12 7a 77 bb 7b d8 14 3e 73 6b 42 be 30 88 4d 3e
       -0.0037761969 0.14535706 -0.18986301 0.20071483
000020 e8 67 4f 3e 3c 32 96 be 67 1f 82 be 51 b8 47 be
       0.20254481 -0.293352 -0.25414583 -0.19503905
000030 96 c6 0c be 54 9b 5a bd d8 d8 cb 3d 39 f5 20 be
       -0.1374763 -0.05337079 0.09953469 -0.15718545
000040 dd 01 09 3d 64 24 5c bc a0 b0 43 be 74 34 a5 be
       0.033449043 -0.013436411 -0.19110346 -0.3226658
000050 14 86 45 bd 5b 97 a9 be 2c 6b ed bd 9c ef 0a bd
       -0.04822357 -0.33123288 -0.11592707 -0.033919916
000060 5c f8 e4 bd 99 5f 1b 3d 90 0a 32 3d f0 3b 19 3e
       -0.11180183 0.037932966 0.043467104 0.1496427
000070 23 49 04 3e 2a f5 98 be 5f 29 25 be e4 24 47 be
       0.12918524 -0.29874545 -0.16129063 -0.19447666
000080 2c b9 24 be 62 d2 5c bd 60 05 16 be 03 13 8d be
       -0.16086262 -0.053911574 -0.14650488 -0.27553567
000090 fb 66 62 bd 3d da 0e 3e a9 11 3a be 9b b1 a8 be
       -0.05527399 0.13950439 -0.181708 -0.32948002
0000a0 69 ff 29 3e df f4 74 3e 42 4a 99 3e a8 ec 19 3e
       0.16601337 0.23921536 0.29939467 0.15031683
0000b0 76 ea 30 3e a8 0e 3c be c6 0d 5b 3e 37 db 13 be
       0.1727694 -0.18364966 0.21391973 -0.14439093
0000c0 94 69 0e be fc 5a 92 3e c7 26 33 b8 43 2c 87 3e
       -0.13907462 0.2858504 -4.271304e-05 0.26400957
0000d0 e4 60 20 be 0a ac 95 3e 42 28 59 3e ba 48 48 3e
       -0.15661961 0.29232818 0.21206763 0.19558993
0000e0 1e a3 9b 3e 17 ac 0b be 42 9c 96 3d b2 d4 4e 3e
       0.30397886 -0.13639866 0.073540226 0.20198324
0000f0 27 66 f8 bb e3 8d 79 be fc a5 62 3c b3 0e 54 be
       -0.007580537 -0.24370532 0.013833519 -0.20708732
000100 c1 d3 08 be 34 7b ff 3c 09 61 36 be c3 26 52 be
       -0.13362028 0.031186678 -0.17810453 -0.20522599
000110 67 0a 76 3d 50 d1 57 bd 0e 9a c4 3a ee d2 22 be
       0.060068514 -0.05268985 0.0014999525 -0.15900776
000120 d2 74 27 be 06 5b 99 be b4 1a 5b 3e 69 95 a4 be
       -0.16353157 -0.29952258 0.21396905 -0.3214524
000130 9e 14 6b bd 17 9c 24 3e be 02 36 3d ac b5 8a be
       -0.05739271 0.16075169 0.04443621 -0.2709173
000140 d0 70 3a be bf b2 92 be 01 76 14 3d 05 7e 96 be
       -0.18207097 -0.28651997 0.03624535 -0.2939302
000150 aa 9f 47 be 3d 70 11 be f4 c5 3a 3e ea 6a 14 3e
       -0.19494501 -0.14202972 0.18239576 0.1449391
000160 df cb 2c 3e ad 2f 85 3d c0 d1 ec bd 1e e0 69 be
       0.16874646 0.06503234 -0.11563444 -0.228394
000170 96 aa 0c be 0a 1c 12 bd 84 22 b2 3d cb 96 52 bd
       -0.13736948 -0.03567127 0.086979896 -0.05141334
000180 2b 78 8e be b1 18 15 3d 28 2f 63 be 66 6c 15 be
       -0.27826056 0.0364005 -0.22185957 -0.14592132
000190 0d 7e 19 be 8d 59 cd bd 97 ab 9c be 46 9e 0a 3e
       -0.14989491 -0.10026846 -0.30599663 0.13536939
0001a0 97 62 bb bd 3b 12 1f 3d 5e ae 1d 3e e4 89 b8 3d
       -0.09149664 0.038835745 0.15398547 0.090106755
0001b0 6f 75 0b 3e a0 e5 78 3c 17 2a 2c 3e 94 c1 7d bd
       0.13619016 0.015191466 0.16812931 -0.06195219
0001c0 ba 3e 12 3e 9e 59 59 be 1a c3 f6 bd b2 a4 43 3b
       0.14281741 -0.21225592 -0.120489314 0.0029852805
0001d0 5e 31 5e bd 79 e5 a3 bc 1a 57 99 be a3 d4 fa bc
       -0.0542463 -0.020006882 -0.29949266 -0.030618971
0001e0 9c e6 8c 3e ca 89 d2 3d f3 9a 35 3e 53 56 56 3e
       0.2751969 0.102801874 0.1773489 0.20931368
0001f0 41 00 6b be 4d 46 f5 bb d8 e1 a9 bd a4 10 ea bd
       -0.22949316 -0.007485187 -0.082950294 -0.11428955
000200 0a eb 1b 3e 78 29 b3 3e 1a c0 87 3d 84 70 87 3e
       0.15226379 0.34992576 0.06628437 0.2645303
000210 07 df 29 be e0 4e 2d 3e 98 e8 ec bc 25 83 94 bc
       -0.16588984 0.1692462 -0.028919503 -0.01812894
000220 fc 73 32 3e e0 93 b2 3d 62 03 ec 3d dd 07 5d 3e
       0.17427057 0.08719611 0.11524083 0.21585031
000230 2c 58 6f 3e 59 5f a4 3e 87 cf 07 3e f0 a5 d8 3d
       0.23373479 0.32103994 0.13262759 0.10578525
000240 78 8f 24 3c 83 e3 4d 3d 74 78 14 be 20 79 e1 bc
       0.010043971 0.0502658 -0.14499074 -0.027523577
000250 03 42 33 be e5 d8 11 bd 12 af 29 be 3c 3f 92 3e
       -0.1750565 -0.035607237 -0.1657069 0.2856387
000260 4b 97 03 be dd de cb 3d 88 d5 c3 3c 90 60 a0 3e
       -0.12850682 0.09954617 0.02390553 0.3132367
000270 92 de 61 3e 67 53 12 be d2 ba ac 3e c3 77 bd bd
       0.2205756 -0.14289628 0.33736283 -0.09251358
000280 65 46 d9 bd ec b0 a4 3d 1d 6c 89 3d 50 96 3a be
       -0.1060913 0.08041558 0.06710074 -0.18221402
000290 51 94 2c be c6 4f a7 3d c6 81 30 3e 9c 21 f4 bd
       -0.16853453 0.081695125 0.17237005 -0.11920473
0002a0 53 90 4c bd ad 8b 85 be a6 b3 55 3c ce a0 a3 bd
       -0.049942326 -0.26083127 0.01304332 -0.079896554
0002b0 50 00 e3 3d bc 22 4b be c5 07 5d be 61 a5 63 be
       0.11084044 -0.19837469 -0.21584995 -0.22231056
0002c0 9c 9b 98 be 2d fc 9d bd db 01 32 bd 28 99 a2 be
       -0.2980622 -0.07714114 -0.0434588 -0.31757474
0002d0 6d 2c 04 be c1 f2 aa be 15 b1 8a be 42 79 65 be
       -0.12907572 -0.33388332 -0.27088228 -0.22409537
0002e0 d8 5f 98 bd 17 d0 10 be 68 fa 0c 3d ee f8 0b 3e
       -0.07440156 -0.1414188 0.034418494 0.13669178
0002f0 90 00 1c 3e 40 f6 35 bd 74 03 ee bb 33 53 1b be
       0.1523459 -0.044424295 -0.0072635952 -0.15168457
000300 3a 79 1b 3e 6d cc 7d be 0a 81 25 3e ce 6d a4 be
       0.15182963 -0.24785013 0.16162506 -0.32115024
000310 74 d5 90 be b3 cb 40 3d f7 15 52 be c1 bf 88 bd
       -0.28287852 0.047069263 -0.20516191 -0.06677199
000320 0a 83 9f 3e 84 fa 5a 3e d4 25 a9 3e 2c c6 ff bc
       0.31154662 0.21384627 0.33036673 -0.031222425
000330 21 73 d4 bd 1d 94 68 ba f4 75 38 bd da 6f c9 bd
       -0.103735216 -0.0008872168 -0.045034364 -0.09835787
000340 3a 42 19 ba 32 23 a2 3e d3 72 f3 bd 70 32 72 3e
       -0.00058463553 0.31667477 -0.11887135 0.23652053
000350 b8 bc d4 3d 66 cc 7e 3e 40 17 77 3d 4a e7 b3 3c
       0.10387558 0.2488266 0.060324907 0.021960873
000360 c6 c5 52 3e c0 ba c9 bd a8 e7 ce bc d1 30 a2 3e
       0.20583257 -0.09850073 -0.025256947 0.3167787
000370 5c 87 8e 3e 09 46 94 bd 50 03 89 3e da 57 97 3d
       0.27837646 -0.07239921 0.2676034 0.07389803
000380 6a 0e 55 3d db a5 6b 3e d0 5d 40 bc 2e a6 91 bd
       0.0520157 0.23012488 -0.011741117 -0.071117744
000390 cf 6b 04 3e ac d4 03 3d 31 db a0 bd d2 95 c4 bb
       0.1293175 0.03218524 -0.078543074 -0.0059993053
0003a0 3c 60 61 3e 79 95 54 3e f8 79 14 bd e1 23 8f 3d
       0.22009367 0.20760144 -0.03624913 0.06989265
0003b0 6c 8e da 3d 28 0b 1a be bf b3 1a 3e 32 f4 c0 bd
       0.10671696 -0.15043318 0.1510763 -0.094215766
0003c0 8b 90 e0 3d aa 1d 9b 3d 8c 18 c2 3c 2c 5b 9e 3e
       0.109650694 0.07574017 0.023693345 0.30928934
0003d0 ab 68 7f 3d 75 d9 ef 3d 1b b9 16 be 10 f8 11 3d
       0.06235568 0.117113985 -0.1471905 0.03563696
0003e0 75 18 6a 3d 24 c5 6e 3e 74 71 31 bd 85 44 91 3d
       0.05715223 0.2331739 -0.043321088 0.07093147
0003f0 c9 e6 39 be bb 2e 80 3e 4c da 18 3e ff f1 5b 3e
       -0.18154444 0.25035653 0.14927024 0.21479033

layers.2.bias f4 [20]
000000 d7 a1 bb 3d 84 6b 77 3c 2d 1a 97 bc ec 17 48 bc
       0.09161728 0.015101317 -0.018445099 -0.012212735
000010 71 31 c6 3d 00 00 00 00 7d c8 c4 bb a9 77 26 3d
       0.09677399 0.0 -0.0060053454 0.04064146
000020 00 00 00 00 bb 72 a6 3d 44 b1 14 bc 00 00 00 00
       0.0 0.08127352 -0.009075467 0.0
000030 bd 08 24 bd 6e e5 8a bd 00 00 00 00 00 00 00 00
       -0.040047396 -0.067820415 0.0 0.0
000040 0c a2 21 bc 6f f0 05 bc b2 2c a9 3d 00 00 00 00
       -0.009865295 -0.008175 0.08260478 0.0

layers.2.combine_aggr.weight f4 [20, 80]
000000 a8 d0 12 be 7d fc 70 bd 93 f3 89 3d c9 a1 d6 bc
       -0.14337409 -0.05883454 0.06735911 -0.026200192
000010 3e 47 ac 3d c9 8a be bd f2 7d 16 3d ac 79 0f be
       0.08412026 -0.09303815 0.036741205 -0.14011258
000020 b6 23 04 be ba b8 19 3d 07 56 54 bd a5 4c d1 3c
       -0.12904248 0.037529685 -0.051839855 0.025549242
000030 15 b5 88 3c 81 58 37 be 89 6a 30 be 66 f1 c7 bd
       0.01668791 -0.17904855 -0.1722814 -0.0976284
000040 43 9e 95 bd ef 10 9c 3b 37 cd cd bc 98 ae d6 bc
       -0.07305577 0.004762761 -0.025122268 -0.0262063
000050 55 9b 4e 3e cf 54 66 3d 2e 73 cf bd be aa 11 be
       0.20176442 0.056233224 -0.10129391 -0.14225289
000060 c5 08 5b bd d9 e9 30 3e 5e ee 23 be 7c 71 5b 3d
       -0.05347516 0.17276706 -0.16008899 0.053575024
000070 8a 40 24 3e 0b a6 d2 bd 99 03 06 3c 46 64 62 3d
       0.16040245 -0.102855764 0.008179569 0.05527141
000080 11 07 9d bd d8 95 eb bd 78 0e 95 bd 79 4b 49 bd
       -0.076673634 -0.1150319 -0.0727815 -0.049144242
000090 88 f4 e4 3d 86 0d a5 3c 64 92 4a 3e ae 7f e3 bd
       0.11179453 0.02014805 0.19782406 -0.11108337
0000a0 9e 35 1f bd 7f a3 43 be 98 35 0d 3e ed 64 2b 3e
       -0.038869493 -0.19105338 0.13789976 0.16737719
0000b0 c9 ae 01 3e 2e da ee bd 62 c1 2d 3e a6 76 4c be
       0.12664331 -0.11662708 0.16968301 -0.19967136
0000c0 53 d7 cd bd 02 97 55 3d ba d9 39 be 6d 84 1c be
       -0.100508355 0.052145965 -0.18149462 -0.15284891
0000d0 9c 21 1a bb ca 48 e8 bd 61 dc ed bd f1 b4 56 bd
       -0.0023518568 -0.113420084 -0.116142996 -0.052418653
0000e0 de 2c e1 bd 29 6e 2f 3e e6 02 8d bd 0a 77 29 3e
       -0.10994886 0.17131867 -0.068853185 0.16549316
0000f0 86 d8 85 3c 17 ea 3a be f2 6b 3b 3c a5 5c 03 3e
       0.016338598 -0.1825336 0.01143931 0.1282831
000100 a9 18 39 3e fa b8 23 be 67 ad b5 3d e2 82 00 be
       0.18075813 -0.15988532 0.088709645 -0.12549928
000110 cc 70 d9 3c f8 d2 39 3e 23 12 af 3c 07 e0 9b bc
       0.026543044 0.18146884 0.021370953 -0.019027723
000120 cb 2d 9f 3d 27 2e 88 3c 0e ef 10 be 0d 70 a5 bd
       0.07772406 0.01662357 -0.14153692 -0.080780126
000130 db 80 dc bd 2e 64 70 3b 10 3d 02 be 41 b9 d8 3d
       -0.10766765 0.0036680805 -0.12718606 0.105822094
000140 0e 98 94 3d f0 ab c8 3b 53 2e c4 bd a4 61 80 bd
       0.07255565 0.006124012 -0.09579148 -0.062686235
000150 64 82 28 be 05 83 10 3e 17 b6 34 be 0f 25 ae 3d
       -0.1645599 0.1411248 -0.17647587 0.08503162
000160 fd 19 20 bc 43 c3 3b be 79 45 68 3d 95 f8 3d 3e
       -0.009771821 -0.18336205 0.05670688 0.18551858
000170 a4 bf cb 3c 03 9b be 3d 9a 37 2a 3e aa 87 41 3c
       0.024871655 0.0930691 0.16622773 0.01181213
000180 a7 60 14 3e d5 8d f3 ba 8e d2 c2 bc 8a ab 29 be
       0.14489995 -0.0018581698 -0.02378204 -0.16569343
000190 f2 50 bd 3d 0c c8 82 3d 1e 77 fb bd b7 8e 00 be
       0.09243955 0.06385812 -0.12278579 -0.12554441
0001a0 71 36 23 3d e4 35 6b 3d 46 6d 3c bd 24 9d 6c bd
       0.03984684 0.05742444 -0.04600265 -0.05776705
0001b0 b6 43 16 3e cb d6 f8 bd 2e 20 a8 3d 74 d2 06 3d
       0.14674267 -0.121503435 0.08209263 0.032915547
0001c0 37 84 36 bd e3 1b 8c 3d c2 b9 db 3c d5 03 60 3c
       -0.044559684 0.068412565 0.026821975 0.013672789
0001d0 bb a2 0f 3e 59 b9 0b be a0 3b be 3d 92 dd 94 bd
       0.1402692 -0.13644923 0.09288716 -0.07268824
0001e0 13 5a 7e 3d 50 26 38 3e 36 67 95 bd 3e 31 4b be
       0.06209762 0.17983365 -0.072950765 -0.19843003
0001f0 21 dd c8 3a e0 90 11 3d fb 6b 85 3b 9b e3 8d 3d
       0.0015324691 0.035538554 0.00407171 0.06928178
000200 7c 52 55 3e dc 3e 76 bd f8 96 ab 3d de 4e 16 3e
       0.20832247 -0.06011854 0.083784044 0.14678523
000210 87 8a c2 bd d1 a3 cf 3c 77 50 2b 3e b3 dc 2f 3e
       -0.09499078 0.025346668 0.16729914 0.17174034
000220 99 49 af 3d 7d 9f b7 3c 4f d9 d9 3d c9 3b 1a be
       0.085589595 0.022414917 0.106371514 -0.15061869
000230 35 cc 08 3d 4c 4e 28 3e 84 c8 13 be 96 7c ce bc
       0.033397872 0.16436118 -0.1443196 -0.025205892
000240 1e 47 57 be a3 ec b5 3d e3 91 35 be de e0 07 3e
       -0.21023223 0.088830255 -0.17731433 0.13269374
000250 79 dc 3b 3e 89 4b 68 bd a8 91 31 3d 7a 23 22 bc
       0.18345822 -0.05671266 0.0433518 -0.009896154
000260 ee ce 1b be e1 4b af bb 6d 3b 46 3e 75 b4 9e 3c
       -0.15215656 -0.0053496216 0.19358607 0.019373158
000270 54 8d 0b 3e b8 49 8c 3b c7 68 09 3e 4e c7 45 be
       0.13628131 0.004281249 0.13418876 -0.1931431
000280 26 b6 ae 3d 24 91 8a 3d ad 4f d2 bc 7c 31 d5 bd
       0.08530836 0.067659646 -0.025672758 -0.10409829
000290 99 01 d6 bd 56 d3 40 3e 4a 92 92 bd 29 23 1c 3e
       -0.104495235 0.18830618 -0.07156809 0.15247788
0002a0 d3 3a 7f 3d 79 38 d2 bc cd f6 c9 3d 5d d8 a0 3d
       0.06231196 -0.025661694 0.09861527 0.07853768
0002b0 ae 91 9c bd f4 27 82 3c e7 b4 d8 3d ab 8f 17 3e
       -0.07644974 0.015888192 0.105813794 0.14800899
0002c0 d2 68 d7 bb 02 4d 16 be 8e ec 2b 3e eb e3 bd bd
       -0.006573775 -0.14677814 0.16789457 -0.092719875
0002d0 bf d1 01 bb 71 76 20 3d 85 79 6b bd 10 9d fd 3d
       -0.0019808856 0.039175455 -0.057488937 0.12383473
0002e0 85 00 4b bb b9 91 3e bd 67 bc 5a 3d 18 f1 a0 bd
       -0.0030975651 -0.04652569 0.05340233 -0.07858485
0002f0 6a d9 5b bc 07 7e 22 3b 26 a9 45 bd 4d d9 90 3d
       -0.013418535 0.0024794356 -0.048257016 0.07072697
000300 45 a7 d4 bd 3c 9e 25 3d 57 b9 40 bc ca af 05 3e
       -0.10383467 0.040434107 -0.011762938 0.1305534
000310 81 56 52 3d a7 74 c3 bd f0 20 36 3d 47 c2 3a bb
       0.051352028 -0.09543734 0.044465005 -0.0028497146
000320 ba 3e 5d 3e bd 58 3b 3e 7c be 1a be 0e e4 84 3c
       0.2160596 0.1829557 -0.15111727 0.016222026
000330 95 27 db bd 0e 74 a2 3d 5c ea 56 bd 3f 26 6b 3e
       -0.10700909 0.07932292 -0.052469596 0.22963808
000340 d6 c1 17 3e 24 19 47 be 57 f5 80 3d 63 bd 63 3e
       0.14820036 -0.19443184 0.06296795 0.22240214
000350 10 20 00 be 71 85 a4 3d 64 71 0d 3d 5e 78 67 3d
       -0.12512231 0.080332644 0.034531966 0.056511275
000360 22 8a 59 3d fc 38 4a bd 2d a1 21 3e 00 a6 ba 3c
       0.05311025 -0.04937075 0.1578414 0.022784233
000370 fe 43 23 3e 60 ad b6 3d f8 4b 5b bd 93 d7 2f bd
       0.15943906 0.089197874 -0.053539246 -0.042930197
000380 ae e6 56 be 24 66 08 3e bc 18 44 be 5b 7e 32 3e
       -0.20986435 0.13320214 -0.1915006 0.17431013
000390 1c d8 19 3d 29 89 bc bd 16 dd 8e 3d c3 53 0f 3e
       0.037559614 -0.09205849 0.069757625 0.13996796
0003a0 32 2e c7 bd 53 12 80 bc 8e 32 08 3e 26 e7 18 3e
       -0.09725608 -0.015633738 0.13300535 0.14931926
0003b0 47 58 e3 3c c3 65 35 be 81 3f 23 3c c5 4c 28 be
       0.027752055 -0.177146 0.009963871 -0.16435535
0003c0 a9 0b 5f 3d f7 fb b2 3d 2c 6b 92 bd b6 a7 b1 bd
       0.05445448 0.08739465 -0.07149348 -0.086745664
0003d0 6e 91 dc 3b 4a 5c 82 3d 1f e6 0a be f3 22 3a 3d
       0.0067312038 0.06365259 -0.13564347 0.045443486
0003e0 c9 80 9d 3b f9 b6 e3 bd 8d f3 55 bd 5a 8c bd 3d
       0.004806612 -0.11118884 -0.05223422 0.092552856
0003f0 a3 9d 21 be b5 34 1d 3e e2 9a 21 3e 72 d5 cf bb
       -0.1578279 0.15352137 0.1578174 -0.0063425833

layers.2.lin_a.weight f4 [1, 40]
000000 6d 61 58 bd 70 87 92 3b 67 10 72 bd c9 99 5c bd
       -0.052827287 0.004471712 -0.059097674 -0.0538576
000010 27 60 ee 3d b5 b1 f9 bd 92 01 af 3d a1 e2 c7 bd
       0.11639433 -0.12192098 0.085452214 -0.09760023
000020 ec 65 4f 3b 54 39 9a bc 79 e8 9a bd eb 3c 0c 3c
       0.0031646444 -0.018826164 -0.07563872 0.008559446
000030 9a 9f a1 bd 76 dd 92 3d b0 58 a4 bd 24 5c a4 3d
       -0.0789177 0.071711466 -0.08024728 0.08025387
000040 bf 7f 16 bd 52 d9 e9 bd 7d 35 02 3e c1 d2 4f bd
       -0.036742922 -0.11418404 0.12715717 -0.0507381
000050 fe 29 30 bd a7 6c ff 3c a7 94 b3 bc 52 af b0 3c
       -0.043008797 0.03117974 -0.021921469 0.021567974
000060 ac 4d 7a bd bf be c7 bc cd bd 85 3d 1d 3b bc 3d
       -0.06110923 -0.024382947 0.06530342 0.091909625
000070 09 e6 26 3e 7e 91 90 bb 88 54 a4 bc 48 2e 4f bc
       0.16298689 -0.0044118753 -0.020059839 -0.012645312
000080 f8 2f 5d bd 0a cf 31 bd 66 79 0b bd d6 a0 d2 bc
       -0.054000825 -0.04341034 -0.03405132 -0.025711458
000090 fd aa 8b 3d fd f2 2e 3d 7d f8 10 3e e6 b7 33 be
       0.06819723 0.0427122 0.14157291 -0.1755062

layers.2.lin.weight f4 [20, 20]
000000 30 e9 c0 3d 37 fd 37 3e 95 5d de 3d 32 9b 98 3d
       0.09419477 0.17967688 0.10857693 0.07451476
000010 c6 f7 4c be a6 91 e4 3d f7 d6 2a 3e 5e 38 33 be
       -0.20016393 0.11160593 0.16683565 -0.17501971
000020 12 77 97 3e 00 f3 c0 bb 49 e1 2b 3e 5d 48 9a 3e
       0.2958303 -0.005888343 0.16785158 0.30133334
000030 3d 5e 52 3e 9d 31 55 bc 97 e8 23 3e cd 3a 70 3e
       0.20543762 -0.013012317 0.16006695 0.2345993
000040 b3 04 62 3e 24 ac dd 3a 5f 3b 10 3d 77 9f 57 bd
       0.22072105 0.0016912264 0.03521287 -0.052642312
000050 d8 cc cd bc c3 e7 22 be b9 1a e6 3d e4 1c 9d 3e
       -0.025122091 -0.15908723 0.11235566 0.30686104
000060 c4 c2 5d be ea 42 fc bc 0d b5 89 bb 0c 55 20 be
       -0.21656328 -0.030793626 -0.004202491 -0.15657443
000070 82 88 97 3e 42 de 30 be e9 45 00 bd b7 d9 bd bd
       0.29596335 -0.17272285 -0.03131667 -0.092700414
000080 0d 54 9f 3d 0e 96 99 bd a7 fa 21 be ee f4 9d 3e
       0.07779703 -0.07499324 -0.15818273 0.3085093
000090 4f 7a 3a 3e 08 66 3f 3e 3c 76 17 3e 61 7c 04 3e
       0.1821072 0.18691266 0.14791197 0.12938072
0000a0 b0 9f 14 3d 0a cc 39 be 6c 7c 5a 3d 6a eb 8d be
       0.036285102 -0.18144241 0.053341314 -0.2771867
0000b0 00 0a 7f ba c2 b2 65 be 86 f7 62 be 51 10 06 be
       -0.0009728968 -0.22431472 -0.22164735 -0.13092162
0000c0 fb f5 47 be b1 2c 08 be ca 1d 5e be 91 09 34 be
       -0.19527428 -0.13298298 -0.21691051 -0.17581774
0000d0 81 7c 9b be 07 f9 ac 3d 06 ba 58 3a 2c 91 a1 be
       -0.30368426 0.08445936 0.0008267466 -0.3155607
0000e0 2c 21 a3 be 2d 4b 53 be c0 74 96 3d 52 fb cb 3d
       -0.31861246 -0.20634146 0.07346487 0.09960045
0000f0 74 ab 0e bd 15 f8 00 3e e9 33 02 be e5 a7 23 be
       -0.03483148 0.12594636 -0.12715115 -0.15982015
000100 74 fc 0d bd a5 60 ae be 8a 07 f3 bd f8 67 72 3d
       -0.034664586 -0.3405811 -0.11866672 0.059181184
000110 4b a7 d5 3c d8 2a 31 be 71 cf 3c be d9 69 d6 bd
       0.026080748 -0.173015 -0.18438508 -0.104694076
000120 3d e2 c0 bd 7b 68 96 bd dd 44 8e be d8 6b 6e 3d
       -0.094181515 -0.07344147 -0.27786914 0.058208317
000130 ca 64 a4 be 83 08 46 be 71 61 cd 3d 60 4a 2c be
       -0.32108146 -0.19339184 0.10028351 -0.16825247
000140 fb a7 dc bd 93 ba 5d be cc 58 2c 3e d0 7c c2 bd
       -0.10774227 -0.21653204 0.16830748 -0.09496462
000150 e0 32 dd 3d 9f 90 60 bd 94 2c 7d be 7e d1 a1 bd
       0.10800719 -0.05482542 -0.24724036 -0.079012856
000160 00 e7 9b 3d 75 42 e0 bd 8b 32 3c be e4 26 1c 3d
       0.07612419 -0.10950176 -0.18378656 0.038123026
000170 42 62 4b be 56 41 4e bd b2 d0 30 be d3 23 45 bc
       -0.19861701 -0.050355278 -0.17267111 -0.012032467
000180 3f 87 6e bd cc ea 84 be dc d9 20 be 56 a7 44 bc
       -0.05823445 -0.25960386 -0.15708107 -0.012002787
000190 b2 f9 95 bd 78 97 08 3e ee 8d a9 3c ad cf da 3c
       -0.07323016 0.1333903 0.02069756 0.026710356
0001a0 70 60 1f bd ae 15 8e 3c ed 3d 69 3e 84 9f 35 3e
       -0.03891033 0.017344322 0.22777529 0.17736632
0001b0 42 85 d2 3d 1a 9d 13 be 6e 1b 90 3e 87 1d 98 3e
       0.10279323 -0.14415398 0.28145927 0.29710028
0001c0 0f 88 85 3e 02 63 cf 3d 49 e2 0f 3e 90 2b 02 3e
       0.26080367 0.10126306 0.14051165 0.1271193
0001d0 f6 1c 10 3d 21 ce d5 bd 75 b4 7a bc 9d 63 4e 3e
       0.03518387 -0.104397066 -0.015301813 0.20155187
0001e0 22 90 05 3e 2d b8 77 3d 10 fe e9 3d b1 39 2f 3d
       0.13043264 0.060478378 0.11425412 0.04277963
0001f0 80 10 31 bd 45 fc 60 3d 71 d3 db bd ee 2e a2 bd
       -0.043228626 0.054928083 -0.107336886 -0.079191074
000200 8f b2 3f be 46 72 05 be d4 07 8c be a1 9e 57 bd
       -0.18720458 -0.13031873 -0.27349722 -0.052641515
000210 23 50 ed 3d 0c 82 8a bd de 10 f5 bc f9 1b 3b be
       0.115875505 -0.06763086 -0.02991527 -0.1827239
000220 8b a7 41 be 43 ed 31 be 53 7e 99 3d 1e 7e 88 bd
       -0.18911569 -0.17375664 0.074947976 -0.0666468
000230 e8 41 a8 bd 48 22 06 3d 89 cb 5b bd 12 b8 b7 3d
       -0.082156956 0.032747537 -0.053660903 0.089706555
000240 68 5b 22 3e 61 4d b7 bb 36 64 9c 3e 58 7b fa bd
       0.15855181 -0.005593941 0.30545205 -0.12230557
000250 7e ee 9c 3e 18 0a ac 3d cb 8d 41 3e 03 09 72 3d
       0.30650705 0.08400363 0.18901746 0.059090625
000260 4d 8e 18 3d 1c b2 63 bd ec 52 3a be 96 b7 84 3e
       0.037245084 -0.05558978 -0.18195695 0.25921315
000270 46 6d 9c 3e 43 aa 29 3e 4f 94 ce bd 5f e8 1f 3e
       0.3055212 0.16568856 -0.10086881 0.15615986
000280 a0 34 09 bc f7 0b 39 be bc 35 38 be b8 56 46 3e
       -0.008374363 -0.1807097 -0.17989248 0.19369018
000290 a4 b5 85 bd 80 dc 84 3d b3 4f 4f bc 34 f6 c9 3d
       -0.06528786 0.064873695 -0.012653279 0.09861413
0002a0 71 05 5d 3c ca 3f 92 bd 22 0b 72 3e 9e c8 a8 3e
       0.013490067 -0.07141073 0.2363706 0.3296556
0002b0 7a 6e a1 3e a0 ec 51 3e af 26 dc 3d 72 3b 90 3e
       0.315296 0.20500422 0.10749566 0.28170353
0002c0 47 78 a2 3e 04 3e 63 3e d4 a8 9e 3d cb 4c 34 3e
       0.3173239 0.22191626 0.07747045 0.17607419
0002d0 f8 65 ba 3c 41 4a 10 3e fd db 9d 3d 2e ac a3 be
       0.0227537 0.14090826 0.07707975 -0.319673
0002e0 c4 41 07 be 86 d5 a8 be 34 ff 49 be 20 3f 3b 3c
       -0.13208681 -0.32975405 -0.19726259 0.011428624
0002f0 ae 51 68 be c6 94 52 be 53 ac 8a be 88 03 0d bd
       -0.22687408 -0.20564565 -0.27084598 -0.034427196
000300 6e d3 11 be db 3f 28 be e3 9a 88 bd b3 26 32 be
       -0.1424081 -0.16430609 -0.06670167 -0.17397575
000310 bb 44 7d be da ee 6d be 25 da aa bd 02 83 ad be
       -0.2473325 -0.23235646 -0.08342389 -0.33889014
000320 49 2a 53 be 04 89 ca bd 4f f1 89 3d 36 b5 93 3e
       -0.206216 -0.09889415 0.06735479 0.2884919
000330 00 51 c6 bb 77 76 46 3e de 4c 12 3e 5e 5d 36 be
       -0.0060521364 0.19381128 0.14287135 -0.17809054
000340 ee b5 2f bd cc 4d 7b bd d9 11 f9 bd 30 02 d6 3d
       -0.04289811 -0.06135349 -0.12161607 0.10449636
000350 e2 2b e3 3d 5a c3 cf bd 86 3a 96 bd d2 48 08 be
       0.11092354 -0.10144682 -0.07335381 -0.13309029
000360 df e9 8d 3e c0 94 50 3e f6 e6 c5 bd 44 1d 87 3e
       0.27717492 0.20369244 -0.09663193 0.26389515
000370 06 51 0f be e2 40 42 3e df a3 c3 bd 3d c1 36 3e
       -0.13995752 0.18970063 -0.0955274 0.17847152
000380 fa 1c 1f 3e 5a a6 52 3e 6b ae 23 3e c8 3a d3 bc
       0.15538397 0.2057127 0.15984504 -0.025784865
000390 dd 95 f3 3d a0 82 43 3e c5 1a da 3c 48 75 17 3d
       0.118938185 0.19092798 0.026624093 0.036977082
0003a0 fd d3 0a 3e 01 49 12 3c df c5 87 bd d3 2e f7 3d
       0.1355743 0.008928538 -0.06629538 0.12069478
0003b0 61 46 87 3e 9d 61 37 3e 91 a4 06 be 6d 29 81 3e
       0.26420882 0.1790833 -0.13148715 0.25226918
0003c0 42 a7 a8 bd ba bf 8e 3d 76 49 e0 3c 3b 87 8a 3d
       -0.08235027 0.06970163 0.027378779 0.067640744
0003d0 64 92 4c bd 28 13 32 be d2 11 13 be 80 2f 05 3b
       -0.049944296 -0.1739012 -0.14362267 0.0020322502
0003e0 62 91 48 be 48 60 1d 3e 6d 0a 5e be 36 c2 85 bd
       -0.19586709 0.1536876 -0.21683665 -0.065311834
0003f0 62 f4 84 be a5 78 fa bd 8f e2 b5 bd c2 68 3f be
       -0.259677 -0.12230042 -0.08881103 -0.18692306

layers.3.bias f4 [20]
000000 00 00 00 00 ca e7 1c 3b 44 93 8b 3d b1 fb 62 bd
       0.0 0.0023941868 0.06815198 -0.055415813
000010 3e 9f 0d bd d2 f1 ae ba 35 19 e1 bb 0a b4 4a bd
       -0.034575693 -0.0013347215 -0.00686946 -0.049488105
000020 25 47 4f bd b5 01 08 bc 4e 78 60 bd c8 c9 c4 bb
       -0.050604958 -0.008301188 -0.05480223 -0.0060054995
000030 be ab 87 bc 88 44 10 3d a0 26 7e bd 11 df a0 3d
       -0.016561385 0.035221606 -0.062048554 0.078550465
000040 ca c9 c4 bb 84 d1 b2 3d 2b fc 8a 3c 36 2b 84 3d
       -0.0060055004 0.08731368 0.016965946 0.06453554

layers.3.combine_aggr.weight f4 [20, 80]
000000 15 6a c3 bd 40 f9 aa 3d 80 e4 7e 3c 6e 5b c7 3d
       -0.09541718 0.08348322 0.015557408 0.09734236
000010 98 63 e1 3d 98 6d e4 bc 64 a5 8e bc 30 68 dd bc
       0.11005324 -0.02788429 -0.017412849 -0.02702722
000020 c6 15 b4 3d 48 4f 46 bd 34 37 97 3d 70 58 3c 3d
       0.087932155 -0.048415452 0.07383576 0.045982778
000030 9e 4b d7 3d c4 2e a2 3d e4 d3 b9 3d ad 34 bc bd
       0.1051247 0.07919076 0.09073618 -0.091897346
000040 9f 09 71 bd 4e 75 a2 bd 34 63 63 3d 98 52 ba 3c
       -0.058847066 -0.0793253 0.05551453 0.022744462
000050 a8 8d 2e 3d 80 e1 2b 3d 40 10 9b 3b 3c c2 2e 3d
       0.042615563 0.0419631 0.0047321618 0.042665705
000060 de 52 78 bd 2a c3 94 3d d3 20 c5 bd e0 64 d2 bd
       -0.060625903 0.07263787 -0.09625401 -0.10273147
000070 58 86 1b 3d ec f6 d6 3d e6 88 27 bd fc af d7 3d
       0.037969917 0.10496315 -0.04090204 0.10531613
000080 c6 8e 22 bd cf ff ad bd bc 66 8e bc dc 43 7d 3d
       -0.03968694 -0.08496057 -0.017382972 0.061832294
000090 8e 5d 6e bd 40 ba d6 3d 7a cb 4c bd ff b3 4a bd
       -0.05819469 0.10484743 -0.049998738 -0.049488064
0000a0 7e b9 3e bd 60 65 ae bd c0 97 d5 3d 50 5d 81 bd
       -0.046563618 -0.085154295 0.10429335 -0.06316626
0000b0 3d 09 4e bd ec c1 0a bd c6 bf c0 3d 64 a3 55 3d
       -0.05030178 -0.033876345 0.09411578 0.052157775
0000c0 58 9c 28 3d 78 d8 f0 bc 68 6f 67 3d 70 25 a6 3c
       0.041164726 -0.029400095 0.05650273 0.020281523
0000d0 e4 6e b6 3d 38 52 cb 3c dc 0e a8 3d 1c 05 9e 3d
       0.089078695 0.024819478 0.08205959 0.07715818
0000e0 90 0d a0 3c 03 6b db bd 40 5b ba 3c ca c2 ac bd
       0.019537717 -0.1071377 0.02274859 -0.084355906
0000f0 10 5c 9d 3c d8 22 4d bc ac 2f b6 3d 04 5b a4 bd
       0.019208938 -0.012520514 0.088958114 -0.08025172
000100 92 6c bf bd 20 1c 4c 3d c4 2e 97 3d bc 56 c7 bc
       -0.0934688 0.04983151 0.07381967 -0.02433335
000110 60 e5 f7 3c a0 c3 b7 3d a0 36 36 3c ec fd ff bc
       0.030260742 0.089728594 0.011121422 -0.03124901
000120 be 64 84 3d 4e 5d ce 3d 4c 77 9b bc 04 5c 9b 3d
       0.064645275 0.1007639 -0.018977784 0.0758591
000130 50 d5 18 3c b8 c6 bf bc 60 de 1f bc 2f 48 de bd
       0.009328201 -0.023410186 -0.009757608 -0.10853612
000140 34 39 24 3d b4 f4 89 bd 2d bc d6 bd 28 a9 35 bd
       0.040093616 -0.067361265 -0.104851104 -0.044350773
000150 04 cb 1b bd f8 ce 97 bd bf 76 f2 3d 1f c5 e3 3d
       -0.038035408 -0.07412523 0.11839055 0.11121582
000160 b4 3b 30 bc 9b f7 b1 3d 7b 88 b7 bb 89 46 fd 3c
       -0.010756422 0.08689805 -0.0056009865 0.030917423
000170 7a d5 3f bd 1a c1 d9 3c 7d 56 8c 3d 6b 06 d3 3d
       -0.046834446 0.026581336 0.06852434 0.103039585
000180 df 7f ff bd 5d 3a b3 3d 46 ae 2b 3c 53 e6 2e 3d
       -0.12475561 0.08751366 0.010478562 0.042700123
000190 cc a9 a9 3d 36 4f 96 bb 41 5f 5b 3b c2 54 4e 3d
       0.08284339 -0.0045870794 0.0033473524 0.0503738
0001a0 f1 41 ba 3d b8 78 b8 3d 1d 6b 96 3d e2 61 8a 3e
       0.090946086 0.090074 0.07344649 0.27027804
0001b0 40 75 31 bd f1 36 c7 3d d0 92 a9 bd 49 cd 73 bd
       -0.04332471 0.09727276 -0.082799554 -0.059521947
0001c0 3e 01 17 3e 92 49 89 b8 59 88 c6 3d 0e 98 16 3d
       0.14746568 -6.5463726e-05 0.09693975 0.036766104
0001d0 af 25 b2 bd 3d 5b 3a 3d ee 1a 70 bd 24 30 c3 3d
       -0.08698594 0.045497168 -0.058619432 0.095306665
0001e0 50 e2 d6 3c e4 1d 65 3d ee 14 c1 bd 9b 68 eb bd
       0.026230961 0.05593671 -0.0942782 -0.11494561
0001f0 22 31 db bb b4 07 33 bd 69 be 85 3d 01 33 c4 3d
       -0.0066892067 -0.04370852 0.065304585 0.09580041
000200 bc 45 d5 bc 8e 32 e2 3c 83 07 a8 3d d3 ab 77 3d
       -0.026034229 0.027611997 0.08204558 0.0604666
000210 1b f6 30 3d e1 3c 0f be d7 81 1c bc 39 e8 e7 3d
       0.043203454 -0.13988067 -0.009552441 0.1132359
000220 b3 8a 24 bd 37 6c f9 bd 59 7b b6 bc b3 36 46 3e
       -0.040171336 -0.121788435 -0.022275614 0.19356804
000230 dc f4 8e bc 46 0c 9c bc ef d7 a8 3a 81 a9 67 3d
       -0.017450742 -0.019048821 0.0012881736 0.056558136
000240 a9 e7 c8 3d 6f 2f 84 bd 82 ee f4 3d 28 93 ad 3d
       0.09809811 -0.0645436 0.11959554 0.084753335
000250 9b d9 77 bb 27 68 4c bd 59 0b f2 bc 1e 18 11 3e
       -0.0037818912 -0.049904015 -0.029546427 0.14169356
000260 d6 02 22 3d 01 5f 58 bd d2 74 55 3c a1 bc b2 3d
       0.039553486 -0.052824978 0.01302834 0.08727384
000270 30 30 16 bd 9b 4c ae 3d f3 9a ff bc bd 86 9a 3d
       -0.03666705 0.08510705 -0.031201815 0.075452305
000280 b9 99 4e bc c2 bd c2 bc 31 0f 15 bd e4 20 b7 bc
       -0.0126098925 -0.023772124 -0.03639144 -0.02235455
000290 2c b9 9b bd 76 ee 73 bd 52 6a f9 3d a0 7e 38 3e
       -0.07603678 -0.059553586 0.12178482 0.18017054
0002a0 b7 64 a5 bc d8 79 40 bc 9b 83 83 bd bc 33 99 3d
       -0.020189626 -0.0117478 -0.06421586 0.07480571
0002b0 c9 0a c9 3c c8 96 e2 3d 71 fc 92 bc be cf f9 3d
       0.024541276 0.110639155 -0.017942639 0.12197827
0002c0 01 78 bb bc 56 fb 18 3e a5 02 71 3d c3 6a ab 3d
       -0.02288437 0.14939627 0.058840413 0.083699726
0002d0 c9 67 d4 3d 13 1d 5e 3d 75 3c 6b bd 69 80 bd 3c
       0.10371358 0.054226946 -0.057430703 0.02313252
0002e0 b3 25 65 3c a5 a1 1b 3d 69 9d 64 bd 4f 3a a2 bd
       0.013986039 0.037995953 -0.05581418 -0.07921278
0002f0 b3 6f eb bc 05 dc ee 3c 17 61 3d 3d 47 ea ca bd
       -0.028739786 0.029157648 0.04623517 -0.09907966
000300 39 97 6d bd 7d 6b db 3d dc 86 cc bd 4f e4 97 3d
       -0.058005545 0.10713861 -0.0998666 0.07416593
000310 7b 6c 52 3c 74 9a 84 bd 36 2a d2 3c d6 62 18 3d
       0.012843247 -0.06474772 0.025654893 0.037203632
000320 44 5e f7 3c 37 bb 59 3e 85 ac 87 3d 24 e6 3e bb
       0.030196317 0.21262823 0.06624702 -0.0029128874
000330 1b 46 10 3e 2c 4e f5 3c a1 f8 2c bd be 37 74 bd
       0.14089243 0.029944502 -0.0422293 -0.059623472
000340 f4 04 3a b9 d3 57 3c bd dd 7e de bd c5 ce 23 3d
       -0.00017740187 -0.045982193 -0.10864041 0.039992113
000350 93 57 af 3d e4 7c 4e 3e 3c d6 d7 3c 4e 89 42 3e
       0.08561625 0.2016483 0.026347272 0.1899769
000360 a8 d1 01 3e b9 b9 27 3e d7 2a 36 3e 63 50 61 3d
       0.12677634 0.16379441 0.1778978 0.055008303
000370 de b3 04 be 43 32 cb bc ca b5 b6 bd 52 9b 3c be
       -0.12959239 -0.02480424 -0.08921392 -0.18418625
000380 92 c9 8a bc e9 0a ae bd 59 46 78 3d 07 31 e8 bd
       -0.01694182 -0.08498175 0.060613964 -0.11337476
000390 ee 70 d6 bd 7a e4 0c bd d1 77 42 be b2 84 22 be
       -0.104707584 -0.03439758 -0.18991019 -0.15870932
0003a0 a3 78 6e bc 5b 44 c1 3d 44 7e 4d be 7c c9 79 3c
       -0.014555129 0.09436866 -0.20067698 0.0152457915
0003b0 72 8e e3 3d 79 80 8a bd 0f f4 08 3d 2f da f1 3b
       0.11111154 -0.067627855 0.033435877 0.007380746
0003c0 ff 35 c3 bc 72 c5 c1 3d cb 80 fc bd 14 80 e8 bc
       -0.023829458 0.09461488 -0.12329253 -0.028381385
0003d0 df 06 2d 3e 17 bf 2f bd 60 a2 b1 bd b9 b0 83 3c
       0.16897152 -0.042906847 -0.08673549 0.016075479
0003e0 56 00 12 bd 4d 7e 5f 3d 6f f7 27 bd 4b 4e 86 bd
       -0.03564485 0.05456381 -0.041007455 -0.06557902
0003f0 c3 02 1e 3b 86 6a 97 3c 02 c9 d3 bd 03 26 2f ba
       0.0024110533 0.018483412 -0.103410736 -0.00066813844

layers.3.lin_a.weight f4 [1, 40]
000000 df 68 af 3d 78 19 b0 bd ac e8 f8 bd bd 92 f4 bd
       0.085649244 -0.08598608 -0.12153754 -0.119420506
000010 33 b5 36 3e 8f af ec 3d 8c 84 34 bd 09 cf b2 bc
       0.1784256 0.11556923 -0.04407172 -0.021827238
000020 b9 fd 05 bd ef f5 39 3d 71 4c ad bd 20 8c 1e be
       -0.032712672 0.045400556 -0.08461846 -0.15483141
000030 87 a0 49 bd 94 e4 a8 bc ba 48 fd bc a7 e6 30 3d
       -0.049225356 -0.020616807 -0.030918468 0.043188717
000040 6f fd ef bd d9 14 3b 3e f7 da 44 bd 65 14 cc bc
       -0.117182605 0.18269671 -0.048060384 -0.024912069
000050 30 03 10 3e 88 0c 73 3c de 8f 08 be ad 02 b5 3d
       0.14063716 0.014834531 -0.13336131 0.08838401
000060 9a b1 57 bd 11 e3 14 3e 9f 45 93 bd 05 be 09 be
       -0.05265961 0.14539744 -0.071910135 -0.13451393
000070 bc bf f4 bd f0 e0 f0 bc 31 d1 1d bd 47 47 e5 3d
       -0.11950633 -0.029404134 -0.03852958 0.11195236
000080 ee 58 3f 3c 43 42 8d bd 5e ca 42 3a 6d b7 ef bd
       0.011678917 -0.06897404 0.0007430668 -0.117049076
000090 48 10 29 3d 93 91 41 3d 33 28 0b be 00 db 10 be
       0.041275293 0.04725797 -0.13589554 -0.14146042
