experiments/output-gat/BA_Shapes/min/42/model.pth (torch, 39135 bytes, 18 tensors)

layers.0.bias f4 [20]
00000000: 0000 0000 4155 2d3f d5a9 063f 0000 0000
00000010: 0619 4d3f 0000 0000 00ce 013f bbe2 0c3f
00000020: 0000 0000 0000 0000 e860 3e3f 0000 0000
00000030: 1812 353f 986f 013f 836d 093f 8108 0c3f
00000040: 0000 0000 fde8 0c3f 0000 0000 0000 0000
0.0 0.6770821 0.52602893 0.0 0.8011631 0.0 0.50704956 0.55033463
0.0 0.0 0.7436662 0.0 0.70730734 0.50560904 0.53682727 0.54700476
0.0 0.5504301 0.0 0.0

layers.0.combine_aggr.weight f4 [20, 80]
00000000: 180f af3d ba0c be3d 9091 d6bc 6856 d23d
00000010: f0ac c8bc 98d1 b83c 23f4 5ebd da78 863d
00000020: 90d9 c93d 36fb a7bd d405 c73d 006b ab3c
00000030: e42a a93d 7014 783c 04d1 5c3d e050 81bc
00000040: 2883 b03d 9060 873c adc9 55bd b075 e93c
00000050: 2afe 52bd a0d1 56bc b6ff 39bd f0e4 973d
00000060: a7be b4bd 401e 53bd 0650 01bd e6ac 89bd
00000070: c8e3 2c3c f726 e2bd b4c9 ce3d 6e81 c2bd
00000080: 12c6 b03d 186c 983c 86b2 14bd 7c7e 8d3d
00000090: 20be 8e3c 8800 b93d 1840 483c 926c 10bd
000000a0: e815 f63c 185f f8bc f8ba 403d b86e cc3d
000000b0: 385c 843d a433 48bd a02d 843d 98e0 a33c
000000c0: b88f 683d 788f 8bbd a4a9 e2bd baee 30bd
000000d0: b7a0 afbd ace1 bb3d 2ce7 033d 10b0 3d3d
000000e0: acd4 103d 00ed feba 4a32 b33d 4eb0 a2bd
000000f0: 20ac e63b 9448 9cbd 7435 0d3d 70b5 1dbd
00000100: 8452 0c3d 90d1 bebc 9ce8 bd3d 84b6 87bd
00000110: 2b8f 88bd 4891 88bd ccf2 cd3d 7c9c 183d
00000120: 6c54 dc3d 5ef7 bcbd fb1c e3bd f523 b3bd
00000130: 2307 9abd a07c 393d ccfa 233d 7242 be3d
00000140: cc7e 6cbd 0618 9cbd fcf9 723d a81a 39bd
00000150: 2af8 8a3d 9457 d9bc b8fb 823d ace7 b1bd
00000160: 4b1a 67bd 009e 0b3d 78a0 c13c d883 e9bc
00000170: ea7b 883d 80a8 9b3d 9e0b a6bd b27b 74bd
00000180: 86a9 d13d ae86 1abd 8059 22bd ab8d ddbd
00000190: 5020 83bd 28cb e43c 88c8 71bc 6435 a6bd
000001a0: e0de 2b3b 5068 9cbd 9e42 c2bd 952c 7cbd
000001b0: 7766 c8bd cacb 91bd 40e2 e43d 48fd ac3c
000001c0: e81e 0d3d 538f d5bd 3a62 96bd 246e 18bd
000001d0: 2038 8f3c 827a c9bd 2051 45bd 4414 89bd
000001e0: 0071 a239 4867 2abd c0de fdbb be28 9bbd
000001f0: 8c2a 9dbd 5e95 85bd 06c1 1cbd 6cb9 b4bd
00000200: befc bf3d 9cc5 b5bc 0802 c53d 20b0 0e3d
00000210: dae4 c1bd 2675 9e3d dc00 fcbc fc8a 2fbd
00000220: 6410 bebd e5a2 e3bd 0006 033d 4012 c8bc
00000230: 0c4a 323d fae8 bbbd 1aff a93d 2914 a8bd
00000240: 8026 9ebc 684d bf3c 746a 6c3d 42da b83d
00000250: dc95 d03d dc8e b5bd 1880 e63c 8af9 44bd
00000260: 68bc 48bc 6162 abbd f68f d03d 1c0e a8bd
00000270: 0cc0 743d ccf0 203d 00d0 143d 4f96 77bd
00000280: 2c20 d03d 9844 c93c 20a4 6b3c acc8 c9bd
00000290: a43d 403d 2467 89bc e8cb 51bd 06ad c43d
000002a0: 8832 cc3c 025f 7dbd dfc8 67bd e0f4 aebb
000002b0: 20b3 7f3d b00a eabc 7ea5 82bd 12d2 1cbd
000002c0: 6c0f abbd 9451 233d 0e3c b13d 9490 d7bd
000002d0: 88b7 d43c 5092 6c3d 1014 a63c 0c16 23bd
000002e0: 8c05 6f3d 34a8 703d 203d 2b3d 2cf1 a0bc
000002f0: 9c87 f2bc 58f7 433c dccb a1bc f677 08bd
00000300: 825c 923d 94c7 c43d 9057 35bc d010 cdbc
00000310: 00d7 d53a e0be dabb f030 dc3c 0455 003d
00000320: 73f7 cfbd e8ff 28bd 42d3 c03d 3c65 323d
00000330: a037 b6bb a20c 8abd 4a16 8cbd 541b cdbd
00000340: fe45 15bd 88a6 1a3d 96ff 913d cc6e 533d
00000350: 4e66 cabd 2cb2 89bd 108b 90bc 4e7f dd3d
00000360: a87d 843c 8830 edbc a475 3d3d 686c 2ebd
00000370: 4d34 94bd ee1f a73d ac3a 50bd 309b b7bc
00000380: 9fc8 e3bd c23e 993d 687a ad3d d8e5 263d
00000390: 40a8 9fbd a2fb e1bd a4f7 b9bd d8be aa3d
000003a0: e4dc 5b3d 9eae c03d 8ce7 6f3d 30ce e73c
000003b0: 4081 8fba b822 aebd 922d c4bd 802b d6bd
000003c0: 4877 3b3d 51d6 60bd 7053 b8bc 7ec6 83bd
000003d0: b8e5 a6bc d128 a1bd 629d 95bd e8e7 173d
000003e0: a019 08bd ea5a 8d3d d0e9 12bd a4f7 a7bd
000003f0: 6899 a1bc 0dfd 5dbd de1a 0cbd 4cfb d9bd
0.08547801 0.09279771 -0.026192456 0.10270387 -0.024496526 0.02256088 -0.054432046 0.06566019
0.0985595 -0.082022116 0.097179085 0.020925045 0.08260134 0.015141591 0.05391027 -0.015785635
0.08618766 0.016525537 -0.052194286 0.0284985 -0.05151192 -0.013111502 -0.04540988 0.07416713
-0.088254265 -0.05154252 -0.031570457 -0.06722431 0.010552354 -0.11042588 0.100970656 -0.09497343
0.08631529 0.01860623 -0.036303066 0.069088906 0.017424643 0.090333045 0.012222312 -0.03525979
0.030039743 -0.030318782 0.047053307 0.099820554 0.06462902 -0.048877373 0.06454015 0.020004556
0.056777686 -0.06814474 -0.11067513 -0.043196417 -0.08575576 0.09173903 0.032202885 0.046310484
0.03535907 -0.0019449294 0.08749826 -0.07943784 0.007039562 -0.07631031 0.034474805 -0.03850311
0.03425838 -0.023293287 0.09272882 -0.06626609 -0.06667932 -0.06668335 0.100560755 0.03725861
0.1075829 -0.09226869 -0.11089512 -0.08747093 -0.075208925 0.045284867 0.0400341 0.09290017
-0.05773811 -0.076217696 0.059320435 -0.045191437 0.06785615 -0.026531018 0.06395668 -0.08686766
-0.05642156 0.034086227 0.023636088 -0.02850525 0.0666426 0.07600498 -0.081076846 -0.059688278
0.10237412 -0.037726097 -0.039636135 -0.10818037 -0.064026475 0.027928904 -0.014757283 -0.08115652
0.0026225373 -0.076370835 -0.094853625 -0.061565954 -0.097851686 -0.07118948 0.11175966 0.021116868
0.034453303 -0.104277276 -0.07342954 -0.037214413 0.017482817 -0.0983782 -0.04817307 -0.066933185
0.0003098324 -0.041602403 -0.007747501 -0.0757613 -0.07674131 -0.0652263 -0.03827002 -0.08824429
0.093743786 -0.022188954 0.09619528 0.034835935 -0.09467478 0.07737188 -0.030762129 -0.042857155
-0.0928047 -0.11115054 0.031988144 -0.024422765 0.043527648 -0.09175296 0.0830061 -0.0820697
-0.019305468 0.02335234 0.05771871 0.090260044 0.101848334 -0.08865139 0.028137252 -0.04808954
-0.012251951 -0.08368374 0.10183708 -0.08205816 0.059753463 0.03929214 0.036331177 -0.06044608
0.10162386 0.02456884 0.014382392 -0.09852728 0.046933785 -0.016772814 -0.05121985 0.09603314
0.024926439 -0.061858185 -0.05658805 -0.00533925 0.062426686 -0.02856955 -0.063792214 -0.038286276
-0.08352551 0.03987272 0.08654033 -0.10525623 0.02596642 0.057756722 0.020273238 -0.039815947
0.0583549 0.05875416 0.04180634 -0.01964625 -0.02960568 0.011960827 -0.019750528 -0.03331753
0.07146551 0.09608379 -0.01106824 -0.02503243 0.0016314685 -0.006675586 0.026878804 0.031331077
-0.10154619 -0.041259676 0.09415294 0.043553576 -0.0055608302 -0.06740691 -0.06840189 -0.10014978
-0.036443703 0.037756473 0.07128827 0.051619336 -0.09882794 -0.06723437 -0.017644435 0.10815297
0.016173199 -0.028953806 0.04625477 -0.042583853 -0.07236538 0.08160387 -0.050837204 -0.022412866
-0.1112225 0.07482673 0.08470613 0.04074654 -0.07795763 -0.11034323 -0.09080437 0.08337182
0.053677455 0.094083056 0.05857043 0.02829656 -0.0010948554 -0.08502716 -0.09579004 -0.10457516
0.045768052 -0.054891888 -0.022500724 -0.06434344 -0.02037321 -0.07869113 -0.07305409 0.037086397
-0.033227563 0.06902106 -0.035867512 -0.082015306 -0.01972647 -0.054196406 -0.03420531 -0.10643634

layers.0.lin_a.weight f4 [1, 40]
00000000: 5c94 1cbe baef ae3d 4ba8 efbd 4ab9 18bb
00000010: 0624 97bd cf06 0c3e 226c bebd 42c1 383e
00000020: d6c2 2d3c f307 8e3d f80a c83c 39fe 7b3d
00000030: 1835 29bd c499 f9bd bbdf 923e 2dfc 05be
00000040: 414c 66bd 6c9d 1abe b0ad b23d 78ca 953c
00000050: c31f 07be 4121 0abd 37d0 da3d b4f6 a23d
00000060: 4ce0 423d de89 03bc 8798 1e3d 0a59 63bc
00000070: 9bb6 413d 8291 483d 48a6 ef3d fcf1 b4bd
00000080: cf79 443c 5e0f d73c 10af 093d 84cd 10be
00000090: 4ac6 39be b202 fcbd 4071 fc3c c39a be3d
-0.1529097 0.08541818 -0.11702021 -0.00233038 -0.07379918 0.13674472 -0.092979684 0.18042472
0.010605535 0.0693511 0.024419293 0.061521742 -0.0413104 -0.121875316 0.28686318 -0.13084479
-0.056225065 -0.15099114 0.087245345 0.018285021 -0.1319571 -0.03372312 0.10684245 0.07957211
0.047577187 -0.008028476 0.03871968 -0.013876209 0.047293287 0.048966892 0.117016375 -0.08835217
0.011991932 0.026252445 0.03361422 -0.14140898 -0.18142048 -0.123052016 0.03081572 0.09306862

layers.0.lin.weight f4 [20, 1]
00000000: 43e7 33be 94b0 9d3f 215a 853f 3aae 61bf
00000010: e033 273f ab43 30bf 5e7d cf3f 9206 603f
00000020: 2db6 83be 21d4 02bf 2e65 853f a14d 1abf
00000030: 4d0c 8e3f 090e a13f e0e5 ac3f 969c 623f
00000040: 07c0 60bf 87d1 b63f a329 a4be 7626 97be
-0.17568688 1.2319512 1.041813 -0.88156474 0.6531353 -0.68853253 1.6210134 0.87510026
-0.25724927 -0.51104933 1.0421503 -0.602747 1.1097504 1.2582408 1.3507652 0.8852018
-0.8779301 1.4282693 -0.32063016 -0.2952153

layers.1.bias f4 [20]
00000000: c464 89bb 0000 0000 cf0b 883f 0000 0000
00000010: ae19 e63f 30a8 9c3f 0000 0000 0000 0000
00000020: 012c 343f 35b6 253f 75b7 a83f 0000 0000
00000030: cb4d 913f 0000 0000 0000 0000 291c 353f
00000040: bfef ae3f 402c 7b3f a736 813f 20b4 b63f
-0.0041929204 0.0 1.0628604 0.0 1.7976587 1.2238827 0.0 0.0
0.70379645 0.6473115 1.3180987 0.0 1.1351866 0.0 0.0 0.70746094
1.3666915 0.98114395 1.0094804 1.427372

layers.1.combine_aggr.weight f4 [20, 80]
00000000: 20ce 44bc 1069 a73d 5010 b03d c86c 8d3c
00000010: 9882 5a3d 0867 d5bd 0078 8a39 a891 cabd
00000020: a8dc 1b3d c621 a3bd e036 23bd 3e0f a03d
00000030: 32d4 da3d 9c78 89bd 592a 7ebd 10dc 623c
00000040: 7005 343d 782c 95bc 2803 0fbd 5266 96bd
00000050: 807c 433d e056 e03d b5ae 5dbd 30ff 573d
00000060: a0a8 5f3d 500c b83d 508e 50bc 00ca 663b
00000070: fa39 a83d bcbc 903d 9c28 e23d dc3b 03bd
00000080: 1034 353d fae2 9f3d 476e 9bbd 48f3 b53c
00000090: 04ef ccbc 8c30 933d 24ad 4dbd 987a 003c
000000a0: 4aff 883d 31c4 d1bd 2056 c1bd 918d 6abd
000000b0: 10de 923d 7488 993d c761 9cbd 38a6 ae3c
000000c0: 3fa8 72bd a58e 54bd 7a78 c53d 4431 5d3d
000000d0: 307b fabc 28d2 863c f075 b13c 308a d63c
000000e0: d4be 1cbd d0d6 86bd 5098 973d 5024 763c
000000f0: 68ac 3f3d 2270 2dbd c0d0 5d3d 92a3 a63d
00000100: 6a41 8b3d 1007 f93c 7048 e13d 0032 80b9
00000110: b0fd c23c ee8d d93d dc89 de3d b45a 41bd
00000120: 8c42 ce3d 8402 293d c00b 4dbc 5ced c73d
00000130: d33a 6dbd 6ec6 943d 5ae6 e23d 65ec 9dbd
00000140: 951d 87bd 97e4 e2bd 8cd3 a4bc 55f4 cfbd
00000150: 5c60 19bd c807 0b3d 2edb a13d ac17 7f3d
00000160: 8c32 7e3d 4cfc 3d3d 5404 8ebd becd b5bd
00000170: 60de 973b de6d d93d c047 ce3b 408d 1dbc
00000180: ac69 9bbd 4911 63bd da81 b0bd ec54 b73d
00000190: e839 95bc ed46 cabd 1881 443c f0ed 043c
000001a0: 9050 62bc aced 233d 3446 763d 3154 d7bd
000001b0: 226a afbd 70ff afbb 334a d4bd 7dfd cfbd
000001c0: ba29 ca3d 2053 0bbc 8a67 62bd 5c15 1dbd
000001d0: c0c3 b2bd d6ae b23d ec99 c6bc cebc 80bd
000001e0: 06a8 adbd 28d5 853d e035 7dbc 4871 40bc
000001f0: 58b6 eebc b50f 5dbd b8ed a23c 542a b03d
00000200: 5bb5 84bd 2088 af3b 2523 aebd daba 56bd
00000210: 66fc c83d c0a6 993a 0c93 dc3d e477 a0bc
00000220: e899 79bd 14cf 88bd 44f1 ca3d d813 b0bd
00000230: ec53 703d c0ac e33c b424 073d 2832 813d
00000240: 649e efbc 2cae 8d3d a16d b6bd e41f 21bd
00000250: 349e a73d c8e8 073d 90f1 73bc a0e3 d5bc
00000260: 80d0 8bbd a03c 8b3d 2001 69bb e0e7 77bb
00000270: 509a d83c 72f8 a83d 04a3 69bd 36b7 1dbd
00000280: d228 9b3d 5e51 813d db47 61bd a383 e2bd
00000290: 98e8 a93c d8d4 703d 88c4 da3c 026a a23d
000002a0: 36af b5bd a8ef 663d 1659 8ebd 24de 803d
000002b0: 704a aa3d 000a 113d aa41 b93d 9bed 96bd
000002c0: cac9 ccbd b928 dcbd b6c1 8f3d 5c6c 203d
000002d0: 6aab a7bd 5cc6 5d3d 08eb d03d 71c9 e1bd
000002e0: 241a a63d 2879 8c3c 0065 2a3c 5607 ce3d
000002f0: 245b cf3d d8f4 403d 7aeb b43d 5c84 3e3d
00000300: b03c 953c 2645 c9bd b812 ab3c fae6 a2bd
00000310: 80fc 0c3d 4098 a13c 009c 243b 218e 9cbd
00000320: 92cd 8abd 2a3e a93d 6007 5f3d a072 713d
00000330: 2075 08bd a4b6 9dbc 18b9 eabc a676 9d3d
00000340: a6b0 45bd e638 903d 2ee0 9d3d b268 d1bd
00000350: 00fa 323a 646f aebc c629 7dbd 20b4 453d
00000360: 908d 5ebc d277 c83d ba50 8fbd c4c6 543d
00000370: eb7e c3bd 6688 65bd 40e7 f93b 08e9 b43d
00000380: 9835 713d b701 bcbd 10e6 4a3c 3bfa 86bd
00000390: e0bd 9e3b 68c0 bebd 7459 06bd 8e0b 9d3d
000003a0: 6217 d2bd f34e dabd 20d3 a63c 001c 7b3c
000003b0: f080 a7bc 3cf1 c73d c2dc 89bd 5401 8bbd
000003c0: f126 abbd e877 aabc 90bd e9bc 32ad 8d3d
000003d0: c0b4 cdbb 383f 123d 864d 3ebd d0bd b93d
000003e0: 6207 c13d ba0f cdbd 6062 ebbc 8648 c2bd
000003f0: 508c 423d d90c c8bd ca85 58bd acc8 e43d
-0.012012035 0.08174336 0.08596861 0.017263785 0.0533472 -0.10420042 0.00026410818 -0.09891063
0.03805223 -0.07965426 -0.039847255 0.07815407 0.10685004 -0.067124575 -0.062052105 0.013846412
0.043950498 -0.01820968 -0.03491512 -0.07343735 0.047726154 0.1095407 -0.05412169 0.0527336
0.054604173 0.089867234 -0.012729242 0.0035215616 0.08214183 0.07067248 0.11042902 -0.03203951
0.044239104 0.07806964 -0.07589393 0.022210732 -0.025016315 0.07186994 -0.050213948 0.007841729
0.066893175 -0.10242499 -0.09440255 -0.057263914 0.07171261 0.074967295 -0.07635837 0.021319494
-0.059242483 -0.05189385 0.0964212 0.05400206 -0.030576319 0.016457632 0.021662682 0.02618894
-0.038267925 -0.06583941 0.07402098 0.015023306 0.04679528 -0.042343266 0.054154158 0.08136667
0.06799586 0.030398875 0.110001445 -0.00024451315 0.023802608 0.10622774 0.10866138 -0.047205642
0.100712866 0.041262165 -0.012515008 0.097620696 -0.057917427 0.0726441 0.11079092 -0.07711104
-0.06597439 -0.11078756 -0.020120405 -0.101540245 -0.03744541 0.033942968 0.07903133 0.062278435
0.062059924 0.046383187 -0.06934419 -0.08877133 0.0046346635 0.10616659 0.0062951744 -0.009616196
-0.07588515 -0.055436406 -0.08618517 0.089517444 -0.018216088 -0.09876809 0.011993669 0.008113369
-0.013813153 0.040021583 0.060125545 -0.10514105 -0.08565165 -0.0053710267 -0.10365715 -0.10155771
0.0987124 -0.008503705 -0.055274524 -0.038350448 -0.087287426 0.087247536 -0.024243318 -0.06286012
-0.084793136 0.06534797 -0.015454739 -0.011745758 -0.029139683 -0.053970058 0.019888744 0.086018234
-0.06479903 0.0053568035 -0.08502797 -0.05242429 0.09813766 0.0011722669 0.107702345 -0.019588418
-0.060937792 -0.06680122 0.09909299 -0.08597535 0.058673784 0.027792335 0.032993987 0.06308395
-0.029250331 0.06917986 -0.08907629 -0.039337054 0.08184472 0.033180982 -0.014889136 -0.026109517
-0.068268776 0.06798673 -0.003555365 -0.0037827417 0.02644077 0.08250512 -0.05704023 -0.0385048
0.07576145 0.06314348 -0.055000167 -0.11060264 0.020740792 0.058796734 0.026705042 0.07930376
-0.088713095 0.056380898 -0.069505855 0.0629237 0.08314979 0.035409927 0.090457276 -0.073695384
-0.09999426 -0.10749955 0.07019369 0.03916584 -0.081869915 0.05414425 0.10201079 -0.1102475
0.08110455 0.017147616 0.010400057 0.10059993 0.101248056 0.0471085 0.08833976 0.046512946
0.018217415 -0.09827642 0.02088295 -0.079542115 0.03442049 0.019725919 0.0025117397 -0.076442964
-0.06777491 0.0826381 0.054450393 0.058947206 -0.033314824 -0.019252129 -0.028652713 0.07688646
-0.04826417 0.070421025 0.077087745 -0.10225047 0.0006827414 -0.02129335 -0.061807416 0.048267484
-0.013583556 0.09788479 -0.06997819 0.05194737 -0.09545692 -0.056038283 0.007626444 0.0883351
0.058889 -0.091800146 0.012383953 -0.065906964 0.004844412 -0.09314042 -0.032800153 0.076682195
-0.10258366 -0.106595896 0.020364344 0.0153265 -0.020447224 0.09762809 -0.06731559 -0.06787363
-0.08357037 -0.020809129 -0.028532773 0.069178 -0.0062776506 0.03570482 -0.04646065 0.09069407
0.09425236 -0.10012765 -0.028733432 -0.09486489 0.047497094 -0.097680755 -0.052861966 0.111710876

layers.1.lin_a.weight f4 [1, 40]
00000000: f5eb bc3d bcf6 0f3e e898 813d 80f3 b53d
00000010: 5b18 2c3e 22b6 82bd 921c 653e 17b5 603e
00000020: 8e6a 53bc c06b e7bd 6b96 e6bd 3e89 753e
00000030: 2917 a73b e277 ba3d 06ac 3d3e 2212 26be
00000040: bd3e da3c e8b5 cabd 555b 2cbe 9976 17be
00000050: 5c38 5bbe 17f3 a6bd 1542 933c d392 1fbe
00000060: 22d3 cd3d 5cf3 913c ba96 ddbd ca7b 10be
00000070: 3a5a 213e c533 3b3e f981 c73c 5c2f 19bd
00000080: c498 e53d 552b 56be 5cb2 3fbe 7856 143e
00000090: 9e97 193e 0809 d73d 6f83 fb3c 84a6 4d3e
0.09224693 0.14058965 0.06327993 0.088843346 0.16806166 -0.06382395 0.2237418 0.2194408
-0.012903823 -0.112998486 -0.11259159 0.23978135 0.0050991965 0.09104897 0.18522653 -0.16217855
0.026641244 -0.09897977 -0.16831715 -0.14791335 -0.21408218 -0.081518345 0.017975846 -0.15583353
0.10050036 0.017816238 -0.108197644 -0.14109722 0.15757075 0.18281467 0.024353968 -0.03739868
0.11210778 -0.20914967 -0.18720382 0.1448611 0.14999244 0.104997694 0.03070232 0.20083052

layers.1.lin.weight f4 [20, 20]
00000000: 52a3 5a3e 2eac 2fbd d9e2 48be 385a 473e
00000010: d3ae afbd 10b1 103e 38c4 bebe ab7f 763d
00000020: dcd9 573e 7617 2bbe fcfb b5be 7048 85bd
00000030: 43a7 98be 126f ebbd a7bc 9bbd 57a6 37be
00000040: 92ac 203e 60fa 30be 8c98 86bd ea71 43be
00000050: 948b 913d 6fcb a2be c20c afbd 80df 053d
00000060: b415 80be 9093 893d 285a 84bd 11a0 a73c
00000070: f835 0f3e 7c4d 39be ee91 96be c213 a8bd
00000080: a7f0 9abe 3688 ebbc a955 80be ab84 a2be
00000090: e861 853d e4c3 143c a622 85bd 7829 64be
000000a0: d071 013d da3e 2d3f ef4f 3f3f b8cd ad3c
000000b0: a3a6 333f d7bb 4cbe c3fe 483f 832a e03e
000000c0: 924a 1cbe fe53 243e 326f 083f b64e 0d3e
000000d0: 1516 dc3e 2c41 3d3f ce3f 483f bdd3 283f
000000e0: 22b6 383e b278 d73e b83d 4abd a463 8b3d
000000f0: fc63 013e 331b 90be 44f4 41bc 3cb8 96bd
00000100: b1e9 5bbe 1829 333d b2ac b1be 1782 abbe
00000110: e844 983d 70fb 9b3d 5402 77bd c837 f0bc
00000120: 5008 a0be 5e04 b0be 5534 4b3d ba6c a9be
00000130: a005 8a3d 5409 7e3c 16ee 2e3e 625e 10be
00000140: e2a8 93bd 30a2 76be 80c4 1b3d aae0 56be
00000150: d627 07bf e6dc 18be 5ffb 553e 1ea1 30bd
00000160: 2e6c 193e 38b0 2f3e b19f 8abe 1c64 ffbd
00000170: 9f66 92be 48a9 3f3d 7286 843d 9d06 17be
00000180: 5427 30be 9efe 1e3c 5701 f3bd 941b 34bd
00000190: e4c9 0dbd 4b5b e93e f3d6 5a3e 8c73 433e
000001a0: e229 603e 2016 8f3d 8d3d 213f 387d f43e
000001b0: c45a 203e 224c 013e 522b 143f 904e 413d
000001c0: 6925 183f 6930 b33e 067f aa3e 7708 0b3f
000001d0: 1051 703d 0963 f63e 1c24 41be f4a3 953d
000001e0: 7851 143e 0b17 15be a886 4cbd 74de cb3d
000001f0: ed7c b5be c8b0 16bd f249 4dbe c947 7fbe
00000200: 4ef3 0b3e 3406 633e 59dc d1bd 6282 0e3e
00000210: b92b a0be 57a1 94bd e781 14be 0623 94be
00000220: 18cc 3b3d cda6 74bd 40f3 30bc d476 c23d
00000230: 44dd db3d 4b8a 8e3d 7e11 dbbd d086 023c
00000240: bab2 09be e0ca fc3c fb2a 8dbe 52fa 2abe
00000250: 96a0 41be cc9b 20be afc2 abbe 78ce 293e
00000260: 17c5 8ebe 42e5 14be 9b91 d9bd 6765 3c3d
00000270: a0d5 cf3d 8704 99be 08f4 5f3e 68e1 58be
00000280: 302a ee3c 163d 8b3f cfa3 8b3f cc47 54bd
00000290: 69af 493f b015 c93d f3a9 863f d4d4 503f
000002a0: a8ee 10bd 2a40 0bbe 006e 823f b0f2 423d
000002b0: c486 853f df26 4e3f 8925 2b3f 16c3 583f
000002c0: 7d13 33be f014 583f 606d a63d 867d 3ebe
000002d0: 5002 2bbc cd45 453f aa1f 543f 2850 20be
000002e0: 1173 833f 0e08 e8bd ce75 813f 1b4d 993f
000002f0: faa6 2c3e e849 903d 9efa 843f 2c37 23bd
00000300: d9d8 993f 709e 593f 867c 923f dcc6 5e3f
00000310: 21e6 2abe 02d3 873f 4a9d bcbd 08e1 2a3d
00000320: 2c81 473e 4903 6d3e 8d48 b83e e0f8 c1bd
00000330: e8aa 5dbd b095 e8bc edc2 ce3d 7c0e 9d3c
00000340: 2075 63bc eedb 4e3e 91e6 24bc 6896 003e
00000350: 06a7 643e e41e 8e3e 1b14 503e e123 4d3d
00000360: 3400 bd3d f637 1e3d 3c8c 0cbe 0c0b 563e
00000370: 0ecb 3d3e 33a1 5bbe 326c 243e 68eb 3d3d
00000380: dbfd 88bd 22b3 5c3e 8923 87bd 7737 2cbe
00000390: 70be 0f3e 8896 6cbd 3c58 10be 5eab b8bd
000003a0: 95ec c93d 0569 893d d139 acbd 5a80 19be
000003b0: e033 803c 2216 60be b805 823d 76b6 31be
000003c0: 90d0 2abc 1e6d c53e 371b 9a3e 5ac6 533e
000003d0: 0ee6 b63e 849b dc3d 6be4 a23e 8c15 d13e
000003e0: d06f 753d 94ba ed3d c6df a83e 0cdc 33bd
000003f0: 69b1 803e 5bd1 113f 67de 163f af59 063f
0.21351364 -0.042888813 -0.19617786 0.1946801 -0.08578267 0.14130044 -0.37259078 0.060180347
0.210792 -0.16708168 -0.3554381 -0.06507957 -0.2981511 -0.11495794 -0.07604342 -0.17934547
0.1569083 -0.1728301 -0.06572065 -0.19086424 0.071067005 -0.31795833 -0.08547355 0.03268385
-0.25016558 0.067175984 -0.064625084 0.020462068 0.13985431 -0.18095964 -0.2940821 -0.082068935
-0.30261728 -0.028751474 -0.25065354 -0.31741843 0.06512815 0.009079907 -0.06500749 -0.22281444
0.03160268 0.6767403 0.74731344 0.021216258 0.7017614 -0.1999353 0.78513736 0.43782434
-0.15262821 0.16047665 0.5329467 0.13799557 0.42985597 0.7392757 0.7822236 0.65948087
0.18038228 0.4208427 -0.049375266 0.06806114 0.12635797 -0.2814575 -0.011838023 -0.07359359
-0.21475865 0.043740362 -0.3470207 -0.33497688 0.07435018 0.07616317 -0.060304955 -0.029323474
-0.31256342 -0.34378332 0.049610455 -0.33090764 0.06739354 0.015505154 0.1708301 -0.14098504
-0.07209946 -0.24085307 0.038029194 -0.2098414 -0.5279516 -0.14928016 0.20896672 -0.043122403
0.14982674 0.17157066 -0.2707496 -0.12470266 -0.2859392 0.0467923 0.06470956 -0.14748617
-0.17202502 0.00970426 -0.1186549 -0.043971613 -0.034616366 0.45577464 0.21371059 0.19087046
0.21890977 0.06986642 0.62984544 0.47751784 0.15659624 0.12626699 0.578786 0.047194064
0.59432083 0.34997872 0.33300036 0.5430979 0.058671057 0.48122433 -0.18861431 0.07306662
0.14484203 -0.14559571 -0.049933106 0.09954539 -0.35446873 -0.036789685 -0.20047739 -0.24929728
0.13667032 0.22170335 -0.10247106 0.13916925 -0.31283358 -0.07257336 -0.14502679 -0.2893297
0.045848936 -0.059729386 -0.010800183 0.09495321 0.107355624 0.06959971 -0.10696696 0.007966712
-0.13447085 0.030858457 -0.27571854 -0.16697052 -0.18908915 -0.15684432 -0.3354697 0.16582668
-0.27884743 -0.1454058 -0.10623475 0.045995142 0.101481676 -0.29886267 0.21870434 -0.21179736
0.029072851 1.0878017 1.0909365 -0.051826283 0.7878328 0.0981859 1.0520614 0.8157475
-0.03538385 -0.13598695 1.0189819 0.047594726 1.0431752 0.8052806 0.6685415 0.8467268
-0.17487903 0.8440695 0.081263304 -0.18602571 -0.010437563 0.7705963 0.82860816 -0.15655577
1.026949 -0.11329661 1.0114076 1.1976656 0.16860572 0.070453465 1.0388982 -0.039847538
1.2019302 0.8500738 1.1444252 0.87022185 -0.1668935 1.061127 -0.09209688 0.041718513
0.19482869 0.23145784 0.35992852 -0.09471297 -0.054118067 -0.028391689 0.10095773 0.019171946
-0.013882905 0.20201084 -0.010064737 0.12557375 0.2232934 0.27757943 0.2032017 0.050083045
0.09228554 0.038627587 -0.1372537 0.20902652 0.1853449 -0.21448211 0.16056898 0.04636708
-0.06689044 0.21552709 -0.06598575 -0.16818033 0.1403749 -0.057760745 -0.14096159 -0.09017061
0.098595776 0.06709484 -0.08409465 -0.14990368 0.015649736 -0.21883443 0.06348747 -0.1735476
-0.010425702 0.38559812 0.30098888 0.20681134 0.35722393 0.1077185 0.31814894 0.4083675
0.059921086 0.116078526 0.32983226 -0.043911025 0.25135353 0.56960076 0.5893311 0.52480596

layers.2.bias f4 [20]
00000000: 89f3 92bf 7bc4 bc3f 0000 0000 0000 0000
00000010: f596 c4bb fb93 e73f fd24 f6bf 0996 f7be
00000020: 0f01 8b3f 0000 0000 b045 e03f 3b46 e73f
00000030: 0000 0000 2c47 5f3f 7bf0 cebf d7c4 c4bb
00000040: 9fcc b23f 1020 3bbd 59f8 b43f 38c8 c4bb
-1.1480571 1.4747461 0.0 0.0 -0.005999441 1.8092035 -1.9230038 -0.48356655
1.0859698 0.0 1.7521267 1.8068308 0.0 0.87217975 -1.6167139 -0.0060049105
1.3968695 -0.045684874 1.413829 -0.0060053132

layers.2.combine_aggr.weight f4 [20, 80]
00000000: ca12 89bd 6882 0e3d c047 5ebc 55d0 a9bd
00000010: e09f 6f3c 9cce d4bc 6e5e 36bd fb8f 5abd
00000020: 48e2 42bd 8673 39bd 40fd 333c 3034 dd3d
00000030: 9735 86bd 27a4 55bd d87d 99bd 4004 8bbb
00000040: 086f 003c 722a 9dbd 182d 513d d65b cdbd
00000050: deed d33d 485c ac3c 089e 38bc 9cf9 23bd
00000060: 389e 4d3d 4034 a73d d1c4 95bd 6493 e5bc
00000070: 628f a83d 10a5 abbc 319a a8bd 1e2b 13bd
00000080: 201a 7d3b 2cfc aabc 1eea 9cbd 3473 8fbd
00000090: b0a5 f73c 981b 9d3d 4a4d d03d b00b 4fbc
000000a0: 4c32 303d 00db b5bd 5406 743d bacb da3d
000000b0: 3879 6e3d 3210 35bd b4af ba3d 05db d8bd
000000c0: f0ce 5bbc acef e2bc ab64 e4bd af9f 82bd
000000d0: a6d3 a6bd 602a f63c 685e 18bc a452 523d
000000e0: cc08 cebc 22e0 bc3d a87b 4f3c 3cce bd3d
000000f0: faef b93d 682e c2bd 98c5 99bd b2ea 893d
00000100: de53 d83d a16e c3bd c07a d63a 0c10 30bd
00000110: e691 d73d b036 be3d bca5 a63d ec70 763d
00000120: d0d2 2bbc 4c48 d33d d54b 56bd b011 b53b
00000130: b8fc f0bc 9209 a7bd cb03 59bd 4011 de3c
00000140: 206f 23bc feae 97bd a8e0 68bc 282e 9e3c
00000150: 9733 a0bd 0449 8a3d 9eab c2bd 0034 8c3a
00000160: 334e bbbd 4e7a cebd 288c 63bc 7ecf cf3d
00000170: 5c75 d83d 0897 243d 1c7a b13d 0456 7abd
00000180: 0ee9 803d 2ab6 8b3d 6fd4 dabd 2e78 afbd
00000190: d4d7 453d a844 293c ccfc 9abd 26b0 b4bd
000001a0: 5a7c a53d 601b 483c 00ba 81b9 1b5a ddbd
000001b0: 4ee6 c83d 775d 97bd 2c0e 4c3d a842 5cbc
000001c0: c0c2 6e3b 48db 603d f4fb f3bc a079 00bd
000001d0: ac88 b63d 2f75 afbd 4cca 4b3d 845d ecbc
000001e0: b403 19bd 5847 993d 30a0 9a3c 792d d5bd
000001f0: aa9d cc3d 093c 63bd b4f1 c53d 52b9 0fbd
00000200: 0a42 df3d 5418 073d c0fa b0bb 3cd0 2e3d
00000210: 40da 63bb 5522 63bd 4480 7a3d 4284 943d
00000220: e07b 65bc 7a60 d73d 90a8 e83b eb2f 72bd
00000230: c88e 79bd 580f 9a3d 2c82 39bd 0a9f 903d
00000240: 5a6c debd 2066 7c3b 4835 9ebd c471 223d
00000250: 54f4 b93d 1c35 343d 4c74 1dbd 67cd d6bd
00000260: a9f9 58bd 660d 87bd 92a6 da3d 9738 76bd
00000270: 1011 313d decf b73d 1419 253d e8ec c8bd
00000280: 5815 50bc f0ea 07bd c287 933d 38d4 2bbc
00000290: c03b c1bb 28b0 cb3d a8f2 d93c 8448 543d
000002a0: d26a 13bd 1cbe 953d 28b0 833c 84fa b7bc
000002b0: 3881 b03c 353c b4bd a0b5 863b 3405 523d
000002c0: 4c68 d6bd 8d40 73bd ec74 8f3d 402a 263b
000002d0: 4094 79bb 78ee 3a3c 1589 4dbd e257 bd3d
000002e0: 68a0 35bc 30be 26bd f80e 713d e295 bebd
000002f0: 94f0 a8bc 709f 383c cc1e 0ebd 503d 793d
00000300: 058b c3bd ea05 04bd 5a79 40bd 6ce0 d33d
00000310: 80c2 363d 3dce aabd e47b 313d 4063 1bbb
00000320: b29b d13d 7cb9 7c3d 0eba 85bd c21a cc3d
00000330: 00d0 a3bc bc8e d0bc 50f0 083d ce7c e33d
00000340: 002d 0a3d 94ed dcbd 2630 12bd 8a37 d53d
00000350: 9667 21bd d850 5cbd fc82 b6bd ecca 7cbd
00000360: 5261 7abd 78bd da3c 20f6 363d c886 da3d
00000370: 9c44 963d 0088 d83a 04f8 763d d4e0 823d
00000380: c87e c5bd e413 673d 1aa2 9cbd 2cd1 b03d
00000390: 4e2e 47bd 6809 be3c 80ed 9bba 1c76 543d
000003a0: 5075 8e3c 9c18 a6bd 8c82 393d 1012 873d
000003b0: 7a7b 6ebd 5b89 94bd 73ea 9bbd 01d1 5ebd
000003c0: c0f1 66bc a8f6 083c 80b7 4eba 703e f2bc
000003d0: 6017 8e3d 409c c13b 38f4 84bd 2464 f2bc
000003e0: 159f 86bd b88e 21bd dcfd d7bd c808 a03c
000003f0: bf6a b1bd 341e 313d 1adb 9c3d f056 aabd
-0.06693037 0.034792334 -0.013566911 -0.08291689 0.0146255195 -0.025977425 -0.04452365 -0.053359967
-0.04757908 -0.045276187 0.0109856725 0.108009696 -0.0655319 -0.0521585 -0.07494706 -0.00424245
0.007838972 -0.076741114 0.051068395 -0.10027282 0.10348104 0.021040097 -0.011268146 -0.040032968
0.050199717 0.08164263 -0.073129304 -0.028024383 0.08230473 -0.020952731 -0.08232535 -0.03592979
0.0038620308 -0.020872198 -0.07661842 -0.07004395 0.030230373 0.07671279 0.10170992 -0.012637064
0.043016717 -0.088796616 0.059576347 0.10683389 0.058221072 -0.0442049 0.09115544 -0.1058865
-0.013416037 -0.027702175 -0.111520134 -0.063781135 -0.081458375 0.030049503 -0.009299852 0.051348343
-0.025150679 0.092224374 0.012663759 0.09267852 0.09078975 -0.094815075 -0.07508391 0.06734218
0.105628714 -0.09542585 0.0016363487 -0.042984053 0.10525875 0.092877746 0.0813708 0.060166284
-0.010487273 0.10316524 -0.052318413 0.00552579 -0.02941738 -0.08156122 -0.052982133 0.027107835
-0.009975225 -0.07406424 -0.0142137185 0.019309118 -0.0782234 0.06752208 -0.0950539 0.001069665
-0.09145775 -0.100819215 -0.013888396 0.10146998 0.105692595 0.040183097 0.08665869 -0.061117187
0.06294452 0.068218544 -0.1068505 -0.08567844 0.048301533 0.01033131 -0.075677484 -0.0882266
0.08080359 0.012213558 -0.00024743378 -0.10808202 0.09809552 -0.07390874 0.049818203 -0.013443626
0.0036431998 0.054896623 -0.029783227 -0.03136599 0.08912787 -0.08567273 0.049753472 -0.028853185
-0.037357047 0.07484311 0.018875211 -0.10409064 0.099910095 -0.055477176 0.09665242 -0.035088845
0.10901268 0.032982185 -0.0054009855 0.042679057 -0.0034767538 -0.055452663 0.06115748 0.07251789
-0.014006585 0.10516448 0.0071001723 -0.05912773 -0.060927182 0.07522458 -0.045290157 0.07061584
-0.1086051 0.003851302 -0.07725006 0.039659277 0.09079805 0.04399596 -0.038440987 -0.10488396
-0.05297247 -0.065943524 0.10676302 -0.060112562 0.043229163 0.089751944 0.04030712 -0.09810811
-0.012700401 -0.03318304 0.07203628 -0.010487609 -0.0058970153 0.099457085 0.026604965 0.05182697
-0.035990544 0.07311651 0.016075209 -0.022458322 0.021545991 -0.08800546 0.004111007 0.051274493
-0.10469112 -0.059387732 0.07004723 0.0025354773 -0.0038082749 0.011409394 -0.05017956 0.09245278
-0.011085607 -0.04070872 0.058852166 -0.09305932 -0.02062253 0.011268482 -0.03469734 0.060849488
-0.09548 -0.032232203 -0.04699073 0.103455395 0.044619083 -0.08340118 0.043331042 -0.002371028
0.10234775 0.06170033 -0.06529628 0.09966041 -0.019996643 -0.025458686 0.033432305 0.11107789
0.03373432 -0.10787502 -0.03569045 0.10410984 -0.039405428 -0.053788036 -0.08911702 -0.06171696
-0.061127968 0.026701674 0.044668317 0.10670239 0.07337305 0.0016520023 0.06029512 0.06390539
-0.09643322 0.056415454 -0.07648106 0.08633646 -0.048628144 0.023197845 -0.0011896342 0.05187045
0.017389923 -0.081101626 0.045290515 0.06595242 -0.058223225 -0.07252761 -0.07613077 -0.05439854
-0.014095724 0.008359589 -0.000788562 -0.029570788 0.06938052 0.005908519 -0.064918935 -0.029588766
-0.06573311 -0.039442748 -0.10546467 0.019535437 -0.08662938 0.043241695 0.07658978 -0.08317363

layers.2.lin_a.weight f4 [1, 40]
00000000: 4431 a3bd 5f31 25bb 663e 0fbd 8905 0d3c
00000010: fab8 013d 25bd a6bd 514f 1f3e d792 eebd
00000020: b883 0c3d 86c5 803c cd68 c4bd 5379 3fbd
00000030: 4652 75bd 8e85 eb3d a7ae 85bd 4b75 71bc
00000040: d3c7 67bd 7903 7dbe faa0 c83d abf8 1abd
00000050: d062 fc3c b1e3 e33d 89ca d0bd 139b 58bd
00000060: 2635 14be de96 6a3d 855c 5cbc e623 2e3e
00000070: 6742 773e 054a a9bd c062 723d 0dea 13be
00000080: 0bf6 0fbe 45ea 413d 929c 613d 3471 19be
00000090: eb99 143e 8c37 263e c61e 5e3e e518 84be
-0.07968381 -0.002520643 -0.034971617 0.008607277 0.031670548 -0.08141545 0.155576 -0.11649101
0.034305304 0.015719187 -0.09590302 -0.046746563 -0.059892915 0.11500083 -0.06527453 -0.0147374375
-0.05658705 -0.24708356 0.09796329 -0.037834805 0.030808836 0.11127413 -0.101948805 -0.052882265
-0.144734 0.057272784 -0.013449793 0.17005882 0.24146424 -0.08266071 0.059176207 -0.14444752
-0.14058702 0.047342557 0.055080958 -0.1498459 0.1451184 0.16232127 0.21691427 -0.25800243

layers.2.lin.weight f4 [20, 20]
00000000: 75dd c03d 4e40 2b3e da1d 5a3f 10e9 0ebd
00000010: 2138 b43d cfb5 463f b02f 6e3d 5e38 33be
00000020: 545c 7b3f d0d9 613f 6018 523f 32ff 493e
00000030: c2e7 5e3f dc24 f8bd 1ce1 a83d c870 713f
00000040: 8c16 5b3f 4dfc 2d3f b10b 473f deab 1b3f
00000050: a6cb cdbc 9fe3 1ebe f568 203f 5208 603e
00000060: dcfe f13f 5e07 ff3e 66b4 c1bd 0c55 20be
00000070: fa9f fd3e 536d b63b d612 203f 3037 3ebe
00000080: 5ea3 113f e07b 29be 343d 1abe 3d7a db3e
00000090: 1317 5e3f 3517 093f 410d 1c3f b6bf 483f
000000a0: a99f 143d 67fa 2bbe fe87 373d 60e3 32be
000000b0: fdea acbd 9e20 1ebe 44c9 01be 5110 06be
000000c0: b1ff 05be f7a5 61be 69a0 14be f8d0 a6bd
000000d0: 9926 6cbe cc47 373e 6ce3 993d 58a3 83be
000000e0: 1f93 7cbe 5aa6 0cbe 2948 d03b c1ed fb3d
000000f0: 74ab 0ebd fa3c 083e b8dd dabd 7c1a 3ebd
00000100: da51 e03d 40cd 37be 80e7 983a f867 723d
00000110: d449 223e 05cd 56be 32b5 19bd 8035 0a3c
00000120: 4483 7d3d 9076 1a3d ba16 2abe e525 563e
00000130: af42 2ebe 55f0 6dbd 0a4b 013e 4d52 20bd
00000140: f2a7 dcbd 06e4 61be f981 c63d a085 a4bb
00000150: 6007 873e 7b76 07bc 2a48 2abe 7ed1 a1bd
00000160: 601c d13d 86a9 17be d56b 28be fc20 fb3d
00000170: 9c0e 21be a883 153d 0aa1 debd 4371 8d3b
00000180: b007 2fbd 743c 6abe 9ec2 49be 1a36 463d
00000190: bbf9 95bd e4da fa3d 7ca6 d33e be9a 9cbd
000001a0: 65fa 933f 7baf b13e ccf9 e13d 849f 353e
000001b0: 0e33 a83e 688e 3b3e 7e52 303f 0e51 3a3e
000001c0: 08d2 153f 809d 84bb 1825 613d 793f a03e
000001d0: a2d2 e53e ff54 2d3e 450f bb3e 028d 233f
000001e0: 2390 053e e0d5 593d b30c 283f ce53 0f3e
000001f0: 733f 99be 1938 4d3f e0e6 99bb ee2e a2bd
00000200: 8d9d d93e 3715 b03e 4964 0b3f 60d0 513d
00000210: e43e 5a3f 7833 023d c092 f73c 971d ea3e
00000220: 907f 283f da2c f03e 8ed8 2a3f ca6a 553f
00000230: d249 a8bd 0077 333d 352f 243f 608c 79bc
00000240: 2dc6 ed3e ee1c 1a3f 3aa5 553e 587b fabd
00000250: af41 6b3f ac50 5e3f 52fd 433f 7882 51bd
00000260: 1a92 203f 5f7c 27be 8794 5bbe 94d3 603f
00000270: b5c1 603f fb0b 453f dfe9 133f 746a 373f
00000280: 9d34 09bc 47ed 45be f8a8 a33e 94ff 9e3d
00000290: e79b ea3f 5dda 0d3f a80d 0abe 34f6 c93d
000002a0: 90e2 773e 5410 ab3e ec9b 503f 5a1e 5c3e
000002b0: 2769 453f a045 b43d e023 023c 1c0b 003f
000002c0: d1df 703f d27f 113f 7c3b 193f fa8a 5a3f
000002d0: f865 ba3c 9a21 173e 6de8 663d 960e 41be
000002e0: a09d 9e3c df04 41be 80a1 89bd 203f 3b3c
000002f0: b811 bebd a13b 6dbe 38d7 13be ece5 c23d
00000300: 0c43 21bb d88c 19bd c848 143d 34f8 0abd
00000310: 6711 edbd 9788 d4bd 55d3 b5bd e650 5cbe
00000320: a928 53be 1c82 adbd 9078 d33e 26ed 5f3e
00000330: 5f1a 853f 1578 093f 286c 973d 5e5d 36be
00000340: d792 273e 221d 823e a5fa 6c3e f045 003d
00000350: 2e29 db3e 247e 32be 7cc4 40bd 6890 a03d
00000360: 2f90 273f 06c9 e83e 4ec8 8e3e 1541 213f
00000370: 0651 0fbe 04a2 403e cf05 c6be 78cd 853d
00000380: a09b dd3f 2da4 bb3c f0f2 5d3d c83a d3bc
00000390: d4cf 5ebf 8f8d 54bf f8f1 da3e dc94 94bd
000003a0: c88c e9bd 9b32 debd 6623 adbd a4da 7bbf
000003b0: 1ad2 343f 500b e5be 888f fbbe fc18 2f3f
000003c0: 46a7 a8bd 7033 6c3d bde1 08bd 9687 233e
000003d0: 2ada 1fbe a870 23be 2874 36bd 802f 053b
000003e0: 87e3 22be 899d 613d 874f 33be f0e3 103d
000003f0: 7514 71be a873 e3bc e058 45bd 3819 26be
0.094172396 0.16723749 0.852018 -0.034890234 0.08799768 0.7762117 0.058150947 -0.17501971
0.98187757 0.8822298 0.82068443 0.19726256 0.87072384 -0.12116405 0.08246061 0.94312716
0.8558128 0.67963105 0.77752215 0.60809124 -0.025121521 -0.15516518 0.6266015 0.21878174
1.8905902 0.49810308 -0.094582364 -0.15657443 0.49536115 0.0055672317 0.6252874 -0.1857574
0.56889904 -0.16551161 -0.1506241 0.42866698 0.8675396 0.53551036 0.60957724 0.7841753
0.036285076 -0.1679474 0.044807427 -0.17469549 -0.08443258 -0.1544213 -0.12674433 -0.13092162
-0.1308582 -0.22035967 -0.14514317 -0.081453264 -0.23061599 0.17898482 0.075140804 -0.2571056
-0.24665497 -0.13735333 0.0063562584 0.12301207 -0.03483148 0.1330451 -0.10686821 -0.046411976
0.10953112 -0.1794939 0.0011665672 0.059181184 0.15848476 -0.20976646 -0.037526317 0.008435607
0.061892763 0.037710726 -0.16610232 0.20912893 -0.17017625 -0.058090527 0.12626281 -0.03914099
-0.107742205 -0.2205964 0.09692759 -0.005020812 0.26372814 -0.008267994 -0.16629091 -0.079012856
0.1021049 -0.14810762 -0.16447385 0.12262151 -0.1572823 0.03650251 -0.108705595 0.0043164804
-0.04273194 -0.22874624 -0.19703147 0.04839144 -0.07323023 0.12248781 0.41337955 -0.07646702
1.1560789 0.34704193 0.11033973 0.17736632 0.32851452 0.18316042 0.68875873 0.18194982
0.5852361 -0.004047096 0.054967016 0.31298426 0.44887263 0.16926955 0.36535087 0.63887036
0.13043265 0.053182483 0.6564438 0.13996813 -0.2993122 0.80163723 -0.004696712 -0.079191074
0.42503014 0.34391186 0.544499 0.051224113 0.85252213 0.031787366 0.030221343 0.457257
0.65819645 0.4690922 0.66736686 0.8336607 -0.08217205 0.04381466 0.6413453 -0.015231222
0.4644026 0.60200393 0.2086381 -0.12230557 0.918971 0.86841846 0.7655841 -0.051149815
0.62722933 -0.16356038 -0.21443377 0.8782284 0.87795573 0.76971406 0.57778734 0.7164681
-0.00837436 -0.19328795 0.3196485 0.077635914 1.8328828 0.5541132 -0.13481772 0.09861413
0.2420752 0.33410895 0.8148792 0.21495953 0.77113575 0.088023424 0.007943124 0.5001695
0.94091517 0.56835663 0.5985639 0.8536831 0.0227537 0.14758912 0.056374002 -0.1885322
0.01936227 -0.18849514 -0.06720257 0.011428624 -0.09280723 -0.23167278 -0.14437568 0.0951651
-0.0024606613 -0.037487835 0.036202222 -0.03392811 -0.11575585 -0.10377615 -0.08878199 -0.21515235
-0.2062098 -0.08472082 0.4130292 0.21867809 1.0398673 0.53698856 0.07393676 -0.17809054
0.16364609 0.25412852 0.23142488 0.031316698 0.42804855 -0.17430931 -0.047062382 0.07840043
0.6545438 0.4546587 0.27887195 0.6298993 -0.13995752 0.18811804 -0.38676307 0.06533331
1.7313118 0.022905434 0.05418676 -0.025784865 -0.8703587 -0.830285 0.42762733 -0.07254955
-0.11403805 -0.10849496 -0.08454017 -0.98380494 0.7063309 -0.44735193 -0.49132943 0.683975
-0.0823503 0.057666242 -0.033418406 0.1596969 -0.15610567 -0.15960944 -0.04454437 0.0020322502
-0.15907107 0.055081878 -0.17510806 0.03537363 -0.2354296 -0.02776511 -0.04818046 -0.16220558

layers.3.bias f4 [20]
00000000: e312 183f ebd0 943f 9eb2 673f 18c9 cdbf
00000010: 9e79 d5bf 7ce8 cd3f 76d4 85bf ceb9 a2bf
00000020: 9b72 a4bf 374b 713f ce7e 56bf fa57 cabf
00000030: c8a7 03bf a1e5 a73f 9b99 cc3f 9daf 123f
00000040: 134a dbbf d40a 3c3f a038 9d3f e397 373f
0.5940382 1.1626257 0.90506923 -1.6076994 -1.667774 1.6086574 -1.0455463 -1.2712953
-1.2847475 0.94255394 -0.8378724 -1.5808098 -0.5142789 1.3116952 1.5984377 0.57299215
-1.7131981 0.7345402 1.2282906 0.71716136

layers.3.combine_aggr.weight f4 [20, 80]
00000000: 156a c3bd 40f9 aa3d 80e4 7e3c 6e5b c73d
00000010: 9863 e13d 986d e4bc 64a5 8ebc 3068 ddbc
00000020: c615 b43d 484f 46bd 3437 973d 7058 3c3d
00000030: 9e4b d73d c42e a23d e4d3 b93d ad34 bcbd
00000040: 9f09 71bd 4e75 a2bd 3463 633d 9852 ba3c
00000050: a88d 2e3d 80e1 2b3d 4010 9b3b 3cc2 2e3d
00000060: de52 78bd 2ac3 943d d320 c5bd e064 d2bd
00000070: 5886 1b3d ecf6 d63d e688 27bd fcaf d73d
00000080: c68e 22bd cfff adbd bc66 8ebc dc43 7d3d
00000090: 8e5d 6ebd 40ba d63d 7acb 4cbd ffb3 4abd
000000a0: 7eb9 3ebd 6065 aebd c097 d53d 505d 81bd
000000b0: 3d09 4ebd ecc1 0abd c6bf c03d 64a3 553d
000000c0: 589c 283d 78d8 f0bc 686f 673d 7025 a63c
000000d0: e46e b63d 3852 cb3c dc0e a83d 1c05 9e3d
000000e0: 900d a03c 036b dbbd 405b ba3c cac2 acbd
000000f0: 105c 9d3c d822 4dbc ac2f b63d 045b a4bd
00000100: 926c bfbd 201c 4c3d c42e 973d bc56 c7bc
00000110: 60e5 f73c a0c3 b73d a036 363c ecfd ffbc
00000120: be64 843d 4e5d ce3d 4c77 9bbc 045c 9b3d
00000130: 50d5 183c b8c6 bfbc 60de 1fbc 2f48 debd
00000140: 48b0 5b3d 2042 79bd f301 c3bd 80f6 7dbc
00000150: 3295 3abd 70bd 91bd 20d2 c0bc 9053 41bc
00000160: 402f 0b3d 1010 7b3c b0be 74bc a09d c93c
00000170: 6227 94bd 3abf c13d b43d 603d c2da 903d
00000180: 2b3b ccbd da4a 9c3d 60e5 a13c ab45 ddbd
00000190: d26a d93d 4055 19bb 30a7 af3c 1c6e bd3d
000001a0: 2aa9 933d 36b6 cb3d 2eb7 d5bd 065f e23d
000001b0: 9018 df3c 4051 be3a a2e8 b3bd 6443 76bd
000001c0: cc4a de3d c43e aa3d d87c b23d 88f0 19bc
000001d0: ac16 7fbd 10db d53c aa36 5abd 760c 95bd
000001e0: b8e6 133d d698 b33d cca7 afbd fc64 cabd
000001f0: 407e 773c dc59 21bd 90e1 74bd 0c77 bbbc
00000200: f0dc d3bb f402 febc 7290 a93d 20c4 7d3d
00000210: 5009 103d c0d9 12bd d046 23bc b272 943d
00000220: 68e1 173c c1e5 dcbd d80c 2e3c a0cb 6f3d
00000230: 44ee eabc 2cfb aabc 5082 78bc 76b6 8c3d
00000240: 0012 bd3d bdb0 b3bd 20dc 963d d086 3b3d
00000250: 5c4f 203d ba11 82bd a6b8 82bd ec5c e33d
00000260: 6061 ea3c f8d5 cbbc e481 b9bc e64c 993d
00000270: f827 e4bc 38b3 9a3d eed6 01bd 407e d83c
00000280: 4847 f13c 5393 6abd 601d 353b b8ef b63c
00000290: d9ef dfbd 7460 b4bc 5866 2e3c 2697 bc3d
000002a0: 60d1 ca3c 479e c2bd ce38 06bd 38b3 e23d
000002b0: 405f 6ebc 90bd ac3d b02a 523c 003f 963d
000002c0: c6cb 44bd 18f1 e03d 084c c13c ec82 bbbc
000002d0: 200f b03d 7cd4 613d cce8 99bd c8b5 03bc
000002e0: 801c a43d 702f e43c 7ed4 10bd 4b14 95bd
000002f0: 4857 a0bd 4490 7e3d 5838 4f3d 7be6 cabd
00000300: cc0e bcbc 30ce e73c 8496 cabd 2854 c53d
00000310: b85b 43bc a007 3abd e0f6 4b3c 4c71 253d
00000320: 6086 cb3c a624 d93d 5ae6 803d 206b 31bc
00000330: 80e9 9b3c f0ef dd3c c0a1 35bd 3534 c4bd
00000340: 40da 42bc b26e 2ebd a74b d8bd 2851 233d
00000350: 1825 40bd c638 db3d ccc7 233d d405 433d
00000360: 9079 053d 6899 323d ac9b 923d b035 a83d
00000370: 4031 c8bb 50d2 01bd 8825 f83c c6a0 4ebd
00000380: 5027 babb 20b6 053d 00a0 4c3d cf7a ddbd
00000390: 0853 313d c44e 31bd 8947 a1bd ea06 43bd
000003a0: 8015 1ebb 8486 613d 26ee cbbd 48c8 f83c
000003b0: 364d ce3d 125d 81bd f0db da3c 4a1a 38bd
000003c0: c82c e13c 604c 463d d80c 8dbd d02a db3c
000003d0: f050 e23d 4886 003c 2088 a2bd c04c b73a
000003e0: b8fa c93c 5002 0d3d a80d 04bc 7c49 c4bc
000003f0: 5ab2 63bd 56f6 933d d458 81bd c8df 1bbd
-0.09541718 0.08348322 0.015557408 0.09734236 0.11005324 -0.02788429 -0.017412849 -0.02702722
0.087932155 -0.048415452 0.07383576 0.045982778 0.1051247 0.07919076 0.09073618 -0.091897346
-0.058847066 -0.0793253 0.05551453 0.022744462 0.042615563 0.0419631 0.0047321618 0.042665705
-0.060625903 0.07263787 -0.09625401 -0.10273147 0.037969917 0.10496315 -0.04090204 0.10531613
-0.03968694 -0.08496057 -0.017382972 0.061832294 -0.05819469 0.10484743 -0.049998738 -0.049488064
-0.046563618 -0.085154295 0.10429335 -0.06316626 -0.05030178 -0.033876345 0.09411578 0.052157775
0.041164726 -0.029400095 0.05650273 0.020281523 0.089078695 0.024819478 0.08205959 0.07715818
0.019537717 -0.1071377 0.02274859 -0.084355906 0.019208938 -0.012520514 0.088958114 -0.08025172
-0.0934688 0.04983151 0.07381967 -0.02433335 0.030260742 0.089728594 0.011121422 -0.03124901
0.064645275 0.1007639 -0.018977784 0.0758591 0.009328201 -0.023410186 -0.009757608 -0.10853612
0.05363491 -0.060854077 -0.09521856 -0.015500665 -0.04555244 -0.071162105 -0.023537695 -0.011799708
0.033980608 0.015323654 -0.014938042 0.024611294 -0.07234074 0.09460302 0.054746345 0.07072975
-0.09972223 0.07631464 0.019762695 -0.10804304 0.106160775 -0.002339676 0.021442026 0.09249517
0.0721 0.09946863 -0.104353294 0.110532805 0.027233392 0.0014520064 -0.087846056 -0.060122862
0.1085411 0.08312753 0.08715218 -0.009395726 -0.06227748 0.026105434 -0.053274788 -0.07277767
0.036108702 0.087693855 -0.085769266 -0.098825425 0.015105784 -0.039392337 -0.059785426 -0.022883914
-0.006465547 -0.031007268 0.08279504 0.061954618 0.03516513 -0.035852194 -0.0099656135 0.07248439
0.00927005 -0.107860096 0.010623179 0.0585438 -0.028678067 -0.020871721 -0.015167788 0.06870739
0.09231949 -0.087739445 0.07366204 0.045782864 0.039138183 -0.06351037 -0.06382875 0.11101708
0.028610885 -0.024882302 -0.022644944 0.0748537 -0.02785109 0.075537145 -0.031699114 0.026427388
0.029452935 -0.057269406 0.0027635917 0.022331104 -0.10934419 -0.022018649 0.010644518 0.09208517
0.02475804 -0.09502845 -0.032769017 0.110693395 -0.014549077 0.08434594 0.01282756 0.07336235
-0.048045896 0.10983485 0.023595825 -0.022889577 0.08596635 0.05513428 -0.075151056 -0.0080389455
0.080132484 0.027854651 -0.0353589 -0.07279261 -0.078291476 0.0621493 0.050590843 -0.09907242
-0.022956274 0.02829656 -0.0989199 0.09635192 -0.011923723 -0.045417428 0.012448996 0.04039125
0.024844348 0.10602693 0.06293936 -0.010828763 0.01903224 0.02709195 -0.04434371 -0.0958027
-0.011892855 -0.042586036 -0.105613045 0.03987232 -0.046910375 0.10704188 0.039985463 0.04761298
0.032586634 0.04360333 0.07158598 0.08213365 -0.0061093867 -0.03169471 0.030291334 -0.050446294
-0.005680956 0.03264439 0.049957275 -0.108144395 0.043292075 -0.043288007 -0.078749724 -0.047614016
-0.0024121702 0.055059925 -0.099575326 0.030368939 0.100733206 -0.0631658 0.026716202 -0.044946946
0.027487174 0.04841268 -0.068872154 0.026753813 0.11050594 0.007844515 -0.0793612 0.0013984665
0.024655685 0.034426033 -0.0080598965 -0.023960821 -0.05559001 0.07224719 -0.06315771 -0.03805521

layers.3.lin_a.weight f4 [1, 40]
00000000: f310 393e c1f0 86be 08b4 96be 1cf4 833e
00000010: 2925 7c3e a0b8 d63e 97c0 99bd 9dbf cd3d
00000020: c51b 4d3f 9d11 5cbd 034b b3bc f089 b3bd
00000030: 3cc4 6e3f 1f4b 5ebd d146 3d3f 778a 9e3d
00000040: edac 4d3d 1ca6 2f3e 0533 59be 2544 80be
00000050: fd7a 773d 5660 a7be 5abe c7bd a3d1 0a3f
00000060: acff 7a3f 0019 ff3d 61b5 16bf 3b50 0dbf
00000070: 42a4 01be a9a0 46bf 6b6d c4be e581 783d
00000080: e1e5 843d 917b 3fbe 635c dbbd 930c 34be
00000090: 61a6 ddbe e165 15be 55ba 1bbf 07e3 54be
0.18072872 -0.26355556 -0.29434228 0.25772178 0.2462355 0.41937733 -0.07507437 0.10046313
0.801205 -0.053727735 -0.021886354 -0.08766544 0.9326818 -0.05427086 0.7393618 0.07741254
0.050213743 0.1715321 -0.21210869 -0.2505199 0.060420025 -0.32690686 -0.097531036 0.5422613
0.98046374 0.1245594 -0.5887051 -0.55200547 -0.12660316 -0.775889 -0.3836473 0.060670752
0.064891584 -0.1869948 -0.10710981 -0.17582922 -0.43291 -0.14589645 -0.60831195 -0.20789729

layers.3.lin.weight f4 [20, 20]
00000000: c55b 93bf e377 ec3e 7880 14be 802b 7c3d
00000010: c03c 46be d0b4 763f b386 00c0 b6b3 38bf
00000020: 7950 8a3e 70d1 383d 2e05 643f 7ee4 a33f
00000030: 8a15 27be 18df 55bd 26da dbbf 2f43 033d
00000040: ce18 4c3f 04a6 183e ae60 333f 1ed0 a53d
00000050: 9c06 6c3f 297d 9b3e 104f 55be 6ea3 263e
00000060: 7fe3 063d 0cfd 1abe b029 b9be d5ff 993f
00000070: adcb fc3e c827 aabc 076c 2dbe 6d02 1ec0
00000080: 0e00 043e 152b 8a3e cde9 943e ad6d 03be
00000090: 8d03 553e de07 643e 4b6f 2b3e a5b6 b53d
000000a0: 8bda 32bf 6054 43bc 781b 06be 1585 12be
000000b0: 2c6b ccbd 8c06 293e 1158 99bf ecae cebe
000000c0: 7951 d53d c017 bd3b a393 a33e 12c7 3dbe
000000d0: 8927 4ebe 4455 4e3b 8632 3bbf b2f2 55be
000000e0: b5c3 903e 37f1 fabd d839 aa3e d599 623e
000000f0: 3cd2 3e3f 047f 083e 4c9a 213e 5a1c 16be
00000100: 3078 2d3c ad70 223e 2374 e33f 911b 123f
00000110: cf5f be3e 88f4 9ebc 9e1f 86be 3f57 263e
00000120: 76be 35be d3bc b23e c82b 463f 1c9a 113e
00000130: 1c9d ed3d 8b30 253e 6b03 383e 2d24 31bd
00000140: 0835 513e 5da7 a13e a870 9e3c 625d 4ebe
00000150: f9c3 943c 3347 033e 633a c53f c080 f53e
00000160: 349c a03e d0cb eabc c557 823e 4dfb ff3d
00000170: 00b0 e0bc 7bc7 ef3d 29e0 493f a4ec 93bd
00000180: 7474 703e ebe6 81be 45a7 a4bc 6df2 db3d
00000190: 084b fbbe 8601 b2bd 0080 f3bd 3815 f83d
000001a0: ab2d 383c b2b5 c4bc 210a 5f3e c971 efbe
000001b0: 0481 97bd a485 9a3d 02b3 9c3c 2757 0740
000001c0: 3646 9abd d16b 84be 105e 3abe f98f 123e
000001d0: 7d11 cbbd 9d85 47be 6880 8a3d 765f 943d
000001e0: 1f2a 9f3e d02d 2f3f e8bc 603e d233 99bd
000001f0: ce56 4cbe 6e48 1c3f 8e4c 373f ecb8 cd3e
00000200: ae33 213f 7d4a 3ebe ebcb 2b3f a69d b63f
00000210: a668 133e 3c36 2b3f f710 833e 888a 58be
00000220: 30e7 4a3f 479e 413d b459 6a3f e19a 3bbe
00000230: 3d21 a03e 6fbb 323f 9677 193e 0240 173e
00000240: a18b 693e d1cb 803f b058 a73d 597b 3e3e
00000250: 26f4 593f d6ab cabd d1db 803f ec5b a73f
00000260: 56b8 07be e698 1a3f 5326 0e3f 66db 323e
00000270: ecb7 563f 27ad c13d 8951 113f 5150 8d3d
00000280: 48b5 2c3f 4a16 363e a281 373e 20f8 4e3d
00000290: 4e51 fd3d dc05 b13e 8f94 be3f c5cf 4cbd
000002a0: cd86 e03e 2b90 46be b594 ac3e d29f fc3f
000002b0: ffc5 3bbe 87a1 24be 871f 0f3f ecd6 093c
000002c0: bb5b 9a3e 7f77 62be c61c 853e 4514 66bd
000002d0: cfb1 cb3d 8da6 433f c084 9b3d 48f0 123d
000002e0: c3dc 11be 47ab 573f 8f2b d6be 2a09 233f
000002f0: bc89 7c3f a8a0 383d 369d 523f 8cb6 5d3e
00000300: a093 82bb cd87 643f ac96 39be fa29 3d3e
00000310: 6149 413f 567c 1b3e bc02 503f 1ec6 f2bd
00000320: b574 233f 9b81 433f 0450 a83d faf0 28be
00000330: f3ef aabd 929f 893f da9e 993e 4322 fd3e
00000340: bc34 793f 237c 59be 5fd6 673f f1eb db3f
00000350: 6a12 163e 5330 223f 0d82 823e 6db7 0dbe
00000360: e7a7 4e3f 9d83 efbd 5205 133f 45dd b8bb
00000370: c113 333f fb3b ae3e 96de b1bd a07f fa3d
00000380: 84d0 1abe c242 a93e 7b50 9f3d ed06 453f
00000390: 3c07 003f 4436 1bbe 47f5 973e 7e31 42bf
000003a0: 92a1 223e 7354 2f3f 9402 3e3f 75a3 46be
000003b0: fbf0 ac3e 66d4 bb3d 5931 383f 23d8 eb3d
000003c0: 4e19 8dbe c881 3d3f d8ea 833c 00bb fb3c
000003d0: 8083 d53d 2c4b 0d3f 1d25 683e e72b a7be
000003e0: ba8d 213f 00ea 43bd 0e16 4e3f 47b4 1740
000003f0: 7215 183e d2e0 b3be 14eb d6be cdca 0cbe
-1.1512381 0.46185216 -0.14502132 0.061564922 -0.19359112 0.9636965 -2.0082214 -0.7214922
0.2701452 0.04512161 0.89070404 1.2804105 -0.1631681 -0.052214712 -1.7175949 0.032046493
0.7972535 0.1490708 0.70069396 0.08096336 0.92197585 0.30368927 -0.20830941 0.16273281
0.0329318 -0.15135592 -0.36164618 1.2031199 0.49374142 -0.020770922 -0.1693574 -2.468898
0.12890646 0.26985994 0.29084626 -0.12834807 0.20802136 0.22268626 0.16741674 0.08872727
-0.6986472 -0.011921972 -0.13096416 -0.1430858 -0.09981379 0.16506404 -1.1980001 -0.4036783
0.1041593 0.0057706535 0.31948575 -0.1853297 -0.20132269 0.0031483928 -0.7312397 -0.20893362
0.28274313 -0.12253039 0.33247256 0.22128995 0.7453954 0.13329703 0.15781516 -0.14659253
0.010587737 0.15863295 1.7769817 0.57073313 0.3718247 -0.019403711 -0.26195997 0.16244219
-0.17748436 0.34909686 0.77410555 0.14218944 0.11602232 0.16131799 0.17970054 -0.04324739
0.20430386 0.31573 0.019340828 -0.2015281 0.018159853 0.12820129 1.5408443 0.4794979
0.31369174 -0.028661638 0.25457588 0.12499104 -0.027427673 0.1170797 0.78857666 -0.0722287
0.23481923 -0.2537149 -0.020099292 0.107395984 -0.49080682 -0.08691697 -0.118896484 0.12113422
0.011241357 -0.02401242 0.21781208 -0.467665 -0.07397655 0.07545021 0.019128326 2.1146944
-0.07532923 -0.25863507 -0.18199944 0.14312734 -0.09915445 -0.19484563 0.06762773 0.0724477
0.31086823 0.6842928 0.21947062 -0.07480587 -0.19954988 0.6104802 0.7160119 0.40180147
0.6296948 -0.18583103 0.6710803 1.426686 0.14395389 0.6687963 0.2559888 -0.21146595
0.79259014 0.047270086 0.91543126 -0.183208 0.3127536 0.6981725 0.14987025 0.14770511
0.2280717 1.00622 0.08171213 0.18601741 0.85138166 -0.09896056 1.0067083 1.3074927
-0.13253912 0.60389555 0.5552723 0.17466506 0.8387439 0.09456854 0.5676504 0.06900085
0.67464113 0.1778194 0.17920545 0.0505296 0.12369023 0.34574783 1.4889086 -0.050002832
0.43852845 -0.19390933 0.33707204 1.9736273 -0.18337248 -0.16077243 0.5590748 0.008413058
0.3014811 -0.22115897 0.25998515 -0.056171674 0.09946024 0.7642601 0.075936794 0.03587368
-0.1424437 0.84245723 -0.41830108 0.6368586 0.98647666 0.04507509 0.82271135 0.21651667
-0.0039848834 0.89269716 -0.18123883 0.18473044 0.7550259 0.15184149 0.8125417 -0.11854194
0.63849956 0.7636964 0.08218387 -0.16498175 -0.08346548 1.0751822 0.30004007 0.49440202
0.9734609 -0.2123876 0.9056148 1.7181379 0.14655462 0.63354987 0.25489846 -0.13839503
0.8072495 -0.11695025 0.57429993 -0.0056416118 0.6995202 0.34030136 -0.08685033 0.12231374
-0.15118605 0.33058745 0.07779022 0.7696369 0.5001104 -0.1515742 0.2967932 -0.7585677
0.15881947 0.68488234 0.74222684 -0.19398291 0.33777604 0.09171371 0.719503 0.11515834
-0.27558368 0.74026155 0.016103193 0.030728817 0.10425472 0.5519283 0.22670408 -0.32650682
0.6310688 -0.04783058 0.805024 2.3703783 0.1485193 -0.35132462 -0.41976225 -0.13749237
