experiments/output-gat/BA_Community/mean/42/model.pth (torch, 119523 bytes, 26 tensors)

layers.0.bias f4 [30]
00000000: 9242 ebbb 64bf 9b3d 67d3 1a3e d5d5 6f3e
00000010: ff3c c53d c3a3 103e a322 56bc ed1e cf3d
00000020: ea0f 403e 1aaa 71bb d02e 4c3e 053d 803e
00000030: cbcd 6b3f 2d0d 243e f3e1 afbc 5bad 213e
00000040: ac87 833d 41bb 693c 1964 ba3d 7fc4 ee3e
00000050: 1165 f23d 4075 6a3f f649 653e 2ba0 313e
00000060: a908 e23d b5dc 0fbd a289 fe3d b27b 933d
00000070: 8f54 e93d 048d 3c3e
-0.0071795667 0.07604864 0.15119706 0.23421414 0.09630775 0.1412497 -0.0130697815 0.101133205
0.1875607 -0.003687507 0.19939733 0.25046554 0.9211089 0.16020651 -0.021470046 0.15788786
0.06422362 0.014265836 0.09101123 0.4663429 0.11835683 0.9158516 0.22391495 0.17346255
0.11036808 -0.035122592 0.12428595 0.072013274 0.113930814 0.18413168

layers.0.combine_aggr.weight f4 [30, 120]
00000000: 5eef 8e3d c82c 9b3d cc31 afbc 68bd ab3d
00000010: d4d9 a3bc 64e7 963c 790a 36bd 8c97 5b3d
00000020: 48cf a43d fa27 89bd 5c80 a23d 50f6 8b3c
00000030: ee1f 8a3d 708e 4a3c c04b 343d 082c 53bc
00000040: 281f 903d f011 5d3c 988e 2ebd 789e be3c
00000050: 6146 2cbd 2066 2fbc 11de 17bd d40a 783d
00000060: d493 93bd 9460 2cbd a42a d3bc add2 60bd
00000070: f829 0d3c 0aa7 b8bd 74d7 a83d 2bd0 9ebd
00000080: ca55 903d 88e7 783c 60d2 f2bc 100f 673d
00000090: 1019 693c b60d 973d f880 233c f6d7 ebbc
000000a0: 94ed c83c 60cb cabc 185d 1d3d 1eeb a63d
000000b0: b424 583d ca76 23bd 9cd8 573d 28ce 853c
000000c0: b4e2 3d3d b6e6 63bd bd11 b9bd fe76 10bd
000000d0: 4566 8fbd 9667 993d 9065 d73c 20e1 1a3d
000000e0: f481 ec3c 4025 d0ba 3450 923d b2d5 84bd
000000f0: d057 bc3b bd35 7fbd cc97 e63c c6c4 00bd
00000100: 3825 e53c 80cd 9bbc 4c0f 9b3d 4a9e 5dbd
00000110: 1500 5fbd 8703 5fbd fc27 a83d 9036 f93c
00000120: 04e6 b33d 524a 9abd e96f b9bd 8044 92bd
00000130: c686 7bbd 0873 173d 8ae3 053d a658 9b3d
00000140: fd18 41bd 72e6 7ebd b463 463d 0a23 17bd
00000150: a0ef 623d 8475 b1bc 10e5 553d 4142 91bd
00000160: cfb1 3cbd 70fe e33c 7818 9e3c 0caa bebc
00000170: a4e0 5e3d 5430 7e3d 5393 87bd a49e 47bd
00000180: 3e30 ab3d 1057 fcbc d38e 04bd c8e5 b4bd
00000190: d320 56bd 24cf ba3c 506a 45bc 6eb5 87bd
000001a0: 0055 0c3b 8e69 7fbd e19c 9ebd 3ae6 4dbd
000001b0: 49a0 a3bd 7e15 6ebd 02e2 ba3d c43e 8d3c
000001c0: fc72 e63c f35e aebd 5893 75bd e2ea f8bc
000001d0: 48e0 693c ac81 a4bd cb1b 21bd 6dd9 5fbd
000001e0: 00a2 8439 4322 0bbd c048 cfbb b45f 7dbd
000001f0: 5f53 80bd 1124 5abd 6afa ffbc 8e8f 93bd
00000200: c6c1 9c3d 886a 94bc 36db a03d 3002 e93c
00000210: 5250 9ebd 4e61 813d 84c2 cdbc 8754 0fbd
00000220: c72f 9bbd 40dd b9bd dcf5 d53c 885b a3bc
00000230: 9492 113d 8c6d 99bd 32cd 8a3d 583c 89bd
00000240: 1821 81bc a032 9c3c 6008 413d 76ee 963d
00000250: 2c4f aa3d d43d 94bd e833 bc3c 48d4 20bd
00000260: 78e6 23bc 48ef 8bbd 5c4a aa3d 6837 89bd
00000270: 74d6 473d 5068 033d 8402 f33c 7027 4abd
00000280: 14ef a93d a855 a43c 7066 403c 7fc1 a4bd
00000290: c4f6 1c3d c060 60bc 524c 2bbd ce95 a03d
000002a0: f8b9 a63c 6ce0 4ebd 5a40 3dbd 00da 8ebb
000002b0: 28c7 503d 2418 bfbc 4258 55bd 210b 00bd
000002c0: 8cab 8bbd 6059 053d 20b6 903d 0502 b0bd
000002d0: c0ae ad3c ec28 413d 389a 873c c528 05bd
000002e0: 1029 433d e47e 443d dcd0 0b3d 9c68 83bc
000002f0: 5406 c6bc 7801 203c 2c1b 84bc 30da debc
00000300: d001 6f3d 7cab a03d b010 14bc 786f a7bc
00000310: 8099 ae3a e09a b2bb 08c9 b33c bc90 d13c
00000320: d4cd a9bd d4fc 09bd ee70 9d3d c4a8 113d
00000330: a0c7 94bb 046f 61bd dfc2 64bd 0d78 a7bd
00000340: 32c3 f3bc 108b fc3c 106a 6e3d 58a2 2c3d
00000350: 3442 a5bd 4adb 60bd c009 6cbc 0eda b43d
00000360: 505b 583c 1caa c1bc 6cb1 1a3d 896a 0ebd
00000370: 4104 72bd f074 883d b704 2abd f0e9 95bc
00000380: 0efc b9bd 903f 7a3d f2a4 8d3d 8245 083d
00000390: 0d5c 82bd a983 b8bd 7ad7 97bd c269 8b3d
000003a0: 6c84 333d 0453 9d3d 94e1 433d b444 bd3c
000003b0: 8057 6aba 5f2e 8ebd bd2d a0bd 77de aebd
000003c0: b810 193d 2b94 37bd 6080 96bc 3330 57bd
000003d0: 6845 88bc 0c96 83bd e651 74bd b00f f83c
000003e0: 2440 debc fcd4 663d 90e8 efbc 1025 89bd
000003f0: fcf1 83bc ba40 35bd 58ca e4bc 34fb b1bd
0.069792494 0.07576901 -0.02138605 0.08385736 -0.02000133 0.018420883 -0.04444358 0.053611323
0.08047348 -0.06697078 0.07934639 0.017085224 0.06744371 0.012363061 0.044017553 -0.012888916
0.070371926 0.013493046 -0.042616457 0.023268923 -0.042059306 -0.010705501 -0.037077013 0.0605572
-0.0720593 -0.04208429 -0.025777169 -0.054888416 0.008615963 -0.09016235 0.082442194 -0.07754549
0.07047613 0.01519192 -0.02964133 0.05641085 0.014227167 0.07375662 0.009979479 -0.028789502
0.024527349 -0.02475518 0.03841886 0.08150314 0.052769378 -0.039908208 0.05269681 0.016333655
0.04635878 -0.055639945 -0.090365864 -0.03526973 -0.07001928 0.074904606 0.026293546 0.037812352
0.02887056 -0.0015880242 0.07144204 -0.06486072 0.0057477728 -0.06230711 0.028148554 -0.031437658
0.027971849 -0.019018888 0.07571277 -0.054106034 -0.054443438 -0.054446723 0.082107514 0.030421525
0.087841064 -0.07533707 -0.09054548 -0.071419716 -0.061407827 0.036974937 0.0326877 0.07585268
-0.04714297 -0.06223149 0.048434928 -0.03689865 0.055404305 -0.021662481 0.052220404 -0.07092715
-0.04606801 0.027831286 0.019298777 -0.023274444 0.054413453 0.062057808 -0.06619897 -0.048735276
0.08358811 -0.030803233 -0.03236277 -0.0883289 -0.052277397 0.02280385 -0.012049273 -0.06626402
0.0021412969 -0.062356524 -0.07744766 -0.05026839 -0.07989556 -0.058125965 0.09125139 0.017241843
0.028131 -0.08514204 -0.05995497 -0.030385438 0.014274664 -0.080325454 -0.039333146 -0.054650713
0.000252977 -0.03396822 -0.006325811 -0.061858848 -0.06265902 -0.05325705 -0.031247336 -0.07205115
0.07654147 -0.018117204 0.07854311 0.028443426 -0.07730164 0.063173875 -0.025117166 -0.03499272
-0.07577472 -0.09075403 0.026118211 -0.019941106 0.03554018 -0.074915975 0.06777419 -0.06700963
-0.01576285 0.019067109 0.047127128 0.073697016 0.08315882 -0.07238355 0.02297397 -0.039264947
-0.0100036785 -0.06832749 0.08314964 -0.06700021 0.048788503 0.032081902 0.029664285 -0.049354017
0.08297554 0.020060375 0.011743173 -0.08044719 0.03832127 -0.013694942 -0.04182083 0.07841073
0.020352349 -0.050506994 -0.04620395 -0.0043594837 0.05097118 -0.02332694 -0.052086122 -0.031260613
-0.06819829 0.032555938 0.070659876 -0.08594135 0.021201491 0.047158167 0.01655303 -0.032509584
0.047646582 0.047972575 0.03413473 -0.016041093 -0.02417294 0.009765975 -0.016126238 -0.02720365
0.058351338 0.07845208 -0.009037182 -0.020438895 0.0013320893 -0.0054505914 0.021946445 0.02558171
-0.08291212 -0.03368838 0.07687555 0.035561338 -0.0045403987 -0.055037513 -0.055849906 -0.08177195
-0.029756162 0.030828029 0.058206618 0.04214701 -0.08069268 -0.05489663 -0.014406621 0.08830653
0.013205364 -0.023640685 0.03776686 -0.03476957 -0.059086088 0.06662929 -0.041508403 -0.018300027
-0.09081279 0.061095774 0.069162264 0.033269413 -0.063652135 -0.09009487 -0.07414146 0.06807281
0.04382746 0.076818496 0.04782255 0.02310405 -0.000893943 -0.06942438 -0.07821224 -0.085385256
0.03736946 -0.04481904 -0.01837176 -0.0525362 -0.016634658 -0.064251035 -0.059648417 0.030280918
-0.027130194 0.05635546 -0.0292857 -0.06696522 -0.016106598 -0.04425118 -0.027928516 -0.08690491

layers.0.lin_a.weight f4 [1, 60]
00000000: fa91 7fbe 5953 bebe 528d ba3d fdea a53c
00000010: 1c45 afbe 27a3 e33c 4a72 cd3d 8a5c f83d
00000020: 13f6 9ebc 2ac6 883d e42f 9b3a b374 89bd
00000030: 46cc ecbe ac4f 423d dade 36bd 941a 093e
00000040: 23af ee3d e154 3abe 6b2f 6dbe b894 e2bd
00000050: bfb5 4cbe 9b5f 5dbd f9cc e23d 0955 ef3c
00000060: 2353 a93d 3948 28be a354 b9ba abbd 36bf
00000070: a972 9cbd 31d3 9abc 5c02 b33e ccd2 913d
00000080: 92d4 a63e 517a b83e 74ad 993d a9c7 c3be
00000090: 4d53 33bd 518c c83e ad6a bb3e ffca 033e
000000a0: 5fe7 863e 3ebb 1b3f 5e49 2e3e e7b4 153b
000000b0: db79 f73d d785 453e 6a0f c0be 6bd6 293f
000000c0: 0b1a fc3e ba2e 073d 1a49 af3e 6db6 15bd
000000d0: 753a c83e e3cb 703e e6eb 8a3e 6498 f3bd
000000e0: 1de0 f83d b1d5 da3e 4621 23be 5ee0 523e
-0.2495803 -0.37172964 0.09108986 0.020253653 -0.34232414 0.027787758 0.100315645 0.121270254
-0.019404447 0.06678422 0.0011839834 -0.06711712 -0.46249598 0.047439262 -0.04464612 0.13389045
0.116544984 -0.18196441 -0.2316262 -0.11063522 -0.19991206 -0.054046255 0.11074252 0.029215353
0.0826781 -0.16433801 -0.0014139604 -0.7138316 -0.07639057 -0.018899532 0.34962738 0.071202844
0.32584053 0.3603082 0.07503787 -0.38238266 -0.043780614 0.39169553 0.36604825 0.12870406
0.26348397 0.60832584 0.17020175 0.0022843422 0.12083789 0.19289337 -0.3751176 0.663428
0.4923862 0.033003546 0.3423546 -0.036550928 0.391071 0.23515277 0.271331 -0.118943006
0.12152121 0.4274116 -0.15930662 0.20593402

layers.0.lin.weight f4 [30, 10]
00000000: 62f1 833e d1dd 023f 0bab 333e 7d83 f0be
00000010: f695 233f 5b29 10bf 2d7c 0c3f 298b e2be
00000020: 2194 6b3c d046 4fbe 8afc 663f ca80 3b3f
00000030: 5f82 2a3c 6386 cc3b 1313 963e 614f 393e
00000040: 2d39 013f 1791 933e 5d21 dc3e c3a6 1a3f
00000050: 3ded 693f 3471 913f 4d87 163f 2928 bebe
00000060: 510e c2be 772f 15be 0bde cc3c 1fd2 7cbe
00000070: 81c5 043f faa2 18bf 190a b13f 75db b63f
00000080: 1d11 303f 1135 e0bd c850 24bf 3997 62bd
00000090: c853 623e e63c 6bbd 5c86 b7bd f13d a1bd
000000a0: a7ee 533f 61a7 0f3f fbe2 a63d fa2c 69be
000000b0: a081 303e 6695 473d 9c22 e23e 9fc5 9abd
000000c0: 5b8a 59be 67fa 9dbe 28f7 723f 52aa 823f
000000d0: 1bdc 8e3e df8f c63e c7e6 0c3d 8239 673f
000000e0: c62f 4ebe da2e 8e3f 7dda 3cbd a909 01bf
000000f0: 8b50 8e3f 300f 123f a9f2 fe3e 6f26 ffbe
00000100: d190 1cbe 172d 1fbe 1826 643e 5c5a ce3e
00000110: 8270 b1be 080d acbe 1f7e 703f 2590 8b3f
00000120: c0af b5bd e9c5 2abe f0aa b5be 235a b4bd
00000130: 20c7 053e 0baa 793d f0fc e93c 8167 babe
00000140: 9282 ab3f 9461 813f 7f18 363f 3cd3 0b3c
00000150: 328c 12bc 8917 b93d c6b2 3e3f 62b1 70be
00000160: 2125 97be 734d 2cbe ea2c 9b3f e074 493f
00000170: 6a07 313f f414 d8be 6bc7 8dbe 9569 c9bd
00000180: c0f6 44bc a7c9 d83e 4a49 60be 4fe2 45be
00000190: a1aa c13f c221 af3f 6978 463f a683 833d
000001a0: 8661 12bf ffe6 723c 1edd 433e fb62 003d
000001b0: a77e 95bc b4e0 60be 82fe ad3f ac78 663f
000001c0: f737 2f3f dab3 543e 2a45 1cbe 7576 92be
000001d0: 4fb5 abbe 17ef 32bc 3ede d13e 07fb 803e
000001e0: e546 3b3e 8a12 013f 9af2 7bbe 9e67 0d3f
000001f0: c064 f3bd a021 0abf ec6c 05bf ee68 a3be
00000200: 1120 4ebe c21b 18bf 2f6e 9d3f b5f4 733f
00000210: 5f91 ef3e 5cc2 26bf 1c62 08be ff75 bbbe
00000220: 793d 3f3f d679 9a3d dc8c 8cbd 8ca7 4abf
00000230: dff7 a53f 6e0c 3b3f c14b 233f 8eb9 f8be
00000240: e4a1 59be 0c2e 8c3d 9101 ebbd a492 7c3e
00000250: 9676 6cbe 1e58 f13d 5f16 9d3f 671b 423f
00000260: dd13 373f 2dfd 55bd 39a2 0fbe d698 813d
00000270: a537 1a3f 84b9 243c 5790 01bf 9d32 3abe
00000280: 27a9 543f 47d4 693f 5bcf 003f fc47 b6be
00000290: 293e c8be eae3 693f a4ed 613d 4772 f33e
000002a0: e729 183c d6f3 e9be 8117 fc3e c5c7 7b3f
000002b0: f00e 253f 30ed d4be ee47 bebe 74f4 8ebf
000002c0: 7bb3 1fbc 0c7e 0ebe 9f1d b43d af4b 543e
000002d0: 4568 ce3e d846 963f 61e0 be3e 82a9 6fbd
000002e0: f561 f3be ea37 933e b794 133e 29c0 11be
000002f0: 7f16 8d3d 1761 b43e ef62 a8be f319 aebe
00000300: e4c4 a93e ccf9 fdbe 4b1f a33e ebc4 00be
00000310: 2ce6 a7be ecb0 d0be 3b8c 943e d98e c73e
00000320: 78ff 6d3f db06 963f 2c10 dabd a881 ef3e
00000330: 552b 473c 4037 a33e 6645 89bc 49be 0b3f
00000340: 6627 603a 25cb b2bd 7cb4 143e 8fce a5be
00000350: 87ec ecbe 6e48 55bf c544 43be 3d8c b5be
00000360: c1e0 ddbd e78a 7cbe 4183 dcbc 725b a0be
00000370: 1d78 9d3f 9541 943f d5ed 2a3e 73cd 5bbe
00000380: 25c4 9dbe 50bd 173e f3e2 123d 6055 3d3d
00000390: bdad d0bc e995 1ebe 4894 a53f cb8d a63f
000003a0: 76f6 413f ea02 69bb 9e79 68be 8fe3 adbd
000003b0: 801d 4d3e 984b 44bd 2f0d 0bbe e4c9 8bbe
000003c0: fd4a 713f f576 703f 2894 1f3e a73f 9dbe
000003d0: 319a 33be 95ac c9be 7b47 403f 6528 d03c
000003e0: a22b 86bd 89ac 0fbf e0b9 243e 4663 193f
000003f0: 5b4c d33f 18c8 b13d 0c74 243f 2aa8 bb3e
0.25770098 0.51119715 0.17545716 -0.46975318 0.639007 -0.56313103 0.5487698 -0.44246796
0.014378578 -0.20241857 0.90229094 0.7324339 0.010407059 0.006241606 0.29311427 0.18096687
0.5047787 0.28821632 0.42994204 0.6041071 0.9137762 1.1362672 0.588002 -0.37140015
-0.37901548 -0.14568888 0.025008222 -0.2468953 0.5186387 -0.5962368 1.3831207 1.4285723
0.6877611 -0.109476216 -0.6418576 -0.05532 0.22102273 -0.057431124 -0.08961174 -0.078731425
0.8278603 0.56114775 0.08148762 -0.22771063 0.17236948 0.04872646 0.4416703 -0.075572245
-0.21244185 -0.30855104 0.9490838 1.0208228 0.27902302 0.3878164 0.034399774 0.90322125
-0.20135412 1.1108048 -0.046106804 -0.50405365 1.111833 0.57054424 0.4979451 -0.4983401
-0.15289618 -0.15544544 0.22280157 0.40303314 -0.3465615 -0.33603692 0.93942446 1.0903364
-0.08871412 -0.16677059 -0.35481977 -0.08806255 0.13064241 0.06095318 0.028562993 -0.36407092
1.3399222 1.0107903 0.7113113 0.008534249 -0.008944558 0.09037692 0.74491537 -0.23505166
-0.29520515 -0.1682642 1.2123082 0.7869396 0.6915194 -0.42203486 -0.27691206 -0.09834591
-0.01202172 0.4234135 -0.21902958 -0.19324611 1.5130197 1.3682177 0.7752748 0.06421594
-0.5718006 0.014825582 0.19127318 0.031344395 -0.01824887 -0.21960717 1.3593295 0.9002788
0.6844477 0.20771733 -0.15260759 -0.28606 -0.33536765 -0.010921261 0.4098987 0.2519152
0.18288763 0.50418913 -0.24604264 0.5523623 -0.11884451 -0.5395756 -0.52119327 -0.31915992
-0.2012942 -0.59417355 1.229925 0.9529527 0.46790597 -0.6514032 -0.13318676 -0.3661346
0.74703175 0.075427696 -0.06862804 -0.79161906 1.2966269 0.7306584 0.63787466 -0.48579067
-0.21253163 0.0684472 -0.11474908 0.24665314 -0.23092112 0.11784385 1.2272452 0.7582306
0.71514684 -0.0522434 -0.14026727 0.06327979 0.60241157 0.010053996 -0.5061087 -0.1818337
0.83070606 0.91339535 0.503164 -0.35601795 -0.39109924 0.91363394 0.055158272 0.47548124
0.009287334 -0.45693845 0.49236682 0.983517 0.6447592 -0.4158721 -0.37164253 -1.1168351
-0.009747381 -0.1391527 0.08794712 0.20731996 0.40313926 1.174037 0.37280563 -0.058511265
-0.47535673 0.28753597 0.14412199 -0.1423346 0.068890564 0.35230324 -0.3288798 -0.34004173
0.33158028 -0.49604642 0.31859812 -0.12575118 -0.32792795 -0.4075998 0.29013237 0.38976172
0.9296794 1.1720842 -0.10647616 0.46778607 0.012156327 0.3187809 -0.016756725 0.5458723
0.00085507927 -0.08730153 0.14521974 -0.32384154 -0.46274206 -0.83313644 -0.19069202 -0.35458556
-0.10833884 -0.24662362 -0.026918055 -0.31319767 1.2302281 1.1582514 0.16692288 -0.21465091
-0.3081371 0.1481831 0.035860967 0.046223998 -0.02547347 -0.15486874 1.2935877 1.3012022
0.75766695 -0.0035554715 -0.22702643 -0.08490669 0.20030785 -0.047923654 -0.13579248 -0.27302468
0.9425505 0.93931514 0.15583861 -0.30712625 -0.17539288 -0.39389482 0.7510907 0.025409887
-0.06551291 -0.5612264 0.1608653 0.59917104 1.6507677 0.08680743 0.64239573 0.36651736

layers.1.bias f4 [30]
00000000: e44f 883e a374 a73e a169 273e 5f9d af3e
00000010: c0e5 973e 1696 6e3e 2bbb 903e 1653 e03d
00000020: 56fd 743e f63e a53e 1a03 973e c885 a63e
00000030: 6d74 b33d 868d c23e 5874 4d3e 0272 6e3d
00000040: 4f07 383e df59 7f3e 2a7f 9b3e 5a40 af3e
00000050: 8d79 863e c5ea ab3e 0a32 963e 983b 873e
00000060: 52aa 1c3e 71f5 bd3e 2e89 043f fa83 863e
00000070: b9f1 ab3e a38e 7a3e
0.26623452 0.32706174 0.16348888 0.34299752 0.29667473 0.2329944 0.28267798 0.109533474
0.23924765 0.32274598 0.29494554 0.32523942 0.08762441 0.379986 0.20063913 0.058214195
0.17971538 0.24936627 0.30370456 0.34228784 0.2626461 0.33577552 0.29335052 0.26412654
0.15299347 0.3710132 0.5177182 0.26272565 0.33582857 0.24468474

layers.1.combine_aggr.weight f4 [30, 120]
00000000: b8be 45bd 57c3 4bbd 3094 7b3d 9077 17bd
00000010: 602a 6c3d 9a9b b5bd 2015 4e3b 292d 81bd
00000020: a2a2 043d c6d4 973d 8823 133d 968f 00bd
00000030: a962 afbd d828 31bd 1f8a 5cbd 0a87 b23d
00000040: e509 49bd 0893 103d f414 963d 4ccd 063d
00000050: 0f0e a4bd 40e6 29bc e4f3 ddbc 80ea 703d
00000060: 384c 0cbc 40c6 9dbb 864f a63d 24f4 b13c
00000070: 1c54 2d3d 3cbb f0bc 5487 743d b80b 573c
00000080: c837 96bc 981d 903c 5229 93bd e0fa 5b3b
00000090: 1c7b 2b3d 1c10 afbd 539d 46bd 8c43 6a3d
000000a0: 60ac 073b e0c7 4bbb 08a1 183c abd1 27bd
000000b0: 2099 9a3d 284c 14bc 2025 08bd c8d2 443d
000000c0: c69c 9bbd 50f0 89bc 70be 163c dc14 e8bc
000000d0: d480 4b3d 05a9 9fbd c497 d7bc 8627 1dbd
000000e0: 1eff ac3d 0439 153d 5376 8bbd 40ea 103d
000000f0: 40bf fdba f624 ab3d 4459 4e3d fa5f 5abd
00000100: 90a6 a63d 98c0 85bc 5c49 aabc bc9e df3c
00000110: 26be b93d e0a3 e13c 1263 b4bd 60b9 eebc
00000120: 4617 ae3d 4dc9 03bd 19e3 33bd 2805 95bd
00000130: 8367 4ebd 3e6f 4cbd bc99 b23c 2863 153d
00000140: 166d b23d f862 753d 40cc b03a 30a6 493d
00000150: 28b9 553d 1341 a1bd 94ac 3c3d ecc7 7fbd
00000160: dc5e 903d 68a1 22bd 142a 9b3c 00a1 7eba
00000170: 5479 2d3d 28a2 683c ee9d 87bd e077 173d
00000180: bc91 5c3d 52b8 42bd 258f 72bd 069c 7ebd
00000190: c9ed 35bd b890 3cbc 10a9 df3b 80c8 28ba
000001a0: 94ca c5bc bc08 683d 0015 9e3b e91c 59bd
000001b0: 5ce9 c5bc fad5 5bbd 40e9 03bd 3f5b b0bd
000001c0: e0aa 823c 40dc 90bd c09d 103d 8012 803d
000001d0: ea14 8bbd 3853 45bd 83b8 93bd 7c92 c73c
000001e0: 40b3 903c 66fe 40bd 7cdf 613d 5027 1b3d
000001f0: 02ec a8bd 20b6 a2bb 10f7 20bd 50aa 81bc
00000200: 2832 503d 50df 20bc eed7 81bd e482 833d
00000210: e4e2 aabd e869 00bd c412 103d 923f a53d
00000220: e072 b53d d0ad afbc d88b f93c cb30 a4bd
00000230: 0483 91bc 909d e8bc a049 d43c f0fc 74bd
00000240: b890 a13c 0c2d 413d 20b4 913d 38e5 7cbc
00000250: dccd aa3d 1aa3 b0bd fce9 d3bc 6cc1 0d3d
00000260: 08c3 bf3c d416 303d 611e 78bd cc3a 663d
00000270: 7876 afbd 0f31 80bd c06e cbbb 07a1 b5bd
00000280: 00b5 b1bd 86f7 a5bd 7e4f 963d f409 a43c
00000290: f09b eebc a0e0 75bb 4df4 a2bd 1892 b0bd
000002a0: 1261 82bd 4fde b4bd 5800 763d e7d7 02bd
000002b0: e8de c9bc 0eff a0bd f0b5 773c f865 60bc
000002c0: fc8d 7ebd d4bc 6f3d 4696 9d3d 2442 85bd
000002d0: e4d9 533d d0db 72bc 80ed 61ba b427 1f3d
000002e0: 7057 88bc 8cd8 9e3d 240e 663d d9b7 72bd
000002f0: 7c8c 63bd 693c b9bd 846d ef3c 35a0 8cbd
00000300: dbb3 9cbd 4eaa 6fbd 8dd6 b8bd 443a 98bd
00000310: 16c2 a63d 9cdc 503d daa5 a53d aa60 35bd
00000320: 4c5c 19bd 9531 03bd c0af e93a c730 86bd
00000330: d843 5b3c c4a3 6fbd a857 6c3c 4e40 ab3d
00000340: 109d 7c3c ba5f 883d d826 85bd 4812 53bc
00000350: f0e1 66bd 00f0 25bc b2bd 14bd 874d 54bd
00000360: 9e96 b4bd d5a4 0abd 784b 483c bc8e 83bc
00000370: da1e aebd f26f 8c3d 1aa0 8a3d 956e 61bd
00000380: 580a 183c e847 783d db8a b1bd be31 a5bd
00000390: 8478 4f3d 00fc ecba b422 ee3c 3d7e 1bbd
000003a0: 9c96 873c 60fe 773d 08f4 b6bc 1a8d f1bc
000003b0: 7604 b2bd 78ca 66bc 64ef 6c3d aeaf b0bd
000003c0: 5011 e7bb 5847 883d a070 d5bc 0c26 0abd
000003d0: 4091 e1bc 3a7e 17bd 2802 333c 7f00 b4bd
000003e0: b8e2 0e3d 08de bcbc 706c 3ebc f0d1 c9bb
000003f0: 50e1 503d c642 68bd 7c20 aabd 053c 87bd
-0.048277587 -0.049746837 0.06142062 -0.036979258 0.0576576 -0.08867569 0.0031445697 -0.06307442
0.03238166 0.0741363 0.035922557 -0.031386934 -0.0856374 -0.043251842 -0.05384266 0.08717163
-0.0490817 0.03529647 0.07328215 0.03291063 -0.08010494 -0.010369837 -0.027093835 0.058817387
-0.008563094 -0.004814893 0.08120637 0.02172286 0.04231654 -0.029386155 0.05969937 0.013125353
-0.018337145 0.017592236 -0.071856156 0.0033566281 0.041865453 -0.085479945 -0.04848988 0.057193324
0.0020702109 -0.0031094477 0.009315737 -0.04097144 0.075487375 -0.00905136 -0.03323853 0.04805258
-0.075982615 -0.016838223 0.009200677 -0.028330259 0.049683407 -0.0779591 -0.026317485 -0.03836777
0.08447097 0.036431327 -0.06809678 0.03537965 -0.0019359365 0.08356659 0.0503781 -0.053314187
0.08137238 -0.016327187 -0.020786934 0.02729737 0.09069471 0.027543962 -0.08807959 -0.029141128
0.08500533 -0.032174397 -0.04391775 -0.07276374 -0.050391685 -0.049910776 0.021801822 0.036471516
0.08712213 0.059908837 0.0013488606 0.049230754 0.052178532 -0.0787374 0.04606302 -0.06244652
0.07049343 -0.03970471 0.018940963 -0.0009713322 0.042352036 0.014198817 -0.066219196 0.036979556
0.05384992 -0.047539063 -0.059218545 -0.062160514 -0.044416223 -0.011509113 0.0068255737 -0.0006438568
-0.024144448 0.056648955 0.0048242807 -0.053006086 -0.024159126 -0.05367086 -0.032204866 -0.08611154
0.01595062 -0.07073259 0.035306692 0.062535286 -0.067910984 -0.048175067 -0.07212927 0.024361841
0.017663598 -0.047117613 0.055144772 0.03787929 -0.0824814 -0.0049655586 -0.039298117 -0.015828282
0.050829083 -0.009818867 -0.063400134 0.0642145 -0.08344057 -0.031351 0.035174146 0.08068766
0.08859801 -0.021445185 0.03046219 -0.08017119 -0.017762668 -0.028395444 0.025914013 -0.059811532
0.019722328 0.0471621 0.07114434 -0.015435509 0.08340046 -0.08624859 -0.025868408 0.03460829
0.023408428 0.04299052 -0.060575847 0.056208417 -0.08567518 -0.06259357 -0.006208271 -0.08868604
-0.08677101 -0.08103852 0.07339381 0.020024277 -0.029127091 -0.003751792 -0.07956753 -0.08621615
-0.06366171 -0.088314645 0.06005892 -0.03194418 -0.024642423 -0.07861148 0.015119061 -0.013696186
-0.062147126 0.05852969 0.07694678 -0.06506756 0.05172147 -0.014822915 -0.0008618459 0.038856223
-0.016643256 0.07756147 0.05616583 -0.059257362 -0.0555539 -0.090447254 0.029227026 -0.068664946
-0.07651492 -0.058512025 -0.09025297 -0.07432988 0.08142488 0.05099164 0.08088274 -0.04428164
-0.037441537 -0.032029707 0.0017828867 -0.06552272 0.013382874 -0.05850579 0.014425196 0.083618745
0.015418306 0.066588834 -0.065015495 -0.012882777 -0.056367815 -0.010128021 -0.03631372 -0.05183175
-0.088177904 -0.033848602 0.012225024 -0.016059272 -0.08501978 0.068572894 0.06768818 -0.0550371
0.00927981 0.06061545 -0.08669063 -0.08066128 0.050652042 -0.0018080473 0.029069282 -0.037962187
0.016551308 0.060545325 -0.02233316 -0.029486228 -0.08692257 -0.014086358 0.05784549 -0.08627258
-0.0070516244 0.06654233 -0.02605468 -0.03372769 -0.02753508 -0.036985613 0.010925807 -0.08789157
0.034884185 -0.023055092 -0.011622533 -0.0061590597 0.050996125 -0.056704305 -0.08306977 -0.06603245

layers.1.lin_a.weight f4 [1, 60]
00000000: 3ff0 123e abb7 acbd 7c7a 403e 1def 64bf
00000010: 7259 06bd f7de 1abd b6a4 9f3d af35 123e
00000020: d746 b1be 61ef 873e f988 72bf 2e4a 463e
00000030: 2f11 353e 99ac a2bf eaae 5d3d 5d8d 183e
00000040: fa47 f73c 5827 75bd 90ad 033d 0ba0 8f3e
00000050: bf46 0fbd 3607 793e e696 b43d 3e30 0e3e
00000060: 262d f63d 5bcc 8cbf 7fe4 90bf d6b9 fc3d
00000070: 59a5 d0bd 8a16 b93d 6adf d63d 64e3 1c3d
00000080: 7408 b83e e38a 57be 3187 363e 3360 363e
00000090: 5ef9 963d 3541 b73e 2db1 673b 3886 15bd
000000a0: 11a9 f3bd 0bba 6e3e 5503 c43e bed2 84be
000000b0: 8b84 893e 7177 183e 22c7 863e 9695 0b3e
000000c0: 5a73 433e da7d 3c3e d93b e73d 8ba5 74bc
000000d0: 4626 f73d 1506 513e 91f6 8d3e 546c 12bd
000000e0: b0ff 5bbe 6c21 733d 26ae a83d 2575 c43e
0.14349459 -0.084334694 0.18796724 -0.8942736 -0.032800145 -0.037810292 0.07795088 0.14278291
-0.3462436 0.2654982 -0.94740254 0.19364235 0.17682336 -1.2708923 0.05412189 0.14897676
0.030185688 -0.059851974 0.032147944 0.2805179 -0.034979578 0.24319157 0.08817844 0.1388559
0.1202033 -1.0999864 -1.1319731 0.12340133 -0.101877876 0.09037502 0.104918316 0.038302794
0.3594395 -0.21049075 0.17825009 0.17810135 0.07371782 0.35791937 0.0035353408 -0.036504954
-0.11897481 0.23313157 0.38283792 -0.25942034 0.26858935 0.14889313 0.263238 0.13631281
0.19086972 0.18407384 0.11290712 -0.014932047 0.12067847 0.20412476 0.27727178 -0.03574784
-0.21484256 0.059358045 0.08236341 0.38370624

layers.1.lin.weight f4 [30, 30]
00000000: 559e b7bd 5daf 493f c8db 563f a169 3a3f
00000010: 87cd 253f 9f75 883f fc51 433f ac9e 513f
00000020: 7d20 1e3f 29c6 983f 2c3e 533f 84f2 2b3f
00000030: 8e55 cfbd bdc4 2e3f abbf 7f3f 5dba 4e3f
00000040: 7b3b 903f 53e1 4c3f fedf 7a3f faf5 de3d
00000050: 9b6c 763f 9236 763e 7a90 493f a6b8 5f3f
00000060: fce3 233f 886b 983c fde7 833f e3b1 f53e
00000070: 2ddd 663f 54fd 5b3f 8082 efbc 692c 563f
00000080: bb9d 863f 2620 363f 9921 753f 8d6e 6c3f
00000090: 9bd3 3d3f ae38 4f3f cfca 373f 8eb8 883f
000000a0: 8ff8 343f 9e2f 933f 8903 813d 1570 783f
000000b0: a5af 5c3f c944 2f3f 1c50 ab3f a40f 853f
000000c0: 2f18 a13f 1b96 983e b630 673f 78e7 513e
000000d0: 94f4 543f 8a49 203f b707 0a3f 727a 9bbe
000000e0: 4de9 963f 14c6 5d3f af58 9e3f f9c8 3f3f
000000f0: 1272 6c3e ea33 603f fde3 383f 1fc5 3b3f
00000100: 501f 073f 1488 433f 224d 6d3f 2339 543f
00000110: 5c12 0c3f 357c 833f 2686 353f 6795 1d3f
00000120: 1eaa 283e 3bbe 4a3f 86ec 533f 762b 223f
00000130: 97e6 6b3f eb89 833f d16c 823f 8f29 b63d
00000140: a715 073f 7096 563e 0dbe 1c3f 593d 3e3f
00000150: 10a4 353f e81f cbbd e1e9 833f 6e87 cb3e
00000160: 2fd1 273f bcbf 123f 8df6 95bf 1a9f e43e
00000170: 9f05 b93e 3f38 b83e a41f 73bd 3f84 0f3f
00000180: d5f5 0dbe 01eb 833e 20fd 73bd c992 00be
00000190: 675a a1bd 7d21 963e 85ab ddbf 3be0 f8bd
000001a0: 52b6 80be 890e c23e 222e c73e 9228 02bf
000001b0: 2a75 593e c336 85bf 29d5 803d 4ebf 9ebf
000001c0: 4e0b fd3e b6d8 163e f7cb 87be d568 cbbf
000001d0: 7ecd 9d3e d35f 673d 8120 a43e 6ede 1e3e
000001e0: a6ac b53e 6d74 553f eaab 293f 0e21 4a3f
000001f0: 892c 413f 8674 2d3f 9c99 173f 625e 1f3f
00000200: 51ec 1a3f 1e8a 563f 27ab 053f 2bde 723f
00000210: bad3 9c3e 6fca 053f 5c3b 2c3f 2540 133f
00000220: a99e 763f 70c0 4d3f 34c8 6b3f a43b 133f
00000230: e85d 3c3f 6d7c 113f 27d7 503f 4817 2d3f
00000240: 4bab 333f 2334 15be 3b09 983f c98d 163f
00000250: 22d3 323f 0f5f 413f 81fb 97be 75dc 5f3f
00000260: a6be 823f e0db 503f 8dd0 503f 81c0 6f3f
00000270: 7b3b 423f 7472 433f d763 733f 14f2 893f
00000280: 6ab8 8e3f 36ce 8f3f 3ac5 0bbe 07ed 453f
00000290: a89b 823f 423d 3f3f ae2d 8b3f da12 583f
000002a0: e80c 873f e615 263e 5a6d 8c3f e30f 563e
000002b0: 372c 453f 04e3 443f 1975 473f afd8 8ebe
000002c0: ba3c 8c3f bba1 463f ba23 843f 6c0d 813f
000002d0: c3a3 8d3e 80cc 533f 6675 503f caaa 483f
000002e0: 139b 223f 8c79 213f 32a1 083f 252d 4e3f
000002f0: 44a7 b03e e5bd 413f 4966 093f 6976 383f
00000300: e22b e03d cbe0 243f 62c1 653f 2141 2a3f
00000310: 0bc8 553f 0409 813f e20f 853f d2d7 e13e
00000320: fefe 3a3f b744 c73e 1c8f 343f c571 4b3f
00000330: a15c d43e cd52 933d 89cd 923f 309a ff3e
00000340: 7f6b 323f 5ffd 003f 05a9 bc3e 7b06 7f3f
00000350: 052c 4a3f 220a 653f a929 4b3f 7d1f ae3f
00000360: 46db 873f a786 793f 5b18 883f 2891 523f
00000370: 8d1e 8b3f 956a 393f cc05 36be 797d 853f
00000380: 1d7a 4b3f ce88 883f 6f5d 853f c88f 683f
00000390: e058 943f 4b39 4abf bc82 873f cc0f 0bbf
000003a0: b625 693f 6c50 663f a75d 4a3f 5769 573f
000003b0: f0dd 353e f715 173f dcc9 953f e3dc 803f
000003c0: 82c7 443e bef5 473f cc01 f53e 6609 2f3f
000003d0: 31cf 413f ffdc 8b3f 3605 d83e f4ba dc3e
000003e0: 0395 443f d758 4c3f dc54 253f eca2 373f
000003f0: 79ec 5fbe 4d58 393f add4 263f 85db 483f
-0.08965746 0.7878321 0.8392911 0.72817427 0.64766735 1.0660895 0.76296973 0.8188274
0.61768323 1.1935474 0.8251674 0.67166924 -0.1012374 0.6826895 0.9990184 0.8075312
1.1268152 0.8003132 0.97998035 0.1088676 0.9625947 0.24044254 0.7873608 0.87391126
0.6401975 0.018605962 1.0305172 0.4798728 0.9018124 0.85933423 -0.029237032 0.83661515
1.0516886 0.71142805 0.9575439 0.9235619 0.7415101 0.8094586 0.71793836 1.0681322
0.7069177 1.1498907 0.062995024 0.97046024 0.8620551 0.6846433 1.3383822 1.0395398
1.2585505 0.2980202 0.903087 0.20498455 0.83185697 0.6261221 0.5391802 -0.30366856
1.1789948 0.8663037 1.2370814 0.74916035 0.2309039 0.87579215 0.7222288 0.7334766
0.52782154 0.76379514 0.9269582 0.82899684 0.54715514 1.027228 0.7090782 0.61556095
0.16471145 0.7919652 0.8278278 0.63347566 0.9214873 1.0276464 1.0189458 0.088946454
0.52767414 0.20955825 0.61227494 0.7431236 0.70953465 -0.09918195 1.0305749 0.39751762
0.65553564 0.57323813 -1.1715866 0.44652635 0.361371 0.35980412 -0.059356347 0.56061167
-0.13863309 0.2576523 -0.05956757 -0.12555994 -0.07878571 0.29322425 -1.7317969 -0.121521436
-0.251391 0.37901714 0.38902384 -0.50843155 0.21236101 -1.0407337 0.06290657 -1.2402132
0.49422687 0.14731106 -0.265228 -1.5891367 0.3082084 0.05648787 0.3205605 0.15514538
0.35483283 0.83380777 0.66277945 0.7895669 0.7545858 0.67755926 0.59218764 0.6225339
0.6051684 0.838045 0.5221428 0.9487025 0.30630285 0.52262014 0.67278075 0.5751975
0.96335846 0.8037176 0.9210236 0.5751288 0.7358079 0.56830484 0.81578296 0.6761365
0.7018325 -0.1457067 1.1877817 0.58810097 0.69853413 0.7553567 -0.2968407 0.87445766
1.0214431 0.815855 0.81568223 0.9365311 0.7587201 0.76346517 0.9507422 1.0777001
1.1150029 1.1234806 -0.13649455 0.773148 1.0203753 0.74702847 1.0873315 0.84403765
1.0550814 0.16219291 1.0970871 0.20904498 0.7702059 0.769089 0.7791305 -0.2789969
1.0956032 0.7759053 1.0323403 1.0082221 0.27664003 0.8273392 0.81429136 0.78385603
0.63517874 0.6307609 0.53370965 0.80537635 0.34502614 0.7568038 0.536717 0.7205568
0.1094587 0.64405507 0.89748204 0.6650563 0.83508366 1.0080876 1.0395472 0.4410997
0.7304534 0.38919613 0.7053087 0.79470474 0.4147692 0.07193527 1.1468974 0.49922323
0.69695276 0.50386614 0.36847702 0.99619263 0.7897342 0.89468586 0.79360443 1.360336
1.0613792 0.9747109 1.0632433 0.8225274 1.0868698 0.72428256 -0.17775649 1.0428916
0.79483205 1.066675 1.0419139 0.9084439 1.1589622 -0.7899367 1.0586772 -0.5432098
0.9107317 0.89966464 0.7904915 0.8414511 0.17760444 0.5901789 1.1702228 1.0067409
0.19216731 0.7810935 0.47852933 0.68373716 0.75706774 1.0926818 0.42191476 0.43111384
0.76789874 0.7982306 0.6458261 0.71732974 -0.21867551 0.7240036 0.6516827 0.7845996

layers.2.bias f4 [30]
00000000: 95a2 c9be 37d3 c2be 92e8 173e 8c3a 84be
00000010: 24d7 72be 16f7 193f ada6 1a3f 2d85 3a3f
00000020: c0cb 1a3f 0731 3d3f 81f3 a93e b30c 84bd
00000030: 868f 2f3f 07e0 85be c4f8 b4be ff5c 9ebe
00000040: ed3c f53d 4dc8 bbbe a41f 003e b1d8 9cbe
00000050: b300 3b3f 97b0 dcbe 2751 f03e 51fb 053f
00000060: 0ddc ef3e e76d edbc 8c90 133f fb81 293f
00000070: e717 3c3f 863e 193f
-0.39381853 -0.3805177 0.14834812 -0.25825918 -0.23714882 0.6014265 0.6041058 0.7285946
0.6046715 0.73902935 0.3319359 -0.06447735 0.68578374 -0.26147482 -0.35346043 -0.30930325
0.11974511 -0.36676255 0.1251207 -0.30634072 0.7304794 -0.43103477 0.46936914 0.52336603
0.46847573 -0.02898307 0.57642436 0.6621396 0.7347397 0.5986103

layers.2.combine_aggr.weight f4 [30, 120]
00000000: 6ecb 9b3d e082 3b3c aab6 013d c7d8 b9bd
00000010: 080c 1a3d 641d 7c3d 2695 0fbd cc11 8e3d
00000020: 6c69 283d 2282 88bd 7025 8cbd 40fb a73a
00000030: 1e53 b4bd 15a7 82bd 8040 123d e40c f6bc
00000040: 40fd 53bb 15c6 18bd f401 723d 4285 993d
00000050: 76e7 863d 2541 a6bd 4017 ddbc 8818 353d
00000060: c426 5d3d cc9a a7bc dcbd 4c3d 00e1 30bb
00000070: 8021 263c 48f0 7b3d f4c9 7f3d 30fc 83bd
00000080: a301 63bd 7e75 043d 04ba 603d ec1f aebc
00000090: ceca a53d b04c 2cbc e99d 3dbd 98aa 18bc
000000a0: 0f20 9fbd 08b4 e73c ede1 abbd 667a ad3d
000000b0: 76db 8dbd 5c66 733d ba3b 8cbd 30f9 59bc
000000c0: 7113 4fbd 7c10 3f3d 50dd 583d 01d3 aebd
000000d0: 3280 a0bd d8e4 443c 20b3 00bb 00c1 0a3a
000000e0: 3858 e33c 1ccc 93bc 26c4 9d3d 60c5 d43b
000000f0: 6841 2cbd 2cbe 013d 8f0d 91bd d8d2 32bd
00000100: 1408 da3c 27df 1cbd 447c b2bd ec23 3b3d
00000110: a878 c03c b4a8 d93c 4ef7 013d ab7b b8bd
00000120: 82e5 22bd 5ca2 35bd 44e4 b23d 7487 1dbd
00000130: b6a4 75bd ef3b 03bd 78b5 0f3c 5caf 163d
00000140: 44ae 893d c6f7 863d f899 193c 6651 aa3d
00000150: 78ce 463d e07f 473d c250 a0bd a061 f43b
00000160: 48d4 9ebc 10ac b1bd 4da8 38bd 0c40 8e3d
00000170: e41e 093d 36c8 ac3d 78f3 7e3d 8010 37ba
00000180: 5207 a83d f4bb 9d3c 10b2 5bbc d0e4 1fbd
00000190: 3001 713d 10a1 273d 94ce 813d 58e9 81bc
000001a0: 5207 adbd 549c 873c b8ac 233c 8262 73bd
000001b0: 184e b53c b003 35bc d080 9f3d 40c5 8c3b
000001c0: abab 38bd 92c7 953d 20c5 313b b831 7bbc
000001d0: 1c97 323d 3057 b43d 607e 2a3d c0b1 283b
000001e0: ca1e 993d 05fb 23bd 023a a53d 090a 55bd
000001f0: 803d db3a 6e26 aa3d a8e6 143d c4b8 9cbc
00000200: d05d 663d 748e 5c3d 7885 a8bd 60b2 26bc
00000210: f221 93bd ec30 a1bc f049 34bc d394 15bd
00000220: 03a9 08bd 9039 4a3d 60ac 31bb 5104 babd
00000230: bc8b 803c 19dc b7bd 9f41 80bd 788e 643d
00000240: deea 8e3d 19aa 04bd b90b 63bd d834 293d
00000250: db97 b2bd 58ae 663d 4ac7 803d 74c7 1d3d
00000260: f43d e43c 74a3 9a3c a852 8fbd a5c6 15bd
00000270: 3830 713d 8076 9d3d e0cb 1f3b 1020 c03c
00000280: 1a54 b1bd b8fa 833d 28c9 59bd d36f 48bd
00000290: ee79 b83d b85e d6bc abe7 3cbd b0bb 4d3c
000002a0: 9255 933d 60e0 a93d 1067 fa3b 588e 7e3d
000002b0: de54 853d d8f8 79bc 55ba 93bd a0f4 203b
000002c0: 0409 febc 9808 033d 0afb 88bd 3ace 7abd
000002d0: 40cc 8cbd dadc 8bbd 5835 8e3d a14a babd
000002e0: 2038 5cbb 74c4 66bd 9c44 1dbd d882 d7bc
000002f0: 446a 2f3d 246d 7b3d c041 a8bc 8015 433b
00000300: 409d 83ba f240 aa3d b01d 273d ec45 9bbc
00000310: f031 7d3d 67f5 96bd f031 143d 3c06 913d
00000320: 8812 42bd 8ce9 0b3d 2c72 2b3d b9d9 9cbd
00000330: c81e d73c 3062 8d3d 6859 093c c888 90bc
00000340: 2d89 12bd ae2a 78bd dc9b b53c f6ba b0bd
00000350: 3608 a0bd c44a 07bd 860a b1bd 3e93 ae3d
00000360: 68f6 f0bc b3cb 46bd 4cfc bb3c 20eb 203d
00000370: 66ca 8c3d d4f4 16bd 74ac 82bc 792d 8dbd
00000380: e43f a3bd 68b1 22bd c847 283c 415d 39bd
00000390: e86f cebc 220e 093d dc4c 9a3c 40b6 663d
000003a0: 40aa 2c3d b82b 453d 3d4d 41bd c48d 483d
000003b0: 4291 a7bd e04a e63c e3d1 6bbd c47f ce3c
000003c0: 260c abbd 80b7 77bc c8fc 653d 94fc 3abd
000003d0: 4078 673d a88b 68bc ce64 af3d 2e24 b03d
000003e0: 489d 5cbd c827 afbc f8d7 98bc fe60 0dbd
000003f0: 2cd3 f53c 3a39 aabd 1e3c 60bd c876 6abc
0.076071605 0.011444777 0.031668343 -0.0907455 0.03760913 0.061551467 -0.03505435 0.06936988
0.041116163 -0.06665446 -0.06843078 0.0012815967 -0.08804916 -0.063795246 0.035706043 -0.030035444
-0.0032346994 -0.03729828 0.059083894 0.0749612 0.065871164 -0.08117894 -0.026988626 0.044212848
0.053992048 -0.020459555 0.04998575 -0.002698958 0.010139823 0.061508447 0.062448457 -0.06444585
-0.055421483 0.03233861 0.0548649 -0.021255456 0.080953225 -0.010516331 -0.046293173 -0.0093180165
-0.077697866 0.028284088 -0.08392701 0.08470611 -0.069266245 0.05942379 -0.068473294 -0.01330404
-0.05055565 0.04664658 0.052945435 -0.085363396 -0.07836951 0.012017451 -0.0019638017 0.00052930415
0.027752027 -0.018041663 0.07703428 0.0064932555 -0.042054564 0.031675503 -0.07082664 -0.043658108
0.02661518 -0.038298752 -0.08715108 0.045688555 0.023495033 0.026569702 0.03172999 -0.09007963
-0.039769657 -0.04434429 0.087349445 -0.038459256 -0.059971534 -0.03203958 0.008771293 0.03678833
0.06722692 0.06590228 0.009375088 0.08316307 0.048536748 0.048705935 -0.07827903 0.007457927
-0.019388333 -0.086753964 -0.04508238 0.0694581 0.033476725 0.08436625 0.06224391 -0.00069833547
0.08204521 0.019254662 -0.013409153 -0.039036572 0.058839023 0.040925086 0.0633823 -0.015858337
-0.08448662 0.016554035 0.00998991 -0.059420116 0.022131965 -0.011048242 0.07788241 0.004295975
-0.04508559 0.07313456 0.0027125552 -0.015331678 0.04360114 0.08805692 0.041624427 0.0025740713
0.07476576 -0.040034313 0.08067705 -0.052011523 0.0016726702 0.08308111 0.036352783 -0.019131072
0.05624181 0.05384679 -0.08228582 -0.010174364 -0.07184209 -0.019676648 -0.011003956 -0.036518883
-0.033364307 0.049371302 -0.00271108 -0.090828545 0.01569163 -0.08977527 -0.06262516 0.05579993
0.06978391 -0.03238878 -0.0554311 0.04131016 -0.087203704 0.05631861 0.06288011 0.03852029
0.027861573 0.018876769 -0.06998187 -0.036566395 0.058883876 0.07688618 0.0024382994 0.023452789
-0.08658619 0.06444305 -0.053170353 -0.04893477 0.09007631 -0.026168212 -0.046119373 0.012556955
0.071940556 0.08294749 0.0076416805 0.06214747 0.06510328 -0.015257083 -0.072132744 0.002455987
-0.031010158 0.031990618 -0.06688507 -0.06123183 -0.06874895 -0.068292335 0.06943768 -0.090962656
-0.003360279 -0.056339696 -0.03839551 -0.026307508 0.042825952 0.06138338 -0.020539165 0.0029767454
-0.0010041371 0.083131686 0.040799797 -0.01895424 0.061815202 -0.073710255 0.036180437 0.07081267
-0.047380954 0.034158275 0.04185693 -0.07658715 0.026259795 0.069034934 0.0083831325 -0.017643347
-0.035775352 -0.060587578 0.022169046 -0.0862941 -0.07814066 -0.033030286 -0.08644585 0.08524178
-0.02941437 -0.048534106 0.022947453 0.039286733 0.06874542 -0.03685458 -0.015951373 -0.06893439
-0.079711705 -0.03971997 0.01027102 -0.04525495 -0.025199845 0.033460744 0.018835478 0.05632615
0.04215455 0.048137397 -0.0471928 0.048963323 -0.081820026 0.028111875 -0.05757321 0.025207408
-0.083519265 -0.015119433 0.056149274 -0.045651034 0.056511164 -0.014193453 0.08564149 0.08600651
-0.053860933 -0.021381274 -0.01865767 -0.034516327 0.030007921 -0.08311696 -0.054744832 -0.014310546

layers.2.lin_a.weight f4 [1, 60]
00000000: eb2b 24bd d59e 96bd 6f7b 7e3d 93c3 81bf
00000010: e6d4 76bf 44d1 e33d 2aa0 8e3d 8bb1 82bd
00000020: c785 bc3d 59f1 833d eb1d 123e 7e80 583d
00000030: 3fc7 433d ae66 7cbf ecf3 0fbe ffee 5f3d
00000040: 5ff4 5fbd 1884 ccbd 3ef5 bbbe c0a3 8fbd
00000050: 6b1f d53d 75d1 c8bd bbd0 f3bd f0cf 923d
00000060: 3d05 b6bd c164 843c 1a34 bb3d 14a1 96bd
00000070: e139 e83d 835e c4bb 54f3 5bbd 1cae 283e
00000080: 14e0 023e 4244 be3e b699 0b3f f68d ffbd
00000090: 1c5c 15be 5550 c03d 27e7 9b3d 73af edbd
000000a0: 3407 b83d cbfe ae3d 0aa5 90bd 756a 9d3e
000000b0: 40c2 c0bc 9bac 1e3d 5501 e03d 3c08 3f3d
000000c0: 6adc 9ebe 2768 9c3d 6fea 2abd cd92 163c
000000d0: 588a 0ebe 8bfb 503c 8d16 cfbd 75eb 0cbd
000000e0: 2f95 213d d723 5d3b 4b3f b6bd 6720 0c3d
-0.040080946 -0.073545136 0.062129434 -1.013781 -0.9641861 0.111238986 0.069641426 -0.0638152
0.092052035 0.06442518 0.14269225 0.052856915 0.047797438 -0.98594177 -0.14057893 0.054671284
-0.05467641 -0.099861324 -0.36710542 -0.07013655 0.10406383 -0.09805576 -0.119050466 0.07168567
-0.08887718 0.016161324 0.09140797 -0.07354942 0.113391645 -0.005992712 -0.053698853 0.16472667
0.12780792 0.37161452 0.5453142 -0.12478249 -0.14585918 0.09390322 0.07612448 -0.1160573
0.08985749 0.08544692 -0.07062729 0.30745283 -0.023530126 0.03873883 0.10937754 0.046638712
-0.31027538 0.07637053 -0.04172748 0.0091902735 -0.13919961 0.012755285 -0.10111723 -0.034404237
0.039448913 0.0033743286 -0.08898791 0.03421059

layers.2.lin.weight f4 [30, 30]
00000000: a5c8 e13e bf6b 953e f7f7 bb3e 11fb 3c3f
00000010: d7dc e63e ee41 083f c1af cd3e 8fce da3e
00000020: bd9d 313f cf9c e23e 01f6 923e 5f31 263e
00000030: 15bc ef3e d788 853f 94a1 ff3e 4ee6 b13e
00000040: 1916 0b3f 5b81 623e 109e e63e 06a7 9e3e
00000050: 129e 763e e2b0 8e3e 1085 d63e 3989 ee3e
00000060: 0b6c 733e 6220 cf3e 95ea b43d 760c bb3e
00000070: 2c1f 673e 7cfc de3e c44a 403f dc51 083f
00000080: 055c 263f fe85 873f bbc1 393f 171c 5c3f
00000090: 8772 423f a68e 8b3f c384 903f d136 063f
000000a0: 5e70 0a3f 8a50 133f 5c1d 8b3f 41f9 893d
000000b0: 1a23 443f cec7 313f e66e 6f3f b19f 2d3f
000000c0: 4bdc 4a3f e81c 0a3f 3abf 573f 8525 0b3f
000000d0: 32c8 403f 342a 293f 6fb7 653f f92b 1e3f
000000e0: 842a b4be c6a8 503f 0b67 203f b5ca 2a3f
000000f0: 434f 193f a70b 333f 50c7 2f3f 3848 99bf
00000100: 6666 df3e d60c 273f 6520 293f baf6 3b3f
00000110: 1f4c 133f 13ea 293f d4aa 90bf c628 de3e
00000120: 52fb 353f d7f0 82bf 207b 2e3f 5f16 0d3f
00000130: 59c1 fc3e 60b3 2e3f 77cc e63e 7f6e 2a3f
00000140: 4e3c 0e3f d000 1f3f 89cc 113f a66f 053f
00000150: 564e 023f 54f4 81bf e6b3 89bf 8f26 ca3e
00000160: aaec 1f3f b688 213f d2e7 21be 0da0 cabd
00000170: dff7 03be 72dc ca3f 888a 33be 0b66 133e
00000180: d904 3ebe f82c 9e3d 88a9 243f fa2e 56bd
00000190: e69b a03f eed9 edbd 798b 8a3e 3c5c 333f
000001a0: 24a7 893c 7148 f6bd b920 de3e 0de1 9c3d
000001b0: d5ed 8cbd 0bd1 00bc 8d1f 85bc 73cb 1ebe
000001c0: 8d50 29be ee34 923d 1b36 403e 88fb 7f3f
000001d0: ee4d 433f 33f3 0bbd a5cb c13d a71b 013e
000001e0: fe15 493e e313 6c3d e157 dbbd 9086 d63f
000001f0: b9bd 32be 2641 22be a0a3 51be 865f a03e
00000200: 367f 063f 138b b63b 8254 813f cfea 3bbe
00000210: 314b 1e3e 3d85 223f 134e f53d d8cf 093c
00000220: f162 8e3e 4841 e33d 6685 3cbe 5209 313d
00000230: 658f d3bd 2e44 87bd 2c99 17be 99aa 9fbd
00000240: 60e3 ea3d d8fb 893f 1571 dc3e 5cf3 0bba
00000250: edc4 bcbc afaa 2c3e e8c0 f33e ddde 313f
00000260: 2abf 1b3f 6278 ccbf e6d4 263f d2c9 f63e
00000270: 587b f73e 6f07 943e 0073 b13e c0ff 0c3f
00000280: e6af 99bf dcdf 0c3f 1320 d43e 16bf 49bf
00000290: 68cb 073f 1a96 a53e a79b b53e ba5f 203f
000002a0: 1617 173f 8720 283f 790e 1e3f ad91 cd3e
000002b0: 9f74 173f 5da9 fe3e da5c 153f 28bf 93bf
000002c0: b69a e9bd 6ebc e13e 86dd 163f 1362 b53e
000002d0: 5309 223f 504d 303f fb77 273f 5b83 c0bf
000002e0: de5b e33e 062d 163f 1455 da3e 3fb6 ac3e
000002f0: 22a2 0d3f 3636 373f 5f85 a5bf 7af1 ff3e
00000300: 2231 b13e 00d2 eebe 9401 283f 90d6 b73e
00000310: 4be9 1a3f 726f 273f 951a 113f 4fca 253f
00000320: 8d9a 1e3f 26ef 213f 44d1 0c3f 7165 d33e
00000330: 1234 af3e 9a93 87bf b737 cc3d 2f4f b93e
00000340: 1429 ff3e 7ade c13e 80b4 223f 5401 173f
00000350: 01f3 853e 4c4a b23f 188f b23e 4c1f 223f
00000360: dbbd ef3e 4549 db3e 4a4e 263f 1ce9 963e
00000370: 1592 653f 5709 203f 67a7 163f 4012 ad3c
00000380: cd5f 203f eaed 733e b812 a23e abfc db3e
00000390: 0c9f 983e fc41 253f 8531 e43e b681 ba3e
000003a0: 66f7 043f de2f ea3e 8774 0f3f 906b 613f
000003b0: 4f1d 553e aa4b 053f 9319 e23e 3f59 183f
000003c0: fbfc ba3e b512 063f c925 0d3f f8de bdbf
000003d0: 952d 113f 2950 d43e 3977 153f 8506 bb3e
000003e0: 3a71 e43e 653e ad3e d694 81bf 6c92 273f
000003f0: 21cd 073f b5ef 96bf 26cd 9a3e 7291 1d3f
0.44098392 0.29183766 0.3671262 0.73820597 0.45090362 0.532256 0.40173152 0.42735717
0.69381315 0.4426026 0.2870331 0.16229771 0.46823183 1.0432385 0.49927962 0.3474602
0.54330593 0.22119658 0.45042467 0.30986804 0.24083737 0.27869326 0.41898394 0.46589068
0.23771684 0.40454394 0.088338055 0.36532944 0.22570485 0.43552005 0.75114083 0.5324991
0.6498416 1.0587766 0.72561234 0.8598036 0.75956005 1.0902908 1.1290516 0.52427393
0.5407771 0.5754477 1.0868335 0.067369945 0.7661606 0.694455 0.9352859 0.67821795
0.7924239 0.5395036 0.84276164 0.54354125 0.75305474 0.6608002 0.8973302 0.61785847
-0.35188687 0.8150753 0.6265723 0.66715556 0.5988657 0.69939655 0.686635 -1.1975164
0.4363281 0.6525396 0.66065055 0.7342335 0.57538027 0.66372794 -1.1302133 0.43390483
0.7108661 -1.0229748 0.68156624 0.5511226 0.49366263 0.68242455 0.4507787 0.66574854
0.5556077 0.62110615 0.5695272 0.52123487 0.5090078 -1.0152688 -1.0758026 0.39482543
0.62470496 0.6309923 -0.15811089 -0.098938085 -0.12887524 1.5848525 -0.17533314 0.14394395
-0.18556537 0.07723421 0.64321184 -0.052290894 1.2547576 -0.116138324 0.27059534 0.70062613
0.016803332 -0.12025536 0.4338434 0.076601125 -0.068813 -0.00786234 -0.016250396 -0.15507297
-0.16534634 0.07139002 0.1877064 0.9999318 0.76290786 -0.03416748 0.0946267 0.12608205
0.19637296 0.057636153 -0.10710121 1.6759815 -0.17455186 -0.15845165 -0.20472574 0.3132288
0.5253786 0.005570778 1.0103915 -0.18351291 0.15458371 0.63484555 0.11977782 0.00841137
0.2780986 0.11096436 -0.18410262 0.04322178 -0.10330085 -0.06604801 -0.14804524 -0.07796211
0.114691496 1.0779982 0.43055025 -0.00053386926 -0.02304312 0.16861986 0.47608113 0.6948069
0.6083857 -1.5974238 0.6516861 0.48200852 0.4833629 0.2891192 0.3465805 0.55077744
-1.2006805 0.5502908 0.4143072 -0.788072 0.5304475 0.3234108 0.35470316 0.6264607
0.590196 0.6567463 0.61740834 0.40150204 0.59162325 0.4973859 0.58344805 -1.1542711
-0.11406462 0.44089073 0.5893177 0.35426387 0.6329548 0.6886797 0.6541745 -1.5040087
0.44406027 0.5866245 0.42643034 0.33732793 0.5532552 0.71567094 -1.2931327 0.4998892
0.34607798 -0.46644592 0.6562741 0.35905886 0.60512227 0.6540443 0.56681186 0.64761823
0.61954576 0.63255537 0.55006814 0.4128833 0.34219414 -1.059192 0.09971564 0.36193225
0.49836028 0.3786505 0.6355667 0.589864 0.2616196 1.3928924 0.34874797 0.63329005
0.46824536 0.42829338 0.6496321 0.29474723 0.8967603 0.6251425 0.58849186 0.021126866
0.6264618 0.23821226 0.31654906 0.42966208 0.29808843 0.6455381 0.4456903 0.36427087
0.5194 0.45739645 0.5603718 0.8805475 0.20811962 0.5206858 0.44160137 0.5951118
0.36521134 0.52372295 0.5513578 -1.483367 0.5671018 0.41467407 0.58385044 0.36528412
0.44617635 0.33836666 -1.0123546 0.654578 0.53047377 -1.1791903 0.3023464 0.61550057

layers.3.bias f4 [30]
00000000: c7b8 cfbb d051 33bf c280 3abf c51c 40bf
00000010: 0466 0abf 7c5d 2f3f 41f5 643e 8741 d83e
00000020: b1a9 dbbe ebf5 35bf 43ec 533f 2f9d dfbd
00000030: d607 c4bb e59a c4bb 2bb6 123f a375 10bf
00000040: d202 9e3e 47e8 03bf abaa 4e3f 8d67 adbb
00000050: cc67 c3bb d874 08bf e5da 91bc a64d 44bb
00000060: 466a 363f 08d6 9abd ed65 c43d f74a ffbd
00000070: 0310 1f3f 11af 5f3f
-0.006339166 -0.7004671 -0.7285272 -0.750439 -0.54061913 0.6850202 0.22359182 0.42237493
-0.42902902 -0.71078366 0.8278238 -0.10918652 -0.0059823794 -0.00599991 0.57309216 -0.564295
0.30861527 -0.515263 0.8072917 -0.005291885 -0.0059633013 -0.5330329 -0.017804572 -0.0029953509
0.7125591 -0.075603545 0.09589753 -0.1246547 0.62133807 0.87376505
