experiments/output-gat/Cora/min/42/model.pth (torch, 210075 bytes, 10 tensors)

layers.0.bias f4 [30]
00000000: 45a6 b33e 744b b33e 246a ac3e 9a2b c13e
00000010: 22f8 9b3e e31a b33e 3b63 b63e b94c f63d
00000020: f0b3 ba3e 29a3 b73e 7ed7 da3e 10ff a23e
00000030: a291 6d3e 8911 ad3e aa6a b23e 83b9 a83e
00000040: 4b17 bf3e d716 bf3e d3c6 ac3e 26ca 793d
00000050: a352 933e 708e bd3e c864 ab3e 85a5 be3e
00000060: a15e 693d c255 db3e e6fa d13e acd2 093e
00000070: ca55 ed3d 7fa3 d63e
0.3508779 0.35018504 0.3367473 0.37728578 0.30462748 0.3498145 0.35622582 0.120263524
0.36465406 0.3586667 0.42742532 0.31835222 0.23200086 0.3380244 0.34847003 0.32954034
0.3732246 0.37322113 0.3374544 0.0609838 0.28773984 0.37022734 0.33475327 0.37235656
0.05697501 0.42838866 0.41011733 0.13459271 0.115886286 0.41921613

layers.0.combine_aggr.weight f4 [30, 120]
00000000: 5eef 8e3d c82c 9b3d cc31 afbc 68bd ab3d
00000010: d4d9 a3bc 64e7 963c 790a 36bd 8c97 5b3d
00000020: 48cf a43d fa27 89bd 5c80 a23d 50f6 8b3c
00000030: ee1f 8a3d 708e 4a3c c04b 343d 082c 53bc
00000040: 281f 903d f011 5d3c 988e 2ebd 789e be3c
00000050: 6146 2cbd 2066 2fbc 11de 17bd d40a 783d
00000060: d493 93bd 9460 2cbd a42a d3bc add2 60bd
00000070: f829 0d3c 0aa7 b8bd 74d7 a83d 2bd0 9ebd
00000080: ca55 903d 88e7 783c 60d2 f2bc 100f 673d
00000090: 1019 693c b60d 973d f880 233c f6d7 ebbc
000000a0: 94ed c83c 60cb cabc 185d 1d3d 1eeb a63d
000000b0: b424 583d ca76 23bd 9cd8 573d 28ce 853c
000000c0: b4e2 3d3d b6e6 63bd bd11 b9bd fe76 10bd
000000d0: 4566 8fbd 9667 993d 9065 d73c 20e1 1a3d
000000e0: f481 ec3c 4025 d0ba 3450 923d b2d5 84bd
000000f0: d057 bc3b bd35 7fbd cc97 e63c c6c4 00bd
00000100: 3825 e53c 80cd 9bbc 4c0f 9b3d 4a9e 5dbd
00000110: 1500 5fbd 8703 5fbd fc27 a83d 9036 f93c
00000120: 04e6 b33d 524a 9abd e96f b9bd 8044 92bd
00000130: c686 7bbd 0873 173d 8ae3 053d a658 9b3d
00000140: fd18 41bd 72e6 7ebd b463 463d 0a23 17bd
00000150: a0ef 623d 8475 b1bc 10e5 553d 4142 91bd
00000160: cfb1 3cbd 70fe e33c 7818 9e3c 0caa bebc
00000170: a4e0 5e3d 5430 7e3d 5393 87bd a49e 47bd
00000180: 3e30 ab3d 1057 fcbc d38e 04bd c8e5 b4bd
00000190: d320 56bd 24cf ba3c 506a 45bc 6eb5 87bd
000001a0: 0055 0c3b 8e69 7fbd e19c 9ebd 3ae6 4dbd
000001b0: 49a0 a3bd 7e15 6ebd 02e2 ba3d c43e 8d3c
000001c0: fc72 e63c f35e aebd 5893 75bd e2ea f8bc
000001d0: 48e0 693c ac81 a4bd cb1b 21bd 6dd9 5fbd
000001e0: 00a2 8439 4322 0bbd c048 cfbb b45f 7dbd
000001f0: 5f53 80bd 1124 5abd 6afa ffbc 8e8f 93bd
00000200: c6c1 9c3d 886a 94bc 36db a03d 3002 e93c
00000210: 5250 9ebd 4e61 813d 84c2 cdbc 8754 0fbd
00000220: c72f 9bbd 40dd b9bd dcf5 d53c 885b a3bc
00000230: 9492 113d 8c6d 99bd 32cd 8a3d 583c 89bd
00000240: 1821 81bc a032 9c3c 6008 413d 76ee 963d
00000250: 2c4f aa3d d43d 94bd e833 bc3c 48d4 20bd
00000260: 78e6 23bc 48ef 8bbd 5c4a aa3d 6837 89bd
00000270: 74d6 473d 5068 033d 8402 f33c 7027 4abd
00000280: 14ef a93d a855 a43c 7066 403c 7fc1 a4bd
00000290: c4f6 1c3d c060 60bc 524c 2bbd ce95 a03d
000002a0: f8b9 a63c 6ce0 4ebd 5a40 3dbd 00da 8ebb
000002b0: 28c7 503d 2418 bfbc 4258 55bd 210b 00bd
000002c0: 8cab 8bbd 6059 053d 20b6 903d 0502 b0bd
000002d0: c0ae ad3c ec28 413d 389a 873c c528 05bd
000002e0: 1029 433d e47e 443d dcd0 0b3d 9c68 83bc
000002f0: 5406 c6bc 7801 203c 2c1b 84bc 30da debc
00000300: d001 6f3d 7cab a03d b010 14bc 786f a7bc
00000310: 8099 ae3a e09a b2bb 08c9 b33c bc90 d13c
00000320: d4cd a9bd d4fc 09bd ee70 9d3d c4a8 113d
00000330: a0c7 94bb 046f 61bd dfc2 64bd 0d78 a7bd
00000340: 32c3 f3bc 108b fc3c 106a 6e3d 58a2 2c3d
00000350: 3442 a5bd 4adb 60bd c009 6cbc 0eda b43d
00000360: 505b 583c 1caa c1bc 6cb1 1a3d 896a 0ebd
00000370: 4104 72bd f074 883d b704 2abd f0e9 95bc
00000380: 0efc b9bd 903f 7a3d f2a4 8d3d 8245 083d
00000390: 0d5c 82bd a983 b8bd 7ad7 97bd c269 8b3d
000003a0: 6c84 333d 0453 9d3d 94e1 433d b444 bd3c
000003b0: 8057 6aba 5f2e 8ebd bd2d a0bd 77de aebd
000003c0: b810 193d 2b94 37bd 6080 96bc 3330 57bd
000003d0: 6845 88bc 0c96 83bd e651 74bd b00f f83c
000003e0: 2440 debc fcd4 663d 90e8 efbc 1025 89bd
000003f0: fcf1 83bc ba40 35bd 58ca e4bc 34fb b1bd
0.069792494 0.07576901 -0.02138605 0.08385736 -0.02000133 0.018420883 -0.04444358 0.053611323
0.08047348 -0.06697078 0.07934639 0.017085224 0.06744371 0.012363061 0.044017553 -0.012888916
0.070371926 0.013493046 -0.042616457 0.023268923 -0.042059306 -0.010705501 -0.037077013 0.0605572
-0.0720593 -0.04208429 -0.025777169 -0.054888416 0.008615963 -0.09016235 0.082442194 -0.07754549
0.07047613 0.01519192 -0.02964133 0.05641085 0.014227167 0.07375662 0.009979479 -0.028789502
0.024527349 -0.02475518 0.03841886 0.08150314 0.052769378 -0.039908208 0.05269681 0.016333655
0.04635878 -0.055639945 -0.090365864 -0.03526973 -0.07001928 0.074904606 0.026293546 0.037812352
0.02887056 -0.0015880242 0.07144204 -0.06486072 0.0057477728 -0.06230711 0.028148554 -0.031437658
0.027971849 -0.019018888 0.07571277 -0.054106034 -0.054443438 -0.054446723 0.082107514 0.030421525
0.087841064 -0.07533707 -0.09054548 -0.071419716 -0.061407827 0.036974937 0.0326877 0.07585268
-0.04714297 -0.06223149 0.048434928 -0.03689865 0.055404305 -0.021662481 0.052220404 -0.07092715
-0.04606801 0.027831286 0.019298777 -0.023274444 0.054413453 0.062057808 -0.06619897 -0.048735276
0.08358811 -0.030803233 -0.03236277 -0.0883289 -0.052277397 0.02280385 -0.012049273 -0.06626402
0.0021412969 -0.062356524 -0.07744766 -0.05026839 -0.07989556 -0.058125965 0.09125139 0.017241843
0.028131 -0.08514204 -0.05995497 -0.030385438 0.014274664 -0.080325454 -0.039333146 -0.054650713
0.000252977 -0.03396822 -0.006325811 -0.061858848 -0.06265902 -0.05325705 -0.031247336 -0.07205115
0.07654147 -0.018117204 0.07854311 0.028443426 -0.07730164 0.063173875 -0.025117166 -0.03499272
-0.07577472 -0.09075403 0.026118211 -0.019941106 0.03554018 -0.074915975 0.06777419 -0.06700963
-0.01576285 0.019067109 0.047127128 0.073697016 0.08315882 -0.07238355 0.02297397 -0.039264947
-0.0100036785 -0.06832749 0.08314964 -0.06700021 0.048788503 0.032081902 0.029664285 -0.049354017
0.08297554 0.020060375 0.011743173 -0.08044719 0.03832127 -0.013694942 -0.04182083 0.07841073
0.020352349 -0.050506994 -0.04620395 -0.0043594837 0.05097118 -0.02332694 -0.052086122 -0.031260613
-0.06819829 0.032555938 0.070659876 -0.08594135 0.021201491 0.047158167 0.01655303 -0.032509584
0.047646582 0.047972575 0.03413473 -0.016041093 -0.02417294 0.009765975 -0.016126238 -0.02720365
0.058351338 0.07845208 -0.009037182 -0.020438895 0.0013320893 -0.0054505914 0.021946445 0.02558171
-0.08291212 -0.03368838 0.07687555 0.035561338 -0.0045403987 -0.055037513 -0.055849906 -0.08177195
-0.029756162 0.030828029 0.058206618 0.04214701 -0.08069268 -0.05489663 -0.014406621 0.08830653
0.013205364 -0.023640685 0.03776686 -0.03476957 -0.059086088 0.06662929 -0.041508403 -0.018300027
-0.09081279 0.061095774 0.069162264 0.033269413 -0.063652135 -0.09009487 -0.07414146 0.06807281
0.04382746 0.076818496 0.04782255 0.02310405 -0.000893943 -0.06942438 -0.07821224 -0.085385256
0.03736946 -0.04481904 -0.01837176 -0.0525362 -0.016634658 -0.064251035 -0.059648417 0.030280918
-0.027130194 0.05635546 -0.0292857 -0.06696522 -0.016106598 -0.04425118 -0.027928516 -0.08690491

layers.0.lin_a.weight f4 [1, 60]
00000000: 2ada 883e 363d 29be fe78 9a3e 2bde a1bd
00000010: 4ba2 8abe 7251 37be 7289 353e 34bb 2f3e
00000020: 908b 9abc 29b9 83bd b30d 3bbe de14 89be
00000030: e1bb 013d aa17 d53d 6576 f3bd 513c 603e
00000040: bb4f 7c3d e8d5 a6bd 5d70 88bd e7bd 033e
00000050: 5f70 7ebe 7e57 61bc 1d01 a73d d8b6 9fbd
00000060: d8dd 7d3e 193a 903d 306d 65be 7b9e 83be
00000070: b6e0 c9be 14f6 543e 8408 a73c 043c 1f3d
00000080: ab8d 033e e667 ad3c d4f8 863e fb42 0a3e
00000090: 8bed 713e c415 b93e 4bc8 3e3e b11d a13e
000000a0: cc0a 9b3e 35f8 213e 57dc c13d 44b1 c53d
000000b0: 7425 7f3d 570b 3a3e 6fda 61bd 9cfa a43e
000000c0: 959f e83d ef4a 793e 0a4b b03d 93f3 663e
000000d0: a4fa 273e d1cd 9e3d 2c45 ba3e dcb2 a13e
000000e0: 119d 8f3e 7090 513d 9771 c63e 8375 1e3e
0.26728946 -0.16527256 0.30170435 -0.07903703 -0.27076945 -0.17902163 0.17728212 0.17161256
-0.018865377 -0.06431801 -0.18266945 -0.26773733 0.031673316 0.10404904 -0.11887816 0.21898009
0.061599474 -0.08146268 -0.066620566 0.12865411 -0.24847554 -0.01375377 0.08154509 -0.077985466
0.24791658 0.07042331 -0.22404933 -0.25706849 -0.39429253 0.20796996 0.020389803 0.038875595
0.12847011 0.021167707 0.26361716 0.13502114 0.23625772 0.36149418 0.18631093 0.31467965
0.30281675 0.1581734 0.094658546 0.09652951 0.062291577 0.18168388 -0.055139955 0.3222245
0.11358563 0.24344991 0.086080626 0.22553854 0.16404206 0.077541 0.363809 0.3158177
0.2804952 0.051163137 0.38758537 0.15474515

layers.0.lin.weight f4 [30, 1433]
00000000: d4f1 993d 58e5 433e 795d e3bc 54d4 3c3e
00000010: b8ad 4cbe 9dea 523e 1d0c c33e 33ba 8dbd
00000020: c835 3cbe 9b03 303e 328d 2e3e 1a20 913e
00000030: 12a3 99bd 3f5f 55bd 1964 333e 1888 9fbe
00000040: 8a1c c6be a093 a7bd d682 a9be 5e59 b53d
00000050: 2cef 91be e155 58bc f871 54be 1b2a 82be
00000060: 1ae6 623d 489a 2fbe 2008 03be f8f7 cfbd
00000070: dc87 e3bd 6fdb 3dbe 62df 803e ebb1 9bbe
00000080: c156 383d 47fe 013c 05af e13d 6439 823e
00000090: a9e2 88be b94c e83d 5f49 903e 2c8e 4f3e
000000a0: 2ff8 abbd e4b5 a7bd b3a2 783e 6405 aabe
000000b0: 9381 a03e 3093 113d 1ec7 5e3e 7b23 ebbd
000000c0: 7ea1 0f3e bc19 58be f528 b73c 5250 04bf
000000d0: bdb8 19bc ee6b 9b3e 442c 4cbd fa26 18bd
000000e0: ba07 90bd ee2a 8a3e 3ea8 aebe 2929 b83d
000000f0: 5de4 06be 24aa dd3d cc0b b43d 93c5 fcbc
00000100: 6890 a9bd 250d 753e c941 33bd 8646 a33d
00000110: 2776 233d 2526 adbe d27f 703e d6c1 533c
00000120: ff1e ec3e e328 883e 5a3f 763d 63ae 023e
00000130: 7cb1 8a3d c3f5 a8be b726 4bbe 39d7 37bd
00000140: 4a53 85be c6d5 55be 54ee 5ebe 27bb 3f3d
00000150: 4df3 693e 9d68 42bd c201 c0bd 9192 d2be
00000160: f72d b53c 38a7 d53c e06e 1c3e 233b 9cbe
00000170: 8a6e 24bc be6f 23be 1231 e13b b4e9 a8be
00000180: bf80 ecbd 040e 443e 5b15 61bd 4ca7 e83e
00000190: d231 93be 3860 c5bd a79f f4be 3699 9ebe
000001a0: 255e aebe 6749 113e 257c 5b3e 894a d7bc
000001b0: f4e4 823e a147 063d 1ac4 d7bd 5787 00bc
000001c0: 6daa d93d 6d13 933e 9978 7a3e beb6 b23e
000001d0: ee9a 98be 8592 383e acf2 c93e ca80 583c
000001e0: 6fcf 10be cc20 d13d 7ac8 d2bd 0486 5f3d
000001f0: 0116 73be 7ac2 7ebe 76f4 81be 7f08 adbd
00000200: df97 afbd bba1 f6be d003 533e a5b0 483e
00000210: 418d 943d 69ce 71be 1aba 4b3e 3be7 84be
00000220: 7820 693e 67b5 7a3d 6b38 6f3e b98c d5bc
00000230: ef27 cb3e 34f4 903e 72ca 8c3e ffc5 bc3d
00000240: 7b45 bbbd 5be5 b3be 159d f03e c489 413e
00000250: 9e64 393e 056a 333d 195c 7cbc 2ca8 99be
00000260: c751 823d 2683 4fbe 051b a93e 3f2d e9bd
00000270: 3000 88bd ef59 073e 65bd 5b3e e744 df3d
00000280: 19cc d53d d655 91be a644 50be 2fc9 403e
00000290: aa0b c23e 9fb7 a6be 834c 363d 2bcf 4e3e
000002a0: 6270 5fbe 72f5 a0bd 7696 27bd b47e 32be
000002b0: 8132 c8be a31d 6b3e 7ed3 64bd 9db9 8f3e
000002c0: b7bd 263c 1249 cd3c c90f 2a3e 50ed 2ebd
000002d0: 9c1e 5b3e 2437 c93e 6775 283d 1708 243e
000002e0: 949d cebb 975f 8ebd 363d 2fbe e5d5 123e
000002f0: 24b9 8a3d 4f58 aebe 151d 833e 325f 153e
00000300: 7f82 8e3e 634e af3d a400 b6bc d605 7cbe
00000310: 064d 013e 6a70 44be 9c52 fcbd e341 803e
00000320: fa06 3c3e c5cb d43b 050e 3fbe 35d9 a23e
00000330: 2158 7d3c 4e71 30be 2428 50be 91ea 7d3d
00000340: e73c b7bd c958 79bd 61b3 153e 469f 42be
00000350: feee 2dbe 2819 6d3e 4800 cebd 61a5 17be
00000360: 11d2 943e c48d ea3c 1ecf bc3d 3d39 2e3e
00000370: d0c3 2e3e 3da5 82bd 2525 27be a42a e5bc
00000380: 9dd8 19be ba2f 453e be81 c83d 6798 1e3e
00000390: e5fa 123d 7aef bb3d 7799 2fbc c995 1dbd
000003a0: 878d 1fbe ca6c 173e 2c4b 0d3d 3cd4 bf3d
000003b0: af9e 68be 3e57 7fbd 6a93 fa3c ae2a 553e
000003c0: 95fd 8dbd 8a69 0abe 3640 1c3e dc8b 8c3e
000003d0: 246f 2bbe c0f2 f6bd 0f62 babe 51c4 c43d
000003e0: 961e 833e c30d d03d b122 1cbd 5044 dabc
000003f0: 87ca 353e 1292 32be 2057 abbe 64a3 033e
0.07516828 0.19130456 -0.027754532 0.18440372 -0.19988143 0.2059731 0.3809518 -0.0692028
-0.18379891 0.17188875 0.17046049 0.28344804 -0.07501806 -0.052092787 0.17518653 -0.3115852
-0.3869365 -0.08182454 -0.33107632 0.08854936 -0.28502786 -0.013204069 -0.207466 -0.2542275
0.055395223 -0.17148697 -0.12796068 -0.10154718 -0.111098975 -0.18540739 0.25170428 -0.30409178
0.04500461 0.00793416 0.110197105 0.2543441 -0.26735428 0.11342759 0.28180978 0.20269078
-0.08396947 -0.0818899 0.24280815 -0.33207238 0.31348857 0.03554076 0.21755645 -0.11481377
0.14026448 -0.21103567 0.022358397 -0.5168506 -0.009382424 0.3035578 -0.049846902 -0.037146546
-0.07032724 0.26985878 -0.34112734 0.08992226 -0.13173051 0.108234674 0.087913126 -0.03085593
-0.082794964 0.23930795 -0.04376391 0.07972436 0.0399076 -0.33818164 0.2348626 0.012924632
0.46117398 0.26593694 0.06011901 0.12761836 0.06772134 -0.33 -0.19838987 -0.044882987
-0.26040107 -0.2088233 -0.21770602 0.04680934 0.22846718 -0.04746305 -0.09375335 -0.41127446
0.022116644 0.026080713 0.1527667 -0.30513868 -0.01003612 -0.15960595 0.0068723047 -0.329908
-0.11547994 0.19145972 -0.054952007 0.45440137 -0.28748947 -0.09637493 -0.47778055 -0.30976266
-0.34056202 0.14188157 0.21434076 -0.026280658 0.25565302 0.032783154 -0.1053545 -0.0078447675
0.10628209 0.28725758 0.24460067 0.34905046 -0.29805702 0.18024643 0.39442956 0.013214299
-0.1414163 0.10211334 -0.10292144 0.054571167 -0.23738863 -0.24878874 -0.2538182 -0.08448886
-0.08573889 -0.48170266 0.20606923 0.19598635 0.072535045 -0.23613895 0.19895211 -0.25957665
0.22766292 0.061208155 0.23361365 -0.026068078 0.39678904 0.28311312 0.27498204 0.09217452
-0.09144112 -0.35135922 0.46994844 0.1890021 0.18104789 0.04380228 -0.015402817 -0.30011117
0.06363254 -0.20264873 0.33028427 -0.11385583 -0.06640661 0.132179 0.21458967 0.10901814
0.10439319 -0.283858 -0.20338687 0.18826745 0.37899524 -0.32561967 0.04450656 0.20196216
-0.21820214 -0.07859315 -0.040914975 -0.17431146 -0.3910103 0.22960524 -0.055865757 0.280713
0.0101770675 0.025059257 0.16607584 -0.042706788 0.21398395 0.3929988 0.04112759 0.16018711
-0.006305406 -0.06951826 -0.17113194 0.14339407 0.06773594 -0.3405175 0.25608125 0.14587095
0.27833936 0.08559873 -0.022217102 -0.24611601 0.12627038 -0.19183508 -0.12320444 0.25050268
0.18362036 0.006494018 -0.18657692 0.3180634 0.015462906 -0.17230722 -0.20327812 0.061991278
-0.08947163 -0.060875688 0.14619209 -0.1900607 -0.169857 0.23154128 -0.100586474 -0.14809181
0.29066518 0.028632052 0.09219192 0.17014022 0.17066884 -0.06379173 -0.16322763 -0.027974434
-0.15024038 0.19256487 0.09790371 0.15487824 0.035883803 0.09176536 -0.010717741 -0.038472924
-0.15581332 0.14787593 0.034495518 0.09366652 -0.22716783 -0.06233906 0.03058787 0.20817062
-0.069331326 -0.13516822 0.1525887 0.27450454 -0.16741616 -0.1205802 -0.36402938 0.09607757
0.25609273 0.10158875 -0.03811902 -0.026643902 0.1775304 -0.17438534 -0.3346491 0.12855297

layers.1.bias f4 [30]
00000000: 1507 063f 2834 b53e 6d2f d13e c061 093f
00000010: 574d 833e 7633 a93e 482d aa3e d881 9a3e
00000020: 8e1f b13e 69d3 8e3e 4cd9 a33e f486 ed3e
00000030: 37b0 a83e 426c c93e e57b e53e d0fa 063f
00000040: 766f ac3e cb28 da3e 01d5 23bd ec2e 53bc
00000050: a742 e03e f0e4 f73e 5a50 093f f1cb 0a3f
00000060: e0d8 d53e 4a52 0c3f e151 3b3e d89c 033f
00000070: 5fb6 cabb 1a9d bb3e
0.52354556 0.35391355 0.40856495 0.5366478 0.25644943 0.33047074 0.33237672 0.30177188
0.34594387 0.27895668 0.32001722 0.46392024 0.3294694 0.39340407 0.44821087 0.5272646
0.33678788 0.42609248 -0.03999806 -0.012889605 0.43800852 0.48416853 0.5363823 0.5421744
0.41767025 0.54813063 0.18292953 0.514112 -0.006186291 0.36643296

layers.1.combine_aggr.weight f4 [30, 120]
00000000: 50f8 eb3b e929 99bd 2058 7b3b bedd 96bd
00000010: 24b1 9abc e49c 693d 0411 9abd ce22 9b3d
00000020: 0092 193d 9027 96bb e00d 0d3b 6092 1a3b
00000030: b0cb aabd c0f5 03bc 4a4b 93bd a0ef 0a3d
00000040: 0898 2abd a49f a3bd 6d7c 85bd e277 ab3d
00000050: d045 99bd 528c ac3d 148c a63d 804b 533d
00000060: 2458 63bd f846 cf3c 784e ecbc c462 1f3d
00000070: e139 87bd 047b 9ebc 66e5 8a3d 301d 0dbd
00000080: 08e0 243d 4049 c2ba b837 d9bc e0e6 74bc
00000090: e056 9bbb cb17 3bbd 3a59 a9bd 26f9 62bd
000000a0: 72e7 9ebd 6c0e 84bc 047c acbd e4e7 243d
000000b0: e8b1 d83c 88ba 193d 387b 74bd d4d0 a0bd
000000c0: 4808 313d 40d3 54bb f390 44bd 58f2 5c3c
000000d0: 7433 2e3d 2c4d 0dbd d2a6 43bd be3e b23d
000000e0: 191c 85bd e2d2 f7bc 540c 1b3d 88bb 1d3c
000000f0: 342a 233d c47f e3bc c012 9e3c 3260 813d
00000100: 9cea babd ea74 8a3d ca2c 833d 50c9 62bd
00000110: eaf9 a7bd a080 343b ecc3 92bd dffd 1fbd
00000120: da9f 013d 80f5 9a3d b47d 1a3d 75f0 05bd
00000130: 1080 603c d4d9 333d 910a 8bbd 1a8e 1cbd
00000140: 1af8 21bd c0c1 7b3d 406c 60bc 5139 14bd
00000150: e0b5 0c3b e47e e23c b8b3 583d 6870 533d
00000160: 8d82 6cbd 0861 2bbd be14 ab3d f814 583d
00000170: 7cc1 393d 780d 943c ac4a 2d3d 7453 52bd
00000180: d08e 7a3d d813 0f3d 640f 93bc af56 40bd
00000190: 40a4 273d 202f 183c f885 e73c 40b0 5cbc
000001a0: a024 763d 20f5 0a3d 20c2 7b3d 2a04 a23d
000001b0: 9811 7b3d 86d1 7abd c066 8abc 609f c5bb
000001c0: 588b 1b3c 0c99 aebd 0eed b53d 1efd 5bbd
000001d0: ae1e 8dbd a89e 23bc b486 333d 52a3 8fbd
000001e0: 5a9e ecbc 40ef 873c 88cb b03d 9c98 97bc
000001f0: 002a 8c3d a818 b73d d086 293d 9818 0d3d
00000200: 34d7 1d3d 0092 103a 242d 1bbd 2640 b1bd
00000210: 981d fe3c 40f1 903d 3047 933b bd43 38bd
00000220: 3cbc 22bd cc28 d23c 005c 383a fe90 843d
00000230: 9212 84bd 00a7 49bb 6679 a73d 90b9 9e3d
00000240: 66a9 fcbc 0052 9d3d acad 123d f8a6 54bc
00000250: a8f3 7dbc 92be 89bd 60c1 723b 9478 cd3c
00000260: 4ade 073d 20d1 12bc 7413 793d 5a66 8c3d
00000270: c301 82bd 10a6 cb3c b8f4 98bd 50e1 613d
00000280: 761f 1cbd ea72 5cbd 9054 e83b a84b 5fbc
00000290: 340e fe3c 73a9 5dbd 1e5d a4bd 3267 91bd
000002a0: e805 783d d45d 90bd 8098 cbbc c081 e23c
000002b0: 89f0 2bbd a0d4 cabc 6400 533d b0c8 b1bc
000002c0: 343a d9bc 3eb8 ab3d d216 febc acfd 2d3d
000002d0: 38b3 c33c 5c80 8ebc 7ab3 923d ba47 8c3d
000002e0: 041f cc3c 7062 c5bc cc93 9d3d 8a90 10bd
000002f0: ab70 5dbd 0420 693d 0095 a83d 5071 e5bc
00000300: 0e50 24bd 627f b93d e095 2b3b fba8 52bd
00000310: 9862 1cbc 8470 9c3c 1a55 7ebd 22be 893d
00000320: 84e9 bd3c 3b26 2ebd e04b 9bbc bb9b adbd
00000330: c865 383d 6ed5 97bd 8187 82bd 3a73 a83d
00000340: e41d 88bd a888 0c3c e5eb 95bd 20f7 373d
00000350: 20bc 833d 78be d2bc 6847 8fbc 900d 6ebc
00000360: 0c46 7e3d 80bc 54ba 081c 51bc 6464 b53d
00000370: 86c4 8abd e8a2 003c 5a39 863d 60e7 763c
00000380: 0026 5fbb 00da deba 903b f73b d2a1 aabd
00000390: f05b 253c adb3 86bd bce7 a1bd b84c 3abc
000003a0: 2095 e6bb e880 9c3c b041 59bd 90fd 0d3c
000003b0: 514f b0bd 2f98 a3bd 05dd 35bd 2d6c 31bd
000003c0: ac22 903c 8c69 b73d 90fb 0f3d 28a0 733d
000003d0: 44ce 723d 4877 e5bc b404 903d 6827 593c
000003e0: f073 873d 407b af3d c67d 8b3d 6ec6 b9bd
000003f0: bc8f afbd 88e1 5dbd 7ca4 e63c 70f3 4dbc
0.007201232 -0.07478697 0.0038352087 -0.07366513 -0.018883295 0.05703439 -0.07522777 0.07574998
0.037492752 -0.004582353 0.0021523163 0.0023585781 -0.083396316 -0.008054197 -0.071920946 0.03391993
-0.041648895 -0.079894334 -0.06517873 0.08372475 -0.07484019 0.084252015 0.081321865 0.051585674
-0.05550398 0.025302395 -0.02884601 0.03891255 -0.066028364 -0.019345768 0.067820355 -0.034451663
0.040252715 -0.0014822856 -0.026515827 -0.014947623 -0.004740581 -0.045676988 -0.08268972 -0.055413388
-0.077589884 -0.016120158 -0.084220916 0.04026021 0.02645202 0.037531406 -0.059687823 -0.07852331
0.04322079 -0.0032474548 -0.047989797 0.013485514 0.04252954 -0.034497425 -0.047766514 0.087033734
-0.064995 -0.030251924 0.037853554 0.00962723 0.03983517 -0.027770884 0.01929605 0.06317176
-0.091267794 0.06760581 0.06405027 -0.055367768 -0.08201964 0.0027542487 -0.071662754 -0.03906047
0.031646587 0.07566357 0.037717536 -0.03270002 0.0137024075 0.04390891 -0.06789125 -0.038221456
-0.03954325 0.06146407 -0.013697684 -0.036187474 0.002147071 0.027648397 0.05290577 0.05162087
-0.05774169 -0.041840583 0.08353566 0.052754372 0.045350537 0.018072829 0.04230754 -0.05134912
0.061171353 0.034931034 -0.017951675 -0.046957668 0.040928125 0.009288579 0.028262123 -0.013469756
0.060093522 0.033925176 0.06146443 0.079109505 0.061296076 -0.061234973 -0.016894698 -0.006030962
0.009493671 -0.08525285 0.08883105 -0.05370819 -0.06890617 -0.009986557 0.043829635 -0.07013573
-0.028884102 0.016593575 0.086325705 -0.018505387 0.06843948 0.0894025 0.041388333 0.034447283
0.03853531 0.000551492 -0.037884846 -0.086548135 0.03101997 0.07077265 0.00449457 -0.044986475
-0.039730296 0.02565422 0.0007032752 0.064729676 -0.064488545 -0.0030769706 0.08177452 0.07750237
-0.030842494 0.07681656 0.035810158 -0.012979262 -0.015499987 -0.067258015 0.003704153 0.02508191
0.033170976 -0.008960992 0.060809568 0.068554595 -0.06347992 0.024859458 -0.074685514 0.055146515
-0.03811594 -0.053820528 0.0070901588 -0.013628878 0.031012632 -0.054116677 -0.08025573 -0.07099761
0.060552508 -0.07049146 -0.024852991 0.02764976 -0.04197744 -0.02475959 0.051514044 -0.02170214
-0.026517011 0.08384751 -0.031016741 0.04247825 0.02388917 -0.01739519 0.07163139 0.06849618
0.024917133 -0.02409479 0.07694206 -0.035294093 -0.054062527 0.056915298 0.082315445 -0.028008133
-0.04011541 0.090574995 0.0026181862 -0.051430684 -0.009544991 0.01909662 -0.062092878 0.06725718
0.023182638 -0.04251693 -0.018957078 -0.08476969 0.04501894 -0.07413755 -0.063735016 0.08225103
-0.06646326 0.008577503 -0.07320384 0.04491341 0.06432366 -0.025725588 -0.017490104 -0.014529601
0.06207852 -0.0008115247 -0.012763031 0.088570386 -0.06775765 0.00785134 0.06553908 0.015069813
-0.003404975 -0.0017002225 0.007544942 -0.08331646 0.01009272 -0.06577239 -0.07905528 -0.01137083
-0.00703682 0.019104436 -0.05304116 0.008666411 -0.086088784 -0.07988011 -0.044400234 -0.043316055
0.017594658 0.08955678 0.035152018 0.05947891 0.05927874 -0.02801098 0.07032147 0.013254024
0.0661391 0.0856843 0.06811099 -0.090710506 -0.08572337 -0.05417016 0.028154604 -0.012570247

layers.1.lin_a.weight f4 [1, 60]
00000000: 7c48 ecbe 6d45 36bd 098c d8bd b043 1abc
00000010: c495 213e f9d2 65be b656 96be 2af5 5cbe
00000020: 1ac5 94be ee79 863d c612 64be 1fed e83e
00000030: cd3f cbbe 049d 8bbe a540 aabe 86b5 e63e
00000040: 4bcf f7bd a607 773e 443b 20bf eb30 cebe
00000050: d167 07bf 9a77 ae3e 7d8f 973e 4803 c1be
00000060: a21c 90be a376 b2be 6829 2e3a 054e d13e
00000070: 49d8 e2be 5c60 1abe 8d3b 8a3e efe4 673e
00000080: 3d3e 943d be7c 913e 0214 91bb dba0 07bd
00000090: 45da ea3d 20f2 e73d 2e84 a5bd 96bf 27bd
000000a0: fd1c d239 bbc6 863d 8bde 6d3d 8246 5f3d
000000b0: 5895 9e3d a688 f9bd 7c53 2d3e 5594 573d
000000c0: fff0 d2bd f048 d5bd c6bf 1d3b f296 aabd
000000d0: 9786 a0bd 9163 433e a731 23bd cd3f f6be
000000e0: c2d9 543e 6a32 c33e fac2 ddbd 2d1a 6f3c
-0.4614905 -0.044499803 -0.105735846 -0.009415552 0.15779787 -0.22443761 -0.2936303 -0.21577898
-0.29056627 0.06566225 -0.22272786 0.4549341 -0.39697114 -0.2726823 -0.33252445 0.45060366
-0.12100085 0.24124011 -0.6259043 -0.40271696 -0.52892786 0.34075624 0.2960166 -0.37697816
-0.28146845 -0.34856138 0.0006643743 0.40879837 -0.44305637 -0.1507582 0.2699856 0.22645925
0.072384335 0.28415483 -0.004427434 -0.033112388 0.11467413 0.113254786 -0.08081852 -0.040954195
0.0004007592 0.065808736 0.05807356 0.0545106 0.07743329 -0.12184267 0.16926378 0.052631695
-0.102998726 -0.10414302 0.0024070605 -0.08329572 -0.07838171 0.1908095 -0.039842274 -0.4809555
0.20786193 0.381244 -0.108282045 0.014593643

layers.1.lin.weight f4 [30, 30]
00000000: 1bb3 1cbf 99a2 163f 1226 dcbe 9987 143f
00000010: ac46 86be 8624 ac3e 3035 c83e bf87 0cbf
00000020: 67b0 febe ed04 953e f333 06be ee46 23be
00000030: 65fb 43bc b879 0f3f 82d0 253f 7170 b63e
00000040: 7c23 ca3e 3246 0f3f 9ca6 463e 4771 0cbf
00000050: 950b babe 66f3 903e 1d65 ed3e be60 eabe
00000060: ed37 00bf 5408 9dbe 3c41 1cbe 67ff 00bf
00000070: edd8 0abf 6c24 1f3f 7b0d fdbe caca bb3e
00000080: dac6 3b3e 4061 593e 1189 dc3e 0718 e83e
00000090: 7053 f83e 8e5c 0cbf 2abd 453d d588 763e
000000a0: 7a9a aebe d094 b2bd b2d5 02be c3d3 cb3e
000000b0: 7774 083f 686b e13e a93c e93e 77ba af3e
000000c0: 22ed 043f 2f84 f7be 3204 b33e c742 9f3e
000000d0: 1779 ce3e 87be 25be 287e dcbe 3230 f6be
000000e0: 28a6 06bf 04b9 b5be 98ba 01bf 7f1f 263d
000000f0: 4ad9 123f 459a 203e 8ae9 fd3e a76f e93e
00000100: 3016 8f3e 2f43 603d c39e 8dbe 2944 f1be
00000110: 4a14 ea3e 7a48 4abe f465 febe 80ad ce3e
00000120: fdec a9be 65a8 a73e b743 7abd 911b 1c3b
00000130: 26fb f23e 2b32 d9bd a8d8 013f a75d c8be
00000140: e5ad e33e cbab a1be f8ad bc3e 8d1f 2b3f
00000150: 1bd2 a0be 6083 193f efaf dbbe 9291 95be
00000160: cd8d 55bd 0609 9dbe 942e 0fbf 19f5 e73e
00000170: 45f3 b1be e9b9 093f bb40 e7bd cc0e 1a3f
00000180: 794a d33e c09d 6dbe 7f7d ecbe 3fc0 8c3e
00000190: e7f2 42be 773a 4dbe 4de4 d73d ff98 4c3e
000001a0: f355 1c3f 397f 0c3f ddae e83e fedd 133f
000001b0: 0e81 813e f217 afbe a295 92bd 84da f93c
000001c0: 3590 ec3e 5caa 20bf 3d78 1dbf 3079 68be
000001d0: cb89 a1be 0f37 c6be 9cc9 cbbe 5e89 b53e
000001e0: c711 853e dcd1 603e ed3c 073f 09b8 073f
000001f0: 8c9b dc3e 0028 563e 3ac7 3d3e d97f 9abe
00000200: 83a3 fd3e 8b50 dc3d 5063 20bf ebbc d63e
00000210: 79af efbe 733d 363e 60bc 863d 289a 263e
00000220: 9d7e 043f 7615 05bd 7496 053f 3a83 b2bd
00000230: dec2 0b3f 0f62 233e 846c 753e 40ca d83e
00000240: aebb 29be eb44 a13e e79d 21bf 4cb8 44be
00000250: 935c 51be d418 03bf 16b7 b63e a9c3 e83e
00000260: b41d 463e 7cc5 af3e 3726 903e c75e e03e
00000270: 84aa d13e a3c6 1ebe f63f da3e ed72 d63e
00000280: 8331 ddbe 5ce5 8a3e a00a 0cbf 11cf fe3e
00000290: 04c0 853e 2941 543e 39b9 d63d c5e6 de3e
000002a0: 7c10 7c3d a967 ddbe cc7e 763e f550 e63e
000002b0: a9ca 9d3e 270c 883e 40ab eebe 3a52 4fbe
000002c0: 3f9e 76be c903 8fbe 9af3 e1be d3f1 d1be
000002d0: 7cab 193f ea33 1b3e 980a 0a3f 8b5d cf3e
000002e0: 6b0b b93e d613 b13a d82c 8c3e c819 cebe
000002f0: f60a 7c3e cc27 b73e 548f 0ebf 1822 923e
00000300: f2c8 ebbe 2a81 cf3e f67f 0dbe 227b 7b3e
00000310: 80cb e83e 39a5 15be 5d5d 973e c3dc cbbe
00000320: ae49 dc3e 79fb a2bd b714 a93e 1018 983e
00000330: 3c14 bdbe 48b6 063f 9a80 03bf fa59 a1be
00000340: 2766 00be 5b6d 13bf dde0 a13e 7659 303e
00000350: c6f2 ad3e de26 a63e d5d6 ef3c 5cba cd3e
00000360: 2718 973e fef0 b6be 7487 e63e 8ec7 013f
00000370: 1d6e afbe 6307 893e 72ae e6be 912c 953e
00000380: bdbc c63e 94b6 e73e 9cc7 7b3e a932 d93e
00000390: 1c50 cc3d 53f4 f4be 4941 9c3e 4506 803e
000003a0: 0426 af3e 3f11 573e a5bb acbe 2788 33be
000003b0: f353 65be 691f 96be 7592 89be 7251 dbbe
000003c0: 1ac6 e43e 64be a73e 3fab 943e 99fd ce3e
000003d0: c9e8 663e a020 223e 1f0e 983e 66eb d3be
000003e0: a597 e43e a278 5a3e 6e08 c3be 088a af3e
000003f0: 4b2a 1bbf 2dff e03e 612e e6bb 7695 0e3e
-0.61210793 0.58841854 -0.42997795 0.58019406 -0.26225793 0.33621615 0.3910308 -0.5489463
-0.4974396 0.2910532 -0.13105755 -0.15945026 -0.011961793 0.56045103 0.6477128 0.3563266
0.39480197 0.55966485 0.19399494 -0.5486035 -0.3633696 0.28310698 0.46366206 -0.45776933
-0.50085336 -0.30670416 -0.1525926 -0.50389713 -0.5423725 0.6216495 -0.49424347 0.36678153
0.18337575 0.21228504 0.43073323 0.4533083 0.48501158 -0.5482873 0.048276104 0.24075635
-0.3410223 -0.0871979 -0.12776831 0.3981 0.5330271 0.44027257 0.45554093 0.3432195
0.51924336 -0.48343036 0.34964138 0.31105635 0.4032676 -0.16185962 -0.43065 -0.48083645
-0.52597284 -0.35492718 -0.50675344 0.04055738 0.57362807 0.15683849 0.4959224 0.45592996
0.27946615 0.05475157 -0.27660188 -0.47122315 0.45718604 -0.1975421 -0.4968716 0.40366745
-0.3318862 0.32745662 -0.061099734 0.0023820142 0.47457236 -0.10605272 0.50721216 -0.3913395
0.44468608 -0.3157638 0.36851478 0.6684502 -0.31410298 0.5996609 -0.42907664 -0.29212624
-0.052137185 -0.30670947 -0.5593045 0.45304182 -0.34755912 0.537993 -0.11291643 0.6017883
0.41267756 -0.23204708 -0.46189496 0.27490422 -0.19037972 -0.20041834 0.10541592 0.19980238
0.6106865 0.54881626 0.4544591 0.5776061 0.25293773 -0.34197956 -0.071574464 0.030499704
0.4620377 -0.6275995 -0.61511594 -0.2270248 -0.3155044 -0.3871388 -0.39802253 0.35456365
0.25990126 0.21955055 0.5282734 0.5301519 0.43087423 0.20913696 0.1853303 -0.30175665
0.49538812 0.1075755 -0.6265154 0.41941008 -0.46813563 0.17796879 0.065788984 0.16269743
0.51755697 -0.03249117 0.521827 -0.08716436 0.5459422 0.15955375 0.23967177 0.42341805
-0.165755 0.31497893 -0.63131565 -0.19210929 -0.2044547 -0.5120976 0.35686558 0.45461777
0.19347268 0.34330356 0.28154156 0.4382231 0.40950406 -0.15505461 0.42626923 0.41884556
-0.43201837 0.27128112 -0.5470371 0.49767354 0.2612306 0.20727982 0.10484547 0.43535438
0.06153916 -0.4324315 0.24071807 0.4498364 0.3081868 0.26571772 -0.46615028 -0.2024621
-0.24083804 -0.27932575 -0.44131166 -0.4100481 0.6002729 0.15156522 0.53922415 0.40501055
0.36141524 0.001350994 0.27377963 -0.40254045 0.24613556 0.3577255 -0.5568745 0.28541636
-0.46051747 0.40528232 -0.13818344 0.2455869 0.45467758 -0.14613809 0.29563418 -0.39816865
0.43024963 -0.07958121 0.33023617 0.29705858 -0.369295 0.5262189 -0.51368105 -0.3151396
-0.12538968 -0.5758874 0.3161687 0.17221627 0.33974284 0.32451528 0.029277245 0.40181243
0.29510614 -0.35730737 0.45025218 0.5069512 -0.34263697 0.26763448 -0.45054966 0.29135564
0.3881587 0.45256484 0.24587864 0.42421463 0.09976217 -0.47842655 0.3051856 0.25004783
0.3420869 0.21002673 -0.3373691 -0.17532407 -0.22395305 -0.2932084 -0.2686955 -0.42835575
0.4468239 0.32762444 0.290369 0.40427855 0.22549738 0.15832758 0.29698274 -0.41390532
0.44646946 0.2133508 -0.3809237 0.34284997 -0.6061141 0.43944684 -0.0070245718 0.13924202

linear.weight f4 [7, 30]
00000000: abde 503f 77d9 a6be 217f fbbe 6865 223f
00000010: 31db f2be afcf a2be df4e e0be 8387 94be
00000020: b4b5 a7be c0b7 90be 6edc b9be 9e0f 813e
00000030: 7dc2 83be e9f0 fbbe 02bd efbe 22b6 773e
00000040: dd88 0bbf 9e87 15bf 324c 003e cf63 4dbe
00000050: d14d 02bf 2e91 bc3e c91f 12bf e133 1d3f
00000060: 9a8f 0fbf b3bf 083f edee 9cbe 1b22 113f
00000070: 760d 063e c7db 98be 59c8 ddbe 9160 cabe
00000080: 9988 d33d c6f5 99be 06dd e9bd 297a 8ebe
00000090: 3fc0 9cbe bcc5 a0be 3e6f fdbe 5924 f4be
000000a0: 6b6c c1be 6581 883d b47f 0abe c442 41bd
000000b0: 686e b4be dc99 b23e 4c8a 3bbe b513 e1be
000000c0: e091 2fbe 1f06 58be f59d a1be a832 7a3e
000000d0: 0b52 d93e 5bb5 bdbe d86c 8dbe 719b 413f
000000e0: 3c0c dcbe 3a9a 68be 89bd 913d 8175 d7bd
000000f0: e215 43bf c3b2 1cbf 3f48 003f 6d3c 1dbf
00000100: 12ef 633e 47e8 093f 2858 0e3f 342b 1e3f
00000110: a324 e83e a3b3 063f ef2d e63e 6537 ce3e
00000120: 1946 d3be 1e26 223f 3fd2 1abf e164 b03c
00000130: f6dd 283f 81c9 1fbf 62a6 c2bd c8b5 12be
00000140: fe3d ddbe 3590 373e 43b1 873e ec8d 3dbf
00000150: 76e9 243f 0537 0b3f a1fe 8c3e a061 24bf
00000160: 179e 79bd 7d15 143f b2dd a03e 71d7 e83e
00000170: 9d12 cf3e f7ad b23e 072b ca3e a55e bb3e
00000180: 4d21 eb3e 3f7d d03e 7fae bf3e f74d 023f
00000190: 293f 9e3e 61be 39bf b393 033f 371c f03e
000001a0: 5c9b 7d3e 4b7f 40bf 87e8 d63e b426 903e
000001b0: b27e a7bd 31d4 c3bd 6d27 953e 2b1e 42bf
000001c0: fbaf ab3e 14bb 673e 867e c23e 83d4 313e
000001d0: 420f cb3e 3ac7 30bf d347 acbd 9cab d33e
000001e0: 131c 1b3f 013d 123f 76b0 29bf 5b2a 143f
000001f0: ea94 ecbe f1f1 153f 13c0 a7be 7f24 153f
00000200: d724 3dbd 4a42 23bf 5779 0f3f 7e9e 1abf
00000210: 144d 323f 9efd 10bf eebc 1a3f 96f9 49bf
00000220: e9f9 293f 9b65 073f 91da c7bd e6d8 20be
00000230: 78e6 283f db3e 19bf 7bc0 2ebf b1af 0c3f
00000240: f9e0 16bf f0e3 38bf 5fcb 763d 64ce 2e3f
00000250: 98d5 193e a4da 0cbf 1d6e 14bf 6f9e 8ebe
00000260: b4c1 abbe 09ac 28bf 046f a0be a481 ccbe
00000270: 397d 07bf 25e4 ebbe 27b5 d0be 647a 06bf
00000280: f3d9 afbe fff5 f13e 32d6 82be 4872 0bbf
00000290: 8654 f2be af53 203f 9331 9cbe 5e9e 97be
000002a0: 1b4c 00be 7083 873d e5c0 cabe 8435 023f
000002b0: f847 0f3f d90f 18bf d9e8 febe f3ce 50bf
000002c0: 0866 86be 0214 553f 1c14 a8bd d58e 06bf
000002d0: 71f9 ffbe 5e13 99be 48eb d1be b75c c9be
000002e0: fbe3 e7be 7b9f e2be 07dc 1abe c2f5 ddbe
000002f0: deaa a5be f19c c4be 6d9f fabe aebb 203f
00000300: 32a6 cfbe 911f 79be 4642 d2be 75ea 003f
00000310: 9306 adbe c519 ccbe c81f 9fbd 2d88 bc3d
00000320: ada7 b0be f58b 473f bb8e a9bd 588c 32bf
00000330: 8577 4ebe 32c9 58bf 1626 87be 9474 793e
00000340: c96e 1ebe 324f c1be
0.81589764 -0.32587788 -0.4912043 0.63435984 -0.47432855 -0.31799075 -0.43810174 -0.29009637
-0.32755816 -0.2826519 -0.36300987 0.25207227 -0.2573432 -0.49207237 -0.4682389 0.24190572
-0.5450571 -0.5841006 0.12529066 -0.20057605 -0.5089999 0.36829513 -0.5707975 0.61407286
-0.56078494 0.5341751 -0.30651036 0.56692666 0.13091072 -0.29855177 -0.43316916 -0.395268
0.10328788 -0.30070323 -0.1141911 -0.27827576 -0.30615422 -0.3140086 -0.49498934 -0.4768398
-0.3777803 0.06665305 -0.13525277 -0.047182813 -0.35240483 0.3488301 -0.18314475 -0.43960348
-0.1714549 -0.21096085 -0.31565824 0.24433386 0.42445406 -0.37052426 -0.27622104 0.7562781
-0.42978084 -0.22715083 0.07116229 -0.10520459 -0.76205266 -0.6121027 0.5011024 -0.6142033
0.22259167 0.5387005 0.55603266 0.6178467 0.45340452 0.52617854 0.4495692 0.40276638
-0.41264418 0.6333941 -0.6047706 0.021532478 0.65963686 -0.62416846 -0.09504391 -0.14327157
-0.4321136 0.17926104 0.26502427 -0.7404468 0.64418733 0.5438083 0.27538016 -0.64211464
-0.06094178 0.5784529 0.3141914 0.4547687 0.40443888 0.3489835 0.39485952 0.36595646
0.45923844 0.40720555 0.37437817 0.50900215 0.30907562 -0.7255612 0.51397246 0.46896526
0.24766296 -0.75194234 0.4197428 0.28154528 -0.08178462 -0.09561957 0.29131642 -0.7582728
0.335327 0.22629958 0.37987155 0.17366223 0.39660078 -0.69053996 -0.08412137 0.41341865
0.6058971 0.57124335 -0.66284883 0.5787713 -0.46207362 0.585723 -0.32763728 0.58258814
-0.04617771 -0.63773024 0.56044525 -0.6039809 0.6964886 -0.5663699 0.60444534 -0.7889646
0.6639696 0.5288941 -0.09758485 -0.1570774 0.6597667 -0.59861535 -0.6826245 0.54955584
-0.5893703 -0.72222805 0.060252544 0.6828368 0.15022886 -0.5502112 -0.5798052 -0.2785525
-0.3354622 -0.65887505 -0.31334698 -0.39942658 -0.5292545 -0.46072498 -0.40763208 -0.52530503
-0.3434597 0.47257993 -0.25554043 -0.54471254 -0.4733011 0.6262769 -0.30506572 -0.29613012
-0.12529032 0.066168666 -0.39600292 0.5086291 0.5596919 -0.5939918 -0.49787024 -0.8156578
-0.2624972 0.83233654 -0.082069606 -0.52561694 -0.49994996 -0.29897588 -0.40999818 -0.39328548
-0.45291123 -0.442623 -0.15122996 -0.4335156 -0.32356924 -0.38400987 -0.48949757 0.62786376
-0.40556484 -0.24328448 -0.41066188 0.50357753 -0.33794078 -0.3986341 -0.07769734 0.09205661
-0.34502926 0.7794793 -0.08279177 -0.697454 -0.2016278 -0.84682 -0.26396245 0.24360877
-0.15471949 -0.37755734

linear.bias f4 [7]
00000000: 7218 223e ffae 6d3d cd69 89be 35fe 1dbe
00000010: a0e5 58be 66fe 473e b7a1 99bd
0.15829638 0.058028217 -0.26838532 -0.15429004 -0.21181345 0.19530639 -0.07501548
