experiments/output-gat/BA_Shapes/add/42/model.pth (torch, 39135 bytes, 18 tensors)

layers.0.bias f4 [20]
0	0x00000000	0.0
1	0x3d91db08	0.07121855
2	0x3d91c1f2	0.0711707
3	0x00000000	0.0
4	0xbd32b82f	-0.043632682
5	0x00000000	0.0
6	0x3d6c20ab	0.057648342
7	0xbd53cd15	-0.051709253
8	0x00000000	0.0
9	0x00000000	0.0
10	0xbd0abf9c	-0.03387414
11	0x00000000	0.0
12	0x3a9e74f8	0.0012089303
13	0x3d80f656	0.06296985
14	0x3d7233cb	0.059131425
15	0x3d094f96	0.033523165
16	0x00000000	0.0
17	0xbd168117	-0.036744203
18	0x00000000	0.0
19	0x00000000	0.0

layers.0.combine_aggr.weight f4 [20, 80]
0	0x3daf0f18	0.08547801
1	0x3dbe0cba	0.09279771
2	0xbcd69190	-0.026192456
3	0x3dd25668	0.10270387
4	0xbcc8acf0	-0.024496526
5	0x3cb8d198	0.02256088
6	0xbd5ef423	-0.054432046
7	0x3d8678da	0.06566019
8	0x3dc9d990	0.0985595
9	0xbda7fb36	-0.082022116
10	0x3dc705d4	0.097179085
11	0x3cab6b00	0.020925045
12	0x3da92ae4	0.08260134
13	0x3c781470	0.015141591
14	0x3d5cd104	0.05391027
15	0xbc8150e0	-0.015785635
16	0x3db08328	0.08618766
17	0x3c876090	0.016525537
18	0xbd55c9ad	-0.052194286
19	0x3ce975b0	0.0284985
20	0xbd52fe2a	-0.05151192
21	0xbc56d1a0	-0.013111502
22	0xbd39ffb6	-0.04540988
23	0x3d97e4f0	0.07416713
24	0xbdb4bea7	-0.088254265
25	0xbd531e40	-0.05154252
26	0xbd015006	-0.031570457
27	0xbd89ace6	-0.06722431
28	0x3c2ce3c8	0.010552354
29	0xbde226f7	-0.11042588
30	0x3dcec9b4	0.100970656
31	0xbdc2816e	-0.09497343
32	0x3db0c612	0.08631529
33	0x3c986c18	0.01860623
34	0xbd14b286	-0.036303066
35	0x3d8d7e7c	0.069088906
36	0x3c8ebe20	0.017424643
37	0x3db90088	0.090333045
38	0x3c484018	0.012222312
39	0xbd106c92	-0.03525979
40	0x3cf615e8	0.030039743
41	0xbcf85f18	-0.030318782
42	0x3d40baf8	0.047053307
43	0x3dcc6eb8	0.099820554
44	0x3d845c38	0.06462902
45	0xbd4833a4	-0.048877373
46	0x3d842da0	0.06454015
47	0x3ca3e098	0.020004556
48	0x3d688fb8	0.056777686
49	0xbd8b8f78	-0.06814474
50	0xbde2a9a4	-0.11067513
51	0xbd30eeba	-0.043196417
52	0xbdafa0b7	-0.08575576
53	0x3dbbe1ac	0.09173903
54	0x3d03e72c	0.032202885
55	0x3d3db010	0.046310484
56	0x3d10d4ac	0.03535907
57	0xbafeed00	-0.0019449294
58	0x3db3324a	0.08749826
59	0xbda2b04e	-0.07943784
60	0x3be6ac20	0.007039562
61	0xbd9c4894	-0.07631031
62	0x3d0d3574	0.034474805
63	0xbd1db570	-0.03850311
64	0x3d0c5284	0.03425838
65	0xbcbed190	-0.023293287
66	0x3dbde89c	0.09272882
67	0xbd87b684	-0.06626609
68	0xbd888f2b	-0.06667932
69	0xbd889148	-0.06668335
70	0x3dcdf2cc	0.100560755
71	0x3d189c7c	0.03725861
72	0x3ddc546c	0.1075829
73	0xbdbcf75e	-0.09226869
74	0xbde31cfb	-0.11089512
75	0xbdb323f5	-0.08747093
76	0xbd9a0723	-0.075208925
77	0x3d397ca0	0.045284867
78	0x3d23facc	0.0400341
79	0x3dbe4272	0.09290017
80	0xbd6c7ecc	-0.05773811
81	0xbd9c1806	-0.076217696
82	0x3d72f9fc	0.059320435
83	0xbd391aa8	-0.045191437
84	0x3d8af82a	0.06785615
85	0xbcd95794	-0.026531018
86	0x3d82fbb8	0.06395668
87	0xbdb1e7ac	-0.08686766
88	0xbd671a4b	-0.05642156
89	0x3d0b9e00	0.034086227
90	0x3cc1a078	0.023636088
91	0xbce983d8	-0.02850525
92	0x3d887bea	0.0666426
93	0x3d9ba880	0.07600498
94	0xbda60b9e	-0.081076846
95	0xbd747bb2	-0.059688278
96	0x3dd1a986	0.10237412
97	0xbd1a86ae	-0.037726097
98	0xbd225980	-0.039636135
99	0xbddd8dab	-0.10818037
100	0xbd832050	-0.064026475
101	0x3ce4cb28	0.027928904
102	0xbc71c888	-0.014757283
103	0xbda63564	-0.08115652
104	0x3b2bdee0	0.0026225373
105	0xbd9c6850	-0.076370835
106	0xbdc2429e	-0.094853625
107	0xbd7c2c95	-0.061565954
108	0xbdc86677	-0.097851686
109	0xbd91cbca	-0.07118948
110	0x3de4e240	0.11175966
111	0x3cacfd48	0.021116868
112	0x3d0d1ee8	0.034453303
113	0xbdd58f53	-0.104277276
114	0xbd96623a	-0.07342954
115	0xbd186e24	-0.037214413
116	0x3c8f3820	0.017482817
117	0xbdc97a82	-0.0983782
118	0xbd455120	-0.04817307
119	0xbd891444	-0.066933185
120	0x39a27100	0.0003098324
121	0xbd2a6748	-0.041602403
122	0xbbfddec0	-0.007747501
123	0xbd9b28be	-0.0757613
124	0xbd9d2a8c	-0.07674131
125	0xbd85955e	-0.0652263
126	0xbd1cc106	-0.03827002
127	0xbdb4b96c	-0.08824429
128	0x3dbffcbe	0.093743786
129	0xbcb5c59c	-0.022188954
130	0x3dc50208	0.09619528
131	0x3d0eb020	0.034835935
132	0xbdc1e4da	-0.09467478
133	0x3d9e7526	0.07737188
134	0xbcfc00dc	-0.030762129
135	0xbd2f8afc	-0.042857155
136	0xbdbe1064	-0.0928047
137	0xbde3a2e5	-0.11115054
138	0x3d030600	0.031988144
139	0xbcc81240	-0.024422765
140	0x3d324a0c	0.043527648
141	0xbdbbe8fa	-0.09175296
142	0x3da9ff1a	0.0830061
143	0xbda81429	-0.0820697
144	0xbc9e2680	-0.019305468
145	0x3cbf4d68	0.02335234
146	0x3d6c6a74	0.05771871
147	0x3db8da42	0.090260044
148	0x3dd095dc	0.101848334
149	0xbdb58edc	-0.08865139
150	0x3ce68018	0.028137252
151	0xbd44f98a	-0.04808954
152	0xbc48bc68	-0.012251951
153	0xbdab6261	-0.08368374
154	0x3dd08ff6	0.10183708
155	0xbda80e1c	-0.08205816
156	0x3d74c00c	0.059753463
157	0x3d20f0cc	0.03929214
158	0x3d14d000	0.036331177
159	0xbd77964f	-0.06044608
160	0x3dd0202c	0.10162386
161	0x3cc94498	0.02456884
162	0x3c6ba420	0.014382392
163	0xbdc9c8ac	-0.09852728
164	0x3d403da4	0.046933785
165	0xbc896724	-0.016772814
166	0xbd51cbe8	-0.05121985
167	0x3dc4ad06	0.09603314
168	0x3ccc3288	0.024926439
169	0xbd7d5f02	-0.061858185
170	0xbd67c8df	-0.05658805
171	0xbbaef4e0	-0.00533925
172	0x3d7fb320	0.062426686
173	0xbcea0ab0	-0.02856955
174	0xbd82a57e	-0.063792214
175	0xbd1cd212	-0.038286276
176	0xbdab0f6c	-0.08352551
177	0x3d235194	0.03987272
178	0x3db13c0e	0.08654033
179	0xbdd79094	-0.10525623
180	0x3cd4b788	0.02596642
181	0x3d6c9250	0.057756722
182	0x3ca61410	0.020273238
183	0xbd23160c	-0.039815947
184	0x3d6f058c	0.0583549
185	0x3d70a834	0.05875416
186	0x3d2b3d20	0.04180634
187	0xbca0f12c	-0.01964625
188	0xbcf2879c	-0.02960568
189	0x3c43f758	0.011960827
190	0xbca1cbdc	-0.019750528
191	0xbd0877f6	-0.03331753
192	0x3d925c82	0.07146551
193	0x3dc4c794	0.09608379
194	0xbc355790	-0.01106824
195	0xbccd10d0	-0.02503243
196	0x3ad5d700	0.0016314685
197	0xbbdabee0	-0.006675586
198	0x3cdc30f0	0.026878804
199	0x3d005504	0.031331077
200	0xbdcff773	-0.10154619
201	0xbd28ffe8	-0.041259676
202	0x3dc0d342	0.09415294
203	0x3d32653c	0.043553576
204	0xbbb637a0	-0.0055608302
205	0xbd8a0ca2	-0.06740691
206	0xbd8c164a	-0.06840189
207	0xbdcd1b54	-0.10014978
208	0xbd1545fe	-0.036443703
209	0x3d1aa688	0.037756473
210	0x3d91ff96	0.07128827
211	0x3d536ecc	0.051619336
212	0xbdca664e	-0.09882794
213	0xbd89b22c	-0.06723437
214	0xbc908b10	-0.017644435
215	0x3ddd7f4e	0.10815297
216	0x3c847da8	0.016173199
217	0xbced3088	-0.028953806
218	0x3d3d75a4	0.04625477
219	0xbd2e6c68	-0.042583853
220	0xbd94344d	-0.07236538
221	0x3da71fee	0.08160387
222	0xbd503aac	-0.050837204
223	0xbcb79b30	-0.022412866
224	0xbde3c89f	-0.1112225
225	0x3d993ec2	0.07482673
226	0x3dad7a68	0.08470613
227	0x3d26e5d8	0.04074654
228	0xbd9fa840	-0.07795763
229	0xbde1fba2	-0.11034323
230	0xbdb9f7a4	-0.09080437
231	0x3daabed8	0.08337182
232	0x3d5bdce4	0.053677455
233	0x3dc0ae9e	0.094083056
234	0x3d6fe78c	0.05857043
235	0x3ce7ce30	0.02829656
236	0xba8f8140	-0.0010948554
237	0xbdae22b8	-0.08502716
238	0xbdc42d92	-0.09579004
239	0xbdd62b80	-0.10457516
240	0x3d3b7748	0.045768052
241	0xbd60d651	-0.054891888
242	0xbcb85370	-0.022500724
243	0xbd83c67e	-0.06434344
244	0xbca6e5b8	-0.02037321
245	0xbda128d1	-0.07869113
246	0xbd959d62	-0.07305409
247	0x3d17e7e8	0.037086397
248	0xbd0819a0	-0.033227563
249	0x3d8d5aea	0.06902106
250	0xbd12e9d0	-0.035867512
251	0xbda7f7a4	-0.082015306
252	0xbca19968	-0.01972647
253	0xbd5dfd0d	-0.054196406
254	0xbd0c1ade	-0.03420531
255	0xbdd9fb4c	-0.10643634

layers.0.lin_a.weight f4 [1, 40]
0	0xbe10b7a1	-0.14132549
1	0x3da1e9da	0.07905932
2	0xbe11b83d	-0.14230438
3	0xbc9da458	-0.019243404
4	0x3c1a8160	0.0094302595
5	0x3de63482	0.11240484
6	0xbd6a5fee	-0.057220392
7	0x3d3a6830	0.045509517
8	0x3cc8a510	0.02449277
9	0x3dbe8776	0.09303181
10	0x3c1a02f0	0.009400114
11	0x3d7280d4	0.05920489
12	0xbdc39d71	-0.09551514
13	0xbde1062f	-0.109875076
14	0x3e1045ed	0.14089175
15	0xbdebf476	-0.115212366
16	0xbcdc8198	-0.026917264
17	0xbc9c9280	-0.019112825
18	0x3e1e53c5	0.15461643
19	0xbd0bf66c	-0.034170553
20	0xbdf68602	-0.12037279
21	0xbd242cb4	-0.040081695
22	0x3da70822	0.08155848
23	0x3d80535a	0.06265898
24	0x3e05f21b	0.13080637
25	0xbd0494ec	-0.032368585
26	0x3d98885c	0.074478835
27	0xbe185ccc	-0.14879149
28	0x3d7a9874	0.061180547
29	0x3d94c842	0.07264759
30	0x3dd0e3ea	0.10199721
31	0xbdb9b0c3	-0.09066918
32	0xbd2ce786	-0.042212985
33	0x3d1cae9c	0.038252458
34	0xbde61bfa	-0.11235805
35	0xbe00cb94	-0.12577659
36	0xbe1bc355	-0.15211232
37	0x3c109c70	0.00882636
38	0x3dc9162a	0.098186806
39	0x3d2659f0	0.040613115

layers.0.lin.weight f4 [20, 1]
0	0xbe3ae230	-0.18250346
1	0x3f386234	0.72024846
2	0x3ecc3c67	0.39889833
3	0xbf61969c	-0.88120437
4	0x3d45de6d	0.048307825
5	0xbf309ad2	-0.6898624
6	0x3f4e223b	0.8052098
7	0x3de695cc	0.1125904
8	0xbe83ad34	-0.2571808
9	0xbf029a76	-0.5101694
10	0x3e9fdfe0	0.3122549
11	0xbf195152	-0.5988971
12	0x3ef370f5	0.47547117
13	0x3f1bd02e	0.6086453
14	0x3f2c4577	0.67293495
15	0x3e96eaed	0.2947611
16	0xbf60182c	-0.87536883
17	0x3f2ebd1c	0.6825731
18	0xbe9ed59c	-0.31022346
19	0xbe975d94	-0.29563582

layers.1.bias f4 [20]
0	0x00000000	0.0
1	0x00000000	0.0
2	0x3d73b4f9	0.05949876
3	0x00000000	0.0
4	0x3d1f2c03	0.038860332
5	0xbcba306d	-0.02272817
6	0x00000000	0.0
7	0x00000000	0.0
8	0x3d8d31e5	0.06894282
9	0x00000000	0.0
10	0xbd108dfb	-0.035291653
11	0x00000000	0.0
12	0xbc31d02d	-0.010852856
13	0x00000000	0.0
14	0xbbbde600	-0.0057952404
15	0x00000000	0.0
16	0x3d2010ec	0.039078638
17	0x3d81d0c9	0.06338651
18	0x00000000	0.0
19	0x3d7b6832	0.061378665

layers.1.combine_aggr.weight f4 [20, 80]
0	0xbc44ce20	-0.012012035
1	0x3da76910	0.08174336
2	0x3db01050	0.08596861
3	0x3c8d6cc8	0.017263785
4	0x3d5a8298	0.0533472
5	0xbdd56708	-0.10420042
6	0x398a7800	0.00026410818
7	0xbdca91a8	-0.09891063
8	0x3d1bdca8	0.03805223
9	0xbda321c6	-0.07965426
10	0xbd2336e0	-0.039847255
11	0x3da00f3e	0.07815407
12	0x3ddad432	0.10685004
13	0xbd89789c	-0.067124575
14	0xbd7e2a59	-0.062052105
15	0x3c62dc10	0.013846412
16	0x3d340570	0.043950498
17	0xbc952c78	-0.01820968
18	0xbd0f0328	-0.03491512
19	0xbd966652	-0.07343735
20	0x3d437c80	0.047726154
21	0x3de056e0	0.1095407
22	0xbd5daeb5	-0.05412169
23	0x3d57ff30	0.0527336
24	0x3d5fa8a0	0.054604173
25	0x3db80c50	0.089867234
26	0xbc508e50	-0.012729242
27	0x3b66ca00	0.0035215616
28	0x3da839fa	0.08214183
29	0x3d90bcbc	0.07067248
30	0x3de2289c	0.11042902
31	0xbd033bdc	-0.03203951
32	0x3d353410	0.044239104
33	0x3d9fe2fa	0.07806964
34	0xbd9b6e47	-0.07589393
35	0x3cb5f348	0.022210732
36	0xbcccef04	-0.025016315
37	0x3d93308c	0.07186994
38	0xbd4dad24	-0.050213948
39	0x3c007a98	0.007841729
40	0x3d88ff4a	0.066893175
41	0xbdd1c431	-0.10242499
42	0xbdc15620	-0.09440255
43	0xbd6a8d91	-0.057263914
44	0x3d92de10	0.07171261
45	0x3d998874	0.074967295
46	0xbd9c61c7	-0.07635837
47	0x3caea638	0.021319494
48	0xbd72a83f	-0.059242483
49	0xbd548ea5	-0.05189385
50	0x3dc5787a	0.0964212
51	0x3d5d3144	0.05400206
52	0xbcfa7b30	-0.030576319
53	0x3c86d228	0.016457632
54	0x3cb175f0	0.021662682
55	0x3cd68a30	0.02618894
56	0xbd1cbed4	-0.038267925
57	0xbd86d6d0	-0.06583941
58	0x3d979850	0.07402098
59	0x3c762450	0.015023306
60	0x3d3fac68	0.04679528
61	0xbd2d7022	-0.042343266
62	0x3d5dd0c0	0.054154158
63	0x3da6a392	0.08136667
64	0x3d8b416a	0.06799586
65	0x3cf90710	0.030398875
66	0x3de14870	0.110001445
67	0xb9803200	-0.00024451315
68	0x3cc2fdb0	0.023802608
69	0x3dd98dee	0.10622774
70	0x3dde89dc	0.10866138
71	0xbd415ab4	-0.047205642
72	0x3dce428c	0.100712866
73	0x3d290284	0.041262165
74	0xbc4d0bc0	-0.012515008
75	0x3dc7ed5c	0.097620696
76	0xbd6d3ad3	-0.057917427
77	0x3d94c66e	0.0726441
78	0x3de2e65a	0.11079092
79	0xbd9dec65	-0.07711104
80	0xbd871d95	-0.06597439
81	0xbde2e497	-0.11078756
82	0xbca4d38c	-0.020120405
83	0xbdcff455	-0.101540245
84	0xbd19605c	-0.03744541
85	0x3d0b07c8	0.033942968
86	0x3da1db2e	0.07903133
87	0x3d7f17ac	0.062278435
88	0x3d7e328c	0.062059924
89	0x3d3dfc4c	0.046383187
90	0xbd8e0454	-0.06934419
91	0xbdb5cdbe	-0.08877133
92	0x3b97de60	0.0046346635
93	0x3dd96dde	0.10616659
94	0x3bce47c0	0.0062951744
95	0xbc1d8d40	-0.009616196
96	0xbd9b69ac	-0.07588515
97	0xbd631149	-0.055436406
98	0xbdb081da	-0.08618517
99	0x3db754ec	0.089517444
100	0xbc9539e8	-0.018216088
101	0xbdca46ed	-0.09876809
102	0x3c448118	0.011993669
103	0x3c04edf0	0.008113369
104	0xbc625090	-0.013813153
105	0x3d23edac	0.040021583
106	0x3d764634	0.060125545
107	0xbdd75431	-0.10514105
108	0xbdaf6a22	-0.08565165
109	0xbbafff70	-0.0053710267
110	0xbdd44a33	-0.10365715
111	0xbdcffd7d	-0.10155771
112	0x3dca29ba	0.0987124
113	0xbc0b5320	-0.008503705
114	0xbd62678a	-0.055274524
115	0xbd1d155c	-0.038350448
116	0xbdb2c3c0	-0.087287426
117	0x3db2aed6	0.087247536
118	0xbcc699ec	-0.024243318
119	0xbd80bcce	-0.06286012
120	0xbdada806	-0.084793136
121	0x3d85d528	0.06534797
122	0xbc7d35e0	-0.015454739
123	0xbc407148	-0.011745758
124	0xbceeb658	-0.029139683
125	0xbd5d0fb5	-0.053970058
126	0x3ca2edb8	0.019888744
127	0x3db02a54	0.086018234
128	0xbd84b55b	-0.06479903
129	0x3baf8820	0.0053568035
130	0xbdae2325	-0.08502797
131	0xbd56bada	-0.05242429
132	0x3dc8fc66	0.09813766
133	0x3a99a6c0	0.0011722669
134	0x3ddc930c	0.107702345
135	0xbca077e4	-0.019588418
136	0xbd7999e8	-0.060937792
137	0xbd88cf14	-0.06680122
138	0x3dcaf144	0.09909299
139	0xbdb013d8	-0.08597535
140	0x3d7053ec	0.058673784
141	0x3ce3acc0	0.027792335
142	0x3d0724b4	0.032993987
143	0x3d813228	0.06308395
144	0xbcef9e64	-0.029250331
145	0x3d8dae2c	0.06917986
146	0xbdb66da1	-0.08907629
147	0xbd211fe4	-0.039337054
148	0x3da79e34	0.08184472
149	0x3d07e8c8	0.033180982
150	0xbc73f190	-0.014889136
151	0xbcd5e3a0	-0.026109517
152	0xbd8bd080	-0.068268776
153	0x3d8b3ca0	0.06798673
154	0xbb690120	-0.003555365
155	0xbb77e7e0	-0.0037827417
156	0x3cd89a50	0.02644077
157	0x3da8f872	0.08250512
158	0xbd69a304	-0.05704023
159	0xbd1db736	-0.0385048
160	0x3d9b28d2	0.07576145
161	0x3d81515e	0.06314348
162	0xbd6147db	-0.055000167
163	0xbde283a3	-0.11060264
164	0x3ca9e898	0.020740792
165	0x3d70d4d8	0.058796734
166	0x3cdac488	0.026705042
167	0x3da26a02	0.07930376
168	0xbdb5af36	-0.088713095
169	0x3d66efa8	0.056380898
170	0xbd8e5916	-0.069505855
171	0x3d80de24	0.0629237
172	0x3daa4a70	0.08314979
173	0x3d110a00	0.035409927
174	0x3db941aa	0.090457276
175	0xbd96ed9b	-0.073695384
176	0xbdccc9ca	-0.09999426
177	0xbddc28b9	-0.10749955
178	0x3d8fc1b6	0.07019369
179	0x3d206c5c	0.03916584
180	0xbda7ab6a	-0.081869915
181	0x3d5dc65c	0.05414425
182	0x3dd0eb08	0.10201079
183	0xbde1c971	-0.1102475
184	0x3da61a24	0.08110455
185	0x3c8c7928	0.017147616
186	0x3c2a6500	0.010400057
187	0x3dce0756	0.10059993
188	0x3dcf5b24	0.101248056
189	0x3d40f4d8	0.0471085
190	0x3db4eb7a	0.08833976
191	0x3d3e845c	0.046512946
192	0x3c953cb0	0.018217415
193	0xbdc94526	-0.09827642
194	0x3cab12b8	0.02088295
195	0xbda2e6fa	-0.079542115
196	0x3d0cfc80	0.03442049
197	0x3ca19840	0.019725919
198	0x3b249c00	0.0025117397
199	0xbd9c8e21	-0.076442964
200	0xbd8acd92	-0.06777491
201	0x3da93e2a	0.0826381
202	0x3d5f0760	0.054450393
203	0x3d7172a0	0.058947206
204	0xbd087520	-0.033314824
205	0xbc9db6a4	-0.019252129
206	0xbceab918	-0.028652713
207	0x3d9d76a6	0.07688646
208	0xbd45b0a6	-0.04826417
209	0x3d9038e6	0.070421025
210	0x3d9de02e	0.077087745
211	0xbdd168b2	-0.10225047
212	0x3a32fa00	0.0006827414
213	0xbcae6f64	-0.02129335
214	0xbd7d29c6	-0.061807416
215	0x3d45b420	0.048267484
216	0xbc5e8d90	-0.013583556
217	0x3dc877d2	0.09788479
218	0xbd8f50ba	-0.06997819
219	0x3d54c6c4	0.05194737
220	0xbdc37eeb	-0.09545692
221	0xbd658866	-0.056038283
222	0x3bf9e740	0.007626444
223	0x3db4e908	0.0883351
224	0x3d713598	0.058889
225	0xbdbc01b7	-0.091800146
226	0x3c4ae610	0.012383953
227	0xbd86fa3b	-0.065906964
228	0x3b9ebde0	0.004844412
229	0xbdbec068	-0.09314042
230	0xbd065974	-0.032800153
231	0x3d9d0b8e	0.076682195
232	0xbdd21762	-0.10258366
233	0xbdda4ef3	-0.106595896
234	0x3ca6d320	0.020364344
235	0x3c7b1c00	0.0153265
236	0xbca780f0	-0.020447224
237	0x3dc7f13c	0.09762809
238	0xbd89dcc2	-0.06731559
239	0xbd8b0154	-0.06787363
240	0xbdab26f1	-0.08357037
241	0xbcaa77e8	-0.020809129
242	0xbce9bd90	-0.028532773
243	0x3d8dad32	0.069178
244	0xbbcdb4c0	-0.0062776506
245	0x3d123f38	0.03570482
246	0xbd3e4d86	-0.04646065
247	0x3db9bdd0	0.09069407
248	0x3dc10762	0.09425236
249	0xbdcd0fba	-0.10012765
250	0xbceb6260	-0.028733432
251	0xbdc24886	-0.09486489
252	0x3d428c50	0.047497094
253	0xbdc80cd9	-0.097680755
254	0xbd5885ca	-0.052861966
255	0x3de4c8ac	0.111710876

layers.1.lin_a.weight f4 [1, 40]
0	0xbd2075fc	-0.03917502
1	0x3c9cc9d8	0.019139215
2	0x3e07aacf	0.13248752
3	0xbd2e8bda	-0.04261384
4	0x3dbbb952	0.091662064
5	0x3d32aa04	0.04361917
6	0x3dc4f24e	0.096165285
7	0x3dcc8eda	0.09988184
8	0x3d836902	0.06416513
9	0xbd434adc	-0.047678813
10	0xbd35c4f0	-0.044377267
11	0x3d7c1ffc	0.06155394
12	0x3db07e82	0.086178795
13	0xbc0a4410	-0.008439079
14	0x3da25256	0.079258606
15	0xbdc2d08c	-0.095124334
16	0x3db685b0	0.089122176
17	0xbc9ef2e0	-0.019402921
18	0xbdded787	-0.10880952
19	0xbd9d566f	-0.076825015
20	0xbdf74c74	-0.12075129
21	0x3d02a39c	0.03189431
22	0xbdc00b15	-0.09377114
23	0xbd397578	-0.045278043
24	0xbc224f60	-0.00990662
25	0xbdc5949f	-0.09647488
26	0x3b8509c0	0.00406
27	0xbca462d0	-0.020066649
28	0x3d4d2210	0.050081313
29	0x3de9ed92	0.11422266
30	0xbdc37a7e	-0.09544848
31	0x3db10bbe	0.08644818
32	0xbb5b8a80	-0.00334993
33	0xbdb9144f	-0.09037077
34	0xbd92db09	-0.07170684
35	0x3d24d8f8	0.04024598
36	0x3d06d8a0	0.032921433
37	0xbba759a0	-0.0051071197
38	0xbda13602	-0.07871629
39	0x3da34cb6	0.07973616

layers.1.lin.weight f4 [20, 20]
0	0x3e5aa352	0.21351364
1	0x3e03c09e	0.12866446
2	0xbd0f4f54	-0.034987763
3	0x3e475a38	0.1946801
4	0x3c4508e0	0.012026042
5	0x3e10b110	0.14130044
6	0xbe426b73	-0.18986301
7	0x3e4d8830	0.20071483
8	0x3e57d9dc	0.210792
9	0xbe2b1776	-0.16708168
10	0xbe4cf11d	-0.20013852
11	0xbd854870	-0.06507957
12	0xbe0cc696	-0.1374763
13	0x3d74b5b8	0.059743613
14	0x3dcbd8d8	0.09953469
15	0xbce96630	-0.02849111
16	0x3e20ac92	0.1569083
17	0x3c0ad380	0.008473277
18	0xbd86988c	-0.06572065
19	0xbe4371ea	-0.19086424
20	0x3d918b94	0.071067005
21	0xbe57bd70	-0.21068358
22	0xba487300	-0.0007646531
23	0x3d05df80	0.03268385
24	0xbe003c72	-0.12523058
25	0x3d899390	0.067175984
26	0x3d320a90	0.043467104
27	0x3e193bf0	0.1496427
28	0x3e0f35f8	0.13985431
29	0xbe394d7c	-0.18095964
30	0xbe29e4e4	-0.16591221
31	0xbda813c2	-0.082068935
32	0xbe24b92c	-0.16086262
33	0x3d8f9568	0.07010919
34	0xbe160560	-0.14650488
35	0xbe2ed0be	-0.17071816
36	0x3d8561e8	0.06512815
37	0x3e0a308a	0.13495079
38	0xbd8522a6	-0.06500749
39	0xbe642978	-0.22281444
40	0x3d0171d0	0.03160268
41	0x3e331c42	0.17491248
42	0x3e71492c	0.23563069
43	0x3cadcdb8	0.021216258
44	0x3e51f5f4	0.2050398
45	0xbe4cbbd7	-0.1999353
46	0x3e8c59f7	0.27412388
47	0xbdb82195	-0.0899078
48	0xbe1c4a92	-0.15262821
49	0x3e2453fe	0.16047665
50	0x3c1352a9	0.008991876
51	0x3e0d4eb6	0.13799557
52	0xbdc74de5	-0.09731654
53	0x3e6b1b96	0.22959742
54	0x3e8b7384	0.2723657
55	0x3e039ef5	0.12853606
56	0x3e38b622	0.18038228
57	0xbdce6e55	-0.10079638
58	0xbd4a3db8	-0.049375266
59	0x3d8b63a4	0.06806114
60	0x3e0163fc	0.12635797
61	0xbdf4864a	-0.11939676
62	0x3e11b422	0.14228871
63	0xbd96b83c	-0.07359359
64	0xbdf46e6f	-0.11935126
65	0x3d332918	0.043740362
66	0xbe366109	-0.17810453
67	0xbe5226c3	-0.20522599
68	0x3d9844e8	0.07435018
69	0x3d9bfb70	0.07616317
70	0x3db01a58	0.08598775
71	0xbcf037c8	-0.029323474
72	0xbe2774d2	-0.16353157
73	0xbe37f159	-0.1796316
74	0x3e5b1ab4	0.21396905
75	0xbe468100	-0.19385147
76	0x3d8a05a0	0.06739354
77	0x3e39f7bc	0.1816091
78	0x3e2eee16	0.1708301
79	0xbe105e62	-0.14098504
80	0xbd93a8e2	-0.07209946
81	0xbe0da81d	-0.13833661
82	0x3e3a517d	0.18195148
83	0xbe56e0aa	-0.2098414
84	0xbe37aed3	-0.17937784
85	0xbe18dce6	-0.14928016
86	0x3e63ab3c	0.2223329
87	0x3e32fa82	0.17478374
88	0x3e196c2e	0.14982674
89	0x3e2fb038	0.17157066
90	0xbd8a7819	-0.06761188
91	0xbdff641c	-0.12470266
92	0xbdca9ac9	-0.09892804
93	0x3de9fa7a	0.11424728
94	0x3e022b8d	0.12711926
95	0x3db14f1a	0.086576656
96	0xbe302754	-0.17202502
97	0x3d6b918e	0.05751186
98	0xbdf30157	-0.1186549
99	0xbd341b94	-0.043971613
100	0xbd0dc9e4	-0.034616366
101	0xbc3f3ea0	-0.011672646
102	0xbe6027a8	-0.21890128
103	0x3e43738c	0.19087046
104	0xbdf1cb61	-0.118063696
105	0x3d8f1620	0.06986642
106	0x3e066ccf	0.13127445
107	0x3d8a897c	0.06764504
108	0x3e205ac4	0.15659624
109	0x3e014c22	0.12626699
110	0x3e108471	0.14113022
111	0x3d414e90	0.047194064
112	0x3df5e048	0.12005669
113	0xbdf5a2a4	-0.11993912
114	0xbe12a73c	-0.14321607
115	0x3dac636e	0.08417402
116	0x3d705110	0.058671057
117	0xbcfe9545	-0.031077037
118	0xbe41241c	-0.18861431
119	0x3d95a3f4	0.07306662
120	0x3e145178	0.14484203
121	0xbcd37cf8	-0.025816426
122	0x3d526b08	0.051371604
123	0x3dcbde74	0.09954539
124	0xbe622118	-0.22082937
125	0xbd16b0c8	-0.036789685
126	0xbda9e1d8	-0.082950294
127	0xbdea10a4	-0.11428955
128	0x3e0bf34e	0.13667032
129	0x3e630634	0.22170335
130	0x3d1223d0	0.035678685
131	0x3e0e8262	0.13916925
132	0xbe29df07	-0.16588984
133	0x3d215b38	0.039393634
134	0xbcece898	-0.028919503
135	0xbe0d38bc	-0.13791174
136	0x3d3bcc18	0.045848936
137	0x3d91c6b0	0.07117975
138	0xbc30f340	-0.010800183
139	0x3dc276d4	0.09495321
140	0x3ddbdd44	0.107355624
141	0x3e4fb03e	0.20282075
142	0x3c545f30	0.012962148
143	0x3c0286d0	0.007966712
144	0xbb51bf80	-0.0032005012
145	0x3cfccae0	0.030858457
146	0xbe147874	-0.14499074
147	0xbce17920	-0.027523577
148	0xbe41a096	-0.18908915
149	0xbe209bcc	-0.15684432
150	0xbe430966	-0.19046554
151	0x3e29ce78	0.16582668
152	0xbe03974b	-0.12850682
153	0xbc93d400	-0.018045425
154	0x3cc3d588	0.02390553
155	0x3e4a3baa	0.19749323
156	0x3dcfd5a0	0.101481676
157	0xbe230f3d	-0.15923782
158	0x3e5ff408	0.21870434
159	0xbe58e168	-0.21179736
160	0x3cee2a30	0.029072851
161	0x3e8c557c	0.2740897
162	0x3e87582a	0.2643445
163	0xbd5447cc	-0.051826283
164	0xbdb7d5ec	-0.08976349
165	0x3dc915b0	0.0981859
166	0x3e77d34d	0.24201699
167	0xbd62a1c8	-0.055330068
168	0xbd10eea8	-0.03538385
169	0xbe0b402a	-0.13598695
170	0x3e1d2ec1	0.15349866
171	0x3d42f2b0	0.047594726
172	0x3e37eaa8	0.17960608
173	0xbbe03c3e	-0.006843119
174	0xbe159ce0	-0.14610624
175	0xbcc3fc55	-0.023924032
176	0xbe33137d	-0.17487903
177	0x3c6cdb5c	0.014456596
178	0x3da66d60	0.081263304
179	0xbe3e7d86	-0.18602571
180	0xbc2b0250	-0.010437563
181	0xbe6005e3	-0.21877246
182	0xbe224308	-0.15845883
183	0xbe205028	-0.15655577
184	0xbd9bec94	-0.07613483
185	0xbde8080e	-0.11329661
186	0x3d0cfa68	0.034418494
187	0x3e0bf8ee	0.13669178
188	0x3e2ca6fa	0.16860572
189	0x3d9049e8	0.070453465
190	0xbac1f000	-0.0014796257
191	0xbd23372c	-0.039847538
192	0x3e1b793a	0.15182963
193	0xbe0323d8	-0.12806642
194	0x3e25810a	0.16162506
195	0xbe5c7554	-0.21529132
196	0xbe2ae621	-0.1668935
197	0x3d72f430	0.059314907
198	0xbdbc9d4a	-0.09209688
199	0x3d2ae108	0.041718513
200	0x3e47812c	0.19482869
201	0x3d871e22	0.06597544
202	0x3e3a61fb	0.18201439
203	0xbdc1f8e0	-0.09471297
204	0xbe0c2a57	-0.13688026
205	0xbce895b0	-0.028391689
206	0xbda5a45f	-0.08087992
207	0xbe04219a	-0.12903443
208	0xbc637520	-0.013882905
209	0x3e4edbee	0.20201084
210	0xbe2053d3	-0.15656976
211	0x3e009668	0.12557375
212	0x3d8d25d0	0.06891978
213	0x3dbf3ed3	0.09338155
214	0x3cc7ebb2	0.02440438
215	0xbdf2a477	-0.118477754
216	0x3dbd0034	0.09228554
217	0xbe0f3dc3	-0.13988404
218	0xbe0c8c3c	-0.1372537
219	0x3e560b0c	0.20902652
220	0x3e3dcb0e	0.1853449
221	0xbe257ad5	-0.16160138
222	0x3e39fc02	0.1816254
223	0x3d3deb68	0.04636708
224	0x3d6ac498	0.057316393
225	0x3e5cb322	0.21552709
226	0xbc405dd0	-0.011741117
227	0xbd91a62e	-0.071117744
228	0x3e0fbe70	0.1403749
229	0xbd6c9688	-0.057760745
230	0xbd5bdef4	-0.05367942
231	0xbdb8ab5e	-0.09017061
232	0x3e61603c	0.22009367
233	0x3dda839c	0.10669634
234	0xbd1479f8	-0.03624913
235	0xbb922e00	-0.00446105
236	0x3c8033e0	0.015649736
237	0xbe07bc0e	-0.13255331
238	0x3d8205b8	0.06348747
239	0xbe31b676	-0.1735476
240	0xbc2ad090	-0.010425702
241	0xbd586f8f	-0.052840766
242	0xbdd15586	-0.102213904
243	0x3e53c65a	0.20681134
244	0x3d534b63	0.051585566
245	0x3ddc9b84	0.1077185
246	0xbe21cfd8	-0.15801942
247	0x3ccc0f0d	0.02490952
248	0x3d756fd0	0.059921086
249	0x3dedba94	0.116078526
250	0xbd9d3c2a	-0.07677491
251	0xbd33dc0c	-0.043911025
252	0xbe450d53	-0.19243364
253	0x3e00118a	0.1250669
254	0x3e0dc230	0.13843608
255	0x3dc0c035	0.094116606

layers.2.bias f4 [20]
0	0xbc570666	-0.013124084
1	0x3d8253e7	0.06363659
2	0x00000000	0.0
3	0x00000000	0.0
4	0xbc938c2b	-0.018011173
5	0x00000000	0.0
6	0xbbc45572	-0.005991631
7	0x3d32f2a4	0.04368843
8	0x00000000	0.0
9	0x00000000	0.0
10	0x3caaf406	0.020868313
11	0x3ac8653f	0.0015288963
12	0x00000000	0.0
13	0xbd2b41ba	-0.04181073
14	0xbca1fa16	-0.01977257
15	0x3d77172b	0.06032483
16	0xbb915057	-0.004434626
17	0x3d80a5c8	0.0628162
18	0x3d766ff5	0.060165364
19	0x3d8118ad	0.06303535

layers.2.combine_aggr.weight f4 [20, 80]
0	0xbd8912ca	-0.06693037
1	0x3d0e8268	0.034792334
2	0xbc5e47c0	-0.013566911
3	0xbda9d055	-0.08291689
4	0x3c6f9fe0	0.0146255195
5	0xbcd4ce9c	-0.025977425
6	0xbd365e6e	-0.04452365
7	0xbd5a8ffb	-0.053359967
8	0xbd42e248	-0.04757908
9	0xbd397386	-0.045276187
10	0x3c33fd40	0.0109856725
11	0x3ddd3430	0.108009696
12	0xbd863597	-0.0655319
13	0xbd55a427	-0.0521585
14	0xbd997dd8	-0.07494706
15	0xbb8b0440	-0.00424245
16	0x3c006f08	0.007838972
17	0xbd9d2a72	-0.076741114
18	0x3d512d18	0.051068395
19	0xbdcd5bd6	-0.10027282
20	0x3dd3edde	0.10348104
21	0x3cac5c48	0.021040097
22	0xbc389e08	-0.011268146
23	0xbd23f99c	-0.040032968
24	0x3d4d9e38	0.050199717
25	0x3da73440	0.08164263
26	0xbd95c4d1	-0.073129304
27	0xbce59364	-0.028024383
28	0x3da88f62	0.08230473
29	0xbcaba510	-0.020952731
30	0xbda89a31	-0.08232535
31	0xbd132b1e	-0.03592979
32	0x3b7d1a20	0.0038620308
33	0xbcaafc2c	-0.020872198
34	0xbd9cea1e	-0.07661842
35	0xbd8f7334	-0.07004395
36	0x3cf7a5b0	0.030230373
37	0x3d9d1b98	0.07671279
38	0x3dd04d4a	0.10170992
39	0xbc4f0bb0	-0.012637064
40	0x3d30324c	0.043016717
41	0xbdb5db00	-0.088796616
42	0x3d740654	0.059576347
43	0x3ddacbba	0.10683389
44	0x3d6e7938	0.058221072
45	0xbd351032	-0.0442049
46	0x3dbaafb4	0.09115544
47	0xbdd8db05	-0.1058865
48	0xbc5bcef0	-0.013416037
49	0xbce2efac	-0.027702175
50	0xbde464ab	-0.111520134
51	0xbd829faf	-0.063781135
52	0xbda6d3a6	-0.081458375
53	0x3cf62a60	0.030049503
54	0xbc185e68	-0.009299852
55	0x3d5252a4	0.051348343
56	0xbcce08cc	-0.025150679
57	0x3dbce022	0.092224374
58	0x3c4f7ba8	0.012663759
59	0x3dbdce3c	0.09267852
60	0x3db9effa	0.09078975
61	0xbdc22e68	-0.094815075
62	0xbd99c598	-0.07508391
63	0x3d89eab2	0.06734218
64	0x3dd853de	0.105628714
65	0xbdc36ea1	-0.09542585
66	0x3ad67ac0	0.0016363487
67	0xbd30100c	-0.042984053
68	0x3dd791e6	0.10525875
69	0x3dbe36b0	0.092877746
70	0x3da6a5bc	0.0813708
71	0x3d7670ec	0.060166284
72	0xbc2bd2d0	-0.010487273
73	0x3dd3484c	0.10316524
74	0xbd564bd5	-0.052318413
75	0x3bb511b0	0.00552579
76	0xbcf0fcb8	-0.02941738
77	0xbda70992	-0.08156122
78	0xbd5903cb	-0.052982133
79	0x3cde1140	0.027107835
80	0xbc236f20	-0.009975225
81	0xbd97aefe	-0.07406424
82	0xbc68e0a8	-0.0142137185
83	0x3c9e2e28	0.019309118
84	0xbda03397	-0.0782234
85	0x3d8a4904	0.06752208
86	0xbdc2ab9e	-0.0950539
87	0x3a8c3400	0.001069665
88	0xbdbb4e33	-0.09145775
89	0xbdce7a4e	-0.100819215
90	0xbc638c28	-0.013888396
91	0x3dcfcf7e	0.10146998
92	0x3dd8755c	0.105692595
93	0x3d249708	0.040183097
94	0x3db17a1c	0.08665869
95	0xbd7a5604	-0.061117187
96	0x3d80e90e	0.06294452
97	0x3d8bb62a	0.068218544
98	0xbddad46f	-0.1068505
99	0xbdaf782e	-0.08567844
100	0x3d45d7d4	0.048301533
101	0x3c2944a8	0.01033131
102	0xbd9afccc	-0.075677484
103	0xbdb4b026	-0.0882266
104	0x3da57c5a	0.08080359
105	0x3c481b60	0.012213558
106	0xb981ba00	-0.00024743378
107	0xbddd5a1b	-0.10808202
108	0x3dc8e64e	0.09809552
109	0xbd975d77	-0.07390874
110	0x3d4c0e2c	0.049818203
111	0xbc5c42a8	-0.013443626
112	0x3b6ec2c0	0.0036431998
113	0x3d60db48	0.054896623
114	0xbcf3fbf4	-0.029783227
115	0xbd0079a0	-0.03136599
116	0x3db688ac	0.08912787
117	0xbdaf752f	-0.08567273
118	0x3d4bca4c	0.049753472
119	0xbcec5d84	-0.028853185
120	0xbd1903b4	-0.037357047
121	0x3d994758	0.07484311
122	0x3c9aa030	0.018875211
123	0xbdd52d79	-0.10409064
124	0x3dcc9daa	0.099910095
125	0xbd633c09	-0.055477176
126	0x3dc5f1b4	0.09665242
127	0xbd0fb952	-0.035088845
128	0x3ddf420a	0.10901268
129	0x3d071854	0.032982185
130	0xbbb0fac0	-0.0054009855
131	0x3d2ed03c	0.042679057
132	0xbb63da40	-0.0034767538
133	0xbd632255	-0.055452663
134	0x3d7a8044	0.06115748
135	0x3d948442	0.07251789
136	0xbc657be0	-0.014006585
137	0x3dd7607a	0.10516448
138	0x3be8a890	0.0071001723
139	0xbd722feb	-0.05912773
140	0xbd798ec8	-0.060927182
141	0x3d9a0f58	0.07522458
142	0xbd39822c	-0.045290157
143	0x3d909f0a	0.07061584
144	0xbdde6c5a	-0.1086051
145	0x3b7c6620	0.003851302
146	0xbd9e3548	-0.07725006
147	0x3d2271c4	0.039659277
148	0x3db9f454	0.09079805
149	0x3d34351c	0.04399596
150	0xbd1d744c	-0.038440987
151	0xbdd6cd67	-0.10488396
152	0xbd58f9a9	-0.05297247
153	0xbd870d66	-0.065943524
154	0x3ddaa692	0.10676302
155	0xbd763897	-0.060112562
156	0x3d311110	0.043229163
157	0x3db7cfde	0.089751944
158	0x3d251914	0.04030712
159	0xbdc8ece8	-0.09810811
160	0xbc501558	-0.012700401
161	0xbd07eaf0	-0.03318304
162	0x3d9387c2	0.07203628
163	0xbc2bd438	-0.010487609
164	0xbbc13bc0	-0.0058970153
165	0x3dcbb028	0.099457085
166	0x3cd9f2a8	0.026604965
167	0x3d544884	0.05182697
168	0xbd136ad2	-0.035990544
169	0x3d95be1c	0.07311651
170	0x3c83b028	0.016075209
171	0xbcb7fa84	-0.022458322
172	0x3cb08138	0.021545991
173	0xbdb43c35	-0.08800546
174	0x3b86b5a0	0.004111007
175	0x3d520534	0.051274493
176	0xbdd6684c	-0.10469112
177	0xbd73408d	-0.059387732
178	0x3d8f74ec	0.07004723
179	0x3b262a40	0.0025354773
180	0xbb799440	-0.0038082749
181	0x3c3aee78	0.011409394
182	0xbd4d8915	-0.05017956
183	0x3dbd57e2	0.09245278
184	0xbc35a068	-0.011085607
185	0xbd26be30	-0.04070872
186	0x3d710ef8	0.058852166
187	0xbdbe95e2	-0.09305932
188	0xbca8f094	-0.02062253
189	0x3c389f70	0.011268482
190	0xbd0e1ecc	-0.03469734
191	0x3d793d50	0.060849488
192	0xbdc38b05	-0.09548
193	0xbd0405ea	-0.032232203
194	0xbd40795a	-0.04699073
195	0x3dd3e06c	0.103455395
196	0x3d36c280	0.044619083
197	0xbdaace3d	-0.08340118
198	0x3d317be4	0.043331042
199	0xbb1b6340	-0.002371028
200	0x3dd19bb2	0.10234775
201	0x3d7cb97c	0.06170033
202	0xbd85ba0e	-0.06529628
203	0x3dcc1ac2	0.09966041
204	0xbca3d000	-0.019996643
205	0xbcd08ebc	-0.025458686
206	0x3d08f050	0.033432305
207	0x3de37cce	0.11107789
208	0x3d0a2d00	0.03373432
209	0xbddced94	-0.10787502
210	0xbd123026	-0.03569045
211	0x3dd5378a	0.10410984
212	0xbd216796	-0.039405428
213	0xbd5c50d8	-0.053788036
214	0xbdb682fc	-0.08911702
215	0xbd7ccaec	-0.06171696
216	0xbd7a6152	-0.061127968
217	0x3cdabd78	0.026701674
218	0x3d36f620	0.044668317
219	0x3dda86c8	0.10670239
220	0x3d96449c	0.07337305
221	0x3ad88800	0.0016520023
222	0x3d76f804	0.06029512
223	0x3d82e0d4	0.06390539
224	0xbdc57ec8	-0.09643322
225	0x3d6713e4	0.056415454
226	0xbd9ca21a	-0.07648106
227	0x3db0d12c	0.08633646
228	0xbd472e4e	-0.048628144
229	0x3cbe0968	0.023197845
230	0xba9bed80	-0.0011896342
231	0x3d54761c	0.05187045
232	0x3c8e7550	0.017389923
233	0xbda6189c	-0.081101626
234	0x3d39828c	0.045290515
235	0x3d871210	0.06595242
236	0xbd6e7b7a	-0.058223225
237	0xbd94895b	-0.07252761
238	0xbd9bea73	-0.07613077
239	0xbd5ed101	-0.05439854
240	0xbc66f1c0	-0.014095724
241	0x3c08f6a8	0.008359589
242	0xba4eb780	-0.000788562
243	0xbcf23e70	-0.029570788
244	0x3d8e1760	0.06938052
245	0x3bc19c40	0.005908519
246	0xbd84f438	-0.064918935
247	0xbcf26424	-0.029588766
248	0xbd869f15	-0.06573311
249	0xbd218eb8	-0.039442748
250	0xbdd7fddc	-0.10546467
251	0x3ca008c8	0.019535437
252	0xbdb16abf	-0.08662938
253	0x3d311e34	0.043241695
254	0x3d9cdb1a	0.07658978
255	0xbdaa56f0	-0.08317363

layers.2.lin_a.weight f4 [1, 40]
0	0xbd703240	-0.058641672
1	0x3cba3e98	0.022734925
2	0xbd6c52e0	-0.057696223
3	0xbcac69b0	-0.02104649
4	0x3e0001c1	0.12500669
5	0xbdffdba2	-0.124930635
6	0x3db0f45c	0.08640358
7	0xbdbb1894	-0.09135547
8	0x3a634c00	0.00086706877
9	0xbc9a37a0	-0.018825352
10	0xbd91db35	-0.071218885
11	0x3c5ce880	0.013483167
12	0xbda40845	-0.0800939
13	0x3e12a5db	0.14321081
14	0xbd6a73ac	-0.05723922
15	0x3dccf592	0.10007776
16	0xbd1a43e4	-0.0376624
17	0xbdfef374	-0.12448779
18	0x3dfb5f8a	0.12274082
19	0xbd32d3dc	-0.043659076
20	0xbd8625a5	-0.06550149
21	0x3c423610	0.01185371
22	0xbad32500	-0.0016109049
23	0x3d36c014	0.044616774
24	0xbd1d224e	-0.038362794
25	0xbd3adae2	-0.0456189
26	0x3db12bf2	0.0865096
27	0x3d946b9e	0.07247089
28	0x3e0f1c23	0.13975577
29	0x3c8ef2a0	0.017449677
30	0xbd281f96	-0.041045748
31	0xbd09f9ac	-0.03368537
32	0xbd03fa08	-0.03222087
33	0xbd4cab8a	-0.04996828
34	0xbd5d06b6	-0.05396148
35	0xbd367906	-0.04454901
36	0x3d435030	0.047683895
37	0x3d80203e	0.0625615
38	0x3df67736	0.120344564
39	0xbe1d8eef	-0.15386556

layers.2.lin.weight f4 [20, 20]
0	0x3dc0e930	0.09419477
1	0x3e2b404e	0.16723749
2	0x3da24f9b	0.0792534
3	0xbd0ee910	-0.034890234
4	0xbe5a8349	-0.21339144
5	0xba42d651	-0.00074324483
6	0x3d6e2fb0	0.058150947
7	0xbe33385e	-0.17501971
8	0x3e335696	0.17513499
9	0xbbc0f300	-0.005888343
10	0x3d46e964	0.048562422
11	0x3e49ff32	0.19726256
12	0x3dd927e9	0.106033154
13	0xbdf824dc	-0.12116405
14	0x3d9d1de7	0.07671719
15	0x3e06a232	0.1314781
16	0x3dc8d055	0.09805361
17	0xbdf4484f	-0.11927854
18	0x3cba0f08	0.022712246
19	0xbe34138c	-0.17585582
20	0xbccdccd8	-0.025122091
21	0xbe1ee39f	-0.15516518
22	0x3e49fca9	0.19725288
23	0x3e600852	0.21878174
24	0xbe13d084	-0.14435011
25	0xbdb2a228	-0.08722335
26	0xbdc1b466	-0.094582364
27	0xbe20550c	-0.15657443
28	0x3e8c95ff	0.27458188
29	0xbe30de42	-0.17272285
30	0xbd90d373	-0.07071581
31	0xbe3e3730	-0.1857574
32	0x3c255c92	0.010092871
33	0xbe297be0	-0.16551161
34	0xbe12e90e	-0.14346716
35	0x3e63b066	0.2223526
36	0x3e32906c	0.17437905
37	0x3e27eff3	0.16400127
38	0x3e226318	0.15858114
39	0x3de18e93	0.11013522
40	0x3d149fb0	0.036285102
41	0xbe2bfa67	-0.1679474
42	0x3d80a6f0	0.06281841
43	0xbe32e360	-0.17469549
44	0xba7f0a00	-0.0009728968
45	0xbdf7206d	-0.120667316
46	0xbe01c944	-0.12674433
47	0xbe061051	-0.13092162
48	0xbdddaf7d	-0.10824487
49	0xbe082cb1	-0.13298298
50	0xbdfa71f7	-0.12228768
51	0xbda6d0f8	-0.081453264
52	0xbe513712	-0.20431164
53	0x3e3747cc	0.17898482
54	0x3d99e36c	0.075140804
55	0xbe63c005	-0.22241218
56	0xbe64dc44	-0.2234965
57	0xbde6a140	-0.11261225
58	0x3db0b51c	0.08628294
59	0x3e519480	0.20466805
60	0xbd0eab74	-0.03483148
61	0x3e083cfa	0.1330451
62	0xbdf700b4	-0.12060681
63	0xbd3e1a7c	-0.046411976
64	0xbd0dfc74	-0.034664586
65	0xbe5eed0a	-0.2177011
66	0x3a98e780	0.0011665672
67	0x3d7267f8	0.059181184
68	0x3e0b8fc4	0.13629061
69	0xbe312ad8	-0.173015
70	0xbd89e2c0	-0.06732702
71	0x3c0a3580	0.008435607
72	0x3cc25068	0.023719981
73	0x3d1a7690	0.037710726
74	0xbe2a16ba	-0.16610232
75	0x3e31b616	0.17354617
76	0xbe4ee901	-0.20206071
77	0xbd9efb10	-0.0776273
78	0x3de43500	0.111429214
79	0xbd646c54	-0.055767372
80	0xbddca7fb	-0.10774227
81	0xbe61e406	-0.2205964
82	0x3e0f3cd5	0.1398805
83	0xbba485a0	-0.005020812
84	0x3dd1669d	0.1022465
85	0x3cb21336	0.021737676
86	0xbe2a482a	-0.16629091
87	0xbda1d17e	-0.079012856
88	0x3e15c68f	0.14626525
89	0xbde04275	-0.10950176
90	0xbe01c374	-0.12672216
91	0x3dfb20fc	0.12262151
92	0xbddca59e	-0.107737765
93	0x3d1583a8	0.03650251
94	0xbded6a3b	-0.115925275
95	0x3d8cf6b0	0.068829894
96	0x3c9ae886	0.018909704
97	0xbe45146e	-0.19246075
98	0xbe2dab4e	-0.16959879
99	0x3d8f19b0	0.069873214
100	0xbd95f9b2	-0.07323016
101	0x3dfadae4	0.12248781
102	0x3c3ea6e0	0.011636466
103	0xbd9c9abe	-0.07646702
104	0xbd1f6070	-0.03891033
105	0xbdd0a4c6	-0.10187678
106	0x3de1f9cc	0.11033973
107	0x3e359f84	0.17736632
108	0xbbe436e0	-0.0069645494
109	0xbe139d1a	-0.14415398
110	0x3e249a2e	0.1607444
111	0x3e3a510e	0.18194982
112	0x3e1c180e	0.15243551
113	0xbb849d80	-0.004047096
114	0x3d612518	0.054967016
115	0x3c3a57a0	0.0113734305
116	0xbdadf06e	-0.08493124
117	0xbe62b954	-0.2214101
118	0xbcdfe590	-0.027331144
119	0x3dc6104c	0.09671077
120	0x3e059022	0.13043264
121	0x3d59d5e0	0.053182483
122	0x3dc48e4d	0.09597454
123	0x3e0f53ce	0.13996813
124	0xbd499af5	-0.049220044
125	0x3e0f624b	0.1400234
126	0xbb99e6e0	-0.004696712
127	0xbda22eee	-0.079191074
128	0xbdbe1a42	-0.09282352
129	0xbe057246	-0.13031873
130	0xbe367d76	-0.17821297
131	0x3d51d060	0.051224113
132	0x3e4d72d8	0.2006334
133	0x3d023378	0.031787366
134	0x3cf792c0	0.030221343
135	0xbdabcb9a	-0.08388443
136	0xbdc0ca55	-0.09413592
137	0xbd9bcd4c	-0.07607517
138	0x3d9e832c	0.07739863
139	0x3d055d5e	0.032559745
140	0xbda841e8	-0.082156956
141	0x3d337700	0.04381466
142	0x3c377b4c	0.01119883
143	0xbc798c60	-0.015231222
144	0x3e5bbfb2	0.21459845
145	0xbda82b7e	-0.082114205
146	0x3e55a53a	0.2086381
147	0xbdfa7b58	-0.12230557
148	0x3e84652a	0.25858432
149	0x3dac0a18	0.08400363
150	0x3de4e8b4	0.11177197
151	0xbd518278	-0.051149815
152	0xbd4f1de2	-0.050565608
153	0xbe277c5f	-0.16356038
154	0xbe541f68	-0.20715106
155	0x3e2050f0	0.15655875
156	0x3e8a1530	0.2696929
157	0x3de838d2	0.113389626
158	0xbdb3207c	-0.0874643
159	0x3dcf3570	0.10117614
160	0xbc0934a0	-0.008374363
161	0xbe45ed47	-0.19328795
162	0xbe376134	-0.17908174
163	0x3d9eff94	0.077635914
164	0xbd85b5a4	-0.06528786
165	0xbd59d7a4	-0.053184167
166	0xbe0a0da8	-0.13481772
167	0x3dc9f634	0.09861413
168	0xbde717c7	-0.11283832
169	0xbd923fca	-0.07141073
170	0x3df503e0	0.1196363
171	0x3e5c1e5a	0.21495953
172	0x3e4c20e8	0.19934428
173	0x3db445a0	0.088023424
174	0x3c0223e0	0.007943124
175	0x3e2c178c	0.16805857
176	0x3e4a720e	0.19770071
177	0x3dcd9778	0.10038656
178	0x3d869e2c	0.06573138
179	0x3d5cda88	0.053919345
180	0x3cba65f8	0.0227537
181	0x3e17219a	0.14758912
182	0x3d818af4	0.06325331
183	0xbe410e96	-0.1885322
184	0xbe0741c4	-0.13208681
185	0xbe4fefce	-0.20306322
186	0xbd89a180	-0.06720257
187	0x3c3b3f20	0.011428624
188	0xbdc227d6	-0.09480254
189	0xbe5294c6	-0.20564565
190	0xbe14ea62	-0.14542535
191	0x3dc2e5ec	0.0951651
192	0xbc8108e0	-0.015751302
193	0xbd198cd8	-0.037487835
194	0x3d1448c8	0.036202222
195	0xbd41777c	-0.04723309
196	0xbdf99194	-0.1218597
197	0xbdd22588	-0.10261065
198	0xbdbaa8ba	-0.09114213
199	0xbe565344	-0.20930201
200	0xbe532a49	-0.206216
201	0xbdad821c	-0.08472082
202	0x3de573d0	0.1120373
203	0x3e5fed26	0.21867809
204	0x3cdd7d03	0.02703715
205	0x3e16443a	0.14674464
206	0x3d976c28	0.07393676
207	0xbe365d5e	-0.17809054
208	0xbda71db8	-0.08159965
209	0xbd7b4dcc	-0.06135349
210	0xbe3bc9d5	-0.18338712
211	0x3d0045f0	0.031316698
212	0x3d3a6b9a	0.045512773
213	0xbe327e24	-0.17430931
214	0xbd615bc3	-0.05501915
215	0xbe49f7fc	-0.19723505
216	0x3e83d500	0.25748444
217	0x3e23c741	0.15993978
218	0xbdacbf6e	-0.0843495
219	0x3e64606c	0.22302407
220	0xbe0f5106	-0.13995752
221	0x3e40a204	0.18811804
222	0xbd9eb728	-0.07749778
223	0x3d85cd78	0.06533331
224	0x3e2e2a24	0.17008263
225	0x3dc4cdb2	0.09609546
226	0x3d5df2f0	0.05418676
227	0xbcd33ac8	-0.025784865
228	0x3c537ea7	0.012908614
229	0x3e4382a0	0.19092798
230	0xbda92dc0	-0.08260679
231	0xbd9494dc	-0.07254955
232	0x3c9dc3c1	0.019258382
233	0xbdde329b	-0.10849496
234	0xbdbba142	-0.09161617
235	0x3c8f2358	0.017472908
236	0x3e3ea295	0.18616708
237	0x3da65331	0.08121336
238	0xbe0d7bf8	-0.13816822
239	0x3e1658af	0.14682268
240	0xbda8a742	-0.08235027
241	0x3d6c3370	0.057666242
242	0x3c57be00	0.013167858
243	0x3e238796	0.1596969
244	0xbd4c9264	-0.049944296
245	0xbdba12d4	-0.090856224
246	0xbd367428	-0.04454437
247	0x3b052f80	0.0020322502
248	0xbdd81ca4	-0.10552338
249	0x3e1d6048	0.1536876
250	0xbdf585df	-0.119884245
251	0x3d10e3f0	0.03537363
252	0xbe2fccb0	-0.17167926
253	0xbce373a8	-0.02776511
254	0xbd4558e0	-0.04818046
255	0xbdb734c8	-0.08945614

layers.3.bias f4 [20]
0	0x3d58ab53	0.052897763
1	0x3d73a01e	0.05947887
2	0x00000000	0.0
3	0xbc2b41d7	-0.010452709
4	0xbc3a223f	-0.011360704
5	0x00000000	0.0
6	0x00000000	0.0
7	0xbccc52a0	-0.024941742
8	0x00000000	0.0
9	0x3d768689	0.060186896
10	0x00000000	0.0
11	0xbc0674b5	-0.008206536
12	0x00000000	0.0
13	0x3d673d45	0.056454916
14	0x00000000	0.0
15	0x3d571b54	0.052516297
16	0xbc6a2a3b	-0.014292295
17	0x3d78c034	0.060730174
18	0x3d7dcb76	0.061961614
19	0x3d42174e	0.047385506

layers.3.combine_aggr.weight f4 [20, 80]
0	0xbdc36a15	-0.09541718
1	0x3daaf940	0.08348322
2	0x3c7ee480	0.015557408
3	0x3dc75b6e	0.09734236
4	0x3de16398	0.11005324
5	0xbce46d98	-0.02788429
6	0xbc8ea564	-0.017412849
7	0xbcdd6830	-0.02702722
8	0x3db415c6	0.087932155
9	0xbd464f48	-0.048415452
10	0x3d973734	0.07383576
11	0x3d3c5870	0.045982778
12	0x3dd74b9e	0.1051247
13	0x3da22ec4	0.07919076
14	0x3db9d3e4	0.09073618
15	0xbdbc34ad	-0.091897346
16	0xbd71099f	-0.058847066
17	0xbda2754e	-0.0793253
18	0x3d636334	0.05551453
19	0x3cba5298	0.022744462
20	0x3d2e8da8	0.042615563
21	0x3d2be180	0.0419631
22	0x3b9b1040	0.0047321618
23	0x3d2ec23c	0.042665705
24	0xbd7852de	-0.060625903
25	0x3d94c32a	0.07263787
26	0xbdc520d3	-0.09625401
27	0xbdd264e0	-0.10273147
28	0x3d1b8658	0.037969917
29	0x3dd6f6ec	0.10496315
30	0xbd2788e6	-0.04090204
31	0x3dd7affc	0.10531613
32	0xbd228ec6	-0.03968694
33	0xbdadffcf	-0.08496057
34	0xbc8e66bc	-0.017382972
35	0x3d7d43dc	0.061832294
36	0xbd6e5d8e	-0.05819469
37	0x3dd6ba40	0.10484743
38	0xbd4ccb7a	-0.049998738
39	0xbd4ab3ff	-0.049488064
40	0xbd3eb97e	-0.046563618
41	0xbdae6560	-0.085154295
42	0x3dd597c0	0.10429335
43	0xbd815d50	-0.06316626
44	0xbd4e093d	-0.05030178
45	0xbd0ac1ec	-0.033876345
46	0x3dc0bfc6	0.09411578
47	0x3d55a364	0.052157775
48	0x3d289c58	0.041164726
49	0xbcf0d878	-0.029400095
50	0x3d676f68	0.05650273
51	0x3ca62570	0.020281523
52	0x3db66ee4	0.089078695
53	0x3ccb5238	0.024819478
54	0x3da80edc	0.08205959
55	0x3d9e051c	0.07715818
56	0x3ca00d90	0.019537717
57	0xbddb6b03	-0.1071377
58	0x3cba5b40	0.02274859
59	0xbdacc2ca	-0.084355906
60	0x3c9d5c10	0.019208938
61	0xbc4d22d8	-0.012520514
62	0x3db62fac	0.088958114
63	0xbda45b04	-0.08025172
64	0xbdbf6c92	-0.0934688
65	0x3d4c1c20	0.04983151
66	0x3d972ec4	0.07381967
67	0xbcc756bc	-0.02433335
68	0x3cf7e560	0.030260742
69	0x3db7c3a0	0.089728594
70	0x3c3636a0	0.011121422
71	0xbcfffdec	-0.03124901
72	0x3d8464be	0.064645275
73	0x3dce5d4e	0.1007639
74	0xbc9b774c	-0.018977784
75	0x3d9b5c04	0.0758591
76	0x3c18d550	0.009328201
77	0xbcbfc6b8	-0.023410186
78	0xbc1fde60	-0.009757608
79	0xbdde482f	-0.10853612
80	0x3d5bb048	0.05363491
81	0xbd794220	-0.060854077
82	0xbdc301f3	-0.09521856
83	0xbc7df680	-0.015500665
84	0xbd3a9532	-0.04555244
85	0xbd91bd70	-0.071162105
86	0xbcc0d220	-0.023537695
87	0xbc415390	-0.011799708
88	0x3d0b2f40	0.033980608
89	0x3c7b1010	0.015323654
90	0xbc74beb0	-0.014938042
91	0x3cc99da0	0.024611294
92	0xbd942762	-0.07234074
93	0x3dc1bf3a	0.09460302
94	0x3d603db4	0.054746345
95	0x3d90dac2	0.07072975
96	0xbdcc3b2b	-0.09972223
97	0x3d9c4ada	0.07631464
98	0x3ca1e560	0.019762695
99	0xbddd45ab	-0.10804304
100	0x3dd96ad2	0.106160775
101	0xbb195540	-0.002339676
102	0x3cafa730	0.021442026
103	0x3dbd6e1c	0.09249517
104	0x3d93a92a	0.0721
105	0x3dcbb636	0.09946863
106	0xbdd5b72e	-0.104353294
107	0x3de25f06	0.110532805
108	0x3cdf1890	0.027233392
109	0x3abe5140	0.0014520064
110	0xbdb3e8a2	-0.087846056
111	0xbd764364	-0.060122862
112	0x3dde4acc	0.1085411
113	0x3daa3ec4	0.08312753
114	0x3db27cd8	0.08715218
115	0xbc19f088	-0.009395726
116	0xbd7f16ac	-0.06227748
117	0x3cd5db10	0.026105434
118	0xbd5a36aa	-0.053274788
119	0xbd950c76	-0.07277767
120	0x3d13e6b8	0.036108702
121	0x3db398d6	0.087693855
122	0xbdafa7cc	-0.085769266
123	0xbdca64fc	-0.098825425
124	0x3c777e40	0.015105784
125	0xbd2159dc	-0.039392337
126	0xbd74e190	-0.059785426
127	0xbcbb770c	-0.022883914
128	0xbbd3dcf0	-0.006465547
129	0xbcfe02f4	-0.031007268
130	0x3da99072	0.08279504
131	0x3d7dc420	0.061954618
132	0x3d100950	0.03516513
133	0xbd12d9c0	-0.035852194
134	0xbc2346d0	-0.0099656135
135	0x3d9472b2	0.07248439
136	0x3c17e168	0.00927005
137	0xbddce5c1	-0.107860096
138	0x3c2e0cd8	0.010623179
139	0x3d6fcba0	0.0585438
140	0xbceaee44	-0.028678067
141	0xbcaafb2c	-0.020871721
142	0xbc788250	-0.015167788
143	0x3d8cb676	0.06870739
144	0x3dbd1200	0.09231949
145	0xbdb3b0bd	-0.087739445
146	0x3d96dc20	0.07366204
147	0x3d3b86d0	0.045782864
148	0x3d204f5c	0.039138183
149	0xbd8211ba	-0.06351037
150	0xbd82b8a6	-0.06382875
151	0x3de35cec	0.11101708
152	0x3cea6160	0.028610885
153	0xbccbd5f8	-0.024882302
154	0xbcb981e4	-0.022644944
155	0x3d994ce6	0.0748537
156	0xbce427f8	-0.02785109
157	0x3d9ab338	0.075537145
158	0xbd01d6ee	-0.031699114
159	0x3cd87e40	0.026427388
160	0x3cf14748	0.029452935
161	0xbd6a9353	-0.057269406
162	0x3b351d60	0.0027635917
163	0x3cb6efb8	0.022331104
164	0xbddfefd9	-0.10934419
165	0xbcb46074	-0.022018649
166	0x3c2e6658	0.010644518
167	0x3dbc9726	0.09208517
168	0x3ccad160	0.02475804
169	0xbdc29e47	-0.09502845
170	0xbd0638ce	-0.032769017
171	0x3de2b338	0.110693395
172	0xbc6e5f40	-0.014549077
173	0x3dacbd90	0.08434594
174	0x3c522ab0	0.01282756
175	0x3d963f00	0.07336235
176	0xbd44cbc6	-0.048045896
177	0x3de0f118	0.10983485
178	0x3cc14c08	0.023595825
179	0xbcbb82ec	-0.022889577
180	0x3db00f20	0.08596635
181	0x3d61d47c	0.05513428
182	0xbd99e8cc	-0.075151056
183	0xbc03b5c8	-0.0080389455
184	0x3da41c80	0.080132484
185	0x3ce42f70	0.027854651
186	0xbd10d47e	-0.0353589
187	0xbd95144b	-0.07279261
188	0xbda05748	-0.078291476
189	0x3d7e9044	0.0621493
190	0x3d4f3858	0.050590843
191	0xbdcae67b	-0.09907242
192	0xbcbc0ecc	-0.022956274
193	0x3ce7ce30	0.02829656
194	0xbdca9684	-0.0989199
195	0x3dc55428	0.09635192
196	0xbc435bb8	-0.011923723
197	0xbd3a07a0	-0.045417428
198	0x3c4bf6e0	0.012448996
199	0x3d25714c	0.04039125
200	0x3ccb8660	0.024844348
201	0x3dd924a6	0.10602693
202	0x3d80e65a	0.06293936
203	0xbc316b20	-0.010828763
204	0x3c9be980	0.01903224
205	0x3cddeff0	0.02709195
206	0xbd35a1c0	-0.04434371
207	0xbdc43435	-0.0958027
208	0xbc42da40	-0.011892855
209	0xbd2e6eb2	-0.042586036
210	0xbdd84ba7	-0.105613045
211	0x3d235128	0.03987232
212	0xbd402518	-0.046910375
213	0x3ddb38c6	0.10704188
214	0x3d23c7cc	0.039985463
215	0x3d4305d4	0.04761298
216	0x3d057990	0.032586634
217	0x3d329968	0.04360333
218	0x3d929bac	0.07158598
219	0x3da835b0	0.08213365
220	0xbbc83140	-0.0061093867
221	0xbd01d250	-0.03169471
222	0x3cf82588	0.030291334
223	0xbd4ea0c6	-0.050446294
224	0xbbba2750	-0.005680956
225	0x3d05b620	0.03264439
226	0x3d4ca000	0.049957275
227	0xbddd7acf	-0.108144395
228	0x3d315308	0.043292075
229	0xbd314ec4	-0.043288007
230	0xbda14789	-0.078749724
231	0xbd4306ea	-0.047614016
232	0xbb1e1580	-0.0024121702
233	0x3d618684	0.055059925
234	0xbdcbee26	-0.099575326
235	0x3cf8c848	0.030368939
236	0x3dce4d36	0.100733206
237	0xbd815d12	-0.0631658
238	0x3cdadbf0	0.026716202
239	0xbd381a4a	-0.044946946
240	0x3ce12cc8	0.027487174
241	0x3d464c60	0.04841268
242	0xbd8d0cd8	-0.068872154
243	0x3cdb2ad0	0.026753813
244	0x3de250f0	0.11050594
245	0x3c008648	0.007844515
246	0xbda28820	-0.0793612
247	0x3ab74cc0	0.0013984665
248	0x3cc9fab8	0.024655685
249	0x3d0d0250	0.034426033
250	0xbc040da8	-0.0080598965
251	0xbcc4497c	-0.023960821
252	0xbd63b25a	-0.05559001
253	0x3d93f656	0.07224719
254	0xbd8158d4	-0.06315771
255	0xbd1bdfc8	-0.03805521

layers.3.lin_a.weight f4 [1, 40]
0	0x3e00d157	0.12579857
1	0xbe0689e3	-0.13138537
2	0xbda09ac2	-0.07842018
3	0xbda0971d	-0.078413226
4	0x3e18ec4f	0.14933895
5	0x3e1eea45	0.15519054
6	0xbd90bdda	-0.07067461
7	0xbd4823c6	-0.04886224
8	0x3b37b700	0.002803266
9	0x3c17b1f0	0.009258732
10	0xbd38946a	-0.045063414
11	0xbdec3db8	-0.115352094
12	0xbdac5648	-0.08414894
13	0xbc5827d0	-0.013193086
14	0x3c8c3488	0.017114893
15	0x3bc6d080	0.0060673356
16	0xbe14ae4f	-0.14519618
17	0x3e0f5c53	0.14000063
18	0xbdbc9def	-0.09209811
19	0xbd1e9368	-0.038714796
20	0x3e163105	0.14667137
21	0x3a874000	0.0010318756
22	0xbe016ca5	-0.12639101
23	0x3dba8c18	0.09108752
24	0xbd73a714	-0.05948551
25	0x3e1cf4b9	0.1532773
26	0xbd3be9ac	-0.045877144
27	0xbdf20cb8	-0.11818832
28	0xbdf0e498	-0.11762351
29	0x3a5f9d00	0.000853017
30	0xbcd0a140	-0.025467515
31	0x3dfc1b3a	0.123098806
32	0x3c1b1b70	0.009466991
33	0xbdc2a636	-0.095043585
34	0x3c9118b8	0.017711982
35	0xbdef831c	-0.11694929
36	0x3cc16110	0.023605853
37	0x3d2b1574	0.041768506
38	0xbe18a5d7	-0.14907013
39	0xbddd8154	-0.10815683
