experiments/output-gat/Cora/add/42/model.pth (torch, 210075 bytes, 10 tensors)

layers.0.bias f4 [30]
0	0x3da8b744	0.0823808
1	0x3dcabd36	0.0989937
2	0x3decee04	0.115688354
3	0x3dc9c45f	0.09851908
4	0x3e024803	0.12722783
5	0x3defcb94	0.11708751
6	0x3dc483bb	0.09595438
7	0x3dc3e0fa	0.09564395
8	0x3d933731	0.07188261
9	0x3db8edc7	0.090297274
10	0x3ddb6509	0.1071263
11	0x3dccb8de	0.09996198
12	0x3dc71e82	0.09722616
13	0x3dad7ef3	0.08471479
14	0x3dc75a4d	0.097340204
15	0x3d8ac5f6	0.06776039
16	0x3dceff05	0.10107235
17	0x3dc90eff	0.098173134
18	0x3ddd6b6a	0.10811503
19	0x3daf6892	0.08564867
20	0x3dc61fd8	0.096740425
21	0x3dbf976f	0.093550555
22	0x3da0a94e	0.07844792
23	0x3db9a5d0	0.09064829
24	0x3dbd8978	0.09254736
25	0x3dca9ce2	0.09893204
26	0x3def3f5a	0.11682005
27	0x3de32795	0.11091534
28	0x3de4ec70	0.111779094
29	0x3de3d4f3	0.11124601

layers.0.combine_aggr.weight f4 [30, 120]
0	0x3d8eef5e	0.069792494
1	0x3d9b2cc8	0.07576901
2	0xbcaf31cc	-0.02138605
3	0x3dabbd68	0.08385736
4	0xbca3d9d4	-0.02000133
5	0x3c96e764	0.018420883
6	0xbd360a79	-0.04444358
7	0x3d5b978c	0.053611323
8	0x3da4cf48	0.08047348
9	0xbd8927fa	-0.06697078
10	0x3da2805c	0.07934639
11	0x3c8bf650	0.017085224
12	0x3d8a1fee	0.06744371
13	0x3c4a8e70	0.012363061
14	0x3d344bc0	0.044017553
15	0xbc532c08	-0.012888916
16	0x3d901f28	0.070371926
17	0x3c5d11f0	0.013493046
18	0xbd2e8e98	-0.042616457
19	0x3cbe9e78	0.023268923
20	0xbd2c4661	-0.042059306
21	0xbc2f6620	-0.010705501
22	0xbd17de11	-0.037077013
23	0x3d780ad4	0.0605572
24	0xbd9393d4	-0.0720593
25	0xbd2c6094	-0.04208429
26	0xbcd32aa4	-0.025777169
27	0xbd60d2ad	-0.054888416
28	0x3c0d29f8	0.008615963
29	0xbdb8a70a	-0.09016235
30	0x3da8d774	0.082442194
31	0xbd9ed02b	-0.07754549
32	0x3d9055ca	0.07047613
33	0x3c78e788	0.01519192
34	0xbcf2d260	-0.02964133
35	0x3d670f10	0.05641085
36	0x3c691910	0.014227167
37	0x3d970db6	0.07375662
38	0x3c2380f8	0.009979479
39	0xbcebd7f6	-0.028789502
40	0x3cc8ed94	0.024527349
41	0xbccacb60	-0.02475518
42	0x3d1d5d18	0.03841886
43	0x3da6eb1e	0.08150314
44	0x3d5824b4	0.052769378
45	0xbd2376ca	-0.039908208
46	0x3d57d89c	0.05269681
47	0x3c85ce28	0.016333655
48	0x3d3de2b4	0.04635878
49	0xbd63e6b6	-0.055639945
50	0xbdb911bd	-0.090365864
51	0xbd1076fe	-0.03526973
52	0xbd8f6645	-0.07001928
53	0x3d996796	0.074904606
54	0x3cd76590	0.026293546
55	0x3d1ae120	0.037812352
56	0x3cec81f4	0.02887056
57	0xbad02540	-0.0015880242
58	0x3d925034	0.07144204
59	0xbd84d5b2	-0.06486072
60	0x3bbc57d0	0.0057477728
61	0xbd7f35bd	-0.06230711
62	0x3ce697cc	0.028148554
63	0xbd00c4c6	-0.031437658
64	0x3ce52538	0.027971849
65	0xbc9bcd80	-0.019018888
66	0x3d9b0f4c	0.07571277
67	0xbd5d9e4a	-0.054106034
68	0xbd5f0015	-0.054443438
69	0xbd5f0387	-0.054446723
70	0x3da827fc	0.082107514
71	0x3cf93690	0.030421525
72	0x3db3e604	0.087841064
73	0xbd9a4a52	-0.07533707
74	0xbdb96fe9	-0.09054548
75	0xbd924480	-0.071419716
76	0xbd7b86c6	-0.061407827
77	0x3d177308	0.036974937
78	0x3d05e38a	0.0326877
79	0x3d9b58a6	0.07585268
80	0xbd4118fd	-0.04714297
81	0xbd7ee672	-0.06223149
82	0x3d4663b4	0.048434928
83	0xbd17230a	-0.03689865
84	0x3d62efa0	0.055404305
85	0xbcb17584	-0.021662481
86	0x3d55e510	0.052220404
87	0xbd914241	-0.07092715
88	0xbd3cb1cf	-0.04606801
89	0x3ce3fe70	0.027831286
90	0x3c9e1878	0.019298777
91	0xbcbeaa0c	-0.023274444
92	0x3d5ee0a4	0.054413453
93	0x3d7e3054	0.062057808
94	0xbd879353	-0.06619897
95	0xbd479ea4	-0.048735276
96	0x3dab303e	0.08358811
97	0xbcfc5710	-0.030803233
98	0xbd048ed3	-0.03236277
99	0xbdb4e5c8	-0.0883289
100	0xbd5620d3	-0.052277397
101	0x3cbacf24	0.02280385
102	0xbc456a50	-0.012049273
103	0xbd87b56e	-0.06626402
104	0x3b0c5500	0.0021412969
105	0xbd7f698e	-0.062356524
106	0xbd9e9ce1	-0.07744766
107	0xbd4de63a	-0.05026839
108	0xbda3a049	-0.07989556
109	0xbd6e157e	-0.058125965
110	0x3dbae202	0.09125139
111	0x3c8d3ec4	0.017241843
112	0x3ce672fc	0.028131
113	0xbdae5ef3	-0.08514204
114	0xbd759358	-0.05995497
115	0xbcf8eae2	-0.030385438
116	0x3c69e048	0.014274664
117	0xbda481ac	-0.080325454
118	0xbd211bcb	-0.039333146
119	0xbd5fd96d	-0.054650713
120	0x3984a200	0.000252977
121	0xbd0b2243	-0.03396822
122	0xbbcf48c0	-0.006325811
123	0xbd7d5fb4	-0.061858848
124	0xbd80535f	-0.06265902
125	0xbd5a2411	-0.05325705
126	0xbcfffa6a	-0.031247336
127	0xbd938f8e	-0.07205115
128	0x3d9cc1c6	0.07654147
129	0xbc946a88	-0.018117204
130	0x3da0db36	0.07854311
131	0x3ce90230	0.028443426
132	0xbd9e5052	-0.07730164
133	0x3d81614e	0.063173875
134	0xbccdc284	-0.025117166
135	0xbd0f5487	-0.03499272
136	0xbd9b2fc7	-0.07577472
137	0xbdb9dd40	-0.09075403
138	0x3cd5f5dc	0.026118211
139	0xbca35b88	-0.019941106
140	0x3d119294	0.03554018
141	0xbd996d8c	-0.074915975
142	0x3d8acd32	0.06777419
143	0xbd893c58	-0.06700963
144	0xbc812118	-0.01576285
145	0x3c9c32a0	0.019067109
146	0x3d410860	0.047127128
147	0x3d96ee76	0.073697016
148	0x3daa4f2c	0.08315882
149	0xbd943dd4	-0.07238355
150	0x3cbc33e8	0.02297397
151	0xbd20d448	-0.039264947
152	0xbc23e678	-0.0100036785
153	0xbd8bef48	-0.06832749
154	0x3daa4a5c	0.08314964
155	0xbd893768	-0.06700021
156	0x3d47d674	0.048788503
157	0x3d036850	0.032081902
158	0x3cf30284	0.029664285
159	0xbd4a2770	-0.049354017
160	0x3da9ef14	0.08297554
161	0x3ca455a8	0.020060375
162	0x3c406670	0.011743173
163	0xbda4c17f	-0.08044719
164	0x3d1cf6c4	0.03832127
165	0xbc6060c0	-0.013694942
166	0xbd2b4c52	-0.04182083
167	0x3da095ce	0.07841073
168	0x3ca6b9f8	0.020352349
169	0xbd4ee06c	-0.050506994
170	0xbd3d405a	-0.04620395
171	0xbb8eda00	-0.0043594837
172	0x3d50c728	0.05097118
173	0xbcbf1824	-0.02332694
174	0xbd555842	-0.052086122
175	0xbd000b21	-0.031260613
176	0xbd8bab8c	-0.06819829
177	0x3d055960	0.032555938
178	0x3d90b620	0.070659876
179	0xbdb00205	-0.08594135
180	0x3cadaec0	0.021201491
181	0x3d4128ec	0.047158167
182	0x3c879a38	0.01655303
183	0xbd0528c5	-0.032509584
184	0x3d432910	0.047646582
185	0x3d447ee4	0.047972575
186	0x3d0bd0dc	0.03413473
187	0xbc83689c	-0.016041093
188	0xbcc60654	-0.02417294
189	0x3c200178	0.009765975
190	0xbc841b2c	-0.016126238
191	0xbcdeda30	-0.02720365
192	0x3d6f01d0	0.058351338
193	0x3da0ab7c	0.07845208
194	0xbc1410b0	-0.009037182
195	0xbca76f78	-0.020438895
196	0x3aae9980	0.0013320893
197	0xbbb29ae0	-0.0054505914
198	0x3cb3c908	0.021946445
199	0x3cd190bc	0.02558171
200	0xbda9cdd4	-0.08291212
201	0xbd09fcd4	-0.03368838
202	0x3d9d70ee	0.07687555
203	0x3d11a8c4	0.035561338
204	0xbb94c7a0	-0.0045403987
205	0xbd616f04	-0.055037513
206	0xbd64c2df	-0.055849906
207	0xbda7780d	-0.08177195
208	0xbcf3c332	-0.029756162
209	0x3cfc8b10	0.030828029
210	0x3d6e6a10	0.058206618
211	0x3d2ca258	0.04214701
212	0xbda54234	-0.08069268
213	0xbd60db4a	-0.05489663
214	0xbc6c09c0	-0.014406621
215	0x3db4da0e	0.08830653
216	0x3c585b50	0.013205364
217	0xbcc1aa1c	-0.023640685
218	0x3d1ab16c	0.03776686
219	0xbd0e6a89	-0.03476957
220	0xbd720441	-0.059086088
221	0x3d8874f0	0.06662929
222	0xbd2a04b7	-0.041508403
223	0xbc95e9f0	-0.018300027
224	0xbdb9fc0e	-0.09081279
225	0x3d7a3f90	0.061095774
226	0x3d8da4f2	0.069162264
227	0x3d084582	0.033269413
228	0xbd825c0d	-0.063652135
229	0xbdb883a9	-0.09009487
230	0xbd97d77a	-0.07414146
231	0x3d8b69c2	0.06807281
232	0x3d33846c	0.04382746
233	0x3d9d5304	0.076818496
234	0x3d43e194	0.04782255
235	0x3cbd44b4	0.02310405
236	0xba6a5780	-0.000893943
237	0xbd8e2e5f	-0.06942438
238	0xbda02dbd	-0.07821224
239	0xbdaede77	-0.085385256
240	0x3d1910b8	0.03736946
241	0xbd37942b	-0.04481904
242	0xbc968060	-0.01837176
243	0xbd573033	-0.0525362
244	0xbc884568	-0.016634658
245	0xbd83960c	-0.064251035
246	0xbd7451e6	-0.059648417
247	0x3cf80fb0	0.030280918
248	0xbcde4024	-0.027130194
249	0x3d66d4fc	0.05635546
250	0xbcefe890	-0.0292857
251	0xbd892510	-0.06696522
252	0xbc83f1fc	-0.016106598
253	0xbd3540ba	-0.04425118
254	0xbce4ca58	-0.027928516
255	0xbdb1fb34	-0.08690491

layers.0.lin_a.weight f4 [1, 60]
0	0x3e6a5ce2	0.22886994
1	0x3d5c78f3	0.053826284
2	0x3e69a6d6	0.22817549
3	0x3d7c597e	0.061608784
4	0x3de0212f	0.10943829
5	0x3d8ed583	0.06974318
6	0x3e868d55	0.26279703
7	0x3e7105c7	0.2353736
8	0x3e052376	0.13001809
9	0x3e17cb59	0.14823665
10	0x3dd4e296	0.1039478
11	0x3ccb596f	0.024822919
12	0x3de48be0	0.111594915
13	0x3e2a961e	0.16658828
14	0x3e0afbf4	0.13572675
15	0x3e6aa911	0.22916056
16	0x3df7257f	0.12067699
17	0x3e27769e	0.16353843
18	0xbd92ac71	-0.07161797
19	0x3e3950a4	0.18097168
20	0xbd81bbd2	-0.06334652
21	0x3e4c065d	0.19924302
22	0x3e4254e3	0.18977694
23	0x3df35e1f	0.118831865
24	0x3e7963f9	0.24354543
25	0x3e482bbd	0.19547935
26	0x3e1862f4	0.14881498
27	0x3d3931a2	0.04521335
28	0xbe99599d	-0.29951182
29	0x3e664fb2	0.22491339
30	0x3d933e7d	0.07189653
31	0xbda98ec8	-0.082791865
32	0x3ad5bc63	0.0016306754
33	0xbd1ca8dd	-0.038246978
34	0x3dcde196	0.10052793
35	0xbd328270	-0.043581426
36	0x3dbf68d8	0.09346169
37	0x3dfc47c2	0.12318374
38	0x3d6b1f50	0.05740291
39	0x3dc66f59	0.09689207
40	0x3d7d74be	0.061878912
41	0x3d13a122	0.03604234
42	0xbdb7252b	-0.08942636
43	0xbb2f81da	-0.0026780278
44	0xbb327f17	-0.0027236396
45	0x3d4bac5b	0.049724918
46	0xbdd6164a	-0.1045347
47	0x3d92c50d	0.07166491
48	0x3d6c9213	0.057756495
49	0x3d09de9b	0.03365956
50	0x3db13720	0.086530924
51	0x3ad322fa	0.0016108446
52	0x3dcb458b	0.09925374
53	0xbdc04cf9	-0.09389681
54	0x3db44b1d	0.08803389
55	0xbd98c238	-0.07458919
56	0x3cb84d06	0.022497665
57	0xbd8d2025	-0.06890897
58	0x3e20a423	0.15687613
59	0x3cea4ea0	0.028601944

layers.0.lin.weight f4 [30, 1433]
0	0x3cd7e1a1	0.026352705
1	0x3dbceba2	0.09224631
2	0xbd655dd2	-0.055997677
3	0x3d61a0d3	0.055085015
4	0xbdee463f	-0.11634492
5	0x3d5c36ed	0.05376332
6	0x3de36ba4	0.11104515
7	0xbe2925f7	-0.16518389
8	0xbd9872b1	-0.07443751
9	0x3e030278	0.1279391
10	0x3cd03af8	0.025418743
11	0x3d541b6c	0.051783964
12	0xbd8e33ae	-0.06943451
13	0x3dd97139	0.10617299
14	0xbe0bd37c	-0.13654894
15	0xbdce913b	-0.10086294
16	0xbe029c4a	-0.12754932
17	0x3d30cb20	0.043162465
18	0x3d61d315	0.055132944
19	0x3d9d0723	0.07667377
20	0xbdbe95e7	-0.09305935
21	0xbdc1fb2d	-0.09471736
22	0x3deab227	0.11459761
23	0x3dc49fd9	0.09600801
24	0xbe04d778	-0.1297282
25	0xbde1d54f	-0.110270135
26	0xbd714dc7	-0.058912065
27	0x3dce6cee	0.100793704
28	0xbde2b6e8	-0.11070043
29	0x3deb39e1	0.11485649
30	0x3db45b4a	0.088064745
31	0xbda55c2f	-0.08074223
32	0x3d9ffc02	0.078117386
33	0xbda04339	-0.07825322
34	0x3d976f09	0.07394225
35	0x3dbed567	0.09318047
36	0xbe1723b9	-0.14759721
37	0x3e1fe743	0.15615563
38	0x3d811806	0.0630341
39	0x3de7ac62	0.11312176
40	0xbd844873	-0.06459131
41	0xbd65d36e	-0.05610984
42	0x3d3dff7a	0.04638622
43	0xbe02cb00	-0.12772751
44	0x3d9ab6cd	0.07554398
45	0xbc8ff99e	-0.017575081
46	0x3de880ec	0.11352715
47	0x3dfb4213	0.12268462
48	0x3d009d5e	0.031400077
49	0x3dbc37e7	0.0919035
50	0x3df46688	0.11933619
51	0xbdff128a	-0.12454708
52	0x3d725085	0.05915882
53	0x3da34dff	0.07973861
54	0xbde5776c	-0.112044185
55	0x3e001477	0.12507807
56	0x3e01ad61	0.12663795
57	0xbca66515	-0.020311872
58	0xbde123c1	-0.10993148
59	0xbc52ff7c	-0.012878295
60	0xbdb6d8f2	-0.08928098
61	0x3c8c9514	0.01716093
62	0x3dedd9b3	0.116137885
63	0x3e1f89ba	0.15579882
64	0xbe0df8c2	-0.13864425
65	0x3dd98a59	0.10622091
66	0x3cd16134	0.025559045
67	0x3dc927fb	0.09822079
68	0xbdbcdcec	-0.09221825
69	0xbddc5404	-0.10758212
70	0x3cae297e	0.02126002
71	0xbe038928	-0.1284529
72	0x3dae11b2	0.08499469
73	0x3db73ee2	0.08947541
74	0x3e0c59bd	0.13706107
75	0x3db47ff2	0.08813466
76	0x3cc85641	0.024455192
77	0xbe1e0b57	-0.15434013
78	0xbb917a43	-0.0044396236
79	0xbdbbbf9d	-0.09167407
80	0x3d44acb9	0.048016284
81	0x3dfeb9dd	0.12437794
82	0xbd92b5fe	-0.071636185
83	0x3dde6349	0.10858781
84	0x3d67bc5a	0.05657611
85	0x3d978a90	0.073994756
86	0xbd989b1f	-0.07451462
87	0xbdc26e31	-0.094936736
88	0xbbb07b66	-0.005385804
89	0xbdea197a	-0.114306405
90	0x3cfcac24	0.030843802
91	0xbd8cacad	-0.06868873
92	0xbdfa8913	-0.12233176
93	0xbc04565c	-0.00807723
94	0xbd79c056	-0.06097444
95	0xbcc76ac2	-0.024342898
96	0x3d60aa1e	0.054849736
97	0x3d483580	0.048879147
98	0x3e10feba	0.1415967
99	0x3dd8eb36	0.10591738
100	0xbdee3028	-0.11630279
101	0x3db161dd	0.08661244
102	0xbdd78656	-0.105236694
103	0xbe02a43f	-0.12757967
104	0x3dbcaf3f	0.09213113
105	0x3daf29fb	0.08552929
106	0x3e422370	0.18958831
107	0x3deb6ecd	0.11495743
108	0x3dade8f5	0.08491699
109	0x3e023dc8	0.1271888
110	0x3e0b370f	0.13595222
111	0xbe2665e1	-0.16249801
112	0xbde8644d	-0.11347256
113	0x3e0bbbb7	0.13645826
114	0x3d420903	0.047371875
115	0x3de7f54b	0.11326083
116	0x3cb377e6	0.021907758
117	0xbd404597	-0.046941366
118	0x3de7b88d	0.11314497
119	0xbdab73ad	-0.08371673
120	0x3e1c263c	0.1524896
121	0x3e15be2b	0.14623325
122	0x3e22835c	0.15870422
123	0x3dacaebf	0.08431768
124	0xbd4a5025	-0.049392838
125	0x3d3818ff	0.044945713
126	0x3e027df4	0.1274336
127	0xbdfebcb9	-0.1243834
128	0x3dff54f3	0.12467375
129	0xbdce70e4	-0.10080126
130	0x3dda4b8d	0.106589414
131	0xbc9e49c4	-0.019322284
132	0x3d98e9b1	0.07466448
133	0xbcc38ffb	-0.023872366
134	0x3d8f082f	0.06983983
135	0xbdc12a5d	-0.09431908
136	0xbcd83c1e	-0.026395854
137	0x3dd63f78	0.104613245
138	0x3e120c40	0.14262486
139	0xbd29fe91	-0.04150254
140	0x3dbc3e55	0.091915764
141	0x3de6c27c	0.11267564
142	0x3de565f7	0.11201089
143	0x3dae0b54	0.084982544
144	0xbdc37dd2	-0.09545483
145	0xbdb0c40c	-0.08631143
146	0x3cc7af3e	0.024375554
147	0x3e2b69ec	0.16739625
148	0x3e00553e	0.12532517
149	0xbd96a223	-0.07355144
150	0x3e07958d	0.13240643
151	0xbdad2599	-0.08454437
152	0x3df12b03	0.11775782
153	0xbe11f2ae	-0.14252731
154	0x3d86107f	0.06546115
155	0x3d611e0e	0.054960303
156	0xbd83aed6	-0.06429832
157	0x3d826b99	0.06368179
158	0x3e005f9b	0.1253647
159	0x3dd7ad58	0.105311096
160	0x3d9704f3	0.07373991
161	0x3e1e427b	0.15455048
162	0xbd432f72	-0.04765267
163	0x3dc6bf9a	0.09704514
164	0x3e1018bd	0.14071937
165	0xbc3771de	-0.011196582
166	0x3e56f9ed	0.20993777
167	0x3dbd7495	0.09250752
168	0xbd863239	-0.06552548
169	0x3d478b15	0.048716623
170	0xbdda496d	-0.10658536
171	0x3d87d54e	0.066324815
172	0xbda03eda	-0.07824488
173	0xbd579347	-0.05263069
174	0xbd866fb3	-0.06564274
175	0xbda00307	-0.078130774
176	0x3cb65d29	0.02226122
177	0xbdc2846d	-0.094979145
178	0xbe15b52c	-0.14619893
179	0x3c6e1781	0.014531971
180	0xbdcd6663	-0.10029294
181	0x3db8c92e	0.09022747
182	0xbd8e0dc2	-0.06936218
183	0x3bcbfbc6	0.006225082
184	0x3e08b488	0.13350117
185	0x3c856402	0.016283039
186	0xbe1d5c61	-0.15367271
187	0xbd95bafb	-0.07311054
188	0x3d833ef7	0.06408494
189	0x3d90ea3c	0.07075927
190	0xbd9d413e	-0.076784596
191	0x3df4ad8b	0.11947163
192	0x3ddf943c	0.10916945
193	0x3e0b452c	0.13600606
194	0x3db94a81	0.090474136
195	0xbe0e50e4	-0.13898045
196	0x3dd32c3f	0.10311174
197	0xbdf6ebe4	-0.12056711
198	0x3dc6876d	0.09693799
199	0x3dd9bce1	0.10631729
200	0x3d64d248	0.055864602
201	0x3d776afc	0.060404763
202	0xbd2e8632	-0.042608447
203	0x3e0d5831	0.13803174
204	0xbdd9c92e	-0.10634075
205	0x3e02fa8a	0.12790886
206	0x3d976e58	0.07394093
207	0xbda6ad0e	-0.08138476
208	0xbdc95685	-0.098309554
209	0xbd99dba9	-0.075126
210	0xbcf338f5	-0.029690245
211	0xbdb41154	-0.087923676
212	0xbdfdae86	-0.12386803
213	0x3dbe1414	0.09281173
214	0x3dbcb45f	0.092140906
215	0x3ddbb15b	0.10727187
216	0x3d938c97	0.0720455
217	0x3de42b32	0.11141051
218	0x3e263e99	0.16234817
219	0x3e187b4d	0.14890786
220	0x3e250fa6	0.1611925
221	0xbdf15a6d	-0.117848255
222	0xbd97471f	-0.07386612
223	0x3ddfa2fb	0.10919758
224	0xbdee2ac8	-0.116292536
225	0x3df409cc	0.11915931
226	0xbd939cc4	-0.07207635
227	0x3e1538ba	0.1457242
228	0x3cc68b5c	0.024236374
229	0x3b9e816c	0.0048372056
230	0xbd971400	-0.073768616
231	0xbd56a516	-0.052403532
232	0x3e21724e	0.1576626
233	0x3d66a4b4	0.056309417
234	0xbda36168	-0.07977563
235	0x3daa0e29	0.08303482
236	0xbdca4ec6	-0.09878306
237	0x3e190ece	0.14947054
238	0x3df47393	0.119361065
239	0xbde291ef	-0.11062991
240	0x3db6be5a	0.089230254
241	0x3e4bbbb0	0.19895816
242	0x3d90edec	0.0707663
243	0x3da3673e	0.07978676
244	0xbe0ae29e	-0.1356301
245	0xbde40a66	-0.11134796
246	0xbdb1f85a	-0.086899474
247	0x3dd5ccbc	0.104394406
248	0xbd393017	-0.045211878
249	0xbd85115d	-0.064974524
250	0x3dfd264e	0.12360822
251	0x3cedb590	0.02901724
252	0x3db5cd0d	0.08877001
253	0x3bc7537c	0.00608295
254	0x3c2cb1cf	0.01054044
255	0x3cc18be1	0.02362627

layers.1.bias f4 [30]
0	0x3d838f19	0.06423778
1	0x3da7ad52	0.08187355
2	0x3d8241f2	0.06360234
3	0x3d1f14d9	0.03883824
4	0x3d5d0574	0.05396028
5	0x3d64bb0a	0.055842437
6	0x3d70cd8a	0.058789767
7	0x3d10292c	0.035195515
8	0x3b8bda64	0.0042679776
9	0x3d0eb3d5	0.03483947
10	0x3d7f39bd	0.062310923
11	0x3b93b9c1	0.0045082276
12	0x3d8c1f2d	0.06841884
13	0x3d66c7e1	0.056342963
14	0x3dd19964	0.10234335
15	0xbc7a9792	-0.015294926
16	0x3d54ec66	0.05198326
17	0x3da56fb3	0.080779456
18	0xbdc8fd5b	-0.09813949
19	0x3d88cb1c	0.06679365
20	0x3dae4d5c	0.08510849
21	0x3d72f5e9	0.05931655
22	0x3d6fb1e9	0.058519278
23	0x3d7652bd	0.0601375
24	0x3d7240e1	0.059143905
25	0x3d8ba545	0.06818632
26	0x3d0acb61	0.033885363
27	0x3d19d042	0.037552126
28	0x3de1d4eb	0.11026939
29	0x3cf6f7e6	0.030147504

layers.1.combine_aggr.weight f4 [30, 120]
0	0x3bebf850	0.007201232
1	0xbd9929e9	-0.07478697
2	0x3b7b5820	0.0038352087
3	0xbd96ddbe	-0.07366513
4	0xbc9ab124	-0.018883295
5	0x3d699ce4	0.05703439
6	0xbd9a1104	-0.07522777
7	0x3d9b22ce	0.07574998
8	0x3d199200	0.037492752
9	0xbb962790	-0.004582353
10	0x3b0d0de0	0.0021523163
11	0x3b1a9260	0.0023585781
12	0xbdaacbb0	-0.083396316
13	0xbc03f5c0	-0.008054197
14	0xbd934b4a	-0.071920946
15	0x3d0aefa0	0.03391993
16	0xbd2a9808	-0.041648895
17	0xbda39fa4	-0.079894334
18	0xbd857c6d	-0.06517873
19	0x3dab77e2	0.08372475
20	0xbd9945d0	-0.07484019
21	0x3dac8c52	0.084252015
22	0x3da68c14	0.081321865
23	0x3d534b80	0.051585674
24	0xbd635824	-0.05550398
25	0x3ccf46f8	0.025302395
26	0xbcec4e78	-0.02884601
27	0x3d1f62c4	0.03891255
28	0xbd8739e1	-0.066028364
29	0xbc9e7b04	-0.019345768
30	0x3d8ae566	0.067820355
31	0xbd0d1d30	-0.034451663
32	0x3d24e008	0.040252715
33	0xbac24940	-0.0014822856
34	0xbcd937b8	-0.026515827
35	0xbc74e6e0	-0.014947623
36	0xbb9b56e0	-0.004740581
37	0xbd3b17cb	-0.045676988
38	0xbda9593a	-0.08268972
39	0xbd62f926	-0.055413388
40	0xbd9ee772	-0.077589884
41	0xbc840e6c	-0.016120158
42	0xbdac7c04	-0.084220916
43	0x3d24e7e4	0.04026021
44	0x3cd8b1e8	0.02645202
45	0x3d19ba88	0.037531406
46	0xbd747b38	-0.059687823
47	0xbda0d0d4	-0.07852331
48	0x3d310848	0.04322079
49	0xbb54d340	-0.0032474548
50	0xbd4490f3	-0.047989797
51	0x3c5cf258	0.013485514
52	0x3d2e3374	0.04252954
53	0xbd0d4d2c	-0.034497425
54	0xbd43a6d2	-0.047766514
55	0x3db23ebe	0.087033734
56	0xbd851c19	-0.064995
57	0xbcf7d2e2	-0.030251924
58	0x3d1b0c54	0.037853554
59	0x3c1dbb88	0.00962723
60	0x3d232a34	0.03983517
61	0xbce37fc4	-0.027770884
62	0x3c9e12c0	0.01929605
63	0x3d816032	0.06317176
64	0xbdbaea9c	-0.091267794
65	0x3d8a74ea	0.06760581
66	0x3d832cca	0.06405027
67	0xbd62c950	-0.055367768
68	0xbda7f9ea	-0.08201964
69	0x3b3480a0	0.0027542487
70	0xbd92c3ec	-0.071662754
71	0xbd1ffddf	-0.03906047
72	0x3d019fda	0.031646587
73	0x3d9af580	0.07566357
74	0x3d1a7db4	0.037717536
75	0xbd05f075	-0.03270002
76	0x3c608010	0.0137024075
77	0x3d33d9d4	0.04390891
78	0xbd8b0a91	-0.06789125
79	0xbd1c8e1a	-0.038221456
80	0xbd21f81a	-0.03954325
81	0x3d7bc1c0	0.06146407
82	0xbc606c40	-0.013697684
83	0xbd143951	-0.036187474
84	0x3b0cb5e0	0.002147071
85	0x3ce27ee4	0.027648397
86	0x3d58b3b8	0.05290577
87	0x3d537068	0.05162087
88	0xbd6c828d	-0.05774169
89	0xbd2b6108	-0.041840583
90	0x3dab14be	0.08353566
91	0x3d5814f8	0.052754372
92	0x3d39c17c	0.045350537
93	0x3c940d78	0.018072829
94	0x3d2d4aac	0.04230754
95	0xbd525374	-0.05134912
96	0x3d7a8ed0	0.061171353
97	0x3d0f13d8	0.034931034
98	0xbc930f64	-0.017951675
99	0xbd4056af	-0.046957668
100	0x3d27a440	0.040928125
101	0x3c182f20	0.009288579
102	0x3ce785f8	0.028262123
103	0xbc5cb040	-0.013469756
104	0x3d7624a0	0.060093522
105	0x3d0af520	0.033925176
106	0x3d7bc220	0.06146443
107	0x3da2042a	0.079109505
108	0x3d7b1198	0.061296076
109	0xbd7ad186	-0.061234973
110	0xbc8a66c0	-0.016894698
111	0xbbc59f60	-0.006030962
112	0x3c1b8b58	0.009493671
113	0xbdae990c	-0.08525285
114	0x3db5ed0e	0.08883105
115	0xbd5bfd1e	-0.05370819
116	0xbd8d1eae	-0.06890617
117	0xbc239ea8	-0.009986557
118	0x3d3386b4	0.043829635
119	0xbd8fa352	-0.07013573
120	0xbcec9e5a	-0.028884102
121	0x3c87ef40	0.016593575
122	0x3db0cb88	0.086325705
123	0xbc97989c	-0.018505387
124	0x3d8c2a00	0.06843948
125	0x3db718a8	0.0894025
126	0x3d2986d0	0.041388333
127	0x3d0d1898	0.034447283
128	0x3d1dd734	0.03853531
129	0x3a109200	0.000551492
130	0xbd1b2d24	-0.037884846
131	0xbdb14026	-0.086548135
132	0x3cfe1d98	0.03101997
133	0x3d90f140	0.07077265
134	0x3b934730	0.00449457
135	0xbd3843bd	-0.044986475
136	0xbd22bc3c	-0.039730296
137	0x3cd228cc	0.02565422
138	0x3a385c00	0.0007032752
139	0x3d8490fe	0.064729676
140	0xbd841292	-0.064488545
141	0xbb49a700	-0.0030769706
142	0x3da77966	0.08177452
143	0x3d9eb990	0.07750237
144	0xbcfca966	-0.030842494
145	0x3d9d5200	0.07681656
146	0x3d12adac	0.035810158
147	0xbc54a6f8	-0.012979262
148	0xbc7df3a8	-0.015499987
149	0xbd89be92	-0.067258015
150	0x3b72c160	0.003704153
151	0x3ccd7894	0.02508191
152	0x3d07de4a	0.033170976
153	0xbc12d120	-0.008960992
154	0x3d791374	0.060809568
155	0x3d8c665a	0.068554595
156	0xbd8201c3	-0.06347992
157	0x3ccba610	0.024859458
158	0xbd98f4b8	-0.074685514
159	0x3d61e150	0.055146515
160	0xbd1c1f76	-0.03811594
161	0xbd5c72ea	-0.053820528
162	0x3be85490	0.0070901588
163	0xbc5f4ba8	-0.013628878
164	0x3cfe0e34	0.031012632
165	0xbd5da973	-0.054116677
166	0xbda45d1e	-0.08025573
167	0xbd916732	-0.07099761
168	0x3d7805e8	0.060552508
169	0xbd905dd4	-0.07049146
170	0xbccb9880	-0.024852991
171	0x3ce281c0	0.02764976
172	0xbd2bf089	-0.04197744
173	0xbccad4a0	-0.02475959
174	0x3d530064	0.051514044
175	0xbcb1c8b0	-0.02170214
176	0xbcd93a34	-0.026517011
177	0x3dabb83e	0.08384751
178	0xbcfe16d2	-0.031016741
179	0x3d2dfdac	0.04247825
180	0x3cc3b338	0.02388917
181	0xbc8e805c	-0.01739519
182	0x3d92b37a	0.07163139
183	0x3d8c47ba	0.06849618
184	0x3ccc1f04	0.024917133
185	0xbcc56270	-0.02409479
186	0x3d9d93cc	0.07694206
187	0xbd10908a	-0.035294093
188	0xbd5d70ab	-0.054062527
189	0x3d692004	0.056915298
190	0x3da89500	0.082315445
191	0xbce57150	-0.028008133
192	0xbd24500e	-0.04011541
193	0x3db97f62	0.090574995
194	0x3b2b95e0	0.0026181862
195	0xbd52a8fb	-0.051430684
196	0xbc1c6298	-0.009544991
197	0x3c9c7084	0.01909662
198	0xbd7e551a	-0.062092878
199	0x3d89be22	0.06725718
200	0x3cbde984	0.023182638
201	0xbd2e263b	-0.04251693
202	0xbc9b4be0	-0.018957078
203	0xbdad9bbb	-0.08476969
204	0x3d3865c8	0.04501894
205	0xbd97d56e	-0.07413755
206	0xbd828781	-0.063735016
207	0x3da8733a	0.08225103
208	0xbd881de4	-0.06646326
209	0x3c0c88a8	0.008577503
210	0xbd95ebe5	-0.07320384
211	0x3d37f720	0.04491341
212	0x3d83bc20	0.06432366
213	0xbcd2be78	-0.025725588
214	0xbc8f4768	-0.017490104
215	0xbc6e0d90	-0.014529601
216	0x3d7e460c	0.06207852
217	0xba54bc80	-0.0008115247
218	0xbc511c08	-0.012763031
219	0x3db56464	0.088570386
220	0xbd8ac486	-0.06775765
221	0x3c00a2e8	0.00785134
222	0x3d86395a	0.06553908
223	0x3c76e760	0.015069813
224	0xbb5f2600	-0.003404975
225	0xbadeda00	-0.0017002225
226	0x3bf73b90	0.007544942
227	0xbdaaa1d2	-0.08331646
228	0x3c255bf0	0.01009272
229	0xbd86b3ad	-0.06577239
230	0xbda1e7bc	-0.07905528
231	0xbc3a4cb8	-0.01137083
232	0xbbe69520	-0.00703682
233	0x3c9c80e8	0.019104436
234	0xbd5941b0	-0.05304116
235	0x3c0dfd90	0.008666411
236	0xbdb04f51	-0.086088784
237	0xbda3982f	-0.07988011
238	0xbd35dd05	-0.044400234
239	0xbd316c2d	-0.043316055
240	0x3c9022ac	0.017594658
241	0x3db7698c	0.08955678
242	0x3d0ffb90	0.035152018
243	0x3d73a028	0.05947891
244	0x3d72ce44	0.05927874
245	0xbce57748	-0.02801098
246	0x3d9004b4	0.07032147
247	0x3c592768	0.013254024
248	0x3d8773f0	0.0661391
249	0x3daf7b40	0.0856843
250	0x3d8b7dc6	0.06811099
251	0xbdb9c66e	-0.090710506
252	0xbdaf8fbc	-0.08572337
253	0xbd5de188	-0.05417016
254	0x3ce6a47c	0.028154604
255	0xbc4df370	-0.012570247

layers.1.lin_a.weight f4 [1, 60]
0	0xbe1484aa	-0.14503732
1	0xbe12d7b2	-0.14340094
2	0x3d43526c	0.047686026
3	0xbe0657d7	-0.13119446
4	0x3e1b4435	0.15162738
5	0x3d429778	0.047507733
6	0xbc578634	-0.013154555
7	0x3db19f00	0.08672905
8	0x3c905876	0.017620306
9	0xbc1ca3bb	-0.009560521
10	0xbe086767	-0.13320695
11	0x3d829fff	0.06378173
12	0xbd3c67e9	-0.045997534
13	0x3de8ce35	0.11367456
14	0x3e12097f	0.14261435
15	0xbe10f01d	-0.14154096
16	0x3cfd3f5a	0.030913997
17	0xbcb4764a	-0.02202906
18	0xbdb3c3f5	-0.0877761
19	0xbe29fa78	-0.16599452
20	0xbdd56fd1	-0.10421718
21	0xbddb5122	-0.10708834
22	0x3e47aa8d	0.19498654
23	0x3ddc28f2	0.10749997
24	0x3bf0d2f0	0.0073493645
25	0x3e16e83d	0.1473703
26	0xbd4bde6a	-0.049772657
27	0xbca2dce9	-0.019880729
28	0xbe1d6014	-0.15368682
29	0x3e0b9998	0.1363281
30	0xbdfeabc2	-0.12435104
31	0xbc45387e	-0.012037395
32	0x3dc136f6	0.09434311
33	0xbd55c51c	-0.05218993
34	0xbd5e3772	-0.054252096
35	0xbcd62c46	-0.026144158
36	0x3e62019d	0.22070928
37	0x3dc86145	0.09784178
38	0xbd86e854	-0.06587282
39	0x3de7dc0c	0.113212675
40	0xbe2619d5	-0.16220792
41	0xbe507ea3	-0.20360808
42	0x3cf64287	0.03006102
43	0x3e610637	0.21975027
44	0xbb4dcb2a	-0.0031401613
45	0xbd4246d1	-0.047430817
46	0x3e373379	0.17890729
47	0xbe494e98	-0.19658887
48	0xbe3a5a73	-0.18198566
49	0xbe23f7a2	-0.16012433
50	0xbe0528d6	-0.13003859
51	0xbdf39251	-0.11893142
52	0xbd621670	-0.05519718
53	0xbdc5057b	-0.09620186
54	0x3d07b831	0.033134643
55	0xbab48a1f	-0.0013774073
56	0x3d996e17	0.07491701
57	0xbe2cb3fa	-0.1686553
58	0xbcda58a3	-0.026653593
59	0x3df2b28a	0.1185046

layers.1.lin.weight f4 [30, 30]
0	0xbe91bbdb	-0.28463635
1	0x3e71586e	0.2356889
2	0x3bb69be4	0.005572783
3	0x3e982903	0.2971879
4	0xbc837a1e	-0.016049441
5	0xbd2b3689	-0.041800056
6	0xbbea4ea1	-0.0071504866
7	0xbcc0d419	-0.023538636
8	0xbe6f667f	-0.23378943
9	0xbd02714d	-0.031846333
10	0x3d88ffba	0.06689401
11	0x3e27d866	0.16391143
12	0x3ea4b777	0.32171223
13	0x3e0a5d90	0.13512254
14	0x3e9cc554	0.306193
15	0xbe3ff27d	-0.18744846
16	0xbd519782	-0.05116988
17	0x3e67211a	0.22571221
18	0xbe76baae	-0.2409465
19	0xbe8c4805	-0.27398697
20	0xbdc73d83	-0.09728529
21	0x3db72ddb	0.08944293
22	0x3e023ac5	0.12717731
23	0xbe18df97	-0.14929043
24	0xbe3e4530	-0.1858108
25	0x3cb56058	0.022140667
26	0x3e3579a3	0.17722182
27	0x3dfcdafa	0.12346454
28	0x3d9df4d5	0.07712714
29	0x3ea70f96	0.3262908
30	0xbe1f835e	-0.15577456
31	0xbc30705f	-0.010768979
32	0xba90d53c	-0.0011049877
33	0xbdb8f267	-0.090306096
34	0x3e7d8a9f	0.24759911
35	0x3dfbb472	0.122902766
36	0x3e6244eb	0.22096603
37	0xbe897013	-0.26843318
38	0xbd1a4e0e	-0.037672095
39	0xbca6e263	-0.020371621
40	0x3d62b8b0	0.055351913
41	0xbe335198	-0.17511594
42	0x3dec00ed	0.11523614
43	0x3e101fa1	0.14074565
44	0x3e8cd93c	0.27509487
45	0x3e39005a	0.1806654
46	0x3a8e9954	0.0010879436
47	0x3d1f8457	0.03894457
48	0x3e918e49	0.28428867
49	0xbe39c2ac	-0.18140668
50	0x3c92006a	0.017822463
51	0x3d266bab	0.040630024
52	0x3e0d36d7	0.13790451
53	0xbe2be32b	-0.16785876
54	0x3d1d4076	0.038391553
55	0xbe4875d9	-0.19576205
56	0xbc01c1df	-0.007919758
57	0x3e080cba	0.13286105
58	0xbe6a31b2	-0.2287052
59	0x3d8e3417	0.06943529
60	0x3e87d08b	0.26526293
61	0xbd90db83	-0.070731185
62	0x3e4e1cdf	0.20128201
63	0x3da3b25e	0.07993005
64	0x3d8822b3	0.06647243
65	0x3e78439d	0.24244542
66	0xbea4bb11	-0.3217397
67	0xbce9c90c	-0.02853825
68	0x3e11d502	0.14241412
69	0xbe827ef9	-0.25487497
70	0xbe224cbb	-0.15849583
71	0x3dd6512b	0.104647
72	0x3e640e41	0.22271062
73	0x3e550c5a	0.20805493
74	0x3e01b97a	0.1266841
75	0x3e641059	0.22271861
76	0x3e43a213	0.19104795
77	0x3db8b70f	0.09019291
78	0x3e4c7d29	0.1996962
79	0xbcefec21	-0.0292874
80	0x3e2b1666	0.16707763
81	0xbe7f509a	-0.24933091
82	0x3e919e65	0.28441158
83	0x3ea0988f	0.31366393
84	0x3d4f4511	0.050602976
85	0x3e800b7f	0.2500877
86	0xbdc81d42	-0.097712055
87	0xbe7338e6	-0.23752174
88	0xbd7c0543	-0.061528455
89	0x3cb1f6ec	0.021724187
90	0x3d51a01a	0.051178075
91	0x3dad1159	0.084505744
92	0xbe548038	-0.20752037
93	0x3e6b4526	0.22975597
94	0x3cb3beeb	0.021941623
95	0x3e962be6	0.29330367
96	0xbd34db21	-0.04415429
97	0x3e61ee10	0.2206347
98	0xbe6e4295	-0.23267587
99	0xbe488f7c	-0.19585985
100	0xbe32016d	-0.17383356
101	0x3e35e0f7	0.17761599
102	0x3e40ef3d	0.18841262
103	0xbdcee042	-0.101013675
104	0x3e8187ea	0.25299007
105	0x3e54d7e5	0.20785482
106	0x3e903218	0.28163218
107	0x3e5d6dff	0.21623991
108	0xbdb3d963	-0.087816976
109	0xbd916341	-0.07099009
110	0x3d6220cb	0.055207055
111	0xbea3fcfc	-0.3202895
112	0x3e3d7b0d	0.18503971
113	0xbe7fe9eb	-0.24991576
114	0xbea6d79d	-0.32586375
115	0x3e5d90f8	0.21637332
116	0xbda6dbb5	-0.081473745
117	0xbc88c6de	-0.01669639
118	0x3e0c9cd8	0.13731706
119	0x3eaa9e32	0.33323818
120	0xbe3f2050	-0.1866467
121	0xbdec3c99	-0.115349956
122	0x3e8d9aaf	0.27657077
123	0x3e8fed9f	0.28110978
124	0x3e3b6463	0.18300013
125	0x3e71e769	0.23623432
126	0x3db02ea1	0.08602644
127	0xbc47273f	-0.012155353
128	0x3e2cd139	0.16876687
129	0x3dc88b56	0.09792201
130	0xbe859347	-0.26088926
131	0x3c8fbaf2	0.017545197
132	0xbd57cc51	-0.052685086
133	0xbd9c17a7	-0.07621699
134	0x3e533a1e	0.20627639
135	0x3e33554b	0.17513005
136	0x3e828075	0.2548863
137	0x3e1851c5	0.14874943
138	0x3e88eb04	0.26741803
139	0x3dc81036	0.09768717
140	0x3e62e563	0.22157817
141	0x3e8d26a9	0.27568558
142	0x3d94343c	0.072365254
143	0x3df7e290	0.1210376
144	0x3e7bb057	0.24578987
145	0xbe90d3ce	-0.28286594
146	0xbe85d2ea	-0.26137477
147	0x3df29fbf	0.118468754
148	0xbd4c3adc	-0.04986082
149	0xbe19834c	-0.14991492
150	0x3da18fdc	0.07888767
151	0x3e956af9	0.29183176
152	0xbd85fb50	-0.06542075
153	0x3e6b2174	0.2296198
154	0x3d818661	0.06324459
155	0x3e8d62da	0.2761448
156	0x3e372d8a	0.17888466
157	0x3d8e1046	0.06936698
158	0x3e15ced6	0.14629683
159	0x3e3472be	0.17621896
160	0xbe149e71	-0.14513566
161	0x3d295ce2	0.041348346
162	0xbe9044f7	-0.28177616
163	0x3e8d0326	0.27541465
164	0x3dd1b8d5	0.10240332
165	0x3c6e850d	0.014558089
166	0xbe0106b7	-0.12600218
167	0x3e881570	0.26578856
168	0xbd95f6b9	-0.07322449
169	0xbe6a26f1	-0.22866417
170	0xbe580842	-0.210969
171	0x3e4cd49d	0.2000298
172	0x3de2fa38	0.11082882
173	0xbe32c3d0	-0.17457509
174	0xbe45d7dc	-0.19320625
175	0xbe21a6dd	-0.1578631
176	0x3e2846d2	0.16433266
177	0xbd100bfd	-0.035167683
178	0xbe8606e4	-0.26177132
179	0x3daaeb00	0.08345604
180	0x3e8971fc	0.26844776
181	0xbe28cc20	-0.16484118
182	0x3e8dd91a	0.27704698
183	0x3e098d5c	0.1343283
184	0x3e42db74	0.19029027
185	0xbcf12404	-0.029436119
186	0x3e86c0f1	0.26319078
187	0xbe1dce07	-0.15410624
188	0xbd9460d7	-0.07245033
189	0x3e9b82f2	0.3037334
190	0xbe4bc62c	-0.19899815
191	0x3cac5504	0.021036632
192	0xbdd77561	-0.10520435
193	0x3e824110	0.25440264
194	0xbe093d1f	-0.13402222
195	0x3e5d6709	0.21621336
196	0x3e3b0bc0	0.18266201
197	0xbe1f2a9a	-0.15543595
198	0x3c7aecde	0.015315263
199	0xbe3674b0	-0.1781795
200	0x3e0c312c	0.13690633
201	0xbd831c1e	-0.06401847
202	0x3db831d0	0.08993876
203	0xbcd6803b	-0.026184192
204	0x3b71859f	0.0036853326
205	0x3e3f6fc3	0.18694977
206	0xbdf9cd09	-0.121973105
207	0x3a3d43d7	0.0007219887
208	0x3e784dac	0.2424838
209	0xbde214b0	-0.11039102
210	0x3e153c4d	0.14573784
211	0xbca73772	-0.02041218
212	0x3d3818cb	0.04494552
213	0x3e74df78	0.23913372
214	0xbe7f09ac	-0.24906033
215	0x3e8340a3	0.2563525
216	0x3d9ace4f	0.075588815
217	0xbdcb3044	-0.09921315
218	0x3e700ed2	0.23443154
219	0x3e903dbf	0.2817211
220	0xbd5fb767	-0.054618265
221	0x3dd1ae42	0.10238315
222	0xbe60f5f4	-0.21968824
223	0x3dabc896	0.08387868
224	0x3e6ca63e	0.23110291
225	0x3e8130ec	0.25232637
226	0x3d8e9a1f	0.0696299
227	0x3e83f47a	0.25772458
228	0xbc3fb003	-0.011699679
229	0xbe83bee7	-0.25731584
230	0xbd89212f	-0.066957824
231	0xbce288bb	-0.027653089
232	0x3e1061d5	0.1409982
233	0xbd9dd7a0	-0.07707143
234	0xbcda8c08	-0.0266781
235	0xbd5ed3ea	-0.054401316
236	0x3d9e15ed	0.07719026
237	0xbd0fd1da	-0.03511224
238	0xbd093f82	-0.03350783
239	0xbe087b84	-0.13328367
240	0x3e36052f	0.17775415
241	0x3e6f250b	0.23353975
242	0xbe117c87	-0.1420766
243	0x3dca4058	0.09875554
244	0xbe10ffd7	-0.14160095
245	0x3d4e30f7	0.050339665
246	0x3e76e424	0.24110466
247	0xbd2be98d	-0.04197078
248	0x3e5043ec	0.2033841
249	0x3dd1b4f1	0.1023959
250	0x3e37d5d0	0.17952657
251	0x3e22fa8c	0.15915889
252	0xbe67990e	-0.2261698
253	0x3e98a669	0.2981446
254	0xbdaa103f	-0.0830388
255	0x3d9c6352	0.07636131

linear.weight f4 [7, 30]
0	0x3e9f4f4a	0.3111518
1	0xbcc108a3	-0.023563689
2	0xbde73fbe	-0.11291455
3	0x3e98c306	0.2983629
4	0xbe62a161	-0.22131874
5	0x3e9a1e02	0.3010102
6	0xbe245def	-0.16051458
7	0x3e1d5e0a	0.15367904
8	0x3d7e3d49	0.062070165
9	0x3dc12648	0.0943113
10	0xbcce19bf	-0.025158761
11	0x3db53622	0.08848216
12	0x3d5753f3	0.052570295
13	0xbe46c7c9	-0.1941215
14	0xbe2fc7be	-0.1716604
15	0xbdb00b8e	-0.08595954
16	0xbe72f893	-0.23727636
17	0xbe967d93	-0.2939268
18	0x3ea4fc5c	0.32223785
19	0xbe912c86	-0.2835428
20	0xbe68f6e2	-0.22750428
21	0x3e69d047	0.22833358
22	0xbd1c041b	-0.038089853
23	0x3d695aa5	0.05697121
24	0xbe8a1c0b	-0.2697452
25	0x3d143c47	0.036190297
26	0xbca92afc	-0.02065038
27	0x3e599ee6	0.21252021
28	0x3e5f2bc6	0.21794042
29	0x3e492df3	0.19646434
30	0x3c31b54b	0.010846446
31	0xbe93b6b7	-0.28850338
32	0x3e69056d	0.22755976
33	0x3e8e053e	0.27738374
34	0x3e2ae6d4	0.16689616
35	0xbd61fc92	-0.05517251
36	0xbdda48cd	-0.10658417
37	0xbb2502f1	-0.0025178755
38	0xbe458f0e	-0.19292852
39	0xbeb5edfe	-0.35533136
40	0xbe43e5e3	-0.19130664
41	0xbe9d058c	-0.30668294
42	0x3e2f7ea5	0.17138155
43	0x3e6cb378	0.23115337
44	0xbe102d5a	-0.140798
45	0x3d507626	0.050893925
46	0x3dc19551	0.09452308
47	0xbe8e7575	-0.27823988
48	0xbe902247	-0.28151152
49	0xbea9b7f9	-0.33148172
50	0xbe08f7fa	-0.13375846
51	0xbe602a21	-0.21891071
52	0x3e806290	0.25075197
53	0x3e845f41	0.25853923
54	0xbd92c0e1	-0.07165695
55	0x3e1ae491	0.15126254
56	0xbe862d91	-0.2620664
57	0x3d06e3f5	0.03293224
58	0xbd97ef46	-0.07418685
59	0x3d9e160f	0.07719051
60	0xbea7ed5f	-0.32798287
61	0xbe8ce479	-0.2751806
62	0x3e7c8628	0.24660552
63	0xbd698eaa	-0.05702082
64	0xbe8772b6	-0.26454705
65	0xbdc7ed8a	-0.09762104
66	0x3da2cae9	0.07948858
67	0xbc55bba4	-0.013045225
68	0x3e7ce867	0.2469803
69	0x3e17a516	0.14809069
70	0xbdf3f6b7	-0.119122915
71	0x3e979e7c	0.296131
72	0xbe223c5f	-0.15843342
73	0x3e79cc0f	0.24394248
74	0xbe94aa2f	-0.2903609
75	0x3e0bcdab	0.13652675
76	0x3ea63b13	0.32466945
77	0xbe9fa019	-0.31176832
78	0x3db093d6	0.086219475
79	0xbea9b353	-0.33144626
80	0xbe38592f	-0.18002771
81	0x3c22cef2	0.009937035
82	0xbdfb30fb	-0.12265202
83	0xbe919b16	-0.28438634
84	0x3e844d7e	0.25840372
85	0x3e2d2c54	0.16911441
86	0xbda709cd	-0.08156166
87	0xbe0524c4	-0.13002306
88	0xbe5b938c	-0.21443003
89	0x3e4f208c	0.2022726
90	0xbe46d3c1	-0.19416715
91	0x3e7fb85b	0.2497267
92	0x3dd4933c	0.10379645
93	0xbdc16d5b	-0.09444686
94	0x3e2a59aa	0.16635767
95	0x3e52cdac	0.2058627
96	0x3e7c2131	0.24622037
97	0x3e6c0549	0.23048891
98	0x3d18c255	0.037294704
99	0x3e7be0c1	0.24597456
100	0x3e2018e5	0.15634497
101	0xbe6d6839	-0.23184289
102	0x3e9b1ac9	0.30293873
103	0x3e5336eb	0.20626418
104	0x3bc96d08	0.0061470307
105	0xbe33ca59	-0.17557658
106	0x3e704630	0.23464274
107	0x3c855db1	0.016280027
108	0xbdd68e43	-0.10476353
109	0xbe5c5a3f	-0.21518801
110	0xbe0965cf	-0.13417743
111	0xbe9a9038	-0.30188155
112	0x3d3a0255	0.04541238
113	0xbe47b0e5	-0.19501074
114	0x3cabee57	0.020987673
115	0xbe85d6d1	-0.26140454
116	0x3e4962ae	0.1966655
117	0xbe8ec098	-0.27881312
118	0xbe5a0126	-0.212895
119	0x3e0715c1	0.13191892
120	0x3e2eb880	0.17062569
121	0x3e1ed0d8	0.15509355
122	0xbe711ae3	-0.23545413
123	0xbd6cc685	-0.05780651
124	0xbe9a3ffb	-0.30126938
125	0x3e65f324	0.22456032
126	0xbe0e5cd7	-0.13902603
127	0x3e499ba5	0.1968828
128	0x3e2404c3	0.16017441
129	0xbe942be2	-0.2893973
130	0x3e49c488	0.19703877
131	0xbe54e1e4	-0.20789295
132	0x3e9c2dab	0.30503592
133	0xbe45a305	-0.19300468
134	0x3e522a42	0.20523933
135	0xbe2ff1f1	-0.17182137
136	0x3e94956f	0.2902026
137	0xbe19e5aa	-0.15029016
138	0xbe571982	-0.21005824
139	0xbc96dcbf	-0.018415807
140	0x3e8f76d6	0.28020352
141	0xbe20dd9b	-0.15709536
142	0xbe91ab23	-0.2845088
143	0x3e0dd825	0.13851984
144	0xbe867763	-0.2626296
145	0xbe78b02a	-0.24285951
146	0x3cd12d65	0.025534341
147	0x3e864b7a	0.2622946
148	0x3e972d98	0.29526973
149	0xbe379993	-0.17929678
150	0x3d2e4b37	0.0425522
151	0x3e4235e7	0.18965875
152	0xbc112c90	-0.008860722
153	0xbe95ac4e	-0.2923302
154	0x3defc2b6	0.1170706
155	0xbe2bf7a5	-0.16793688
156	0xbea9594e	-0.33075947
157	0xbe7556f9	-0.23958959
158	0xbdd091ee	-0.10184084
159	0xbeb00c06	-0.34384173
160	0x3e43a40b	0.19105546
161	0x3d17224c	0.036897942
162	0xbda8b479	-0.082375474
163	0xbe8986e4	-0.26860726
164	0xbe8e815a	-0.27833062
165	0x3d411129	0.047135506
166	0x3df4e4c9	0.119577
167	0x3e8826a8	0.26591992
168	0xbe5649d2	-0.20926598
169	0x3e31360b	0.17305772
170	0xbe3e9382	-0.18610957
171	0x3d9b40bd	0.07580707
172	0x3e65cefe	0.22442243
173	0x3cd41e92	0.025893483
174	0xbdcfc5d2	-0.10145153
175	0xbe656cb5	-0.2240475
176	0x3e2bd1b6	0.16779217
177	0x3ea33fc2	0.3188458
178	0xbe70a6db	-0.2350115
179	0xbe885e9b	-0.26634678
180	0x3e36d386	0.17854127
181	0xbe190fee	-0.14947483
182	0xbe0c817c	-0.1372127
183	0x3e30072c	0.17190236
184	0xbe83cabe	-0.25740618
185	0xbe6cbdb4	-0.23119241
186	0x3e8f1f79	0.279537
187	0xbe65662c	-0.22402257
188	0xbc9e97d2	-0.019359503
189	0xbe2ce3bc	-0.16883749
190	0xbe988a43	-0.29792985
191	0x3e08bd6f	0.13353513
192	0xbe83105e	-0.25598425
193	0xbd361845	-0.04445674
194	0xbe65deab	-0.22448222
195	0xbde12763	-0.109938405
196	0xbe14ddcd	-0.14537735
197	0xbe1a8dcc	-0.15093154
198	0xbd19b17f	-0.03752279
199	0x3e90cc41	0.28280833
200	0xbe328df2	-0.1743696
201	0x3e96b41d	0.2943429
202	0x3dbb3670	0.091412425
203	0xbe9b41c9	-0.30323628
204	0x3ea4c1cf	0.32179114
205	0xbea1b11f	-0.31580445
206	0xbc7b4b25	-0.01533774
207	0xbe2507a1	-0.16116191
208	0xbe932f87	-0.28747198
209	0xbe319c5e	-0.17344806

linear.bias f4 [7]
0	0x3d072243	0.03299166
1	0x3d30efd9	0.043197487
2	0xbe0f8b45	-0.14017971
3	0xbe0d77cb	-0.13815229
4	0x3cbad425	0.022806237
5	0x3d16c6f1	0.03681082
6	0xbd068abd	-0.032847155
