experiments/output-gat/BA_Community/multi/42/model.pth (torch, 119523 bytes, 26 tensors)

layers.0.bias f4 [30]
000000 49 e5 7b 3d e0 ea 3e 3d e5 2d 88 3d 26 f7 82 3d
       0.06149796 0.046610713 0.06649379 0.06394796
000010 40 c9 3e 3d 22 ee 77 3d 99 98 c2 3d 53 9e 7a 3d
       0.046578646 0.060529836 0.09501762 0.061186146
000020 83 d1 40 3d b9 9a 57 3d c5 63 79 3d 0b 21 30 3d
       0.047074806 0.05263779 0.060886163 0.043000262
000030 eb 9c 06 bd 2d c8 96 3d 4c d4 7b 3d ac 15 85 3d
       -0.032864492 0.07362399 0.06148176 0.06498274
000040 d5 36 19 3d 76 e5 84 3d 51 ca 38 3d 15 3d bc bc
       0.037405808 0.06489079 0.04511482 -0.022978345
000050 3f 4f 4c 3d 21 74 4e 3d ab e4 2c 3d 26 31 4d 3d
       0.049880262 0.050403718 0.042210262 0.0500957
000060 26 22 5f 3d db 05 32 bd f6 2b 83 3d 16 84 b7 3c
       0.054475926 -0.043462615 0.06404869 0.02240185
000070 77 7a 8c 3d e7 df 72 3d
       0.06859296 0.05929556

layers.0.combine_aggr.weight f4 [30, 120]
000000 9e 55 e5 bd ee ca 59 3d 0f 5d ca 3d 48 48 31 3e
       -0.11197971 0.053172044 0.09881031 0.1731273
000010 5c 7c d8 bd 8d b9 39 bc 67 89 88 bd af f4 08 3e
       -0.10570595 -0.011335743 -0.066668324 0.1337459
000020 67 08 96 3d bc 34 5d be 9c 0b 67 3e 95 2d de 3d
       0.07325821 -0.21602148 0.22563022 0.10848538
000030 50 ee 03 3e 44 0d 92 3c c9 9c 45 3d 7b 01 30 bd
       0.12883878 0.017828591 0.048245225 -0.042970162
000040 c7 62 8b 3c d7 e1 d4 bd 4c ac 4d bd 54 a0 07 be
       0.017014874 -0.10394638 -0.050213143 -0.13244754
000050 7f 23 30 bc 85 7a 2a be 27 b2 04 3d 8c 41 0a 3e
       -0.01075065 -0.166483 0.03239646 0.13501567
000060 93 91 64 bd 6d 65 b2 bd 88 ba 0e bd 3b 4e c9 bd
       -0.055802893 -0.08710752 -0.03484586 -0.098293744
000070 5c 33 12 bc 65 9f 32 bd 79 87 93 bd 44 e4 77 bd
       -0.008923378 -0.04360904 -0.07203574 -0.060520425
000080 24 5b 39 3e 56 5d fb 3d b8 f8 fa bd d6 07 ea bc
       0.18101174 0.12273662 -0.122544706 -0.02856819
000090 76 5f 51 3d d4 ed 29 3e e7 b0 7d 3d 55 dd 2d be
       0.05111643 0.1659463 0.061936285 -0.16978963
0000a0 d9 4e 37 3e 85 04 44 3d 04 55 dc 3c b1 f3 18 3e
       0.17901172 0.047855873 0.026896007 0.14936711
0000b0 52 d9 85 3b f2 2c ee bc 5b c4 af bc b6 11 e1 bd
       0.0040847445 -0.029074166 -0.021455934 -0.10989706
0000c0 c6 81 05 3b 81 95 48 be 61 94 fa bd 5c 51 35 be
       0.002037154 -0.19588281 -0.12235332 -0.17706817
0000d0 63 c8 9e 3c 9a 31 27 3e 3c 90 ba 3d d1 ab d3 bc
       0.019382661 0.16327515 0.09109542 -0.025838764
0000e0 b9 93 ce bc ce 2e bc bd c1 3e 5b 3b 91 1c 1b 3d
       -0.025216924 -0.09188615 0.0033454152 0.03786904
0000f0 93 1c c4 bd 29 7f e4 bd ed e6 dc 3b 2a 0d e5 bc
       -0.095757626 -0.111570664 0.0067413957 -0.027960379
000100 16 13 9b bc 9f 1e 20 bd c4 7d 6b 3d db f3 84 bd
       -0.01893 -0.039091703 0.057492986 -0.06491824
000110 13 7d 8a bd 53 b9 dc bd f5 f8 c7 3d 0d 1e cb ba
       -0.06762137 -0.10777535 0.09764282 -0.0015496627
000120 14 cf 94 3d 27 ba 06 be a5 d9 f1 bd 6e fc 83 bd
       0.072660595 -0.13156949 -0.118090905 -0.064446315
000130 2d 13 af bd 05 91 37 bc aa 4b 20 3a 62 1b 43 3c
       -0.08548579 -0.011204009 0.00061147904 0.011908384
000140 1b 48 ad bd 24 0b 21 be 5c cc 44 3d 0a f8 12 bd
       -0.08461019 -0.15726906 0.048046455 -0.03588108
000150 0f 08 e8 bb d2 12 a6 bd e5 a2 a5 3c 48 c0 ee bd
       -0.007081039 -0.081090584 0.020219276 -0.116577685
000160 c3 e3 77 bd 7f 2b 79 bc 5e 6b 34 3c fe fa 1d 3d
       -0.060519945 -0.015208124 0.011011926 0.038569443
000170 20 2d ac 3d 4f 41 04 3e 14 e0 c0 bc f6 59 cc bd
       0.084070444 0.12915538 -0.023544349 -0.09978096
000180 8d b3 b2 3d 2c 4e 01 3d 45 bd cb bc 22 f5 82 bd
       0.08725653 0.03156869 -0.024870524 -0.063944116
000190 0f b4 16 3d 11 30 04 3e 2a e2 3b 3c ea f6 28 bd
       0.03679281 0.12908961 0.011467496 -0.0412511
0001a0 9a d7 3d 3d 8f a8 7a bd da 77 91 bd 08 18 80 bd
       0.04634819 -0.061195906 -0.07102938 -0.062545836
0001b0 53 15 0d bd 81 6d 21 bd 50 41 1b 3e 03 a9 c6 3c
       -0.034444164 -0.03941107 0.15161633 0.024250513
0001c0 ee 4f 86 3d cd 1b 7e bd 18 a7 13 bd 92 be da 3c
       0.06558214 -0.06203823 -0.036048025 0.0267022
0001d0 25 c3 36 3d 81 7d 18 bd 06 45 2a bd 29 f8 64 bc
       0.044619698 -0.037229065 -0.041569732 -0.013975182
0001e0 5f be e0 bd d6 25 8d 3b ed 59 13 3e 1a 77 d3 3c
       -0.109738104 0.004307489 0.14389773 0.025813628
0001f0 b8 a4 f8 bd 1b 22 cd bd 3c 0c 31 bd 73 d2 45 3d
       -0.121407926 -0.10016271 -0.04322456 0.048296403
000200 51 f3 6f 3d f4 e3 2c be ec fe 28 3e a2 bf 9b 3d
       0.058581654 -0.16883832 0.16503495 0.076049104
000210 9a 2b 5d bd 58 9a 89 3d 56 93 64 bd 8e bb 70 bd
       -0.05399666 0.06718892 -0.055804573 -0.058772616
000220 0d ea 2a be de 69 45 be 31 10 31 3d 9e 57 36 be
       -0.16690846 -0.19278666 0.043228332 -0.17806861
000230 13 41 86 3d 59 c6 2e be fd 9b 30 3e 0b f7 d9 3c
       0.06555381 -0.17067851 0.17247005 0.026607057
000240 d6 ea 90 3c a2 bc ca bd ef 8f 6c 3d 90 f4 39 3d
       0.017690104 -0.0989926 0.057754453 0.04539925
000250 e2 c1 4f 3d 2a 47 9d bd e0 83 97 bd 26 49 17 3c
       0.05072201 -0.07679589 -0.073982 0.009233749
000260 6d 5e e4 3d 26 1e 56 3c 93 24 a7 3c 21 1b 22 be
       0.11150823 0.013068711 0.020403182 -0.15830661
000270 d9 62 b9 3d 26 36 0c 3e 3a 76 77 3d 20 16 3b be
       0.09052057 0.13692531 0.060415484 -0.18270159
000280 97 d7 2b 3e e1 66 2e 3d 68 cf 8d bc 66 48 b3 bc
       0.1678146 0.04257858 -0.017310813 -0.021885108
000290 ad 9b 17 bd 5f f3 2b bc c2 ff 03 be b7 0b fe bb
       -0.0370137 -0.010495036 -0.12890533 -0.0077528614
0002a0 41 53 45 bc c7 17 3c be 5b 21 a2 bd 12 82 b7 bd
       -0.012043775 -0.18368445 -0.07916518 -0.08960356
0002b0 fd a0 15 3e b5 58 82 3d 13 ce d6 3c 9b 17 ff bd
       0.14612193 0.06364576 0.02622131 -0.12455674
0002c0 da a7 dc bd 10 c3 30 bd a1 ea 99 bb bf 29 1e bd
       -0.10774203 -0.043154776 -0.0046971594 -0.03861403
0002d0 d3 13 0a bd de 0c 16 3d c8 52 dc 3c 0b 68 37 bc
       -0.033710312 0.036633365 0.026894942 -0.011194239
0002e0 16 4b f5 3c 0d bb fb 3c 79 8f 32 3d a4 4a 2d bb
       0.02994303 0.030728841 0.043593857 -0.0026442194
0002f0 2b c2 05 bc 47 61 e9 bc ed 96 08 3c af 2d 1e bd
       -0.008163969 -0.028488768 0.008336765 -0.038617786
000300 09 28 47 3d fe 80 84 3d c4 7c 17 bd f2 98 f4 ba
       0.048622165 0.06469916 -0.03698422 -0.0018661304
000310 f5 73 a7 bc be 9d 21 bd b0 ad b8 ba 7e 33 3c bc
       -0.020441035 -0.039457075 -0.0014089849 -0.011486886
000320 c2 19 da bd 81 0b ae bd c6 80 d5 3d 4b 8f 80 3d
       -0.10649444 -0.08498288 0.10424952 0.06277331
000330 9d 8a 68 bc fc 34 ed bd 9c 9d a3 bd 2f df e3 bd
       -0.014193204 -0.115823716 -0.07989046 -0.11126553
000340 f0 44 34 bd dd 9a dd 3c f1 20 2f 3d cc 81 97 3d
       -0.044011056 0.027051384 0.042756025 0.07397804
000350 1b c5 88 bd 58 41 e7 bc 3a 4e f7 bb 23 68 94 3c
       -0.0667822 -0.0282294 -0.007547167 0.018116063
000360 d7 48 81 3c 07 ca cf 3c dc a3 fb 3c e4 a4 08 bd
       0.015781803 0.025364889 0.030717783 -0.033360377
000370 b1 e8 ea bc ef c0 f1 3d c3 96 47 bd 91 42 f0 ba
       -0.028675409 0.11804377 -0.048727762 -0.0018330385
000380 04 11 99 bd d7 b3 49 3d d8 97 84 3d 7d b1 81 3c
       -0.074739486 0.049243774 0.064742744 0.015831703
000390 52 d7 b9 bc 49 60 d1 bd be a8 28 bd 0d c6 82 3d
       -0.02268568 -0.10223443 -0.04117655 0.063854314
0003a0 4e 39 8e 3d 69 38 ad 3d 21 ce 92 3d fa 9c 11 3d
       0.06944524 0.08458025 0.07168222 0.035550095
0003b0 ff 5d 5c 3c fd 40 75 bd 1e d1 e5 bd c5 1d 9e bd
       0.013450145 -0.05987643 -0.112215266 -0.07720522
0003c0 10 7c f5 3c 6f 19 92 3b 7f f9 12 3d 92 44 13 bd
       0.029966384 0.0044585983 0.03588247 -0.035954066
0003d0 5a 15 f4 bb c4 95 29 bd 00 b7 85 bc 7e 62 a4 3d
       -0.0074488344 -0.041402593 -0.016322613 0.080265984
0003e0 d5 7c ef bd 39 ec 66 3d 3d 24 c4 bc c6 f5 9a bd
       -0.11693732 0.056377623 -0.023943061 -0.07566409
0003f0 69 4b e5 bc 7f 58 d8 bd e5 4c 8b bd 8e 55 c7 bd
       -0.02799006 -0.10563754 -0.06801776 -0.09733115

layers.0.lin_a.weight f4 [1, 60]
000000 b8 7e fd 3d 0b 2f c9 bd 42 51 bb 3d ce 0e b2 bd
       0.12377685 -0.09823426 0.09146358 -0.0869423
000010 25 76 90 bd 3e 0f 82 bd d1 00 c6 3d e9 34 a1 3d
       -0.07053784 -0.063505635 0.096681245 0.0787142
000020 16 9b 98 3d 4b 62 31 bd 9a f0 b4 bd 46 ce 86 bd
       0.07451455 -0.04330663 -0.088349536 -0.06582312
000030 cd c4 aa bd 44 9f 9d 3d 16 5b 07 bc eb f7 0a 3e
       -0.08338318 0.07696393 -0.008261463 0.13571136
000040 04 3c 1c bb e2 49 96 3d 52 1e 28 bd ff b2 bf 3c
       -0.0023839483 0.07338311 -0.04104454 0.023400782
000050 57 36 3c be 03 a1 80 3d a1 3f 95 3c 88 2b 79 3d
       -0.18380104 0.062807105 0.018218817 0.06083253
000060 a3 af ef 3d ea bb 21 bd b4 8d 1c bd ec 84 12 be
       0.11703422 -0.03948585 -0.038221076 -0.14308518
000070 fe 23 f7 bd 92 62 fd 3d 8b bb fd bc d8 71 93 bd
       -0.12067412 0.123723164 -0.030973217 -0.07199448
000080 94 4a 76 3d dc e3 de 3c e4 e4 45 bd f1 26 5c be
       0.060129717 0.027208261 -0.04831399 -0.2149923
000090 18 a7 f3 bd 10 37 69 3e a3 fe db 3d ca f8 e4 bd
       -0.11897105 0.22774911 0.107419275 -0.11180265
0000a0 bd b1 2d 3e 03 11 b3 3c 6b 72 04 be da ae db 3d
       0.16962333 0.021858698 -0.12934272 0.1072671
0000b0 a4 53 e2 bd 79 e0 f1 3d a1 05 34 be 5b 8b a5 3d
       -0.110511094 0.11810393 -0.17580272 0.080832206
0000c0 e5 62 60 3e ae db e4 bc a3 8d ab 3d 8b 40 28 be
       0.21912725 -0.027936783 0.083766244 -0.16430871
0000d0 20 13 88 3d 15 05 09 3d 75 5c 30 3d fa 00 da bb
       0.06644273 0.033452112 0.043056924 -0.0066529484
0000e0 61 16 f1 3c 1c 5a b8 bd e9 cf 09 3e 71 d3 f0 3d
       0.029429616 -0.09001562 0.13458218 0.11759079

layers.0.lin.weight f4 [30, 10]
000000 3f 9c aa be 84 eb 4d be 03 3e 3c 3b d2 cc fb 3c
       -0.3332233 -0.20109373 0.0028723485 0.030737314
000010 6a 75 8a 3e 45 58 d1 3c bb ae 8e 3e 07 4b 5a be
       0.27042705 0.025554786 0.27867684 -0.21317683
000020 02 d4 c1 bb d2 f0 8c 3e 56 f0 3b 3e b8 85 49 3d
       -0.005915166 0.2752748 0.183534 0.04919979
000030 4b be f3 bd 0b 68 b4 be 4b fc 3d 3e 08 ff ad 3e
       -0.1190153 -0.35235628 0.18553273 0.33983636
000040 ea 88 3c bc 4e 8c 9a 3e 80 a0 1a 3e 04 98 40 3e
       -0.011507252 0.3018517 0.15100288 0.1880799
000050 25 8c 3f 3e f7 50 53 3e 46 84 02 3e 8c ef 6b be
       0.18705805 0.20636354 0.12745771 -0.23040599
000060 e6 24 2a bc 80 7e 5d 3d c7 7e 72 be 06 88 fd bd
       -0.010384774 0.054075718 -0.23681174 -0.1237946
000070 20 0d 2d be d6 53 71 be 36 0c a4 3e 42 c8 e7 3e
       -0.16899538 -0.23567137 0.32040566 0.45269972
000080 1b 3a 12 be 67 83 16 3d 3d fb f2 bd 6a 6c f9 3d
       -0.14279978 0.03674641 -0.11864326 0.121788815
000090 ad b3 3f be 35 bc f3 bd da 27 be bd 64 b5 26 3e
       -0.18720885 -0.11901132 -0.09284945 0.16280133
0000a0 2f 17 b3 bc 14 08 85 be 3d 91 34 3d c1 08 a8 be
       -0.02186164 -0.25982726 0.044083823 -0.3281918
0000b0 e7 61 fd 3d dc 7b 87 3e ed 2c 19 3d 34 49 aa 3d
       0.12372189 0.26461685 0.03739636 0.08314744
0000c0 aa 7f 8c be 37 c3 6f bd 2e 0f da 3d 0f 43 a5 be
       -0.2744115 -0.05853578 0.106474265 -0.32277724
0000d0 40 dd ff bd d0 35 8c 3e 70 7a 13 3e 67 a0 3b 3e
       -0.12493372 0.27384806 0.14402175 0.18322907
0000e0 81 9b a3 be 1e 77 5c 3e ad dc bb bd 26 ba 9e 3d
       -0.31954578 0.21529815 -0.0917295 0.07750349
0000f0 e0 05 aa 3e 9b 7c 71 be 7d 43 96 3d 06 6e 95 be
       0.33207607 -0.2358269 0.07337091 -0.29185504
000100 88 16 0b 3e b8 75 a1 3d 56 e3 3d 3d 32 ee 15 be
       0.13582814 0.07883781 0.046359383 -0.14641646
000110 69 ea b7 3d 47 27 c8 bd c7 22 f8 3d 71 7a b3 3e
       0.08980257 -0.097731166 0.12116008 0.35054353
000120 63 33 80 be a1 c6 13 be cc 79 87 3c e8 5f cf 3b
       -0.25039205 -0.1443124 0.01653757 0.0063285716
000130 e8 cf 0b 3d 24 07 a9 3e 0b 49 ba bd f4 d8 9e 3d
       0.03413382 0.3301326 -0.09095963 0.07756224
000140 43 9b 83 3e 47 1a 37 3d b3 e5 1a 3e 11 9a 2e 3e
       0.25704393 0.044702794 0.15126686 0.17050959
000150 fc 40 09 3d 6b 4b 06 be 31 68 89 3e 5c ff 52 be
       0.03350924 -0.13114707 0.26837304 -0.20605224
000160 3c 78 e4 3d 24 4f d0 3c bd d5 03 3e e4 e1 bf be
       0.111557454 0.025428362 0.12874503 -0.37477028
000170 7a 66 df 3d e0 23 f1 bd 1c 37 66 3e 99 f8 10 3e
       0.10908218 -0.11774421 0.2248196 0.14157332
000180 a1 e6 79 be 24 24 d7 3c 2d 8d 19 3e 95 73 61 3e
       -0.24404384 0.02626235 0.1499526 0.22016747
000190 60 30 c2 3e 7f a2 c0 3e c4 23 27 3d 93 2d da 3d
       0.37927532 0.37623975 0.040805593 0.10653224
0001a0 af d3 b5 be 9f 6d 93 3e 41 e8 31 be d7 3d 81 3e
       -0.35513064 0.28794572 -0.17373754 0.25242493
0001b0 8f 6b fb 3d 07 fd 2e be 0f 8f 9c 3e c9 74 61 bc
       0.122763745 -0.1708871 0.30577895 -0.013760754
0001c0 00 cf 8a 3d 7d e1 d8 3b 98 30 32 be d6 bd 0f 3e
       0.06777763 0.006618677 -0.1740135 0.1403726
0001d0 12 4d c3 be 01 88 26 be b0 4d 5f 3e 3b af e2 bc
       -0.38144737 -0.16262819 0.21806979 -0.027671447
0001e0 3c 5d b2 be 0b 5f 28 3d 28 51 51 3c 76 b9 b0 3e
       -0.34836757 0.041106265 0.012775697 0.34516495
0001f0 0c 5d 3b be 94 f8 d7 bc 9b a0 30 be 64 bb 7b be
       -0.18297213 -0.026363648 -0.17248766 -0.24583203
000200 c4 b1 85 bd 08 1c a9 be 2b 24 a8 3e 7a 96 c2 bc
       -0.06528047 -0.330292 0.32840094 -0.023753393
000210 5d 2b 04 3e cd 24 64 be a1 0d 03 be 35 61 87 be
       0.12907167 -0.22279663 -0.12798168 -0.2644135
000220 ad ce 7f 3e df ac 81 3e b8 dc 88 3e ec e8 be bd
       0.24981184 0.25327203 0.26730895 -0.0932177
000230 a2 83 03 3e aa cb b6 be 64 9c 29 3e 20 04 de 3c
       0.12843183 -0.35702258 0.16563565 0.027101576
000240 ca e4 60 be 08 05 86 be 6f 77 96 be 6f 61 31 3d
       -0.21962276 -0.26175714 -0.29387996 0.04330581
000250 00 f9 05 be 96 df 1a be 8c 4c c3 3e 20 c9 e6 bb
       -0.13083267 -0.15124354 0.38144338 -0.007043019
000260 b2 b5 15 3e 86 92 7f bd ba 99 78 3d fa 8b 5f 3d
       0.14620093 -0.062395595 0.06069348 0.05457685
000270 75 10 5e 3e f2 aa f0 3d 6d 76 df bd 77 2f d3 3e
       0.21685965 0.11751355 -0.1091126 0.4124715
000280 42 12 c4 bd ed 91 9c be 34 d4 e5 3d c7 f7 6c 3d
       -0.09573795 -0.30580083 0.11222115 0.057853486
000290 fe fd 07 be 65 91 24 3d a8 dc 87 3c 58 6a db bd
       -0.13280484 0.04017772 0.01658471 -0.10713643
0002a0 8d b2 29 be 09 30 71 bd b3 54 54 be bb e3 04 be
       -0.16572018 -0.0588837 -0.20735435 -0.12977497
0002b0 fb 86 ba 3e bf cb ae bd f4 50 b5 bd 09 e2 89 be
       0.36431107 -0.08534955 -0.08853331 -0.26930264
0002c0 06 07 82 3d c6 e1 9c 3d 77 47 79 be 9a 50 a9 3e
       0.06348996 0.0766025 -0.24343668 0.33069307
0002d0 18 ee b1 be 5f 4f 7b 3e 45 25 09 3e c0 0e 10 bc
       -0.34751964 0.24541996 0.13393123 -0.008792579
0002e0 b2 d2 c9 bd 6a c5 53 3e db 76 8a 3e 34 4f 75 be
       -0.0985464 0.20680776 0.27043805 -0.23955995
0002f0 32 55 a0 bd 60 6a 85 3e 96 b9 1b be ac 7b bf be
       -0.0782875 0.2605772 -0.15207514 -0.37399042
000300 7a 6e a2 bd fd 05 84 3d a7 2c 6e 3d fc 6b 92 be
       -0.07931228 0.06446455 0.058148053 -0.2859801
000310 cb 9e ea bd 37 59 b1 3d 03 32 73 3e 62 d2 ce 3e
       -0.114560686 0.086595945 0.23749547 0.40394884
000320 dc 50 95 bd 0b 3b 14 3e f0 d1 4a be ff 72 05 3e
       -0.07290813 0.14475648 -0.19806647 0.13032149
000330 95 6a d4 3e a0 5e 59 3e b8 2e 03 be ee ed 9a 3e
       0.41487566 0.21227503 -0.1281079 0.3025965
000340 73 93 9c be d9 72 36 be 9d ba 39 be ee de 00 bf
       -0.30581245 -0.17817248 -0.18137594 -0.50340164
000350 1b 82 6d be 7a a3 e7 bd c3 78 f9 3d 4d fe b6 bd
       -0.23194163 -0.113104776 0.121812366 -0.08935223
000360 b1 34 74 3e 51 5f eb bd e7 db 8b 3e 8d c3 62 3e
       0.23848225 -0.114927895 0.2731621 0.22144909
000370 c3 58 b6 3e e0 4a c7 3e 82 cf ad be 7e 71 9b be
       0.35614595 0.38924313 -0.33947378 -0.30360025
000380 1b 87 1c 3e b0 56 83 3e f9 cf aa be c6 66 df 3c
       0.15285914 0.25652075 -0.33361796 0.027270686
000390 7f a7 f2 bd 76 2d 6c 3e f4 30 b5 3e fd 9e ad 3e
       -0.118483536 0.23064217 0.3538891 0.3391036
0003a0 ab 82 1f 3e f3 1a a8 bd a0 0d 46 3e 24 1a 45 be
       0.1557719 -0.08208265 0.19341135 -0.19248253
0003b0 e6 b2 c6 3c 05 4e bb bd cb ed 58 be de 75 4f be
       0.024255227 -0.091457404 -0.21184461 -0.20259807
0003c0 11 f4 24 3e 05 ae 2d 3d c6 59 a3 be f5 03 84 bd
       0.16108729 0.042402286 -0.3190443 -0.06446067
0003d0 56 88 68 bd d2 76 8b be c8 6a 3e 3e 0b cd a3 be
       -0.056770645 -0.2723909 0.18595421 -0.31992373
0003e0 51 36 9a 3b e0 25 7f be ac 31 b8 be 17 13 10 be
       0.004706182 -0.24916792 -0.35975397 -0.14069782
0003f0 e1 f9 ed 3e cb c1 b7 3e 70 2f 0a 3e 79 69 9d 3e
       0.46479705 0.3589004 0.13494658 0.30744532

layers.1.bias f4 [30]
000000 cb 2f eb bb 22 71 97 3d 9a 35 9b 3d 00 00 00 00
       -0.007177328 0.07394625 0.07578583 0.0
000010 ae 58 9e 3d 56 8b 97 3d 4c 66 9a 3d bf 3c 8f 3d
       0.07731758 0.07399623 0.07539043 0.06994008
000020 67 c8 94 3d 93 0e 9d 3d 85 cb a5 3d 60 42 2d bc
       0.07264786 0.076687954 0.08095459 -0.010574907
000030 df 70 a1 3d fd 1c a1 3d be a2 9a 3d 3f 31 a0 bc
       0.078828566 0.07866857 0.07550572 -0.019554732
000040 bb db 9b 3d f5 94 a2 3d c6 07 98 3d 8a 55 92 3d
       0.0761027 0.079385675 0.07423358 0.071452215
000050 0b 16 94 3d e3 19 a3 3d 37 92 3b 3d 44 ec a8 bc
       0.07230767 0.07963922 0.04579374 -0.020620473
000060 bc de 97 3d b4 6e a4 3d 01 59 97 3d 68 47 bb bc
       0.0741553 0.080289274 0.07390023 -0.022861198
000070 8d 8e a1 3d a7 4b 55 bb
       0.078885175 -0.0032546313

layers.1.combine_aggr.weight f4 [30, 120]
000000 a4 e2 45 bd 53 66 4b bd 46 71 7c 3d c3 67 18 bd
       -0.048311844 -0.04965813 0.061631463 -0.03720833
000010 d6 97 6a 3d 68 53 b5 bd 57 c9 3d 3b f7 cd 81 bd
       0.05727371 -0.08853799 0.002895912 -0.06338113
000020 fc b7 04 3d 04 93 97 3d f2 68 14 3d d5 37 02 bd
       0.032402024 0.07401088 0.036232896 -0.031791527
000030 66 a8 b0 bd 5e d4 30 bd 78 3b 5c bd 30 a0 b2 3d
       -0.086258695 -0.04317128 -0.05376765 0.087219596
000040 70 f1 48 bd 68 0d 10 3d d2 56 96 3d 60 c5 07 3d
       -0.049058378 0.035169035 0.073407784 0.033147216
000050 cb 9d a3 bd ae e3 26 bc ab 2d e2 bc d5 a3 6e 3d
       -0.07989081 -0.010186119 -0.027609667 0.05826171
000060 4e c8 0b bc c8 6d 98 bb ac a5 a5 3d 02 55 b1 3c
       -0.008531643 -0.004651759 0.0808824 0.02164698
000070 97 19 2e 3d 05 ed ef bc 2c 0c 74 3d d8 a8 5a 3c
       0.042504873 -0.029287824 0.05958192 0.01334592
000080 1d 17 90 bc 63 07 8a 3c 78 c8 95 bd 47 ac 76 3b
       -0.017589146 0.016849225 -0.07313627 0.0037639306
000090 08 e3 27 3d 07 4f b1 bd c1 53 46 bd d7 30 68 3d
       0.040988 -0.086576514 -0.048419718 0.056687202
0000a0 57 f2 50 3b ee 78 90 bb e7 a8 f0 3b 4f 90 26 bd
       0.0031882727 -0.004408947 0.0073443535 -0.040664967
0000b0 ea 2b 9b 3d 2c 4a 12 bc 69 95 07 bd 5d be 42 3d
       0.07576735 -0.008928817 -0.033101473 0.047544826
0000c0 0a a2 9a bd 50 42 83 bc a0 15 23 3c 7b 36 e3 bc
       -0.07550438 -0.016022831 0.009953886 -0.02773594
0000d0 2f b8 44 3d c4 64 a3 bd 46 a0 d6 bc d4 a4 1a bd
       0.048027214 -0.07978204 -0.026199471 -0.03775485
0000e0 61 d3 aa 3d 84 e7 13 3d c7 0d 8a bd b2 88 12 3d
       0.083410986 0.036109462 -0.06740909 0.035774894
0000f0 07 6c f5 ba 89 9e ab 3d 36 b4 4f 3d 6e 55 5a bd
       -0.0018724211 0.083798476 0.050708972 -0.05330413
000100 23 1d a6 3d 45 65 83 bc 1b 22 ab bc c8 39 de 3c
       0.08111026 -0.0160395 -0.020890286 0.027127162
000110 a2 03 ba 3d e1 cf e1 3c ce 92 b3 bd dc a0 f0 bc
       0.09082724 0.027564945 -0.08768235 -0.029373579
000120 85 22 ad 3d 85 02 03 bd 0c 13 33 bd f9 b4 94 bd
       0.0845385 -0.031984825 -0.043719336 -0.0726108
000130 99 e2 4d bd 99 75 4c bd 6b a2 b4 3c 6b ce 16 3d
       -0.05026493 -0.049916837 0.022050103 0.03681795
000140 89 13 b3 3d 3b 76 76 3d 05 eb 76 3a 35 e9 47 3d
       0.087439604 0.060171347 0.0009419176 0.048806388
000150 c6 45 56 3d 35 b3 a0 bd 1f fc 3b 3d 59 67 7f bd
       0.052312635 -0.07846681 0.04589474 -0.06235442
000160 ef f8 90 3d 0d da 21 bd 0a 25 9a 3c d8 69 88 ba
       0.0707873 -0.03951459 0.01881649 -0.001040752
000170 b9 d7 2d 3d f3 d4 60 3c 8e 99 88 bd 4f 75 17 3d
       0.042442057 0.013722646 -0.06669913 0.03697711
000180 ed 01 5b 3d 2a 61 44 bd 1a f5 72 bd 46 86 7f bd
       0.053468633 -0.047944225 -0.05931578 -0.062383913
000190 e0 27 35 bd 21 25 46 bc b0 d4 c5 3b 2a ea 29 ba
       -0.04422748 -0.012093813 0.006037317 -0.00064817315
0001a0 8e 14 c6 bc 89 ca 67 3d e7 9f 9a 3b d8 1a 5a bd
       -0.024179723 0.056589637 0.004718769 -0.053248256
0001b0 42 fb c5 bc e5 49 5b bd 24 78 03 bd 94 1d b0 bd
       -0.02416766 -0.05353727 -0.032096997 -0.085993916
0001c0 67 99 7a 3c 96 3f 92 bd d5 40 10 3d 16 3a 80 3d
       0.015295363 -0.07141034 0.03521808 0.06261079
0001d0 0a fb 8b bd ad 4f 46 bd f6 9f 93 bd e6 9e c7 3c
       -0.06834991 -0.04841583 -0.072082445 0.02436776
0001e0 9f 68 20 bc 83 fa 83 bd 3e 73 41 3d ed fd 52 3d
       -0.009790569 -0.06444266 0.047229044 0.051511694
0001f0 a5 91 68 bd 28 11 03 bb 4f 36 40 bd de bf ee 3a
       -0.056779522 -0.001999924 -0.046926793 0.001821514
000200 5f 47 88 3d ac e8 e5 bc d1 d8 9c bd ee a7 b8 3d
       0.06654238 -0.028065048 -0.07658542 0.09016405
000210 ad ce 73 bd 94 ce 6b bc ca cb 5b 3d 9b 87 50 3d
       -0.059523273 -0.014392514 0.053661145 0.050910573
000220 aa 3a 93 3d 76 ac e2 bc 7a 7d 6a 3c d7 a3 d8 bd
       0.07188924 -0.027670126 0.0143121425 -0.10578125
000230 d6 a4 29 bd 4f 57 58 bd 93 09 82 3d dc ea 0b bd
       -0.041416965 -0.05281764 0.063494824 -0.034159526
000240 9f 24 41 3d 9b 2a fe 3c 46 33 d5 3d 9a c8 e4 bb
       0.047154065 0.031026175 0.1041017 -0.0069819214
000250 09 4d 89 3d 3c 5c d8 bd be f2 ec bd e9 fa e0 bc
       0.067041464 -0.10564467 -0.11569737 -0.027463393
000260 67 db a4 3d 71 08 e0 3d a7 f2 38 3c fd de d7 3d
       0.0804966 0.1093911 0.011288322 0.105405785
000270 21 36 00 be 49 63 93 3c bd bf 9f 3d 0d 0d 1b be
       -0.12520649 0.017991679 0.07800243 -0.15141697
000280 1e 56 25 be 43 99 a9 3b 5f 58 21 3e 44 5e d9 3d
       -0.16146132 0.005175741 0.15756367 0.10613683
000290 48 f9 45 3d 64 8e c5 bd 14 2c 1f be bc f4 14 be
       0.048333436 -0.096462995 -0.15544158 -0.14546484
0002a0 80 5b 12 be 54 99 35 be ca 7a c1 bc dc be f9 bd
       -0.14292717 -0.17734271 -0.02361812 -0.12194607
0002b0 33 71 89 3d 97 5c df 3b 77 40 d2 3d 98 12 c6 bd
       0.06711044 0.0068164575 0.10266202 -0.09671515
0002c0 00 03 ef bc 91 ab f6 3d 39 45 f3 b9 a2 7e 15 be
       -0.029176235 0.120444424 -0.00046400147 -0.14599088
0002d0 ad 9c 74 3d 18 d5 fa 3c 73 84 a7 ba 7f c4 8f 3d
       0.05971973 0.03061919 -0.0012780562 0.070199005
0002e0 e7 a3 e1 3c d5 9e c2 3d 10 1f 9c 3d 75 55 82 bb
       0.027543975 0.09502951 0.07623112 -0.0039774724
0002f0 fa 32 3d bd cd 78 be bd 7e 30 19 3d 64 44 d6 bc
       -0.046191193 -0.09300385 0.03739976 -0.026155658
000300 2c 68 e1 bb 2a 32 73 bc fd 21 ed bc 81 9e 17 bd
       -0.0068788733 -0.014843503 -0.028946871 -0.037016395
000310 f3 a3 ae 3d 83 ae 71 3d d1 23 b1 3d 7a ef 0a bd
       0.085273646 0.059004318 0.086494096 -0.03391979
000320 01 62 02 bd 50 92 9a bb 34 5a d3 3c 23 07 4c 3c
       -0.031831745 -0.004717149 0.025799848 0.012452873
000330 41 ab f5 3d 0b 99 1a bd 12 85 39 3d 76 79 fa 3d
       0.11995555 -0.03774361 0.04529292 0.12230198
000340 e5 34 da 3c bd 96 9f 3d 80 3e cf bd 94 3d 6f bd
       0.02663655 0.07792423 -0.10119343 -0.058408335
000350 bc 79 7f bd 5c 85 58 bd c4 61 a2 bd b8 e5 b6 bd
       -0.062371954 -0.052861556 -0.079288036 -0.08930534
000360 fb f9 3f be 22 b8 27 bd f4 73 67 bc 0c 7a 5e bd
       -0.18747704 -0.040947087 -0.0141267665 -0.05431561
000370 c9 71 0c be 63 d3 5d 3d 6d b9 86 3d bc c2 bb bd
       -0.1371528 0.054156672 0.06578336 -0.09168002
000380 58 02 4f ba 19 47 bd 3a a9 d1 0a be b7 e2 04 be
       -0.00078967726 0.0014440744 -0.13556542 -0.1297711
000390 49 e2 c6 3b 1a 9f 41 bd 32 70 47 bd 15 56 c8 bd
       0.0060694558 -0.04727087 -0.048690982 -0.09782044
0003a0 d1 11 e3 bb 81 ed 67 3d 18 b6 c6 bc 93 c6 3a bd
       -0.006929614 0.056622986 -0.024256751 -0.04559953
0003b0 7f c2 24 be 4a f5 ad bc 2e 95 63 bc 43 c9 1f be
       -0.1608982 -0.021235127 -0.013890548 -0.15604119
0003c0 d6 08 1d bd 81 8e d0 3c d9 9d 0b bd 0f c7 8d 3a
       -0.038338505 0.025458576 -0.034086082 0.001081677
0003d0 99 8c 97 3c fd 4e 17 bd c8 e5 96 3a fd a9 86 bd
       0.01849966 -0.036940563 0.0011512572 -0.065753914
0003e0 5e 49 7c 3d c6 8b 44 bd 25 80 e3 bc 7d f1 c6 3c
       0.061593406 -0.04798486 -0.027771065 0.024285072
0003f0 85 bc 9c 3d 53 65 eb bc 20 13 74 bd fb 9a d8 bd
       0.07653145 -0.028734839 -0.05958855 -0.10576435

layers.1.lin_a.weight f4 [1, 60]
000000 f4 1f 43 3d 97 dd 1d 3c df 23 99 3d c2 90 cd bc
       0.047637895 0.009635351 0.07477545 -0.02509344
000010 ce 9b d5 bd 9d 99 de bd a6 36 d3 bd 59 1d 5c 3d
       -0.10430108 -0.10869143 -0.10313158 0.053738926
000020 1b 42 81 bd 52 7c 7b 3d a7 03 0d 3d fe ba a8 3d
       -0.06311437 0.061397858 0.03442731 0.08238791
000030 f1 e7 98 3d 53 32 ed bd 5c b5 78 bb 8c 0a 83 3d
       0.07466114 -0.11581864 -0.0037949895 0.06398496
000040 b7 79 0f 3d 93 6c dc bd 81 ed b7 bd 47 ad b0 3d
       0.035028186 -0.107628964 -0.08980847 0.086268
000050 78 1a fe bd 2c f2 b6 3d c3 42 d0 bc c4 88 cc 3c
       -0.12407392 0.08932909 -0.02542246 0.024967559
000060 4e 42 b2 3d cc 86 ae 3c ad 8c 1a be 36 8b 9b 3d
       0.08704053 0.02130451 -0.15092726 0.07594912
000070 52 81 24 be ea a0 9a bd 14 4f ea bd 90 9a 3b 3d
       -0.16064957 -0.07550223 -0.11440864 0.0458017
000080 63 fc 4d 3e 9c 44 e3 bd e8 e1 d2 bc c1 1b 01 3e
       0.20115809 -0.110970706 -0.025742486 0.12608244
000090 84 87 9d bd 37 2f 50 3e 6d 39 a9 bc 9f b1 42 be
       -0.07691863 0.20330511 -0.020657266 -0.1901307
0000a0 fc 6d c4 bd 71 a7 0c 3e 36 ab 24 3e c2 d6 96 3d
       -0.0959129 0.13735749 0.16080937 0.073651806
0000b0 8a ae 6e 3e 55 ac 20 3d a3 25 0b bd 4b 6b 34 be
       0.23308769 0.03922685 -0.03397144 -0.17619054
0000c0 e9 b1 75 bd bc 50 00 be 4c 2a 68 be 66 ed 12 be
       -0.05998412 -0.12530798 -0.22672385 -0.14348373
0000d0 6e 42 07 bd 50 6d 88 3d 6e 9f 11 3d 43 d0 34 3d
       -0.033022337 0.06661475 0.035552435 0.044143926
0000e0 55 58 4f bd ed 65 ab bc b0 d8 d1 bd f7 16 73 3c
       -0.05062135 -0.020922625 -0.10246408 0.014837018

layers.1.lin.weight f4 [30, 30]
000000 55 cc 86 be e4 31 96 bd ff 15 5b 3c 3c 62 60 be
       -0.26327768 -0.07333735 0.0133719435 -0.21912473
000010 91 6b 11 be 70 b0 62 bb e7 8d 04 be 4a f0 7c be
       -0.1420119 -0.0034590028 -0.12944756 -0.24701038
000020 07 48 08 be 05 38 17 3e 8a 96 68 bd 1c fe 00 be
       -0.13308726 0.14767464 -0.05678419 -0.12596935
000030 d7 6d 03 be 95 8e 4f bd 17 57 31 3d d3 1a 10 bd
       -0.1283487 -0.050673086 0.043295946 -0.03518183
000040 b8 a1 81 bd 52 e4 81 be 38 21 48 be 94 7a 31 3d
       -0.063296735 -0.25369507 -0.19543922 0.04332979
000050 f4 63 8a 3d 64 17 bf 3b fc bf d7 bd 0c eb 80 bb
       0.06757346 0.005831646 -0.10534665 -0.00393427
000060 f0 8b ae bd ce 52 d9 3d f1 bf ea bb 35 f9 76 bd
       -0.08522785 0.10611497 -0.0071639945 -0.060296256
000070 00 81 7d 3d 93 14 bc bd ee 94 23 bd 47 05 d9 bd
       0.061890602 -0.09183612 -0.039936952 -0.1059671
000080 be eb 97 3d 84 e7 88 be f1 24 55 3d c3 25 82 be
       0.07418011 -0.26739132 0.052037183 -0.25419435
000090 a1 b3 09 be 74 d3 50 be fe 0d d4 bd b7 b7 a1 bc
       -0.13447429 -0.20393163 -0.10354231 -0.019740922
0000a0 20 35 46 be ca dd bc 3d c4 2c 13 3d 5d 55 2b 3e
       -0.19356203 0.092219904 0.035931364 0.16731782
0000b0 26 0a 59 be 40 31 77 be fa 42 ea 3c 6d 9d 28 3d
       -0.21195278 -0.24139881 0.02859639 0.041165758
0000c0 3f 49 1f 3d 11 78 8c 3d a1 b4 79 bd 60 14 20 3c
       0.038888212 0.06858838 -0.060963277 0.009770483
0000d0 83 b7 1f be 53 47 8e be b8 15 78 be 7e 4f 89 bd
       -0.15597348 -0.2778879 -0.24227035 -0.06704615
0000e0 0f eb 65 bd 45 54 f3 3d 7c 44 03 3e 04 b0 5d be
       -0.056132372 0.118813075 0.12819093 -0.21649176
0000f0 03 c7 e2 3d fb ad 4e 3e fc 91 3a 3d f9 c2 27 3d
       0.11073115 0.20183556 0.045549378 0.040957425
000100 1f 91 60 bd d7 35 79 3d a4 c5 5d 3e 32 1d 5b 3c
       -0.0548259 0.06084236 0.21657425 0.01337366
000110 a8 f7 09 3d 09 d4 26 3e 0a d0 ca bc bd 1c 59 bc
       0.03368345 0.16291822 -0.024757404 -0.013251481
000120 89 cf 32 3d 98 c0 39 3e 80 c1 9d 3d 70 c0 65 3d
       0.043654952 0.18139875 0.07702923 0.056091726
000130 68 d4 4b bd 14 c9 3e 3e c6 62 80 3d ac 22 84 bd
       -0.049763113 0.18631393 0.062688395 -0.06451926
000140 9a b5 b2 bd 28 5d 05 bd 83 5b 8a bd 8e 0c d9 3d
       -0.08726044 -0.032559544 -0.06755736 0.10598098
000150 86 14 49 3e d3 da 82 bd 1d c4 3b 3e 18 f1 8c 3d
       0.19636735 -0.06389394 0.1833653 0.068819225
000160 df 82 60 bc 11 43 d2 bd 14 0f 84 bc b0 96 56 3e
       -0.013703077 -0.10266698 -0.016120471 0.2095592
000170 69 4c 2e 3e 71 9c 90 3e 70 85 61 3d e3 58 2e 3e
       0.17021336 0.28244355 0.055058897 0.17026095
000180 5a c7 a4 b9 4b 18 8e 3e dd e6 58 bd 8d 34 ee bc
       -0.00031429046 0.2775291 -0.052954543 -0.029077793
000190 79 aa 1f be 01 71 20 3d 6d ea 06 be 05 9c d2 bd
       -0.15592374 0.03917027 -0.13175364 -0.102836646
0001a0 f2 fe 05 3e c2 26 90 3e 07 1f 32 3e 38 3b 69 3e
       0.13085535 0.2815457 0.17394648 0.22776496
0001b0 8c e2 2b 3d ce 5a fd 3b 7d 84 87 bd 66 46 56 3e
       0.0419641 0.007731772 -0.06617067 0.20925292
0001c0 03 f9 0f 3e 95 48 84 3e 19 a0 a7 bd 70 98 bf bd
       0.14059834 0.25836626 -0.08184833 -0.09355247
0001d0 32 84 86 bc 69 18 d9 bd 43 91 cd bd 74 4d 25 3e
       -0.016420458 -0.10600359 -0.10037472 0.16142827
0001e0 e8 c5 82 3e 7f 13 43 3e 90 f9 11 3c 40 e4 53 3e
       0.25541615 0.19050406 0.008909598 0.20692539
0001f0 46 c9 92 3e 82 03 0b 3e 4b e3 8c bd a7 06 b7 bc
       0.28669184 0.13575557 -0.0687929 -0.02234204
000200 cb 80 76 3e 00 80 4d bd ff 69 06 be b7 3f cb 3d
       0.24072568 -0.0501709 -0.13126372 0.09924262
000210 e6 91 18 3d 59 dc 5a bd 18 09 7d bd 6f 6d 1e 3e
       0.037248515 -0.053432796 -0.06177625 0.15471433
000220 54 ae 91 bd d7 d0 a9 3d 72 28 73 3d 31 11 14 3e
       -0.071133286 0.08291786 0.059364744 0.14459683
000230 89 f5 51 3e 60 3c 88 3e b2 8b 38 3e 9b 39 32 3e
       0.2050382 0.26608562 0.1802204 0.17404787
000240 c2 55 99 3e ce 25 91 bd c9 55 66 3e bd e0 99 3d
       0.2994824 -0.07087289 0.22493662 0.075135686
000250 7d 2e 4d be 38 79 85 3e f9 ca af 3d fd 18 2c bd
       -0.20037265 0.26069045 0.08583636 -0.04201602
000260 20 95 a3 3e 37 a9 6a bd 85 2c 48 3e d8 f8 6f bd
       0.3194971 -0.057290282 0.19548233 -0.058586925
000270 36 37 61 bd 64 fd 9b bd bc a1 60 3e e4 b0 1b 3d
       -0.054984294 -0.0761669 0.21936697 0.038010493
000280 21 f9 3e 3e 9c 74 68 3d 11 a8 a1 bd 9c 30 b0 3d
       0.18649723 0.056751832 -0.07893384 0.086030215
000290 87 ef 5f 3e 25 57 32 bd 40 93 16 be 7a df 14 3d
       0.21868716 -0.04354014 -0.14704609 0.036345936
0002a0 b7 bc aa bc 44 12 98 bc 02 ab 83 3e e1 48 4f 3e
       -0.02084194 -0.018563397 0.25716406 0.20242645
0002b0 46 da 57 bd 08 64 04 bc 67 3c 70 3e 40 5b 97 bd
       -0.052698396 -0.00808049 0.23460542 -0.073904514
0002c0 8a b9 74 3c 09 91 8a 3c 89 65 5f bd 7b be 25 3e
       0.014936814 0.016914861 -0.05454019 0.16185944
0002d0 6c 39 18 bd a7 b3 ba 3d 2e b2 fc 3d 92 49 58 3c
       -0.037164137 0.09116297 0.123386726 0.013201134
0002e0 ea c5 25 3d cd 5c c9 bd 6f 98 83 be ca a9 75 bd
       0.04047195 -0.098321535 -0.25702235 -0.059976377
0002f0 fd 6c 35 be 1f e3 61 be 20 81 2c be 73 f0 d6 bd
       -0.17717357 -0.22059296 -0.16846132 -0.10495081
000300 9c 79 15 be 9b bf dd 3c 76 e5 22 3d 80 15 8d 3d
       -0.14597172 0.027068904 0.039769612 0.068888664
000310 2a 59 91 be 71 b4 c9 3d 71 da e1 3c 95 9d 08 3e
       -0.2838834 0.098488696 0.027569981 0.13341363
000320 8c f5 fb 3c ac 7c 7f ba cf 2f 9e bd f1 a2 ce 3d
       0.030756734 -0.00097460556 -0.077239625 0.10089672
000330 88 f4 27 be 25 a5 8c 3e 90 fd dd 3d 65 08 a5 bd
       -0.16401875 0.27469745 0.10839379 -0.08058242
000340 ed 18 40 be be e1 3f be 24 29 67 3d 03 01 48 3e
       -0.18759508 -0.18738458 0.05643572 0.19531636
000350 73 92 2d 3d 74 de 19 3d d4 23 35 bd 1f a0 c4 3d
       0.042375993 0.037565663 -0.04422362 0.09600853
000360 f9 19 1e 3e be 2c da 3d a2 cb c0 3d ba 1d a7 bd
       0.15439595 0.10653065 0.0941384 -0.08159967
000370 c9 5c f0 3d e1 a5 85 3d 4c 52 2a be 93 47 3d 3e
       0.11736447 0.065257795 -0.16632956 0.18484335
000380 37 8b 36 3e b6 40 97 3d dc 49 c4 3c ce 8e 7d 3e
       0.17826544 0.073853895 0.023961 0.24761507
000390 f6 5a 75 3e c5 ae 30 3d a7 12 7b 3e e8 0e 0d 3e
       0.2396048 0.043135423 0.24518834 0.13775218
0003a0 a0 0a 1b 3e f6 3d 85 3d 1b 01 6c 3d e9 ca 71 3d
       0.15140772 0.06505959 0.05761824 0.0590314
0003b0 da eb 92 ba 0c f6 5c bd 96 0d 22 3e 56 c1 ed 3c
       -0.0011209205 -0.053945586 0.15825495 0.029022854
0003c0 96 34 84 3e fa 5c 71 3d 25 28 81 bd 21 07 f2 3d
       0.2582137 0.05892656 -0.06306485 0.11817766
0003d0 c5 be 95 3d 41 0b 29 3e 3a 89 02 be f1 2e 31 bd
       0.07311777 0.165082 -0.1274766 -0.043257657
0003e0 0f ff ea 3d df 80 31 3e 67 28 d1 bd e3 71 a2 bd
       0.1147443 0.17334317 -0.10212784 -0.079318784
0003f0 cc 91 e7 3c 20 12 20 3e 7b f1 7a 3e 8b a9 a9 3d
       0.028267764 0.15631914 0.2450618 0.08284291

layers.2.bias f4 [30]
000000 04 df 9c 3d de 71 81 bb 84 b6 cc bc a4 c9 80 3a
       0.07659724 -0.0039503416 -0.024989374 0.0009825719
000010 16 57 6b 3d 3c c5 d0 bb 83 4c a0 3d d9 14 5c 3d
       0.0574561 -0.0063711684 0.078270935 0.05373082
000020 14 87 61 3d 3d 27 9a bc b5 cb 93 3d 36 dd 9a 3d
       0.05506046 -0.018817538 0.072165884 0.07561724
000030 95 ba 3b 3d aa 6d a0 3d 27 ab 9c bc d1 e6 8c 3d
       0.045832235 0.07833417 -0.01912458 0.06879962
000040 96 66 30 bb bd cf a0 3d 58 fb 46 bc 56 c5 8d 3d
       -0.0026916615 0.07852123 -0.012144886 0.069224045
000050 0f 40 9f bc 21 69 9d 3d a4 e5 8f bc 6f 30 6a 3d
       -0.019439725 0.076860674 -0.017565556 0.057175096
000060 44 28 98 3d 30 af a0 3d 09 f8 7e bc 95 1b b5 bb
       0.07429555 0.07845914 -0.015562066 -0.0055269697
000070 05 46 c5 bb f1 2f 47 3d
       -0.00602031 0.048629705

layers.2.combine_aggr.weight f4 [30, 120]
000000 24 2e 96 3d 5c 57 7c 3c a2 9f fb 3c 20 bb b8 bd
       0.073330194 0.0154016875 0.030715767 -0.09020066
000010 9d 31 2b 3d f5 23 7c 3d 68 73 26 bd ba fe 94 3d
       0.04179536 0.06155773 -0.040637404 0.07275148
000020 47 ef 1c 3d a1 f0 8b bd 60 9e 8e bd 8a 9b df 3a
       0.03831413 -0.06833006 -0.069638014 0.0017059904
000030 a1 c5 b7 bd 59 82 80 bd 3c 03 17 3d c7 ab f7 bc
       -0.089732416 -0.06274862 0.03686832 -0.030233277
000040 6c 98 a5 bb 42 74 20 bd c0 02 6d 3d 21 6f 95 3d
       -0.0050535705 -0.039173372 0.05786395 0.07296587
000050 02 b3 81 3d 31 42 9b bd 78 e1 ea bc 12 be 3c 3d
       0.06332971 -0.075809844 -0.028671965 0.046079703
000060 a3 ef 55 3d cb 80 a5 bc 43 82 92 3d 14 2f 0d bc
       0.05223049 -0.020203015 0.07153752 -0.008617181
000070 6d e4 45 3c a7 ea 75 3d f8 6a af bc 62 ac 0f be
       0.012078387 0.060038235 -0.021413311 -0.14030603
000080 0f 71 d6 3c 7b e2 e8 3d 76 fb 11 3e 95 10 80 3d
       0.026176957 0.11371323 0.14256081 0.06253163
000090 1e 9e 1a 3e 23 1d b4 bd b3 46 05 be 39 9c c1 bd
       0.1509938 -0.0879462 -0.13015251 -0.09453625
0000a0 46 4e 26 be 51 06 58 bd 36 70 2c be d1 35 2d 3e
       -0.16240796 -0.0527404 -0.1683968 0.1691506
0000b0 62 44 1a be 67 c8 10 3e 8c f3 1b be 44 a5 c8 bd
       -0.15065148 0.14138947 -0.15229625 -0.09797147
0000c0 80 1b 0a be 0f bc 1b bd 92 a2 09 bd 7f dc 23 be
       -0.13487053 -0.038021144 -0.033602305 -0.16002081
0000d0 45 34 0c 3b 8d 65 c6 3d 95 24 ad bd 23 e0 a5 bd
       0.002139346 0.09687338 -0.08454243 -0.08099391
0000e0 78 0f 2b bd af 1f d5 bd f4 9a 04 ba 4d d1 b5 3d
       -0.0417628 -0.10406434 -0.000505849 0.088778116
0000f0 ad 20 a6 bc cc 10 6b 3d f9 96 6b bd 90 5b cf bc
       -0.020279253 0.057389066 -0.057517026 -0.025312215
000100 01 23 49 3d 25 5f 97 bc 5c 7b b6 bd 23 e0 91 3d
       0.049105648 -0.018477986 -0.08910248 0.07122829
000110 f1 6c 2c 3d 8a a1 49 3d 01 ba 5d 3d 5c 81 86 bd
       0.042096082 0.04922632 0.054132465 -0.06567642
000120 2b 93 96 bc 1d fb bc bc 6c 43 e6 3d 56 51 c0 bc
       -0.018380722 -0.023068959 0.112433285 -0.023476284
000130 95 ef 16 bd 67 60 20 bc d7 f6 f6 3c c2 39 6c 3d
       -0.036849577 -0.009788609 0.030147 0.05767227
000140 d3 c8 b8 3d c6 8e c0 3d a4 22 c2 3c 9b c4 c8 3d
       0.09022679 0.09402232 0.023698159 0.098031245
000150 72 78 8e 3d 83 35 91 3d a7 1e 49 bd 5f 71 f2 3c
       0.06956567 0.07090285 -0.049101498 0.029595075
000160 38 fc 47 3b 6c 3e 8d bd 74 8b 8a bd 31 6a 62 3d
       0.0030515324 -0.06896672 -0.0676488 0.055277053
000170 6a 86 35 3c 84 d4 77 3d b1 bf 2c 3d 31 bd c2 bc
       0.01107941 0.060505405 0.042175 -0.023771854
000180 24 01 80 3d b3 84 05 3c 04 f7 05 bd b6 38 7e bd
       0.062502176 0.008149314 -0.032706276 -0.062065803
000190 5d 22 1e 3d 60 2d d2 3c d3 55 37 3d 8b a1 1d bd
       0.03860699 0.025656402 0.044759583 -0.038484138
0001a0 12 80 d1 bd 35 a6 a2 bb 89 28 41 bc 87 79 a5 bd
       -0.102295056 -0.004963661 -0.0117894495 -0.0807982
0001b0 ad 12 0a 3b 0a 39 e3 bc a8 7b 63 3d 05 68 df bb
       0.002106826 -0.02773716 0.05553785 -0.00681782
0001c0 38 9d 8e bd 15 43 4e 3d ec fd 92 bc 03 be 03 bd
       -0.06963581 0.050356943 -0.017943345 -0.03216363
0001d0 8b 92 6e 3d c0 85 8a 3d 17 c7 e8 3c b3 f9 af bc
       0.058245223 0.06763792 0.028415246 -0.02148137
0001e0 e1 1d 99 3d bd 05 24 bd bb 3f a5 3d 90 0f 55 bd
       0.07476402 -0.040044535 0.08068796 -0.052016795
0001f0 51 ca db 3a d7 26 aa 3d a2 d9 14 3d ee a7 9c bc
       0.0016768669 0.08308189 0.036340363 -0.019123044
000200 b3 90 66 3d ec 9c 5c 3d ff 80 a8 bd 2e 33 27 bc
       0.05629034 0.05386059 -0.08227729 -0.010205073
000210 1f 1d 93 bd a8 57 a1 bc e7 65 34 bc 20 8e 15 bd
       -0.07183289 -0.019695118 -0.011010624 -0.036512494
000220 b7 9f 08 bd 22 42 4a 3d cd 7a 31 bb 5a 0b ba bd
       -0.03335544 0.049379475 -0.0027081252 -0.090841964
000230 97 7d 80 3c 8c db b7 bd 52 41 80 bd 10 73 64 3d
       0.015684886 -0.08977422 -0.06262459 0.055773795
000240 b0 f3 8e 3d f7 86 04 bd 65 3f 63 bd e2 34 29 3d
       0.069800735 -0.032355275 -0.05548038 0.0413102
000250 9c 8a b2 bd 95 c1 66 3d 85 c4 80 3d 70 a7 1d 3d
       -0.08717844 0.056336958 0.06287483 0.03848976
000260 82 82 e4 3c 58 82 9a 3c 13 4c 8f bd 22 c4 15 bd
       0.027894262 0.01886098 -0.06996932 -0.036564
000270 54 09 71 3d 16 83 9d 3d b4 25 29 3b 7f 76 c0 3c
       0.058846787 0.07691018 0.0025809826 0.023494003
000280 b6 46 b1 bd 0b cb 83 3d 44 ac 59 bd 7d a9 48 bd
       -0.08656065 0.06435212 -0.0531428 -0.04898976
000290 7c 6f b8 3d 86 36 d6 bc d2 cb 3c bd 45 22 4e 3c
       0.09005639 -0.026149046 -0.046092816 0.012581413
0002a0 35 5a 93 3d 5e cb a9 3d 9d bd f9 3b c4 91 7e 3d
       0.0719494 0.08290742 0.0076214806 0.06215073
0002b0 cc 55 85 3d 43 3e 7b bc 0b a0 93 bd d3 73 27 3b
       0.06510505 -0.015334669 -0.0720826 0.0025551214
0002c0 dc 38 ff bc bb 08 03 3d ae d3 88 bd fd 94 7a bd
       -0.031155042 0.031990748 -0.06681 -0.061177243
0002d0 4f cb 8c bd d9 e1 8b bd 2c 3c 8e 3d db 4b ba bd
       -0.068747155 -0.068301864 0.069450706 -0.090964995
0002e0 72 d4 5b bb 21 be 66 bd 66 4e 1d bd 57 64 d7 bc
       -0.0033543375 -0.056333665 -0.038404845 -0.026292963
0002f0 cd a8 2f 3d 78 7c 7b 3d b6 2a a8 bc 66 d7 41 3b
       0.04288559 0.061398 -0.020528179 0.002957785
000300 ed 0e 82 ba 5b 3a aa 3d a0 19 27 3d dd 33 9b bc
       -0.0009922661 0.08311912 0.040795922 -0.018945629
000310 6f 3e 7d 3d ac ef 96 bd df 35 14 3d d7 07 91 3d
       0.06182712 -0.073699325 0.036184188 0.070815735
000320 9a 12 42 bd 78 eb 0b 3d ef 74 2b 3d 17 e2 9c bd
       -0.04738102 0.034160107 0.041859563 -0.07660311
000330 ca 46 d7 3c 48 79 8d 3d 05 ca 08 3c 79 80 90 bc
       0.026278872 0.06907898 0.008348946 -0.017639386
000340 f3 66 12 bd a0 16 78 bd 77 8f b5 3c c0 c0 b0 bd
       -0.03574271 -0.060568452 0.022163136 -0.08630514
000350 6b 04 a0 bd 47 54 07 bd 1f 09 b1 bd 9b 8e ae 3d
       -0.07813343 -0.033039358 -0.08644318 0.085232936
000360 77 1a f1 bc 77 c9 46 bd 2c 49 bc 3c d7 f8 20 3d
       -0.029431565 -0.048531976 0.02298411 0.039299812
000370 08 cd 8c 3d 6d 1e 17 bd 36 a1 82 bc 55 39 8d bd
       0.06875044 -0.03689425 -0.015946012 -0.06895701
000380 24 44 a3 bd 22 ae 22 bd f3 55 28 3c 00 57 39 bd
       -0.07971981 -0.039716847 0.010274398 -0.045248985
000390 c5 6a ce bc 11 f7 08 3d fa 32 9a 3c 13 b6 66 3d
       -0.025197396 0.033438746 0.018823136 0.056325983
0003a0 53 a9 2c 3d 00 09 45 3d 4b 40 41 bd 88 a2 48 3d
       0.042153668 0.048104286 -0.047180455 0.048983127
0003b0 ba b0 a7 bd ae 3f e6 3c a8 c6 6b bd 0b a5 ce 3c
       -0.08188005 0.028106537 -0.0575625 0.025225183
0003c0 b8 71 83 bd ab 0a c4 3a 86 54 19 3d 37 61 70 bd
       -0.064181745 0.0014956793 0.037434123 -0.05868646
0003d0 d3 51 2a 3d 9f c4 0e bd aa 51 8d 3d dc b8 be 3d
       0.04158194 -0.03485548 0.06900342 0.09312603
0003e0 08 c4 0b bd 35 93 83 39 8e 5a c3 3a 7e fa af bc
       -0.034122497 0.00025095945 0.0014904307 -0.021481749
0003f0 46 2a 43 3d 6c 8e d4 bd 56 fc 18 bd f7 4b 03 bd
       0.047647737 -0.10378727 -0.03735002 -0.032054868

layers.2.lin_a.weight f4 [1, 60]
000000 0c 93 b0 bd b1 52 00 3e 21 26 66 3d ed 67 6e bd
       -0.08621797 0.12531544 0.056188706 -0.05820458
000010 e5 0f c1 bd 4d 65 6e 3d 29 ef 60 3d 43 5b 23 bd
       -0.0942686 0.058202077 0.05491558 -0.039881956
000020 7c a2 91 3d 8b 76 47 3d d4 e9 0c 3e 6b 74 b1 3d
       0.071110696 0.048697036 0.13761073 0.08664783
000030 28 34 01 3d f8 b6 0c be 63 0e f4 3d 67 40 c5 3d
       0.03154388 -0.13741672 0.119168065 0.096314244
000040 69 2c c1 bc b6 c8 47 3b 47 46 d9 3b 8a c6 15 3b
       -0.023580747 0.0030484623 0.006630692 0.0022853934
000050 79 4d aa 3d 62 3e 0e 3d f3 94 01 be f4 31 cc 3c
       0.08315558 0.03472746 -0.12654476 0.024926163
000060 f4 33 8d bd e7 88 45 3d e4 6d d0 3d 22 7c d2 bc
       -0.06894675 0.048226263 0.1017721 -0.025693957
000070 09 20 cf 3d 05 13 03 bc c0 66 84 bd 14 71 e3 3d
       0.10113532 -0.00800014 -0.064649105 0.11105552
000080 ce 65 a6 3d 3c 25 be 3d 08 d4 b4 bd 2a 9f ca bd
       0.081248865 0.09284446 -0.08829504 -0.098936394
000090 74 ba e9 bd 7d a8 ac 3d f5 12 9d 3d 9e 4e 9e bd
       -0.11412516 0.08430574 0.076696314 -0.07729839
0000a0 09 65 57 3d dc 80 e0 3c 48 70 57 bd 8d 41 7d 3b
       0.05258659 0.027405195 -0.052597314 0.0038643808
0000b0 e1 8a 9b bd 51 1a 13 bd 79 e3 54 3d fe 1a 8e 3c
       -0.075948484 -0.03591377 0.051974747 0.017346855
0000c0 6c 6f c5 bd 1c d7 08 3d 58 4e cb bc 88 28 c1 bd
       -0.09640393 0.03340827 -0.02481763 -0.09431559
0000d0 74 bf f5 bd d0 3f c4 3b b2 3e c3 bd 1c c9 a1 bd
       -0.119994074 0.0059890524 -0.095334426 -0.07899687
0000e0 10 50 11 3d 27 54 65 3c 42 cb 73 bd 78 3f a3 3c
       0.035476744 0.013997114 -0.059520014 0.019927725

layers.2.lin.weight f4 [30, 30]
000000 00 df b7 3d c1 1e 02 be d4 e6 03 be d4 18 db 3d
       0.08978081 -0.12707044 -0.12881023 0.10698095
000010 1e 3c 70 3d 02 08 ee 3d d3 56 e5 3c 98 6c 1b be
       0.058651082 0.11622621 0.027995503 -0.15178144
000020 b1 6b 5f be 7e 4f 00 3e f4 8f 54 be 4c b2 2c be
       -0.21818425 0.12530324 -0.20758039 -0.1686489
000030 c3 74 b9 bd a0 91 b9 bd 30 2f b4 3c 94 8b 17 be
       -0.09055474 -0.09060979 0.021995157 -0.14799339
000040 b0 ff d8 bd 83 27 5f be 65 69 5b 3d e7 f5 04 bd
       -0.105956435 -0.21792416 0.05356731 -0.032461073
000050 10 15 28 be 89 8b ed bd 8e 95 86 3d 5a e1 07 3e
       -0.16414285 -0.1159888 0.06571494 0.13269559
000060 f8 34 71 be 11 9c 30 be 63 a3 f3 bc bc 32 01 3d
       -0.23555362 -0.17247035 -0.029740995 0.031542525
000070 93 d3 43 be 05 ec 94 3d 89 59 0f 3c 2e c3 30 be
       -0.19123678 0.0727158 0.008749374 -0.17261955
000080 e9 ec 5b be 80 00 e9 ba 52 e5 e2 bc d7 a1 69 3b
       -0.21477093 -0.0017776638 -0.02769724 0.0035649443
000090 ab 38 d4 3b 1d e7 21 3d ab 2e 94 3d d9 a4 29 be
       0.006476482 0.039527047 0.07235464 -0.1656679
0000a0 10 8b 16 be e7 58 2a be 30 1e 78 3d 76 f2 77 be
       -0.14701486 -0.16635476 0.060575664 -0.24213585
0000b0 37 1a 2e be 5d 51 3f be 3b 32 d0 bd f0 b2 20 be
       -0.17002188 -0.18683381 -0.10165831 -0.15693259
0000c0 6b 87 dd 3c f5 3c 69 be d0 47 03 3d 2b 6e 16 be
       0.027042111 -0.2277716 0.032050908 -0.14690463
0000d0 c0 c1 a5 bc 9d 49 ff bd 1b 3c c4 bc b1 53 85 3d
       -0.020233989 -0.124652125 -0.023954442 0.065101035
0000e0 28 83 28 bc 0f fa 23 3d 7f 48 05 be 7f 3f 2b be
       -0.010285176 0.040033396 -0.13015936 -0.1672344
0000f0 e7 b5 57 3d f3 1b 42 3e d5 64 2f 3e 52 b4 20 3e
       0.05266371 0.18955974 0.17128308 0.15693787
000100 09 47 a4 bc e9 e7 2c 3e c7 55 38 3e 33 69 5b 3e
       -0.020053403 0.16885342 0.18001471 0.21426849
000110 9c 9f 31 3d 1c 56 3c 3e 6b 0b a7 bd 23 8a ad bd
       0.043365106 0.18392223 -0.08156475 -0.08473613
000120 ff 2a 29 3e 21 86 50 3e 41 8a 40 3e 0b 13 cc bc
       0.16520308 0.20363666 0.1880274 -0.024911424
000130 6b 57 96 bd 26 8b 3f 3e 9a 3f ae bc e0 cb 4a 3e
       -0.073408924 0.18705425 -0.021270562 0.19804335
000140 62 aa 8e 3d 5d 5f 0c 3e c4 4c 9f 3d 2b 6e 5f bc
       0.06966092 0.13708253 0.07778314 -0.013637106
000150 dd 27 28 bc c9 e8 d5 3c 47 a9 1a 3c 8d 57 0d be
       -0.01026341 0.026111977 0.009439773 -0.13802929
000160 8a c2 0a 3e 28 92 88 3d e0 9f 3a be 9d 48 71 bc
       0.13550773 0.06668502 -0.1822505 -0.014726785
000170 4c 28 86 bd 80 ef d6 ba 84 98 8d bc 2b 3d 64 3e
       -0.06550655 -0.0016398281 -0.01728464 0.22288959
000180 14 67 95 bd 8c 9d ea 3c 53 1e 83 3e 1f da 87 3d
       -0.07295051 0.028639577 0.25609073 0.066334
000190 ce 3e 6e 3e 7c 5f 98 bd 8d df 74 3e 91 13 57 bd
       0.23266146 -0.07440087 0.23913403 -0.052508894
0001a0 d3 bf 08 3c f8 11 10 be df b6 7d 3e 33 57 1f 3e
       0.008346516 -0.14069355 0.24776791 0.15560608
0001b0 37 5f b6 3c 8e 96 d4 3d ee f1 9d 3d 6b a5 6a bd
       0.022262199 0.103802785 0.0771216 -0.05728666
0001c0 6e 86 87 bd 2d 51 a9 3d fd 72 59 3e 25 ca a7 3d
       -0.06617437 0.08267436 0.21235271 0.08192853
0001d0 e8 be 7a 3e 6d 85 db 3a 92 35 46 3e fd 1e 82 3d
       0.24486887 0.0016748138 0.19356373 0.06353567
0001e0 70 bb 39 3e c4 ed 0f 3e 8d e7 48 bd f4 41 f5 3d
       0.18137908 0.14055544 -0.04904895 0.1197547
0001f0 4d 8a 46 bc 1e d1 8e bd 25 47 b2 bd cc 09 82 3e
       -0.012117934 -0.0697348 -0.08704976 0.253981
000200 44 7a 08 3e c8 99 fc 3d f0 af 16 bc 83 f0 1e be
       0.1332789 0.12334019 -0.00919722 -0.15521435
000210 7c 9a f9 3d 73 cc b6 bd 67 95 dd 3d e3 f1 ab bc
       0.12187669 -0.08925714 0.10819512 -0.020989364
000220 5a dd a5 3d 73 a3 3f 3e cf d5 ca bd d8 ee 17 3e
       0.0809886 0.18714695 -0.09904062 0.14837205
000230 f7 9a 80 bc d9 d3 10 3d d3 7d 45 bd 8d 9a 5e bd
       -0.015698893 0.035358284 -0.0482157 -0.05434661
000240 a8 f9 05 3e c3 e6 21 3e ec b4 9b bd bb 69 fb 3c
       0.13083518 0.15810685 -0.076028675 0.030690065
000250 9f df 97 3d 73 88 dc 3d 98 e1 61 ba 97 a2 6a 3e
       0.07415699 0.10768213 -0.0008616685 0.22913586
000260 0e 72 58 3e 95 5e 27 be 85 4f 65 3e ce ac a7 3d
       0.21137258 -0.16344674 0.22393616 0.08187257
000270 fd e3 1a 3d 3f ee 0b bd 91 93 eb 3c 11 53 d3 3d
       0.037815083 -0.034162756 0.028756889 0.10318578
000280 61 fb 20 3b 70 12 9d 3d 12 ae 40 3d ce a6 92 3c
       0.0024563896 0.07669532 0.047041006 0.017901804
000290 9e ad 36 3e 94 91 e2 bd af 1d 60 3a 31 19 4e 3e
       0.17839667 -0.11062923 0.0008549345 0.20126797
0002a0 37 ad 29 3e 76 ac 7b 3e 29 41 53 3e 18 2e 5a bd
       0.16569982 0.24577507 0.20630325 -0.053266615
0002b0 ac 1e 1a 3e 32 4b d8 3c 54 40 44 3e a1 72 c0 3c
       0.15050763 0.026403043 0.19165164 0.02349216
0002c0 87 e4 23 3e c0 d7 f9 bc 00 64 20 3e f6 0a c2 bd
       0.16005145 -0.030498385 0.15663147 -0.09474747
0002d0 21 f1 b9 3d c4 bc 27 3e 69 f8 4d 3e c4 db c7 bd
       0.09079195 0.16380602 0.20114292 -0.09758714
0002e0 66 0a da bc a0 8b 01 3e 3d 1a 94 bd 4e 12 0c bd
       -0.026616286 0.12650919 -0.07231567 -0.034197144
0002f0 da 98 32 3e ff 89 5d 3e f4 59 73 bd 1b d4 9a bc
       0.1744112 0.21634673 -0.059411958 -0.018899968
000300 c5 a0 8a bd 6a 40 12 3d 37 8c 69 3e d1 23 f0 bd
       -0.067689456 0.03570596 0.22807394 -0.117255814
000310 e4 b9 3a 3e ca 4e 2f 3e b6 2b b9 3d 6f 30 3e 3e
       0.18234974 0.171199 0.0904154 0.18573163
000320 c0 91 1d 3e a9 dc fd 3d d8 1b 8f 3d 78 41 dc bd
       0.1538763 0.12395603 0.06987733 -0.10754675
000330 51 fc e7 bd ae a8 3d 3e 87 f8 31 bc ab 1c 1a be
       -0.113274224 0.18521377 -0.010862476 -0.15049998
000340 c8 77 14 3c 25 b1 06 be 1e 6c 18 3e b7 d4 85 3d
       0.009061761 -0.13153513 0.14884993 0.06534713
000350 ec 79 78 be 5c de 97 3d e6 dc 22 be df c0 ca 3d
       -0.2426526 0.074154586 -0.15904579 0.099000685
000360 e7 68 51 bd 5d 98 ca bd 78 1d aa bd 5a 55 60 be
       -0.051125433 -0.09892342 -0.08306402 -0.21907559
000370 d2 05 22 be ad 38 0c 3e 2a 6f 9d 3d 1f 6b d5 bd
       -0.15822533 0.13693495 0.076872185 -0.10420822
000380 82 af 78 3d 2c 7f 32 be 13 69 60 be c4 93 f8 bd
       0.060714252 -0.17431325 -0.21915083 -0.12137559
000390 4a 45 7f be 45 40 99 3d 99 fe e0 bd 8f df 32 be
       -0.24928775 0.074829616 -0.10986061 -0.17468093
0003a0 a6 75 de 3a cd b6 2a bd ba 86 f5 3c 93 b0 eb 3c
       0.0016972318 -0.04167824 0.02997147 0.02877072
0003b0 21 4d 52 be 7b 8f f7 3c ff 47 f5 bd 38 2b c0 3d
       -0.20537235 0.030219784 -0.11976623 0.09383243
0003c0 be 26 02 be ae 63 6e bd 76 57 5d bc 01 85 14 be
       -0.12710091 -0.05820053 -0.013509622 -0.14503862
0003d0 5d f7 c5 bc af bc 10 be c9 03 5c 3c 59 e3 23 be
       -0.024165804 -0.14134477 0.013428637 -0.16004695
0003e0 62 c8 0a be 14 49 63 be 0f b9 d1 bd 59 35 01 3e
       -0.13553002 -0.22195846 -0.10240375 0.12618007
0003f0 a3 63 24 bc 23 79 4a be 21 e8 64 be 96 c1 ef 3d
       -0.010033521 -0.19772772 -0.22354175 0.117068455
