experiments/output-gat/BA_Shapes/max/42/model.pth (torch, 39135 bytes, 18 tensors)

layers.0.bias f4 [20]
0	0x00000000	0.0
1	0x3eec8108	0.46192193
2	0x3ed3d3dc	0.41372573
3	0x00000000	0.0
4	0x3ef28fe2	0.473754
5	0x00000000	0.0
6	0x3ef441e5	0.47706524
7	0x3ebd542c	0.3697828
8	0x00000000	0.0
9	0x00000000	0.0
10	0x3ebf4692	0.37358528
11	0x00000000	0.0
12	0x3ee40b98	0.44540095
13	0x3ef2fca7	0.47458383
14	0x3ef8e91e	0.48615354
15	0x3eb3a961	0.35090163
16	0x00000000	0.0
17	0x3eef0bca	0.46688682
18	0x00000000	0.0
19	0x00000000	0.0

layers.0.combine_aggr.weight f4 [20, 80]
0	0x3daf0f18	0.08547801
1	0x3dbe0cba	0.09279771
2	0xbcd69190	-0.026192456
3	0x3dd25668	0.10270387
4	0xbcc8acf0	-0.024496526
5	0x3cb8d198	0.02256088
6	0xbd5ef423	-0.054432046
7	0x3d8678da	0.06566019
8	0x3dc9d990	0.0985595
9	0xbda7fb36	-0.082022116
10	0x3dc705d4	0.097179085
11	0x3cab6b00	0.020925045
12	0x3da92ae4	0.08260134
13	0x3c781470	0.015141591
14	0x3d5cd104	0.05391027
15	0xbc8150e0	-0.015785635
16	0x3db08328	0.08618766
17	0x3c876090	0.016525537
18	0xbd55c9ad	-0.052194286
19	0x3ce975b0	0.0284985
20	0xbd52fe2a	-0.05151192
21	0xbc56d1a0	-0.013111502
22	0xbd39ffb6	-0.04540988
23	0x3d97e4f0	0.07416713
24	0xbdb4bea7	-0.088254265
25	0xbd531e40	-0.05154252
26	0xbd015006	-0.031570457
27	0xbd89ace6	-0.06722431
28	0x3c2ce3c8	0.010552354
29	0xbde226f7	-0.11042588
30	0x3dcec9b4	0.100970656
31	0xbdc2816e	-0.09497343
32	0x3db0c612	0.08631529
33	0x3c986c18	0.01860623
34	0xbd14b286	-0.036303066
35	0x3d8d7e7c	0.069088906
36	0x3c8ebe20	0.017424643
37	0x3db90088	0.090333045
38	0x3c484018	0.012222312
39	0xbd106c92	-0.03525979
40	0x3cf615e8	0.030039743
41	0xbcf85f18	-0.030318782
42	0x3d40baf8	0.047053307
43	0x3dcc6eb8	0.099820554
44	0x3d845c38	0.06462902
45	0xbd4833a4	-0.048877373
46	0x3d842da0	0.06454015
47	0x3ca3e098	0.020004556
48	0x3d688fb8	0.056777686
49	0xbd8b8f78	-0.06814474
50	0xbde2a9a4	-0.11067513
51	0xbd30eeba	-0.043196417
52	0xbdafa0b7	-0.08575576
53	0x3dbbe1ac	0.09173903
54	0x3d03e72c	0.032202885
55	0x3d3db010	0.046310484
56	0x3d10d4ac	0.03535907
57	0xbafeed00	-0.0019449294
58	0x3db3324a	0.08749826
59	0xbda2b04e	-0.07943784
60	0x3be6ac20	0.007039562
61	0xbd9c4894	-0.07631031
62	0x3d0d3574	0.034474805
63	0xbd1db570	-0.03850311
64	0x3d0c5284	0.03425838
65	0xbcbed190	-0.023293287
66	0x3dbde89c	0.09272882
67	0xbd87b684	-0.06626609
68	0xbd888f2b	-0.06667932
69	0xbd889148	-0.06668335
70	0x3dcdf2cc	0.100560755
71	0x3d189c7c	0.03725861
72	0x3ddc546c	0.1075829
73	0xbdbcf75e	-0.09226869
74	0xbde31cfb	-0.11089512
75	0xbdb323f5	-0.08747093
76	0xbd9a0723	-0.075208925
77	0x3d397ca0	0.045284867
78	0x3d23facc	0.0400341
79	0x3dbe4272	0.09290017
80	0xbd6c7ecc	-0.05773811
81	0xbd9c1806	-0.076217696
82	0x3d72f9fc	0.059320435
83	0xbd391aa8	-0.045191437
84	0x3d8af82a	0.06785615
85	0xbcd95794	-0.026531018
86	0x3d82fbb8	0.06395668
87	0xbdb1e7ac	-0.08686766
88	0xbd671a4b	-0.05642156
89	0x3d0b9e00	0.034086227
90	0x3cc1a078	0.023636088
91	0xbce983d8	-0.02850525
92	0x3d887bea	0.0666426
93	0x3d9ba880	0.07600498
94	0xbda60b9e	-0.081076846
95	0xbd747bb2	-0.059688278
96	0x3dd1a986	0.10237412
97	0xbd1a86ae	-0.037726097
98	0xbd225980	-0.039636135
99	0xbddd8dab	-0.10818037
100	0xbd832050	-0.064026475
101	0x3ce4cb28	0.027928904
102	0xbc71c888	-0.014757283
103	0xbda63564	-0.08115652
104	0x3b2bdee0	0.0026225373
105	0xbd9c6850	-0.076370835
106	0xbdc2429e	-0.094853625
107	0xbd7c2c95	-0.061565954
108	0xbdc86677	-0.097851686
109	0xbd91cbca	-0.07118948
110	0x3de4e240	0.11175966
111	0x3cacfd48	0.021116868
112	0x3d0d1ee8	0.034453303
113	0xbdd58f53	-0.104277276
114	0xbd96623a	-0.07342954
115	0xbd186e24	-0.037214413
116	0x3c8f3820	0.017482817
117	0xbdc97a82	-0.0983782
118	0xbd455120	-0.04817307
119	0xbd891444	-0.066933185
120	0x39a27100	0.0003098324
121	0xbd2a6748	-0.041602403
122	0xbbfddec0	-0.007747501
123	0xbd9b28be	-0.0757613
124	0xbd9d2a8c	-0.07674131
125	0xbd85955e	-0.0652263
126	0xbd1cc106	-0.03827002
127	0xbdb4b96c	-0.08824429
128	0x3dbffcbe	0.093743786
129	0xbcb5c59c	-0.022188954
130	0x3dc50208	0.09619528
131	0x3d0eb020	0.034835935
132	0xbdc1e4da	-0.09467478
133	0x3d9e7526	0.07737188
134	0xbcfc00dc	-0.030762129
135	0xbd2f8afc	-0.042857155
136	0xbdbe1064	-0.0928047
137	0xbde3a2e5	-0.11115054
138	0x3d030600	0.031988144
139	0xbcc81240	-0.024422765
140	0x3d324a0c	0.043527648
141	0xbdbbe8fa	-0.09175296
142	0x3da9ff1a	0.0830061
143	0xbda81429	-0.0820697
144	0xbc9e2680	-0.019305468
145	0x3cbf4d68	0.02335234
146	0x3d6c6a74	0.05771871
147	0x3db8da42	0.090260044
148	0x3dd095dc	0.101848334
149	0xbdb58edc	-0.08865139
150	0x3ce68018	0.028137252
151	0xbd44f98a	-0.04808954
152	0xbc48bc68	-0.012251951
153	0xbdab6261	-0.08368374
154	0x3dd08ff6	0.10183708
155	0xbda80e1c	-0.08205816
156	0x3d74c00c	0.059753463
157	0x3d20f0cc	0.03929214
158	0x3d14d000	0.036331177
159	0xbd77964f	-0.06044608
160	0x3dd0202c	0.10162386
161	0x3cc94498	0.02456884
162	0x3c6ba420	0.014382392
163	0xbdc9c8ac	-0.09852728
164	0x3d403da4	0.046933785
165	0xbc896724	-0.016772814
166	0xbd51cbe8	-0.05121985
167	0x3dc4ad06	0.09603314
168	0x3ccc3288	0.024926439
169	0xbd7d5f02	-0.061858185
170	0xbd67c8df	-0.05658805
171	0xbbaef4e0	-0.00533925
172	0x3d7fb320	0.062426686
173	0xbcea0ab0	-0.02856955
174	0xbd82a57e	-0.063792214
175	0xbd1cd212	-0.038286276
176	0xbdab0f6c	-0.08352551
177	0x3d235194	0.03987272
178	0x3db13c0e	0.08654033
179	0xbdd79094	-0.10525623
180	0x3cd4b788	0.02596642
181	0x3d6c9250	0.057756722
182	0x3ca61410	0.020273238
183	0xbd23160c	-0.039815947
184	0x3d6f058c	0.0583549
185	0x3d70a834	0.05875416
186	0x3d2b3d20	0.04180634
187	0xbca0f12c	-0.01964625
188	0xbcf2879c	-0.02960568
189	0x3c43f758	0.011960827
190	0xbca1cbdc	-0.019750528
191	0xbd0877f6	-0.03331753
192	0x3d925c82	0.07146551
193	0x3dc4c794	0.09608379
194	0xbc355790	-0.01106824
195	0xbccd10d0	-0.02503243
196	0x3ad5d700	0.0016314685
197	0xbbdabee0	-0.006675586
198	0x3cdc30f0	0.026878804
199	0x3d005504	0.031331077
200	0xbdcff773	-0.10154619
201	0xbd28ffe8	-0.041259676
202	0x3dc0d342	0.09415294
203	0x3d32653c	0.043553576
204	0xbbb637a0	-0.0055608302
205	0xbd8a0ca2	-0.06740691
206	0xbd8c164a	-0.06840189
207	0xbdcd1b54	-0.10014978
208	0xbd1545fe	-0.036443703
209	0x3d1aa688	0.037756473
210	0x3d91ff96	0.07128827
211	0x3d536ecc	0.051619336
212	0xbdca664e	-0.09882794
213	0xbd89b22c	-0.06723437
214	0xbc908b10	-0.017644435
215	0x3ddd7f4e	0.10815297
216	0x3c847da8	0.016173199
217	0xbced3088	-0.028953806
218	0x3d3d75a4	0.04625477
219	0xbd2e6c68	-0.042583853
220	0xbd94344d	-0.07236538
221	0x3da71fee	0.08160387
222	0xbd503aac	-0.050837204
223	0xbcb79b30	-0.022412866
224	0xbde3c89f	-0.1112225
225	0x3d993ec2	0.07482673
226	0x3dad7a68	0.08470613
227	0x3d26e5d8	0.04074654
228	0xbd9fa840	-0.07795763
229	0xbde1fba2	-0.11034323
230	0xbdb9f7a4	-0.09080437
231	0x3daabed8	0.08337182
232	0x3d5bdce4	0.053677455
233	0x3dc0ae9e	0.094083056
234	0x3d6fe78c	0.05857043
235	0x3ce7ce30	0.02829656
236	0xba8f8140	-0.0010948554
237	0xbdae22b8	-0.08502716
238	0xbdc42d92	-0.09579004
239	0xbdd62b80	-0.10457516
240	0x3d3b7748	0.045768052
241	0xbd60d651	-0.054891888
242	0xbcb85370	-0.022500724
243	0xbd83c67e	-0.06434344
244	0xbca6e5b8	-0.02037321
245	0xbda128d1	-0.07869113
246	0xbd959d62	-0.07305409
247	0x3d17e7e8	0.037086397
248	0xbd0819a0	-0.033227563
249	0x3d8d5aea	0.06902106
250	0xbd12e9d0	-0.035867512
251	0xbda7f7a4	-0.082015306
252	0xbca19968	-0.01972647
253	0xbd5dfd0d	-0.054196406
254	0xbd0c1ade	-0.03420531
255	0xbdd9fb4c	-0.10643634

layers.0.lin_a.weight f4 [1, 40]
0	0xbe0da2be	-0.13831612
1	0x3df801a6	0.121096894
2	0xbe27b6c8	-0.1637832
3	0x3cfa6a8b	0.030568382
4	0x3d9e0b0e	0.07716952
5	0x3df18e8d	0.117947675
6	0xbcf99989	-0.03046872
7	0x3da91362	0.0825565
8	0xbd8ca2da	-0.06866999
9	0x3d3616cb	0.04445533
10	0xbdb72900	-0.08943367
11	0x3d2ab237	0.041673865
12	0xbe0b4025	-0.13598688
13	0xbc4d418b	-0.012527834
14	0x3db42c1e	0.08797477
15	0xbe0ae681	-0.13564493
16	0xbcf6b3b7	-0.030114992
17	0xbdb1a304	-0.08673671
18	0x3e32e766	0.17471084
19	0xbc3f3bc0	-0.01167196
20	0xbdf05c37	-0.117363386
21	0x3b002d8d	0.00195584
22	0x3d7615d1	0.0600794
23	0x3de65715	0.11247078
24	0x3e4b4f95	0.19854577
25	0xbcdbc173	-0.026825642
26	0x3dcf51f0	0.1012305
27	0xbde4da54	-0.11174455
28	0xbd02ff8d	-0.031981993
29	0x3cc53052	0.024070892
30	0x3b4f4fe1	0.0031633305
31	0xbddd982e	-0.108200416
32	0xbda956a3	-0.08268478
33	0x3e0adab1	0.13559987
34	0xbe293de5	-0.16527517
35	0xbe15b7e1	-0.14620925
36	0xbe1f0988	-0.1553098
37	0xbd70d598	-0.05879745
38	0x3df23d41	0.118280895
39	0x3d8140bf	0.063111775

layers.0.lin.weight f4 [20, 1]
0	0xbe30f23a	-0.17279902
1	0x3f8f3013	1.1186546
2	0x3f492a56	0.78580225
3	0xbf611866	-0.87927854
4	0x3f109b3e	0.5648688
5	0xbf311d26	-0.691851
6	0x3f9b7bdb	1.2147173
7	0x3f14ddcc	0.58150935
8	0xbe83892d	-0.25690594
9	0xbf033deb	-0.51266354
10	0x3f3bb229	0.73318726
11	0xbf1a1deb	-0.602019
12	0x3f6a22b9	0.9145923
13	0x3f828245	1.0196005
14	0x3f8cd189	1.1001445
15	0x3f250175	0.6445535
16	0xbf604764	-0.87608933
17	0x3f9944f9	1.1974174
18	0xbe9f6213	-0.31129512
19	0xbe961324	-0.29311478

layers.1.bias f4 [20]
0	0x3ef4a1d3	0.47779712
1	0x00000000	0.0
2	0x3f0f64d0	0.560132
3	0xbba7fc8b	-0.005126541
4	0xbe909905	-0.28241745
5	0x3f3767f1	0.71642977
6	0x3f9b9c3d	1.2157055
7	0x3f99e19d	1.2021977
8	0x3eff620d	0.49879494
9	0x00000000	0.0
10	0x3ea40a32	0.32039028
11	0x3e8c1dcc	0.27366483
12	0x3f4670c2	0.77515805
13	0x00000000	0.0
14	0xbf079490	-0.52961063
15	0x00000000	0.0
16	0x3f7ff0c3	0.9997675
17	0x3ef51f63	0.4787551
18	0xbba3f7de	-0.0050039133
19	0x3e946ffe	0.28991693

layers.1.combine_aggr.weight f4 [20, 80]
0	0xbc44ce20	-0.012012035
1	0x3da76910	0.08174336
2	0x3db01050	0.08596861
3	0x3c8d6cc8	0.017263785
4	0x3d5a8298	0.0533472
5	0xbdd56708	-0.10420042
6	0x398a7800	0.00026410818
7	0xbdca91a8	-0.09891063
8	0x3d1bdca8	0.03805223
9	0xbda321c6	-0.07965426
10	0xbd2336e0	-0.039847255
11	0x3da00f3e	0.07815407
12	0x3ddad432	0.10685004
13	0xbd89789c	-0.067124575
14	0xbd7e2a59	-0.062052105
15	0x3c62dc10	0.013846412
16	0x3d340570	0.043950498
17	0xbc952c78	-0.01820968
18	0xbd0f0328	-0.03491512
19	0xbd966652	-0.07343735
20	0x3d437c80	0.047726154
21	0x3de056e0	0.1095407
22	0xbd5daeb5	-0.05412169
23	0x3d57ff30	0.0527336
24	0x3d5fa8a0	0.054604173
25	0x3db80c50	0.089867234
26	0xbc508e50	-0.012729242
27	0x3b66ca00	0.0035215616
28	0x3da839fa	0.08214183
29	0x3d90bcbc	0.07067248
30	0x3de2289c	0.11042902
31	0xbd033bdc	-0.03203951
32	0x3d353410	0.044239104
33	0x3d9fe2fa	0.07806964
34	0xbd9b6e47	-0.07589393
35	0x3cb5f348	0.022210732
36	0xbcccef04	-0.025016315
37	0x3d93308c	0.07186994
38	0xbd4dad24	-0.050213948
39	0x3c007a98	0.007841729
40	0x3d88ff4a	0.066893175
41	0xbdd1c431	-0.10242499
42	0xbdc15620	-0.09440255
43	0xbd6a8d91	-0.057263914
44	0x3d92de10	0.07171261
45	0x3d998874	0.074967295
46	0xbd9c61c7	-0.07635837
47	0x3caea638	0.021319494
48	0xbd72a83f	-0.059242483
49	0xbd548ea5	-0.05189385
50	0x3dc5787a	0.0964212
51	0x3d5d3144	0.05400206
52	0xbcfa7b30	-0.030576319
53	0x3c86d228	0.016457632
54	0x3cb175f0	0.021662682
55	0x3cd68a30	0.02618894
56	0xbd1cbed4	-0.038267925
57	0xbd86d6d0	-0.06583941
58	0x3d979850	0.07402098
59	0x3c762450	0.015023306
60	0x3d3fac68	0.04679528
61	0xbd2d7022	-0.042343266
62	0x3d5dd0c0	0.054154158
63	0x3da6a392	0.08136667
64	0x3d8b416a	0.06799586
65	0x3cf90710	0.030398875
66	0x3de14870	0.110001445
67	0xb9803200	-0.00024451315
68	0x3cc2fdb0	0.023802608
69	0x3dd98dee	0.10622774
70	0x3dde89dc	0.10866138
71	0xbd415ab4	-0.047205642
72	0x3dce428c	0.100712866
73	0x3d290284	0.041262165
74	0xbc4d0bc0	-0.012515008
75	0x3dc7ed5c	0.097620696
76	0xbd6d3ad3	-0.057917427
77	0x3d94c66e	0.0726441
78	0x3de2e65a	0.11079092
79	0xbd9dec65	-0.07711104
80	0xbd871d95	-0.06597439
81	0xbde2e497	-0.11078756
82	0xbca4d38c	-0.020120405
83	0xbdcff455	-0.101540245
84	0xbd19605c	-0.03744541
85	0x3d0b07c8	0.033942968
86	0x3da1db2e	0.07903133
87	0x3d7f17ac	0.062278435
88	0x3d7e328c	0.062059924
89	0x3d3dfc4c	0.046383187
90	0xbd8e0454	-0.06934419
91	0xbdb5cdbe	-0.08877133
92	0x3b97de60	0.0046346635
93	0x3dd96dde	0.10616659
94	0x3bce47c0	0.0062951744
95	0xbc1d8d40	-0.009616196
96	0xbd9b69ac	-0.07588515
97	0xbd631149	-0.055436406
98	0xbdb081da	-0.08618517
99	0x3db754ec	0.089517444
100	0xbc9539e8	-0.018216088
101	0xbdca46ed	-0.09876809
102	0x3c448118	0.011993669
103	0x3c04edf0	0.008113369
104	0xbc625090	-0.013813153
105	0x3d23edac	0.040021583
106	0x3d764634	0.060125545
107	0xbdd75431	-0.10514105
108	0xbdaf6a22	-0.08565165
109	0xbbafff70	-0.0053710267
110	0xbdd44a33	-0.10365715
111	0xbdcffd7d	-0.10155771
112	0x3dca29ba	0.0987124
113	0xbc0b5320	-0.008503705
114	0xbd62678a	-0.055274524
115	0xbd1d155c	-0.038350448
116	0xbdb2c3c0	-0.087287426
117	0x3db2aed6	0.087247536
118	0xbcc699ec	-0.024243318
119	0xbd80bcce	-0.06286012
120	0xbdada806	-0.084793136
121	0x3d85d528	0.06534797
122	0xbc7d35e0	-0.015454739
123	0xbc407148	-0.011745758
124	0xbceeb658	-0.029139683
125	0xbd5d0fb5	-0.053970058
126	0x3ca2edb8	0.019888744
127	0x3db02a54	0.086018234
128	0xbd84b55b	-0.06479903
129	0x3baf8820	0.0053568035
130	0xbdae2325	-0.08502797
131	0xbd56bada	-0.05242429
132	0x3dc8fc66	0.09813766
133	0x3a99a6c0	0.0011722669
134	0x3ddc930c	0.107702345
135	0xbca077e4	-0.019588418
136	0xbd7999e8	-0.060937792
137	0xbd88cf14	-0.06680122
138	0x3dcaf144	0.09909299
139	0xbdb013d8	-0.08597535
140	0x3d7053ec	0.058673784
141	0x3ce3acc0	0.027792335
142	0x3d0724b4	0.032993987
143	0x3d813228	0.06308395
144	0xbcef9e64	-0.029250331
145	0x3d8dae2c	0.06917986
146	0xbdb66da1	-0.08907629
147	0xbd211fe4	-0.039337054
148	0x3da79e34	0.08184472
149	0x3d07e8c8	0.033180982
150	0xbc73f190	-0.014889136
151	0xbcd5e3a0	-0.026109517
152	0xbd8bd080	-0.068268776
153	0x3d8b3ca0	0.06798673
154	0xbb690120	-0.003555365
155	0xbb77e7e0	-0.0037827417
156	0x3cd89a50	0.02644077
157	0x3da8f872	0.08250512
158	0xbd69a304	-0.05704023
159	0xbd1db736	-0.0385048
160	0x3d9b28d2	0.07576145
161	0x3d81515e	0.06314348
162	0xbd6147db	-0.055000167
163	0xbde283a3	-0.11060264
164	0x3ca9e898	0.020740792
165	0x3d70d4d8	0.058796734
166	0x3cdac488	0.026705042
167	0x3da26a02	0.07930376
168	0xbdb5af36	-0.088713095
169	0x3d66efa8	0.056380898
170	0xbd8e5916	-0.069505855
171	0x3d80de24	0.0629237
172	0x3daa4a70	0.08314979
173	0x3d110a00	0.035409927
174	0x3db941aa	0.090457276
175	0xbd96ed9b	-0.073695384
176	0xbdccc9ca	-0.09999426
177	0xbddc28b9	-0.10749955
178	0x3d8fc1b6	0.07019369
179	0x3d206c5c	0.03916584
180	0xbda7ab6a	-0.081869915
181	0x3d5dc65c	0.05414425
182	0x3dd0eb08	0.10201079
183	0xbde1c971	-0.1102475
184	0x3da61a24	0.08110455
185	0x3c8c7928	0.017147616
186	0x3c2a6500	0.010400057
187	0x3dce0756	0.10059993
188	0x3dcf5b24	0.101248056
189	0x3d40f4d8	0.0471085
190	0x3db4eb7a	0.08833976
191	0x3d3e845c	0.046512946
192	0x3c953cb0	0.018217415
193	0xbdc94526	-0.09827642
194	0x3cab12b8	0.02088295
195	0xbda2e6fa	-0.079542115
196	0x3d0cfc80	0.03442049
197	0x3ca19840	0.019725919
198	0x3b249c00	0.0025117397
199	0xbd9c8e21	-0.076442964
200	0xbd8acd92	-0.06777491
201	0x3da93e2a	0.0826381
202	0x3d5f0760	0.054450393
203	0x3d7172a0	0.058947206
204	0xbd087520	-0.033314824
205	0xbc9db6a4	-0.019252129
206	0xbceab918	-0.028652713
207	0x3d9d76a6	0.07688646
208	0xbd45b0a6	-0.04826417
209	0x3d9038e6	0.070421025
210	0x3d9de02e	0.077087745
211	0xbdd168b2	-0.10225047
212	0x3a32fa00	0.0006827414
213	0xbcae6f64	-0.02129335
214	0xbd7d29c6	-0.061807416
215	0x3d45b420	0.048267484
216	0xbc5e8d90	-0.013583556
217	0x3dc877d2	0.09788479
218	0xbd8f50ba	-0.06997819
219	0x3d54c6c4	0.05194737
220	0xbdc37eeb	-0.09545692
221	0xbd658866	-0.056038283
222	0x3bf9e740	0.007626444
223	0x3db4e908	0.0883351
224	0x3d713598	0.058889
225	0xbdbc01b7	-0.091800146
226	0x3c4ae610	0.012383953
227	0xbd86fa3b	-0.065906964
228	0x3b9ebde0	0.004844412
229	0xbdbec068	-0.09314042
230	0xbd065974	-0.032800153
231	0x3d9d0b8e	0.076682195
232	0xbdd21762	-0.10258366
233	0xbdda4ef3	-0.106595896
234	0x3ca6d320	0.020364344
235	0x3c7b1c00	0.0153265
236	0xbca780f0	-0.020447224
237	0x3dc7f13c	0.09762809
238	0xbd89dcc2	-0.06731559
239	0xbd8b0154	-0.06787363
240	0xbdab26f1	-0.08357037
241	0xbcaa77e8	-0.020809129
242	0xbce9bd90	-0.028532773
243	0x3d8dad32	0.069178
244	0xbbcdb4c0	-0.0062776506
245	0x3d123f38	0.03570482
246	0xbd3e4d86	-0.04646065
247	0x3db9bdd0	0.09069407
248	0x3dc10762	0.09425236
249	0xbdcd0fba	-0.10012765
250	0xbceb6260	-0.028733432
251	0xbdc24886	-0.09486489
252	0x3d428c50	0.047497094
253	0xbdc80cd9	-0.097680755
254	0xbd5885ca	-0.052861966
255	0x3de4c8ac	0.111710876

layers.1.lin_a.weight f4 [1, 40]
0	0xbdda8830	-0.10670507
1	0xbd94b44e	-0.07260953
2	0x3e484811	0.19558741
3	0xbe078f22	-0.13238195
4	0x3e07044e	0.13185236
5	0x3dd23882	0.10264684
6	0x3da064ed	0.0783175
7	0xbe273982	-0.16330531
8	0x3e003410	0.1251986
9	0xbe0d7410	-0.13813806
10	0x3c874468	0.01651211
11	0x3dbcb3a1	0.09213949
12	0x3e1370a5	0.14398439
13	0xbdcb1818	-0.09916705
14	0xbd6d50d8	-0.057938427
15	0xbe3de0df	-0.18542813
16	0x3e17a6f4	0.14809781
17	0x3d2f027a	0.04272697
18	0xbe4c9f10	-0.19982553
19	0xbd33c601	-0.043890003
20	0xbe260f73	-0.16216831
21	0xbd4e9dcb	-0.05044345
22	0x3bc949fa	0.006142852
23	0xbe42f5e0	-0.19039106
24	0x3d435a44	0.047693506
25	0xbbffd5aa	-0.007807453
26	0x3e1f7d61	0.15575172
27	0x3baa7441	0.005201847
28	0x3e311b5e	0.17295596
29	0xbcf7aa72	-0.030232642
30	0x3d249193	0.040177893
31	0x3e7bada2	0.24577954
32	0x3db418a5	0.08793763
33	0xbe344147	-0.17603026
34	0xbc7cb351	-0.015423612
35	0xbcb2e61f	-0.021838246
36	0x3dae24f3	0.08503141
37	0x3e10809f	0.14111565
38	0xbe1b5c61	-0.15171959
39	0x3e745921	0.23862125

layers.1.lin.weight f4 [20, 20]
0	0x3e5aa352	0.21351364
1	0xbe02219e	-0.12708136
2	0xbe864c49	-0.26230076
3	0x3e475a38	0.1946801
4	0xbe4b661e	-0.19863173
5	0x3e10b110	0.14130044
6	0xbeeb06bf	-0.45903584
7	0xbcb687f8	-0.022281632
8	0x3e57d9dc	0.210792
9	0xbe2b1776	-0.16708168
10	0xbef3fcef	-0.4765391
11	0xbd854870	-0.06507957
12	0xbecf79e6	-0.4052269
13	0xbe426ef3	-0.18987636
14	0xbe1ecb6f	-0.15507291
15	0xbe9220e5	-0.28540722
16	0x3e20ac92	0.1569083
17	0xbe830dff	-0.25596616
18	0xbd86988c	-0.06572065
19	0xbe4371ea	-0.19086424
20	0x3d918b94	0.071067005
21	0xbe86d9e2	-0.26338106
22	0xbd5911cf	-0.0529955
23	0x3d05df80	0.03268385
24	0xbe2df9ed	-0.1698987
25	0x3d899390	0.067175984
26	0xbc160b18	-0.009157918
27	0x3dd2a013	0.10284438
28	0x3e0f35f8	0.13985431
29	0xbe394d7c	-0.18095964
30	0xbe5d3715	-0.21603043
31	0xbda813c2	-0.082068935
32	0xbe59fec2	-0.21288589
33	0x3c8e4355	0.01736609
34	0xbe4bee9c	-0.19915241
35	0xbe6081f7	-0.21924578
36	0x3d8561e8	0.06512815
37	0x3da8fde4	0.08251551
38	0xbd8522a6	-0.06500749
39	0xbe642978	-0.22281444
40	0x3d0171d0	0.03160268
41	0x3f066ae7	0.5250687
42	0x3f18b543	0.59651583
43	0x3cadcdb8	0.021216258
44	0x3f1ad1d4	0.6047642
45	0xbe4cbbd7	-0.1999353
46	0x3f1fd894	0.62439847
47	0x3e9cdb25	0.30635944
48	0xbe1c4a92	-0.15262821
49	0x3e2453fe	0.16047665
50	0x3ecd1eaf	0.40062472
51	0x3e0d4eb6	0.13799557
52	0x3e8ae8bb	0.27130684
53	0x3f151a8f	0.5824365
54	0x3f1fb488	0.62384844
55	0x3f062770	0.52403927
56	0x3e38b622	0.18038228
57	0x3e80bdbe	0.25144762
58	0xbd4a3db8	-0.049375266
59	0x3d8b63a4	0.06806114
60	0x3e0163fc	0.12635797
61	0xbe5010d5	-0.20318921
62	0x3d83645f	0.06415629
63	0xbd96b83c	-0.07359359
64	0xbe3a4975	-0.18192084
65	0x3d332918	0.043740362
66	0xbe868cf2	-0.26279408
67	0xbe8bff3c	-0.27343166
68	0x3d9844e8	0.07435018
69	0x3d9bfb70	0.07616317
70	0x3c2072d6	0.009793004
71	0xbcf037c8	-0.029323474
72	0xbe7a2891	-0.24429537
73	0xbe86393b	-0.26215538
74	0x3e05cd6f	0.13066648
75	0xbe887444	-0.26651204
76	0x3d8a05a0	0.06739354
77	0x3dc75245	0.097324885
78	0x3e2eee16	0.1708301
79	0xbe105e62	-0.14098504
80	0xbd93a8e2	-0.07209946
81	0x3e5b8ff0	0.21441627
82	0x3f099566	0.5374359
83	0xbe56e0aa	-0.2098414
84	0x3e531507	0.2061349
85	0xbe18dce6	-0.14928016
86	0x3f13d7c3	0.577511
87	0x3f115665	0.5677245
88	0x3e196c2e	0.14982674
89	0x3e2fb038	0.17157066
90	0x3eb05909	0.34442928
91	0xbdff641c	-0.12470266
92	0x3e8d7a6a	0.27632457
93	0x3eefa1ec	0.46803224
94	0x3ef623af	0.480741
95	0x3f005df6	0.50143373
96	0xbe302754	-0.17202502
97	0x3ed460d3	0.4148012
98	0xbdf30157	-0.1186549
99	0xbd341b94	-0.043971613
100	0xbd0dc9e4	-0.034616366
101	0x3ed733f2	0.4203182
102	0x3e616e82	0.22014812
103	0x3e43738c	0.19087046
104	0x3eafbbdf	0.34323022
105	0x3d8f1620	0.06986642
106	0x3f1052e9	0.5637651
107	0x3f07d9a7	0.53066486
108	0x3e205ac4	0.15659624
109	0x3e014c22	0.12626699
110	0x3f1c0756	0.60948694
111	0x3d414e90	0.047194064
112	0x3f112b92	0.5670711
113	0x3ea0755a	0.31339532
114	0x3e9428b8	0.28937316
115	0x3f0e5604	0.556
116	0x3d705110	0.058671057
117	0x3ecdd9b2	0.4020515
118	0xbe41241c	-0.18861431
119	0x3d95a3f4	0.07306662
120	0x3e145178	0.14484203
121	0x3e999711	0.29998067
122	0x3eb5bb69	0.35494545
123	0x3dcbde74	0.09954539
124	0x3c97d7b7	0.018535478
125	0xbd16b0c8	-0.036789685
126	0x3e80206c	0.25024736
127	0x3e389dec	0.18028992
128	0x3e0bf34e	0.13667032
129	0x3e630634	0.22170335
130	0x3ec4911d	0.38391963
131	0x3e0e8262	0.13916925
132	0x3e289ec9	0.16466822
133	0x3eb66a3e	0.3562793
134	0x3e95dff0	0.29272413
135	0x3e49fc13	0.19725065
136	0x3d3bcc18	0.045848936
137	0x3ecefbc5	0.4042646
138	0xbc30f340	-0.010800183
139	0x3dc276d4	0.09495321
140	0x3ddbdd44	0.107355624
141	0x3f0df1b0	0.5544691
142	0x3ec437c9	0.3832381
143	0x3c0286d0	0.007966712
144	0x3ecc62dd	0.39919177
145	0x3cfccae0	0.030858457
146	0x3e4ff407	0.20307933
147	0x3ebc0a5e	0.3672666
148	0xbe41a096	-0.18908915
149	0xbe209bcc	-0.15684432
150	0x3e3381cd	0.17529984
151	0x3e29ce78	0.16582668
152	0x3e6fa194	0.23401481
153	0x3ead7622	0.3387919
154	0x3ec170ce	0.37781376
155	0x3f133e37	0.5751681
156	0x3dcfd5a0	0.101481676
157	0x3e42dbd0	0.19029164
158	0x3e5ff408	0.21870434
159	0xbe58e168	-0.21179736
160	0x3cee2a30	0.029072851
161	0x3f1b9930	0.6078062
162	0x3f1b5a0f	0.60684294
163	0xbd5447cc	-0.051826283
164	0x3e93de47	0.28880522
165	0x3dc915b0	0.0981859
166	0x3f13a72b	0.57676953
167	0x3ea4c1b5	0.32179037
168	0xbd10eea8	-0.03538385
169	0xbe0b402a	-0.13598695
170	0x3f085709	0.53257805
171	0x3d42f2b0	0.047594726
172	0x3f08666d	0.5328129
173	0x3ea85df0	0.3288417
174	0x3e412ee6	0.18865547
175	0x3eb6af36	0.3568055
176	0xbe33137d	-0.17487903
177	0x3eb3b847	0.3510153
178	0x3da66d60	0.081263304
179	0xbe3e7d86	-0.18602571
180	0xbc2b0250	-0.010437563
181	0xbe9ada8e	-0.3024487
182	0xbe723f01	-0.23656847
183	0xbe205028	-0.15655577
184	0xbe0e0530	-0.13869166
185	0xbde8080e	-0.11329661
186	0xbd4d684f	-0.050148305
187	0x3d8c0dbd	0.06838558
188	0x3e2ca6fa	0.16860572
189	0x3d9049e8	0.070453465
190	0xbd9f2e23	-0.07772472
191	0xbd23372c	-0.039847538
192	0x3d919973	0.07109346
193	0xbe578e07	-0.21050273
194	0x3da0a085	0.07843117
195	0xbe937c7d	-0.28805915
196	0xbe2ae621	-0.1668935
197	0xbccb68ea	-0.0248303
198	0xbdbc9d4a	-0.09209688
199	0x3d2ae108	0.041718513
200	0x3e47812c	0.19482869
201	0x3f09fec0	0.5390434
202	0x3f2a0a96	0.664224
203	0xbdc1f8e0	-0.09471297
204	0x3ebbd9b6	0.36689538
205	0xbce895b0	-0.028391689
206	0x3ec96c0c	0.39340246
207	0x3ec1ed6e	0.37876457
208	0xbc637520	-0.013882905
209	0x3e4edbee	0.20201084
210	0x3ebac904	0.36481488
211	0x3e009668	0.12557375
212	0x3f0fc0cb	0.56153554
213	0x3f116b7f	0.5680465
214	0x3efeff2f	0.49804065
215	0x3ed189fd	0.4092559
216	0x3dbd0034	0.09228554
217	0x3eaac4b3	0.33353195
218	0xbe0c8c3c	-0.1372537
219	0x3e560b0c	0.20902652
220	0x3e3dcb0e	0.1853449
221	0x3e8701f3	0.26368675
222	0x3f1d11b8	0.6135516
223	0x3d3deb68	0.04636708
224	0x3f028a66	0.5099243
225	0x3e5cb322	0.21552709
226	0x3ed4daef	0.41573283
227	0x3ec8a167	0.3918564
228	0x3e0fbe70	0.1403749
229	0xbd6c9688	-0.057760745
230	0x3ed8f833	0.4237686
231	0xbdb8ab5e	-0.09017061
232	0x3f2a98b5	0.6663926
233	0x3f087c0c	0.5331428
234	0x3ec77dbf	0.38963124
235	0x3ef596c1	0.4796658
236	0x3c8033e0	0.015649736
237	0x3e970622	0.29496866
238	0x3d8205b8	0.06348747
239	0xbe31b676	-0.1735476
240	0xbc2ad090	-0.010425702
241	0x3eb00bb0	0.34383917
242	0x3e9b40a4	0.30322754
243	0x3e53c65a	0.20681134
244	0x3ef6883a	0.48150808
245	0x3ddc9b84	0.1077185
246	0x3e750a77	0.23929773
247	0x3eeb7344	0.45986378
248	0x3d756fd0	0.059921086
249	0x3dedba94	0.116078526
250	0x3ebb3f79	0.36571863
251	0xbd33dc0c	-0.043911025
252	0x3e63f3f0	0.22261024
253	0x3f05fa1b	0.52334756
254	0x3f0927f3	0.5357658
255	0x3f0ae1d0	0.5425081

layers.2.bias f4 [20]
0	0xbe8f1e70	-0.2795291
1	0x3f07224f	0.52786726
2	0x00000000	0.0
3	0x00000000	0.0
4	0xbfaedc56	-1.3660991
5	0x3f0d2031	0.55127245
6	0x3f97579b	1.182361
7	0x3f1b1c67	0.60590214
8	0x3df49bc9	0.11943776
9	0x00000000	0.0
10	0x3edd254b	0.43192515
11	0x3febac69	1.841199
12	0x00000000	0.0
13	0x3e86ea88	0.26350808
14	0xbc9403eb	-0.018068274
15	0xbfc8af7e	-1.5678556
16	0x3e50d01a	0.20391884
17	0x3e9cd3bc	0.3063029
18	0x3f930858	1.1486921
19	0xbbc4c836	-0.0060053123

layers.2.combine_aggr.weight f4 [20, 80]
0	0xbd8912ca	-0.06693037
1	0x3d0e8268	0.034792334
2	0xbc5e47c0	-0.013566911
3	0xbda9d055	-0.08291689
4	0x3c6f9fe0	0.0146255195
5	0xbcd4ce9c	-0.025977425
6	0xbd365e6e	-0.04452365
7	0xbd5a8ffb	-0.053359967
8	0xbd42e248	-0.04757908
9	0xbd397386	-0.045276187
10	0x3c33fd40	0.0109856725
11	0x3ddd3430	0.108009696
12	0xbd863597	-0.0655319
13	0xbd55a427	-0.0521585
14	0xbd997dd8	-0.07494706
15	0xbb8b0440	-0.00424245
16	0x3c006f08	0.007838972
17	0xbd9d2a72	-0.076741114
18	0x3d512d18	0.051068395
19	0xbdcd5bd6	-0.10027282
20	0x3dd3edde	0.10348104
21	0x3cac5c48	0.021040097
22	0xbc389e08	-0.011268146
23	0xbd23f99c	-0.040032968
24	0x3d4d9e38	0.050199717
25	0x3da73440	0.08164263
26	0xbd95c4d1	-0.073129304
27	0xbce59364	-0.028024383
28	0x3da88f62	0.08230473
29	0xbcaba510	-0.020952731
30	0xbda89a31	-0.08232535
31	0xbd132b1e	-0.03592979
32	0x3b7d1a20	0.0038620308
33	0xbcaafc2c	-0.020872198
34	0xbd9cea1e	-0.07661842
35	0xbd8f7334	-0.07004395
36	0x3cf7a5b0	0.030230373
37	0x3d9d1b98	0.07671279
38	0x3dd04d4a	0.10170992
39	0xbc4f0bb0	-0.012637064
40	0x3d30324c	0.043016717
41	0xbdb5db00	-0.088796616
42	0x3d740654	0.059576347
43	0x3ddacbba	0.10683389
44	0x3d6e7938	0.058221072
45	0xbd351032	-0.0442049
46	0x3dbaafb4	0.09115544
47	0xbdd8db05	-0.1058865
48	0xbc5bcef0	-0.013416037
49	0xbce2efac	-0.027702175
50	0xbde464ab	-0.111520134
51	0xbd829faf	-0.063781135
52	0xbda6d3a6	-0.081458375
53	0x3cf62a60	0.030049503
54	0xbc185e68	-0.009299852
55	0x3d5252a4	0.051348343
56	0xbcce08cc	-0.025150679
57	0x3dbce022	0.092224374
58	0x3c4f7ba8	0.012663759
59	0x3dbdce3c	0.09267852
60	0x3db9effa	0.09078975
61	0xbdc22e68	-0.094815075
62	0xbd99c598	-0.07508391
63	0x3d89eab2	0.06734218
64	0x3dd853de	0.105628714
65	0xbdc36ea1	-0.09542585
66	0x3ad67ac0	0.0016363487
67	0xbd30100c	-0.042984053
68	0x3dd791e6	0.10525875
69	0x3dbe36b0	0.092877746
70	0x3da6a5bc	0.0813708
71	0x3d7670ec	0.060166284
72	0xbc2bd2d0	-0.010487273
73	0x3dd3484c	0.10316524
74	0xbd564bd5	-0.052318413
75	0x3bb511b0	0.00552579
76	0xbcf0fcb8	-0.02941738
77	0xbda70992	-0.08156122
78	0xbd5903cb	-0.052982133
79	0x3cde1140	0.027107835
80	0xbc236f20	-0.009975225
81	0xbd97aefe	-0.07406424
82	0xbc68e0a8	-0.0142137185
83	0x3c9e2e28	0.019309118
84	0xbda03397	-0.0782234
85	0x3d8a4904	0.06752208
86	0xbdc2ab9e	-0.0950539
87	0x3a8c3400	0.001069665
88	0xbdbb4e33	-0.09145775
89	0xbdce7a4e	-0.100819215
90	0xbc638c28	-0.013888396
91	0x3dcfcf7e	0.10146998
92	0x3dd8755c	0.105692595
93	0x3d249708	0.040183097
94	0x3db17a1c	0.08665869
95	0xbd7a5604	-0.061117187
96	0x3d80e90e	0.06294452
97	0x3d8bb62a	0.068218544
98	0xbddad46f	-0.1068505
99	0xbdaf782e	-0.08567844
100	0x3d45d7d4	0.048301533
101	0x3c2944a8	0.01033131
102	0xbd9afccc	-0.075677484
103	0xbdb4b026	-0.0882266
104	0x3da57c5a	0.08080359
105	0x3c481b60	0.012213558
106	0xb981ba00	-0.00024743378
107	0xbddd5a1b	-0.10808202
108	0x3dc8e64e	0.09809552
109	0xbd975d77	-0.07390874
110	0x3d4c0e2c	0.049818203
111	0xbc5c42a8	-0.013443626
112	0x3b6ec2c0	0.0036431998
113	0x3d60db48	0.054896623
114	0xbcf3fbf4	-0.029783227
115	0xbd0079a0	-0.03136599
116	0x3db688ac	0.08912787
117	0xbdaf752f	-0.08567273
118	0x3d4bca4c	0.049753472
119	0xbcec5d84	-0.028853185
120	0xbd1903b4	-0.037357047
121	0x3d994758	0.07484311
122	0x3c9aa030	0.018875211
123	0xbdd52d79	-0.10409064
124	0x3dcc9daa	0.099910095
125	0xbd633c09	-0.055477176
126	0x3dc5f1b4	0.09665242
127	0xbd0fb952	-0.035088845
128	0x3ddf420a	0.10901268
129	0x3d071854	0.032982185
130	0xbbb0fac0	-0.0054009855
131	0x3d2ed03c	0.042679057
132	0xbb63da40	-0.0034767538
133	0xbd632255	-0.055452663
134	0x3d7a8044	0.06115748
135	0x3d948442	0.07251789
136	0xbc657be0	-0.014006585
137	0x3dd7607a	0.10516448
138	0x3be8a890	0.0071001723
139	0xbd722feb	-0.05912773
140	0xbd798ec8	-0.060927182
141	0x3d9a0f58	0.07522458
142	0xbd39822c	-0.045290157
143	0x3d909f0a	0.07061584
144	0xbdde6c5a	-0.1086051
145	0x3b7c6620	0.003851302
146	0xbd9e3548	-0.07725006
147	0x3d2271c4	0.039659277
148	0x3db9f454	0.09079805
149	0x3d34351c	0.04399596
150	0xbd1d744c	-0.038440987
151	0xbdd6cd67	-0.10488396
152	0xbd58f9a9	-0.05297247
153	0xbd870d66	-0.065943524
154	0x3ddaa692	0.10676302
155	0xbd763897	-0.060112562
156	0x3d311110	0.043229163
157	0x3db7cfde	0.089751944
158	0x3d251914	0.04030712
159	0xbdc8ece8	-0.09810811
160	0xbc501558	-0.012700401
161	0xbd07eaf0	-0.03318304
162	0x3d9387c2	0.07203628
163	0xbc2bd438	-0.010487609
164	0xbbc13bc0	-0.0058970153
165	0x3dcbb028	0.099457085
166	0x3cd9f2a8	0.026604965
167	0x3d544884	0.05182697
168	0xbd136ad2	-0.035990544
169	0x3d95be1c	0.07311651
170	0x3c83b028	0.016075209
171	0xbcb7fa84	-0.022458322
172	0x3cb08138	0.021545991
173	0xbdb43c35	-0.08800546
174	0x3b86b5a0	0.004111007
175	0x3d520534	0.051274493
176	0xbdd6684c	-0.10469112
177	0xbd73408d	-0.059387732
178	0x3d8f74ec	0.07004723
179	0x3b262a40	0.0025354773
180	0xbb799440	-0.0038082749
181	0x3c3aee78	0.011409394
182	0xbd4d8915	-0.05017956
183	0x3dbd57e2	0.09245278
184	0xbc35a068	-0.011085607
185	0xbd26be30	-0.04070872
186	0x3d710ef8	0.058852166
187	0xbdbe95e2	-0.09305932
188	0xbca8f094	-0.02062253
189	0x3c389f70	0.011268482
190	0xbd0e1ecc	-0.03469734
191	0x3d793d50	0.060849488
192	0xbdc38b05	-0.09548
193	0xbd0405ea	-0.032232203
194	0xbd40795a	-0.04699073
195	0x3dd3e06c	0.103455395
196	0x3d36c280	0.044619083
197	0xbdaace3d	-0.08340118
198	0x3d317be4	0.043331042
199	0xbb1b6340	-0.002371028
200	0x3dd19bb2	0.10234775
201	0x3d7cb97c	0.06170033
202	0xbd85ba0e	-0.06529628
203	0x3dcc1ac2	0.09966041
204	0xbca3d000	-0.019996643
205	0xbcd08ebc	-0.025458686
206	0x3d08f050	0.033432305
207	0x3de37cce	0.11107789
208	0x3d0a2d00	0.03373432
209	0xbddced94	-0.10787502
210	0xbd123026	-0.03569045
211	0x3dd5378a	0.10410984
212	0xbd216796	-0.039405428
213	0xbd5c50d8	-0.053788036
214	0xbdb682fc	-0.08911702
215	0xbd7ccaec	-0.06171696
216	0xbd7a6152	-0.061127968
217	0x3cdabd78	0.026701674
218	0x3d36f620	0.044668317
219	0x3dda86c8	0.10670239
220	0x3d96449c	0.07337305
221	0x3ad88800	0.0016520023
222	0x3d76f804	0.06029512
223	0x3d82e0d4	0.06390539
224	0xbdc57ec8	-0.09643322
225	0x3d6713e4	0.056415454
226	0xbd9ca21a	-0.07648106
227	0x3db0d12c	0.08633646
228	0xbd472e4e	-0.048628144
229	0x3cbe0968	0.023197845
230	0xba9bed80	-0.0011896342
231	0x3d54761c	0.05187045
232	0x3c8e7550	0.017389923
233	0xbda6189c	-0.081101626
234	0x3d39828c	0.045290515
235	0x3d871210	0.06595242
236	0xbd6e7b7a	-0.058223225
237	0xbd94895b	-0.07252761
238	0xbd9bea73	-0.07613077
239	0xbd5ed101	-0.05439854
240	0xbc66f1c0	-0.014095724
241	0x3c08f6a8	0.008359589
242	0xba4eb780	-0.000788562
243	0xbcf23e70	-0.029570788
244	0x3d8e1760	0.06938052
245	0x3bc19c40	0.005908519
246	0xbd84f438	-0.064918935
247	0xbcf26424	-0.029588766
248	0xbd869f15	-0.06573311
249	0xbd218eb8	-0.039442748
250	0xbdd7fddc	-0.10546467
251	0x3ca008c8	0.019535437
252	0xbdb16abf	-0.08662938
253	0x3d311e34	0.043241695
254	0x3d9cdb1a	0.07658978
255	0xbdaa56f0	-0.08317363

layers.2.lin_a.weight f4 [1, 40]
0	0xbd70df4d	-0.058806706
1	0x3cf18770	0.029483527
2	0xbe2508ef	-0.16116689
3	0xbe5be98d	-0.21475811
4	0x3dd0670e	0.10175906
5	0xbeb3d8b0	-0.35126257
6	0x3c1ab192	0.00944175
7	0xbdd10e47	-0.10207801
8	0xbcae6a7d	-0.021291012
9	0xbe0c580e	-0.13705465
10	0xbd8e30c1	-0.06942893
11	0x3ceffe1c	0.029295973
12	0xbe7e6dca	-0.24846569
13	0x3e2ad494	0.16682655
14	0xbe8b8ad0	-0.27254343
15	0x3d9b275f	0.07575869
16	0xbcfb9a86	-0.030713331
17	0xbe124a04	-0.14286047
18	0x3e228f8a	0.15875068
19	0xbeb66937	-0.35627148
20	0xbc5d40bc	-0.013504203
21	0x3c855da6	0.016280007
22	0x3c316616	0.010827562
23	0x3cf430fc	0.029808514
24	0xbdc04320	-0.09387803
25	0xbd3f6144	-0.04672362
26	0x3d25ad46	0.04044845
27	0x3d2f1d7d	0.04275273
28	0x3e0c71ad	0.13715239
29	0xbd5da9f8	-0.054117173
30	0x3c845272	0.016152594
31	0x3caad250	0.020852238
32	0xbdad02f4	-0.08447829
33	0xbd12c917	-0.035836305
34	0xbdd03acf	-0.10167467
35	0x3c848d1b	0.016180566
36	0xba9395fd	-0.001125991
37	0x3d757a5b	0.05993114
38	0x3e30f241	0.17279913
39	0xbdf4dd8a	-0.11956318

layers.2.lin.weight f4 [20, 20]
0	0xbedf8465	-0.43655697
1	0x3e2b404e	0.16723749
2	0x3f118cb7	0.5685534
3	0xbd0eefe4	-0.034896746
4	0x3e6032a8	0.21894324
5	0x3f020902	0.50794995
6	0x3f1736c4	0.5906794
7	0x3ee95d63	0.4557906
8	0x3f2e99b6	0.68203294
9	0xbbc0f300	-0.005888343
10	0x3f07d718	0.5306258
11	0x3f29239a	0.6606995
12	0x3f19e2f4	0.6011193
13	0xbdf824dc	-0.12116405
14	0xbefe367c	-0.49650943
15	0x3e06a232	0.1314781
16	0x3f1f4930	0.6222105
17	0x3ebf1b1f	0.3732538
18	0x3cb98108	0.022644535
19	0x3e9f30aa	0.31091815
20	0x3fd8dca9	1.694234
21	0xbe1ee39f	-0.15516518
22	0x3f114ecf	0.5676088
23	0x3e60079c	0.21877903
24	0xbd63db10	-0.055628836
25	0x3ec3d3bf	0.38247487
26	0x3edec734	0.43511355
27	0x3eda6753	0.42656955
28	0x3f2bcca8	0.67109156
29	0xbe30de42	-0.17272285
30	0x3e997f4c	0.29979932
31	0x3e5f1d77	0.21788584
32	0x3ef4fd18	0.47849345
33	0xbe297be0	-0.16551161
34	0xbf9c4089	-1.2207195
35	0x3e63b066	0.2223526
36	0x3f17cadb	0.5929391
37	0x3f0904a1	0.5352269
38	0x3e226188	0.15857518
39	0x3ed9c762	0.4253493
40	0xbeec1e0e	-0.4611668
41	0xbe2bfa67	-0.1679474
42	0x3c7b0e46	0.015323227
43	0xbe32e360	-0.17469549
44	0x3d6e97ee	0.05825036
45	0xbe1e0a92	-0.1543372
46	0xbe07b732	-0.13253477
47	0x3d9ecddd	0.07754109
48	0xbe15fb86	-0.1464673
49	0xbe082cb1	-0.13298298
50	0xbe258716	-0.16164812
51	0xbdcd760e	-0.10032283
52	0xbe749451	-0.23884703
53	0x3e3747cc	0.17898482
54	0xbee4e08c	-0.44702566
55	0xbe63c005	-0.22241218
56	0xbe85c733	-0.2612854
57	0xbe210bf9	-0.15727223
58	0x3db0b51c	0.08628294
59	0x3ea1f6ef	0.31633708
60	0xbf0ec32f	-0.55766577
61	0x3e083cfa	0.1330451
62	0xbe2824e9	-0.1642033
63	0xbd3e1a7c	-0.046411976
64	0x3cd03993	0.025418079
65	0xbe7c9b11	-0.24668528
66	0xbbc0adce	-0.005880094
67	0x3e85b9da	0.26118356
68	0x3dd1624e	0.10223828
69	0xbe312ad8	-0.173015
70	0xbdd2852c	-0.10279307
71	0xbc101b01	-0.008795501
72	0xbbec4034	-0.007209802
73	0x3d1a7690	0.037710726
74	0xbf320594	-0.6953976
75	0x3e31b616	0.17354617
76	0xbe7205b3	-0.23634987
77	0xbdf1be7a	-0.11803909
78	0x3de43500	0.111429214
79	0x3d6ae63e	0.057348482
80	0xbf973743	-1.181374
81	0xbe61e406	-0.2205964
82	0x3ee82b63	0.453456
83	0xbba485a0	-0.005020812
84	0x3f1f2413	0.6216442
85	0x3e9df628	0.30851865
86	0x3d90ce5b	0.07070609
87	0xbb912170	-0.004429035
88	0x3ee118e4	0.43964303
89	0xbde04275	-0.10950176
90	0x3e56538d	0.2093031
91	0x3eec46fb	0.46147904
92	0x3e461913	0.19345503
93	0x3d1583a8	0.03650251
94	0x3f21676d	0.6304844
95	0x3d8cf6b0	0.068829894
96	0x3e9d85fd	0.30766287
97	0x3df5a5df	0.11994528
98	0xbe2dab4e	-0.16959879
99	0x3ee55d9c	0.4479798
100	0xbea311fa	-0.31849653
101	0x3dfadae4	0.12248781
102	0xbcbbe66a	-0.022937018
103	0xbd9c9abe	-0.07646702
104	0xbd2a5899	-0.0415884
105	0xbde48165	-0.111574925
106	0x3e1531be	0.14569756
107	0x3ee07567	0.4383957
108	0xbcd7c149	-0.026337283
109	0xbe139d1a	-0.14415398
110	0x3e02c818	0.12771642
111	0x3e21ca0a	0.15799728
112	0x3e110137	0.1416062
113	0xbb849d80	-0.004047096
114	0xbf22c39d	-0.6357973
115	0x3c3a57a0	0.0113734305
116	0xbdbfb5c1	-0.09360839
117	0xbe82d2d1	-0.25551465
118	0xbcdfe57b	-0.027331105
119	0x3e4ff149	0.20306887
120	0xbfd5d204	-1.6704717
121	0x3d59d5e0	0.053182483
122	0x3e8c0559	0.2734783
123	0x3e0f53ce	0.13996813
124	0x3d572206	0.05252268
125	0x3ea0711a	0.3133629
126	0x3e5286f7	0.20559298
127	0x3d6dbc09	0.058040652
128	0x3dce5ae7	0.10075932
129	0xbe057246	-0.13031873
130	0xbb8cfdea	-0.00430273
131	0x3e860e3d	0.26182738
132	0x3ec7b6b2	0.39006573
133	0x3d023378	0.031787366
134	0xbf09d78d	-0.5384453
135	0xbdabcb9a	-0.08388443
136	0x3dbaf49d	0.091286875
137	0x3dc4d50f	0.0961095
138	0x3d9e832a	0.07739861
139	0x3e4d07b9	0.20022477
140	0xbf72223d	-0.94583493
141	0x3d337700	0.04381466
142	0x3ec65c76	0.38742417
143	0xbc79833f	-0.015229045
144	0x3f05c3ce	0.522519
145	0x3eb928cc	0.36163938
146	0x3f306bfe	0.68914783
147	0x3ee4cc97	0.4468734
148	0x3f266947	0.6500439
149	0x3dac0a18	0.08400363
150	0x3f03741b	0.5134904
151	0x3ebcf57f	0.3690605
152	0x3ec6d6b9	0.38835695
153	0xbe277c5f	-0.16356038
154	0xbf2bced5	-0.67112476
155	0x3e2050f0	0.15655875
156	0x3f2b429b	0.66898507
157	0x3efc47b8	0.49273467
158	0xbdb31bdc	-0.08745548
159	0x3eea61cd	0.4577774
160	0xbfa50e3d	-1.289497
161	0xbe45ed47	-0.19328795
162	0x3e69cc29	0.22831787
163	0x3d9eff94	0.077635914
164	0x3ee11a74	0.43965495
165	0x3ec544cb	0.38529047
166	0x3eb4d4d8	0.35318637
167	0x3f2847cc	0.65734553
168	0x3e9ead13	0.3099142
169	0xbd923fca	-0.07141073
170	0x3f07f15e	0.5310267
171	0x3f27445c	0.65338683
172	0x3f224aa9	0.6339517
173	0x3db445a0	0.088023424
174	0x3f0837ad	0.53209955
175	0x3e2c178c	0.16805857
176	0x3f22635a	0.6343285
177	0x3f0333ad	0.51250726
178	0x3d869e2c	0.06573138
179	0x3f071b63	0.52776164
180	0xbefa748b	-0.4891704
181	0x3e17219a	0.14758912
182	0x3c923c49	0.017851012
183	0xbe410e96	-0.1885322
184	0xbd97fee8	-0.074216664
185	0xbe6f688c	-0.23379725
186	0xbd9c7bc6	-0.076407954
187	0x3e580409	0.2109529
188	0xbe05bcd9	-0.13060321
189	0xbe5294c6	-0.20564565
190	0xbe3b0d82	-0.18266872
191	0x3d9bab41	0.076010235
192	0xbd46c9b9	-0.04853222
193	0xbd198cd8	-0.037487835
194	0xbef7305d	-0.48279086
195	0xbd41777c	-0.04723309
196	0xbe21d098	-0.15802228
197	0xbe144ab6	-0.14481625
198	0xbdbaa8ba	-0.09114213
199	0xbdc8900e	-0.09793101
200	0xbfc21fae	-1.5165918
201	0xbdad821c	-0.08472082
202	0x3f000611	0.50009257
203	0x3e5feb78	0.21867168
204	0x3edf7132	0.4364105
205	0x3f169f38	0.588367
206	0x3f0af730	0.5428343
207	0x3eaf4ce4	0.3423835
208	0x3ea13f46	0.31493586
209	0xbd7b4dcc	-0.06135349
210	0x3e6e88cf	0.23294376
211	0x3eed55ff	0.46354672
212	0x3efa90d3	0.48938617
213	0xbe327e24	-0.17430931
214	0x3e8d14a8	0.27554822
215	0xbe49f7fc	-0.19723505
216	0x3f2a1852	0.6644336
217	0x3f0cbd67	0.54976505
218	0xbdacce6c	-0.08437809
219	0x3f20be81	0.62790686
220	0xbfacccf5	-1.3500048
221	0x3e40a204	0.18811804
222	0xbda4d580	-0.080485344
223	0x3d85cd78	0.06533331
224	0x3eb86af7	0.36019108
225	0x3d98ae96	0.074551746
226	0xbcd8d339	-0.026467906
227	0xbe69b0cf	-0.22821353
228	0x3c45ed24	0.0120804645
229	0x3e4382a0	0.19092798
230	0xbd3b6a00	-0.045755386
231	0xbc21ebf3	-0.009882915
232	0x374fd39c	1.2387431e-05
233	0xbdde329b	-0.10849496
234	0x3ec9358e	0.3929867
235	0x3c8f2358	0.017472908
236	0x3de75e8a	0.11297329
237	0x3d99fe8e	0.075192556
238	0xbe0d7bf8	-0.13816822
239	0x3e4156de	0.18880793
240	0xbf175615	-0.59115726
241	0x3d6c3370	0.057666242
242	0xbd0af3f0	-0.033924043
243	0x3e238796	0.1596969
244	0x3c231695	0.009954114
245	0xbe0004c2	-0.12501815
246	0xbd44eeb0	-0.048079193
247	0x3e5bb85e	0.21457049
248	0xbe134447	-0.14381514
249	0x3e1d6048	0.1536876
250	0xbe2301cc	-0.15918654
251	0x3c8df6b8	0.017329559
252	0xbe531802	-0.20614627
253	0xbce373a8	-0.02776511
254	0xbf13b06a	-0.5769106
255	0xbdb734c8	-0.08945614

layers.3.bias f4 [20]
0	0x3fbc0a23	1.4690593
1	0x3f5dce83	0.86643237
2	0xc00a4e75	-2.1610386
3	0xbf3824c3	-0.71931094
4	0xbd640d0e	-0.055676512
5	0x00000000	0.0
6	0xbf5c1ee4	-0.85984635
7	0xbf13782f	-0.5760526
8	0x00000000	0.0
9	0x3f5fbf1f	0.87401
10	0xbf5aaccf	-0.85419935
11	0xbf21db66	-0.632254
12	0xbbb6271f	-0.005558863
13	0x3f5adf3f	0.85496897
14	0xbbb62753	-0.005558887
15	0x3fb3d811	1.4050313
16	0xbf42ca9b	-0.760904
17	0x3fccb2d9	1.599208
18	0x3f6fde0d	0.936982
19	0x00000000	0.0

layers.3.combine_aggr.weight f4 [20, 80]
0	0xbdc36a15	-0.09541718
1	0x3daaf940	0.08348322
2	0x3c7ee480	0.015557408
3	0x3dc75b6e	0.09734236
4	0x3de16398	0.11005324
5	0xbce46d98	-0.02788429
6	0xbc8ea564	-0.017412849
7	0xbcdd6830	-0.02702722
8	0x3db415c6	0.087932155
9	0xbd464f48	-0.048415452
10	0x3d973734	0.07383576
11	0x3d3c5870	0.045982778
12	0x3dd74b9e	0.1051247
13	0x3da22ec4	0.07919076
14	0x3db9d3e4	0.09073618
15	0xbdbc34ad	-0.091897346
16	0xbd71099f	-0.058847066
17	0xbda2754e	-0.0793253
18	0x3d636334	0.05551453
19	0x3cba5298	0.022744462
20	0x3d2e8da8	0.042615563
21	0x3d2be180	0.0419631
22	0x3b9b1040	0.0047321618
23	0x3d2ec23c	0.042665705
24	0xbd7852de	-0.060625903
25	0x3d94c32a	0.07263787
26	0xbdc520d3	-0.09625401
27	0xbdd264e0	-0.10273147
28	0x3d1b8658	0.037969917
29	0x3dd6f6ec	0.10496315
30	0xbd2788e6	-0.04090204
31	0x3dd7affc	0.10531613
32	0xbd228ec6	-0.03968694
33	0xbdadffcf	-0.08496057
34	0xbc8e66bc	-0.017382972
35	0x3d7d43dc	0.061832294
36	0xbd6e5d8e	-0.05819469
37	0x3dd6ba40	0.10484743
38	0xbd4ccb7a	-0.049998738
39	0xbd4ab3ff	-0.049488064
40	0xbd3eb97e	-0.046563618
41	0xbdae6560	-0.085154295
42	0x3dd597c0	0.10429335
43	0xbd815d50	-0.06316626
44	0xbd4e093d	-0.05030178
45	0xbd0ac1ec	-0.033876345
46	0x3dc0bfc6	0.09411578
47	0x3d55a364	0.052157775
48	0x3d289c58	0.041164726
49	0xbcf0d878	-0.029400095
50	0x3d676f68	0.05650273
51	0x3ca62570	0.020281523
52	0x3db66ee4	0.089078695
53	0x3ccb5238	0.024819478
54	0x3da80edc	0.08205959
55	0x3d9e051c	0.07715818
56	0x3ca00d90	0.019537717
57	0xbddb6b03	-0.1071377
58	0x3cba5b40	0.02274859
59	0xbdacc2ca	-0.084355906
60	0x3c9d5c10	0.019208938
61	0xbc4d22d8	-0.012520514
62	0x3db62fac	0.088958114
63	0xbda45b04	-0.08025172
64	0xbdbf6c92	-0.0934688
65	0x3d4c1c20	0.04983151
66	0x3d972ec4	0.07381967
67	0xbcc756bc	-0.02433335
68	0x3cf7e560	0.030260742
69	0x3db7c3a0	0.089728594
70	0x3c3636a0	0.011121422
71	0xbcfffdec	-0.03124901
72	0x3d8464be	0.064645275
73	0x3dce5d4e	0.1007639
74	0xbc9b774c	-0.018977784
75	0x3d9b5c04	0.0758591
76	0x3c18d550	0.009328201
77	0xbcbfc6b8	-0.023410186
78	0xbc1fde60	-0.009757608
79	0xbdde482f	-0.10853612
80	0x3d5bb048	0.05363491
81	0xbd794220	-0.060854077
82	0xbdc301f3	-0.09521856
83	0xbc7df680	-0.015500665
84	0xbd3a9532	-0.04555244
85	0xbd91bd70	-0.071162105
86	0xbcc0d220	-0.023537695
87	0xbc415390	-0.011799708
88	0x3d0b2f40	0.033980608
89	0x3c7b1010	0.015323654
90	0xbc74beb0	-0.014938042
91	0x3cc99da0	0.024611294
92	0xbd942762	-0.07234074
93	0x3dc1bf3a	0.09460302
94	0x3d603db4	0.054746345
95	0x3d90dac2	0.07072975
96	0xbdcc3b2b	-0.09972223
97	0x3d9c4ada	0.07631464
98	0x3ca1e560	0.019762695
99	0xbddd45ab	-0.10804304
100	0x3dd96ad2	0.106160775
101	0xbb195540	-0.002339676
102	0x3cafa730	0.021442026
103	0x3dbd6e1c	0.09249517
104	0x3d93a92a	0.0721
105	0x3dcbb636	0.09946863
106	0xbdd5b72e	-0.104353294
107	0x3de25f06	0.110532805
108	0x3cdf1890	0.027233392
109	0x3abe5140	0.0014520064
110	0xbdb3e8a2	-0.087846056
111	0xbd764364	-0.060122862
112	0x3dde4acc	0.1085411
113	0x3daa3ec4	0.08312753
114	0x3db27cd8	0.08715218
115	0xbc19f088	-0.009395726
116	0xbd7f16ac	-0.06227748
117	0x3cd5db10	0.026105434
118	0xbd5a36aa	-0.053274788
119	0xbd950c76	-0.07277767
120	0x3d13e6b8	0.036108702
121	0x3db398d6	0.087693855
122	0xbdafa7cc	-0.085769266
123	0xbdca64fc	-0.098825425
124	0x3c777e40	0.015105784
125	0xbd2159dc	-0.039392337
126	0xbd74e190	-0.059785426
127	0xbcbb770c	-0.022883914
128	0xbbd3dcf0	-0.006465547
129	0xbcfe02f4	-0.031007268
130	0x3da99072	0.08279504
131	0x3d7dc420	0.061954618
132	0x3d100950	0.03516513
133	0xbd12d9c0	-0.035852194
134	0xbc2346d0	-0.0099656135
135	0x3d9472b2	0.07248439
136	0x3c17e168	0.00927005
137	0xbddce5c1	-0.107860096
138	0x3c2e0cd8	0.010623179
139	0x3d6fcba0	0.0585438
140	0xbceaee44	-0.028678067
141	0xbcaafb2c	-0.020871721
142	0xbc788250	-0.015167788
143	0x3d8cb676	0.06870739
144	0x3dbd1200	0.09231949
145	0xbdb3b0bd	-0.087739445
146	0x3d96dc20	0.07366204
147	0x3d3b86d0	0.045782864
148	0x3d204f5c	0.039138183
149	0xbd8211ba	-0.06351037
150	0xbd82b8a6	-0.06382875
151	0x3de35cec	0.11101708
152	0x3cea6160	0.028610885
153	0xbccbd5f8	-0.024882302
154	0xbcb981e4	-0.022644944
155	0x3d994ce6	0.0748537
156	0xbce427f8	-0.02785109
157	0x3d9ab338	0.075537145
158	0xbd01d6ee	-0.031699114
159	0x3cd87e40	0.026427388
160	0x3cf14748	0.029452935
161	0xbd6a9353	-0.057269406
162	0x3b351d60	0.0027635917
163	0x3cb6efb8	0.022331104
164	0xbddfefd9	-0.10934419
165	0xbcb46074	-0.022018649
166	0x3c2e6658	0.010644518
167	0x3dbc9726	0.09208517
168	0x3ccad160	0.02475804
169	0xbdc29e47	-0.09502845
170	0xbd0638ce	-0.032769017
171	0x3de2b338	0.110693395
172	0xbc6e5f40	-0.014549077
173	0x3dacbd90	0.08434594
174	0x3c522ab0	0.01282756
175	0x3d963f00	0.07336235
176	0xbd44cbc6	-0.048045896
177	0x3de0f118	0.10983485
178	0x3cc14c08	0.023595825
179	0xbcbb82ec	-0.022889577
180	0x3db00f20	0.08596635
181	0x3d61d47c	0.05513428
182	0xbd99e8cc	-0.075151056
183	0xbc03b5c8	-0.0080389455
184	0x3da41c80	0.080132484
185	0x3ce42f70	0.027854651
186	0xbd10d47e	-0.0353589
187	0xbd95144b	-0.07279261
188	0xbda05748	-0.078291476
189	0x3d7e9044	0.0621493
190	0x3d4f3858	0.050590843
191	0xbdcae67b	-0.09907242
192	0xbcbc0ecc	-0.022956274
193	0x3ce7ce30	0.02829656
194	0xbdca9684	-0.0989199
195	0x3dc55428	0.09635192
196	0xbc435bb8	-0.011923723
197	0xbd3a07a0	-0.045417428
198	0x3c4bf6e0	0.012448996
199	0x3d25714c	0.04039125
200	0x3ccb8660	0.024844348
201	0x3dd924a6	0.10602693
202	0x3d80e65a	0.06293936
203	0xbc316b20	-0.010828763
204	0x3c9be980	0.01903224
205	0x3cddeff0	0.02709195
206	0xbd35a1c0	-0.04434371
207	0xbdc43435	-0.0958027
208	0xbc42da40	-0.011892855
209	0xbd2e6eb2	-0.042586036
210	0xbdd84ba7	-0.105613045
211	0x3d235128	0.03987232
212	0xbd402518	-0.046910375
213	0x3ddb38c6	0.10704188
214	0x3d23c7cc	0.039985463
215	0x3d4305d4	0.04761298
216	0x3d057990	0.032586634
217	0x3d329968	0.04360333
218	0x3d929bac	0.07158598
219	0x3da835b0	0.08213365
220	0xbbc83140	-0.0061093867
221	0xbd01d250	-0.03169471
222	0x3cf82588	0.030291334
223	0xbd4ea0c6	-0.050446294
224	0xbbba2750	-0.005680956
225	0x3d05b620	0.03264439
226	0x3d4ca000	0.049957275
227	0xbddd7acf	-0.108144395
228	0x3d315308	0.043292075
229	0xbd314ec4	-0.043288007
230	0xbda14789	-0.078749724
231	0xbd4306ea	-0.047614016
232	0xbb1e1580	-0.0024121702
233	0x3d618684	0.055059925
234	0xbdcbee26	-0.099575326
235	0x3cf8c848	0.030368939
236	0x3dce4d36	0.100733206
237	0xbd815d12	-0.0631658
238	0x3cdadbf0	0.026716202
239	0xbd381a4a	-0.044946946
240	0x3ce12cc8	0.027487174
241	0x3d464c60	0.04841268
242	0xbd8d0cd8	-0.068872154
243	0x3cdb2ad0	0.026753813
244	0x3de250f0	0.11050594
245	0x3c008648	0.007844515
246	0xbda28820	-0.0793612
247	0x3ab74cc0	0.0013984665
248	0x3cc9fab8	0.024655685
249	0x3d0d0250	0.034426033
250	0xbc040da8	-0.0080598965
251	0xbcc4497c	-0.023960821
252	0xbd63b25a	-0.05559001
253	0x3d93f656	0.07224719
254	0xbd8158d4	-0.06315771
255	0xbd1bdfc8	-0.03805521

layers.3.lin_a.weight f4 [1, 40]
0	0x3e9624e9	0.29325035
1	0xbd72e377	-0.05929896
2	0xbc978b34	-0.018498994
3	0xbe128cec	-0.1431157
4	0xbff776c4	-1.9333119
5	0x3f049b22	0.51799214
6	0xbe5e01f1	-0.21680428
7	0xbe295bd5	-0.16538937
8	0x3ebd3c26	0.36959952
9	0x3e289c3a	0.16465846
10	0xbe635985	-0.22202118
11	0xbe7f82a3	-0.24952178
12	0x3ecfdbf0	0.40597486
13	0xbdcb34ba	-0.09922166
14	0x3eba01bb	0.36329445
15	0x3dcc0ded	0.09963594
16	0xbe2b6891	-0.16739108
17	0x3ec2fe79	0.38084772
18	0xbdb52248	-0.08844429
19	0x3f00cdfe	0.5031432
20	0x3e12a1e6	0.14319572
21	0x3cb217fb	0.02173995
22	0xbdead940	-0.114672184
23	0x3dbcb55f	0.09214281
24	0xbd2e31f0	-0.042528093
25	0x3e11ae2d	0.14226599
26	0xbd2a3d25	-0.04156222
27	0xbd9b39ce	-0.07579385
28	0xbe203d06	-0.15648279
29	0x3bdef4f4	0.006804103
30	0xbc8dfb98	-0.017331883
31	0x3e529fca	0.20568767
32	0x3c33ffc9	0.010986277
33	0xbde6c14d	-0.11267338
34	0xbcc51779	-0.024059044
35	0xbdbc0abb	-0.09181734
36	0x3d010531	0.03149909
37	0x3d7dc7a0	0.061957955
38	0xbe0e6657	-0.13906227
39	0xbde7d4b3	-0.11319866
