experiments/output-gat/Cora/mean/42/model.pth (torch, 210075 bytes, 10 tensors)

layers.0.bias f4 [30]
0.41070825 0.14728594 0.12525623 0.17287691 0.23792128 0.1828703 0.17960861 0.32636383
0.18767825 0.09361591 0.41201293 0.22214903 0.34476474 0.09650408 0.2145331 0.084645696
0.13057934 0.24176487 0.14528377 0.33202237 0.24343474 0.22316019 0.10419877 0.3573153
0.3480463 0.43695527 0.47650775 0.40367538 0.3477709 0.34784812
00000000: 5a48 d23e 20d2 163e 2b43 003e a506 313e
00000010: a3a1 733e 5a42 3b3e 52eb 373e 2919 a73e
00000020: ba2e 403e b3b9 bf3d 5cf3 d23e 097b 633e
00000030: 0185 b03e eea3 c53d 91ae 5b3e b95a ad3d
00000040: 97b6 053e 3691 773e 45c5 143e d6fe a93e
00000050: f546 793e 1b84 643e 2a66 d53d 08f2 b63e
00000060: 2033 b23e 9ab8 df3e d3f8 f33e 8aae ce3e
00000070: 070f b23e 2619 b23e

layers.0.combine_aggr.weight f4 [30, 120]
0.069792494 0.07576901 -0.02138605 0.08385736 -0.02000133 0.018420883 -0.04444358 0.053611323
0.08047348 -0.06697078 0.07934639 0.017085224 0.06744371 0.012363061 0.044017553 -0.012888916
0.070371926 0.013493046 -0.042616457 0.023268923 -0.042059306 -0.010705501 -0.037077013 0.0605572
-0.0720593 -0.04208429 -0.025777169 -0.054888416 0.008615963 -0.09016235 0.082442194 -0.07754549
0.07047613 0.01519192 -0.02964133 0.05641085 0.014227167 0.07375662 0.009979479 -0.028789502
0.024527349 -0.02475518 0.03841886 0.08150314 0.052769378 -0.039908208 0.05269681 0.016333655
0.04635878 -0.055639945 -0.090365864 -0.03526973 -0.07001928 0.074904606 0.026293546 0.037812352
0.02887056 -0.0015880242 0.07144204 -0.06486072 0.0057477728 -0.06230711 0.028148554 -0.031437658
0.027971849 -0.019018888 0.07571277 -0.054106034 -0.054443438 -0.054446723 0.082107514 0.030421525
0.087841064 -0.07533707 -0.09054548 -0.071419716 -0.061407827 0.036974937 0.0326877 0.07585268
-0.04714297 -0.06223149 0.048434928 -0.03689865 0.055404305 -0.021662481 0.052220404 -0.07092715
-0.04606801 0.027831286 0.019298777 -0.023274444 0.054413453 0.062057808 -0.06619897 -0.048735276
0.08358811 -0.030803233 -0.03236277 -0.0883289 -0.052277397 0.02280385 -0.012049273 -0.06626402
0.0021412969 -0.062356524 -0.07744766 -0.05026839 -0.07989556 -0.058125965 0.09125139 0.017241843
0.028131 -0.08514204 -0.05995497 -0.030385438 0.014274664 -0.080325454 -0.039333146 -0.054650713
0.000252977 -0.03396822 -0.006325811 -0.061858848 -0.06265902 -0.05325705 -0.031247336 -0.07205115
0.07654147 -0.018117204 0.07854311 0.028443426 -0.07730164 0.063173875 -0.025117166 -0.03499272
-0.07577472 -0.09075403 0.026118211 -0.019941106 0.03554018 -0.074915975 0.06777419 -0.06700963
-0.01576285 0.019067109 0.047127128 0.073697016 0.08315882 -0.07238355 0.02297397 -0.039264947
-0.0100036785 -0.06832749 0.08314964 -0.06700021 0.048788503 0.032081902 0.029664285 -0.049354017
0.08297554 0.020060375 0.011743173 -0.08044719 0.03832127 -0.013694942 -0.04182083 0.07841073
0.020352349 -0.050506994 -0.04620395 -0.0043594837 0.05097118 -0.02332694 -0.052086122 -0.031260613
-0.06819829 0.032555938 0.070659876 -0.08594135 0.021201491 0.047158167 0.01655303 -0.032509584
0.047646582 0.047972575 0.03413473 -0.016041093 -0.02417294 0.009765975 -0.016126238 -0.02720365
0.058351338 0.07845208 -0.009037182 -0.020438895 0.0013320893 -0.0054505914 0.021946445 0.02558171
-0.08291212 -0.03368838 0.07687555 0.035561338 -0.0045403987 -0.055037513 -0.055849906 -0.08177195
-0.029756162 0.030828029 0.058206618 0.04214701 -0.08069268 -0.05489663 -0.014406621 0.08830653
0.013205364 -0.023640685 0.03776686 -0.03476957 -0.059086088 0.06662929 -0.041508403 -0.018300027
-0.09081279 0.061095774 0.069162264 0.033269413 -0.063652135 -0.09009487 -0.07414146 0.06807281
0.04382746 0.076818496 0.04782255 0.02310405 -0.000893943 -0.06942438 -0.07821224 -0.085385256
0.03736946 -0.04481904 -0.01837176 -0.0525362 -0.016634658 -0.064251035 -0.059648417 0.030280918
-0.027130194 0.05635546 -0.0292857 -0.06696522 -0.016106598 -0.04425118 -0.027928516 -0.08690491
00000000: 5eef 8e3d c82c 9b3d cc31 afbc 68bd ab3d
00000010: d4d9 a3bc 64e7 963c 790a 36bd 8c97 5b3d
00000020: 48cf a43d fa27 89bd 5c80 a23d 50f6 8b3c
00000030: ee1f 8a3d 708e 4a3c c04b 343d 082c 53bc
00000040: 281f 903d f011 5d3c 988e 2ebd 789e be3c
00000050: 6146 2cbd 2066 2fbc 11de 17bd d40a 783d
00000060: d493 93bd 9460 2cbd a42a d3bc add2 60bd
00000070: f829 0d3c 0aa7 b8bd 74d7 a83d 2bd0 9ebd
00000080: ca55 903d 88e7 783c 60d2 f2bc 100f 673d
00000090: 1019 693c b60d 973d f880 233c f6d7 ebbc
000000a0: 94ed c83c 60cb cabc 185d 1d3d 1eeb a63d
000000b0: b424 583d ca76 23bd 9cd8 573d 28ce 853c
000000c0: b4e2 3d3d b6e6 63bd bd11 b9bd fe76 10bd
000000d0: 4566 8fbd 9667 993d 9065 d73c 20e1 1a3d
000000e0: f481 ec3c 4025 d0ba 3450 923d b2d5 84bd
000000f0: d057 bc3b bd35 7fbd cc97 e63c c6c4 00bd
00000100: 3825 e53c 80cd 9bbc 4c0f 9b3d 4a9e 5dbd
00000110: 1500 5fbd 8703 5fbd fc27 a83d 9036 f93c
00000120: 04e6 b33d 524a 9abd e96f b9bd 8044 92bd
00000130: c686 7bbd 0873 173d 8ae3 053d a658 9b3d
00000140: fd18 41bd 72e6 7ebd b463 463d 0a23 17bd
00000150: a0ef 623d 8475 b1bc 10e5 553d 4142 91bd
00000160: cfb1 3cbd 70fe e33c 7818 9e3c 0caa bebc
00000170: a4e0 5e3d 5430 7e3d 5393 87bd a49e 47bd
00000180: 3e30 ab3d 1057 fcbc d38e 04bd c8e5 b4bd
00000190: d320 56bd 24cf ba3c 506a 45bc 6eb5 87bd
000001a0: 0055 0c3b 8e69 7fbd e19c 9ebd 3ae6 4dbd
000001b0: 49a0 a3bd 7e15 6ebd 02e2 ba3d c43e 8d3c
000001c0: fc72 e63c f35e aebd 5893 75bd e2ea f8bc
000001d0: 48e0 693c ac81 a4bd cb1b 21bd 6dd9 5fbd
000001e0: 00a2 8439 4322 0bbd c048 cfbb b45f 7dbd
000001f0: 5f53 80bd 1124 5abd 6afa ffbc 8e8f 93bd
00000200: c6c1 9c3d 886a 94bc 36db a03d 3002 e93c
00000210: 5250 9ebd 4e61 813d 84c2 cdbc 8754 0fbd
00000220: c72f 9bbd 40dd b9bd dcf5 d53c 885b a3bc
00000230: 9492 113d 8c6d 99bd 32cd 8a3d 583c 89bd
00000240: 1821 81bc a032 9c3c 6008 413d 76ee 963d
00000250: 2c4f aa3d d43d 94bd e833 bc3c 48d4 20bd
00000260: 78e6 23bc 48ef 8bbd 5c4a aa3d 6837 89bd
00000270: 74d6 473d 5068 033d 8402 f33c 7027 4abd
00000280: 14ef a93d a855 a43c 7066 403c 7fc1 a4bd
00000290: c4f6 1c3d c060 60bc 524c 2bbd ce95 a03d
000002a0: f8b9 a63c 6ce0 4ebd 5a40 3dbd 00da 8ebb
000002b0: 28c7 503d 2418 bfbc 4258 55bd 210b 00bd
000002c0: 8cab 8bbd 6059 053d 20b6 903d 0502 b0bd
000002d0: c0ae ad3c ec28 413d 389a 873c c528 05bd
000002e0: 1029 433d e47e 443d dcd0 0b3d 9c68 83bc
000002f0: 5406 c6bc 7801 203c 2c1b 84bc 30da debc
00000300: d001 6f3d 7cab a03d b010 14bc 786f a7bc
00000310: 8099 ae3a e09a b2bb 08c9 b33c bc90 d13c
00000320: d4cd a9bd d4fc 09bd ee70 9d3d c4a8 113d
00000330: a0c7 94bb 046f 61bd dfc2 64bd 0d78 a7bd
00000340: 32c3 f3bc 108b fc3c 106a 6e3d 58a2 2c3d
00000350: 3442 a5bd 4adb 60bd c009 6cbc 0eda b43d
00000360: 505b 583c 1caa c1bc 6cb1 1a3d 896a 0ebd
00000370: 4104 72bd f074 883d b704 2abd f0e9 95bc
00000380: 0efc b9bd 903f 7a3d f2a4 8d3d 8245 083d
00000390: 0d5c 82bd a983 b8bd 7ad7 97bd c269 8b3d
000003a0: 6c84 333d 0453 9d3d 94e1 433d b444 bd3c
000003b0: 8057 6aba 5f2e 8ebd bd2d a0bd 77de aebd
000003c0: b810 193d 2b94 37bd 6080 96bc 3330 57bd
000003d0: 6845 88bc 0c96 83bd e651 74bd b00f f83c
000003e0: 2440 debc fcd4 663d 90e8 efbc 1025 89bd
000003f0: fcf1 83bc ba40 35bd 58ca e4bc 34fb b1bd

layers.0.lin_a.weight f4 [1, 60]
0.5379432 -0.2864064 0.42538604 -0.3029066 0.37851122 -0.24325344 0.5279267 0.4922326
-0.13729571 0.18664168 0.17605747 -0.25718468 -0.5246256 0.45011878 0.11929458 0.54520273
-0.055213176 0.34004954 -0.3104067 0.43917933 -0.34874192 0.35538614 0.4671853 0.31104684
0.50583005 0.55426365 0.36652136 0.1600511 -0.511937 0.47738257 0.0880586 0.1068898
0.122347586 0.08977504 0.15403956 0.07000255 0.25926024 -0.034626316 0.28857332 0.29928514
-0.02194426 0.16960944 -0.26630697 0.17604633 0.037825614 0.20748746 -0.0026845592 0.07758956
0.15033959 -0.061400563 0.22550839 -0.011587779 0.27928156 -0.038113173 0.067491226 -0.031769358
-0.037250314 0.029606374 0.0659885 -0.11349935
00000000: a5b6 093f dca3 92be 33cc d93e 9316 9bbe
00000010: 39cc c13e 6e17 79be 3426 073f e905 fc3e
00000020: 3f97 0cbe ff1e 3f3e 6948 343e b6ad 83be
00000030: dd4d 06bf f875 e63e b750 f43d 6892 0b3f
00000040: 3627 62bd f91a ae3e a1ed 9ebe 1ddc e03e
00000050: 4d8e b2be 2cf5 b53e e932 ef3e 8841 9f3e
00000060: 147e 013f 39e4 0d3f b0a8 bb3e 70e4 233e
00000070: 4e0e 03bf 7d6b f43e 1158 b43d 0ae9 da3d
00000080: 5f91 fa3d fadb b73d 8cbc 1d3e 7f5d 8f3d
00000090: c2bd 843e 53d4 0dbd e2bf 933e e73b 993e
000000a0: 73c4 b3bc 19ae 2d3e 6359 88be 7d45 343e
000000b0: 08ef 1a3d 9877 543e 6eef 2fbb 46e7 9e3d
000000c0: 9ff2 193e 287f 7bbd aceb 663e abda 3dbc
000000d0: fefd 8e3e 8f1c 1cbd d738 8a3d 9620 02bd
000000e0: c993 18bd 1189 f23c fb24 873d 5972 e8bd

layers.0.lin.weight f4 [30, 1433]
-0.010244992 0.38829917 -0.28960997 -0.027989162 -0.43269023 0.502536 0.50481457 -0.32459685
0.121874034 0.15884623 -0.18300325 0.010589488 -0.2629946 0.0844124 -0.4254508 -0.3334714
-0.4335714 -0.3389768 0.15541506 0.29183328 -0.5155575 0.02441472 -0.12614019 -0.06891063
-0.3359145 -0.4568573 0.09908165 -0.15841645 -0.1328018 -0.034144193 0.5537869 -0.46359336
0.13096577 -0.2804435 0.27290624 0.30818838 -0.43247813 0.55472964 0.3188548 0.06532244
-0.34709907 0.052117743 0.39200655 -0.15251441 0.25124985 0.17474023 0.22978508 0.5047737
0.1609883 0.11184999 0.5573358 -0.5287579 -0.24712873 0.06931827 -0.22499955 0.5351882
-0.18955776 -0.23707594 -0.4936375 0.24073467 -0.35652715 -0.16666749 0.33483163 0.44289067
-0.30503547 0.35939804 0.2926088 0.032652143 -0.25830987 -0.39536977 -0.14978726 -0.39217466
-0.015569262 0.29978633 0.019460011 -0.012880545 0.043654665 -0.57487637 0.14986223 -0.47397524
0.006768518 0.29587469 -0.15961306 0.31289035 0.484949 0.21195427 -0.42283326 -0.46593788
0.092868805 -0.078630015 -0.08907308 0.4270603 -0.36159104 0.12017666 -0.41884768 -0.45614934
-0.0017288625 -0.050478846 0.44265234 0.48315614 -0.4260216 -0.123479165 -0.39573404 -0.15092568
-0.457918 0.3667059 0.45004773 0.42028397 0.53578204 -0.17314656 0.32642132 -0.18713173
-0.055019483 0.4063942 0.62536573 -0.32271305 -0.43182927 -0.38717458 0.43916523 0.034387648
-0.063697435 0.2559562 -0.078879796 0.336641 -0.26610208 -0.39619234 0.48776728 -0.4896198
-0.058119126 -0.4095896 0.14298517 -0.32957432 0.3746977 -0.56381625 0.31470445 -0.36091393
-0.044621795 0.14263256 0.08483597 0.57563645 0.43474662 0.51143605 0.48669618 0.30500153
-0.38469294 -0.32674676 -0.42687598 -0.1674197 0.30966556 -0.22832055 -0.07841696 -0.38108036
0.040116448 -0.5425021 0.13079223 -0.3609277 -0.30263788 0.18409273 0.589367 0.5681919
0.25833088 0.37921783 -0.26684153 0.45734686 0.52192867 -0.08922254 0.5054784 0.38002235
-0.23304197 -0.29827467 -0.42892137 -0.09572449 -0.42794758 -0.028312521 0.24627876 -0.15962048
-0.3210407 0.34937325 -0.48683536 -0.36017203 0.40071797 0.23579866 -0.17330195 0.3362149
-0.6118816 0.050351493 0.021261236 0.08918547 -0.23705064 -0.080054484 -0.38298804 0.4737763
0.2812725 0.51057625 0.49054933 -0.35694262 -0.26794857 -0.5039953 0.02840711 0.3607987
0.42111897 0.35348883 0.24620068 0.31498358 -0.11178672 0.32773826 -0.28352076 -0.26409394
-0.06531756 -0.02182678 0.35908362 -0.19671188 -0.5593168 0.36449283 -0.18382095 -0.18548758
0.077992566 0.075998984 0.43725258 -0.134609 0.39999464 -0.050746933 -0.16893964 0.3371747
-0.4463475 0.124081984 0.20773648 0.46611318 0.3169456 0.2685392 -0.16934094 -0.17135212
0.3739128 -0.48775476 0.22835508 0.32047203 -0.084045894 -0.015236719 0.25040805 -0.3682533
0.04394177 -0.013312835 0.59376603 0.20368387 -0.4327959 -0.584799 -0.39929593 0.29110152
0.30932114 0.004170671 -0.32659534 0.00047015335 0.27815285 -0.12812993 0.01657765 -0.3182552
00000000: 9cda 27bc 26cf c63e c247 94be 8749 e5bc
00000010: 9389 ddbe 33a6 003f 873b 013f 8f31 a6be
00000020: 1899 f93d 96a8 223e 3465 3bbe 887f 2d3c
00000030: 3aa7 86be 69e0 ac3d b0d4 d9be c3bc aabe
00000040: 12fd ddbe 5e8e adbe 2025 1f3e 2c6b 953e
00000050: 94fb 03bf 6101 c83c e52a 01be 0421 8dbd
00000060: fcfc abbe 33e9 e9be 52eb ca3d ec37 22be
00000070: 32fd 07be c8da 0bbd fac4 0d3f 1c5c edbe
00000080: e41b 063e 4a96 8fbe 5eba 8b3e deca 9d3e
00000090: c66d ddbe c302 0e3f f040 a33e c5c7 853d
000000a0: f8b6 b1be 6a79 553d 15b5 c83e bd2c 1cbe
000000b0: d2a3 803e 1aef 323e c84c 6b3e d938 013f
000000c0: 1eda 243e 9c11 e53d 8fad 0e3f ae5c 07bf
000000d0: 500f 7dbe bdf6 8d3d 4866 66be 1802 093f
000000e0: 6e1b 42be 09c4 72be 0ebe fcbe 2683 763e
000000f0: ba8a b6be e2aa 2abe 0d6f ab3e 91c2 e23e
00000100: 9c2d 9cbe 0503 b83e d2d0 953e 41be 053d
00000110: 3141 84be e86d cabe d561 19be 1ecb c8be
00000120: 3816 7fbc 987d 993e 9a6a 9f3c ec08 53bc
00000130: 3ccf 323d 192b 13bf 7c75 193e e2ac f2be
00000140: 72ca dd3b e37c 973e 9b71 23be 2a33 a03e
00000150: 3c4b f83e 8a0a 593e 9a7d d8be 698f eebe
00000160: 0032 be3d c608 a1bd f26b b6bd a6a7 da3e
00000170: 7622 b9be 2e1f f63d 3473 d6be 688c e9be
00000180: 009b e2ba e8c2 4ebd 54a3 e23e 3e60 f73e
00000190: 811f dabe a5e2 fcbd a79d cabe 438c 1abe
000001a0: 3a74 eabe e0c0 bb3e a86c e63e 762f d73e
000001b0: 0329 093f 554d 31be b220 a73e 769f 3fbe
000001c0: 1c5c 61bd e712 d03e f817 203f a53a a5be
000001d0: ba18 ddbe bf3b c6be 44da e03e 10da 0c3d
000001e0: cd73 82bd b10c 833e bb8b a1bd 365c ac3e
000001f0: 883e 88be b9d9 cabe a2bc f93e 72af fabe
00000200: 520e 6ebd bab5 d1be b46a 123e f7bd a8be
00000210: 60d8 bf3e 4356 10bf f120 a13e b6c9 b8be
00000220: 58c5 36bd 450e 123e 7bbe ad3d e95c 133f
00000230: 1c97 de3e 79ed 023f 3e30 f93e 2929 9c3e
00000240: 79f6 c4be 5a4b a7be 7d8f dabe 1270 2bbe
00000250: 7c8c 9e3e ddcc 69be 1299 a0bd f71c c3be
00000260: 2551 243d 6be1 0abf 66ee 053e 84cb b8be
00000270: 5af3 9abe ce82 3c3e c1e0 163f 0675 113f
00000280: f243 843e d728 c23e 749f 88be 5e29 ea3e
00000290: 1e9d 053f 4fba b6bd 0867 013f 4a92 c23e
000002a0: 8ea2 6ebe 75b7 98be 959b dbbe 340b c4bd
000002b0: f21b dbbe a9ef e7bc 8030 7c3e 8d73 23be
000002c0: 725f a4be 0de1 b23e 7c42 f9be 7868 b8be
000002d0: e82a cd3e 3475 713e 1176 31be 5c24 ac3e
000002e0: 46a4 1cbf 5e3d 4e3d 0b2c ae3c dfa6 b63d
000002f0: 67bd 72be 9bf3 a3bd 0217 c4be cf92 f23e
00000300: f302 903e 20b5 023f 4829 fb3e 2fc1 b6be
00000310: 8e30 89be d605 01bf 07b6 e83c 9bba b83e
00000320: e89c d73e 7dfc b43e 081c 7c3e 8745 a13e
00000330: 70f0 e4bd 4fcd a73e a229 91be 5237 87be
00000340: 37c5 85bd 13ce b2bc cfd9 b73e d76e 49be
00000350: 632f 0fbf ce9e ba3e 8f3b 3cbe 75f0 3dbe
00000360: 91ba 9f3d 5ba5 9b3d 92df df3e f1d6 09be
00000370: 19cc cc3e 04dc 4fbd 83fe 2cbe 2aa2 ac3e
00000380: a987 e4be b21e fe3d dfb8 543e 63a6 ee3e
00000390: b246 a23e f87d 893e b667 2dbe ee76 2fbe
000003a0: 8071 bf3e feba f9be ead5 693e e914 a43e
000003b0: 4120 acbd 6ea3 79bc 7c35 803e b28b bcbe
000003c0: 49fc 333d 141e 5abc 0d01 183f 8192 503e
000003d0: 6d97 ddbe 63b5 15bf 8470 ccbe 420b 953e
000003e0: 575f 9e3e 20aa 883b 8137 a7be ea7e f639
000003f0: 0d6a 8e3e 7e34 03be dacd 873c 58f2 a2be

layers.1.bias f4 [30]
0.2987062 0.12345131 0.044028092 0.08978657 0.050831016 0.11804916 0.10511469 0.086848915
0.05152919 0.08339411 0.12816507 0.25885278 0.14746353 0.105086766 0.16764604 0.36674106
0.090444066 0.10455536 0.016672177 0.27813596 0.15436323 0.3152344 0.20494068 0.27875656
0.09947179 0.2600889 0.055452723 0.28017482 -0.0041320077 0.076408185
00000000: 05f0 983e 0ad4 fc3d cd56 343d 05e2 b73d
00000010: 2f34 503d c2c3 f13d 5f46 d73d d8dd b13d
00000020: 4610 533d 88ca aa3d b43d 033e 5a88 843e
00000030: ae00 173e bb37 d73d 67ab 2b3e 7cc5 bb3e
00000040: bd3a b93d 1f21 d63d 1794 883c d667 8e3e
00000050: 6511 1e3e 6766 a13e f8db 513e 2eb9 8e3e
00000060: deb7 cb3d 5f2a 853e 6522 633d 1373 8f3e
00000070: cb65 87bb e57b 9c3d

layers.1.combine_aggr.weight f4 [30, 120]
0.007201232 -0.07478697 0.0038352087 -0.07366513 -0.018883295 0.05703439 -0.07522777 0.07574998
0.037492752 -0.004582353 0.0021523163 0.0023585781 -0.083396316 -0.008054197 -0.071920946 0.03391993
-0.041648895 -0.079894334 -0.06517873 0.08372475 -0.07484019 0.084252015 0.081321865 0.051585674
-0.05550398 0.025302395 -0.02884601 0.03891255 -0.066028364 -0.019345768 0.067820355 -0.034451663
0.040252715 -0.0014822856 -0.026515827 -0.014947623 -0.004740581 -0.045676988 -0.08268972 -0.055413388
-0.077589884 -0.016120158 -0.084220916 0.04026021 0.02645202 0.037531406 -0.059687823 -0.07852331
0.04322079 -0.0032474548 -0.047989797 0.013485514 0.04252954 -0.034497425 -0.047766514 0.087033734
-0.064995 -0.030251924 0.037853554 0.00962723 0.03983517 -0.027770884 0.01929605 0.06317176
-0.091267794 0.06760581 0.06405027 -0.055367768 -0.08201964 0.0027542487 -0.071662754 -0.03906047
0.031646587 0.07566357 0.037717536 -0.03270002 0.0137024075 0.04390891 -0.06789125 -0.038221456
-0.03954325 0.06146407 -0.013697684 -0.036187474 0.002147071 0.027648397 0.05290577 0.05162087
-0.05774169 -0.041840583 0.08353566 0.052754372 0.045350537 0.018072829 0.04230754 -0.05134912
0.061171353 0.034931034 -0.017951675 -0.046957668 0.040928125 0.009288579 0.028262123 -0.013469756
0.060093522 0.033925176 0.06146443 0.079109505 0.061296076 -0.061234973 -0.016894698 -0.006030962
0.009493671 -0.08525285 0.08883105 -0.05370819 -0.06890617 -0.009986557 0.043829635 -0.07013573
-0.028884102 0.016593575 0.086325705 -0.018505387 0.06843948 0.0894025 0.041388333 0.034447283
0.03853531 0.000551492 -0.037884846 -0.086548135 0.03101997 0.07077265 0.00449457 -0.044986475
-0.039730296 0.02565422 0.0007032752 0.064729676 -0.064488545 -0.0030769706 0.08177452 0.07750237
-0.030842494 0.07681656 0.035810158 -0.012979262 -0.015499987 -0.067258015 0.003704153 0.02508191
0.033170976 -0.008960992 0.060809568 0.068554595 -0.06347992 0.024859458 -0.074685514 0.055146515
-0.03811594 -0.053820528 0.0070901588 -0.013628878 0.031012632 -0.054116677 -0.08025573 -0.07099761
0.060552508 -0.07049146 -0.024852991 0.02764976 -0.04197744 -0.02475959 0.051514044 -0.02170214
-0.026517011 0.08384751 -0.031016741 0.04247825 0.02388917 -0.01739519 0.07163139 0.06849618
0.024917133 -0.02409479 0.07694206 -0.035294093 -0.054062527 0.056915298 0.082315445 -0.028008133
-0.04011541 0.090574995 0.0026181862 -0.051430684 -0.009544991 0.01909662 -0.062092878 0.06725718
0.023182638 -0.04251693 -0.018957078 -0.08476969 0.04501894 -0.07413755 -0.063735016 0.08225103
-0.06646326 0.008577503 -0.07320384 0.04491341 0.06432366 -0.025725588 -0.017490104 -0.014529601
0.06207852 -0.0008115247 -0.012763031 0.088570386 -0.06775765 0.00785134 0.06553908 0.015069813
-0.003404975 -0.0017002225 0.007544942 -0.08331646 0.01009272 -0.06577239 -0.07905528 -0.01137083
-0.00703682 0.019104436 -0.05304116 0.008666411 -0.086088784 -0.07988011 -0.044400234 -0.043316055
0.017594658 0.08955678 0.035152018 0.05947891 0.05927874 -0.02801098 0.07032147 0.013254024
0.0661391 0.0856843 0.06811099 -0.090710506 -0.08572337 -0.05417016 0.028154604 -0.012570247
00000000: 50f8 eb3b e929 99bd 2058 7b3b bedd 96bd
00000010: 24b1 9abc e49c 693d 0411 9abd ce22 9b3d
00000020: 0092 193d 9027 96bb e00d 0d3b 6092 1a3b
00000030: b0cb aabd c0f5 03bc 4a4b 93bd a0ef 0a3d
00000040: 0898 2abd a49f a3bd 6d7c 85bd e277 ab3d
00000050: d045 99bd 528c ac3d 148c a63d 804b 533d
00000060: 2458 63bd f846 cf3c 784e ecbc c462 1f3d
00000070: e139 87bd 047b 9ebc 66e5 8a3d 301d 0dbd
00000080: 08e0 243d 4049 c2ba b837 d9bc e0e6 74bc
00000090: e056 9bbb cb17 3bbd 3a59 a9bd 26f9 62bd
000000a0: 72e7 9ebd 6c0e 84bc 047c acbd e4e7 243d
000000b0: e8b1 d83c 88ba 193d 387b 74bd d4d0 a0bd
000000c0: 4808 313d 40d3 54bb f390 44bd 58f2 5c3c
000000d0: 7433 2e3d 2c4d 0dbd d2a6 43bd be3e b23d
000000e0: 191c 85bd e2d2 f7bc 540c 1b3d 88bb 1d3c
000000f0: 342a 233d c47f e3bc c012 9e3c 3260 813d
00000100: 9cea babd ea74 8a3d ca2c 833d 50c9 62bd
00000110: eaf9 a7bd a080 343b ecc3 92bd dffd 1fbd
00000120: da9f 013d 80f5 9a3d b47d 1a3d 75f0 05bd
00000130: 1080 603c d4d9 333d 910a 8bbd 1a8e 1cbd
00000140: 1af8 21bd c0c1 7b3d 406c 60bc 5139 14bd
00000150: e0b5 0c3b e47e e23c b8b3 583d 6870 533d
00000160: 8d82 6cbd 0861 2bbd be14 ab3d f814 583d
00000170: 7cc1 393d 780d 943c ac4a 2d3d 7453 52bd
00000180: d08e 7a3d d813 0f3d 640f 93bc af56 40bd
00000190: 40a4 273d 202f 183c f885 e73c 40b0 5cbc
000001a0: a024 763d 20f5 0a3d 20c2 7b3d 2a04 a23d
000001b0: 9811 7b3d 86d1 7abd c066 8abc 609f c5bb
000001c0: 588b 1b3c 0c99 aebd 0eed b53d 1efd 5bbd
000001d0: ae1e 8dbd a89e 23bc b486 333d 52a3 8fbd
000001e0: 5a9e ecbc 40ef 873c 88cb b03d 9c98 97bc
000001f0: 002a 8c3d a818 b73d d086 293d 9818 0d3d
00000200: 34d7 1d3d 0092 103a 242d 1bbd 2640 b1bd
00000210: 981d fe3c 40f1 903d 3047 933b bd43 38bd
00000220: 3cbc 22bd cc28 d23c 005c 383a fe90 843d
00000230: 9212 84bd 00a7 49bb 6679 a73d 90b9 9e3d
00000240: 66a9 fcbc 0052 9d3d acad 123d f8a6 54bc
00000250: a8f3 7dbc 92be 89bd 60c1 723b 9478 cd3c
00000260: 4ade 073d 20d1 12bc 7413 793d 5a66 8c3d
00000270: c301 82bd 10a6 cb3c b8f4 98bd 50e1 613d
00000280: 761f 1cbd ea72 5cbd 9054 e83b a84b 5fbc
00000290: 340e fe3c 73a9 5dbd 1e5d a4bd 3267 91bd
000002a0: e805 783d d45d 90bd 8098 cbbc c081 e23c
000002b0: 89f0 2bbd a0d4 cabc 6400 533d b0c8 b1bc
000002c0: 343a d9bc 3eb8 ab3d d216 febc acfd 2d3d
000002d0: 38b3 c33c 5c80 8ebc 7ab3 923d ba47 8c3d
000002e0: 041f cc3c 7062 c5bc cc93 9d3d 8a90 10bd
000002f0: ab70 5dbd 0420 693d 0095 a83d 5071 e5bc
00000300: 0e50 24bd 627f b93d e095 2b3b fba8 52bd
00000310: 9862 1cbc 8470 9c3c 1a55 7ebd 22be 893d
00000320: 84e9 bd3c 3b26 2ebd e04b 9bbc bb9b adbd
00000330: c865 383d 6ed5 97bd 8187 82bd 3a73 a83d
00000340: e41d 88bd a888 0c3c e5eb 95bd 20f7 373d
00000350: 20bc 833d 78be d2bc 6847 8fbc 900d 6ebc
00000360: 0c46 7e3d 80bc 54ba 081c 51bc 6464 b53d
00000370: 86c4 8abd e8a2 003c 5a39 863d 60e7 763c
00000380: 0026 5fbb 00da deba 903b f73b d2a1 aabd
00000390: f05b 253c adb3 86bd bce7 a1bd b84c 3abc
000003a0: 2095 e6bb e880 9c3c b041 59bd 90fd 0d3c
000003b0: 514f b0bd 2f98 a3bd 05dd 35bd 2d6c 31bd
000003c0: ac22 903c 8c69 b73d 90fb 0f3d 28a0 733d
000003d0: 44ce 723d 4877 e5bc b404 903d 6827 593c
000003e0: f073 873d 407b af3d c67d 8b3d 6ec6 b9bd
000003f0: bc8f afbd 88e1 5dbd 7ca4 e63c 70f3 4dbc

layers.1.lin_a.weight f4 [1, 60]
0.44091973 0.20682365 0.21600868 0.3337468 0.33272734 0.3120288 0.17721158 0.22506216
0.22148943 0.1934095 0.17727052 0.5470284 0.098114274 0.18642719 0.3301514 0.22560224
0.18690193 0.26381746 0.26301947 0.4731647 0.24989599 0.29962385 0.48003098 0.5070645
0.27799797 0.45124334 0.19130296 0.4727694 -0.44121984 0.27896398 0.09276826 0.31826636
-0.20805594 -0.07434603 -0.13542731 0.09416802 0.14959471 0.10822153 0.022509782 0.046423208
0.16889521 -0.077721946 0.014085038 -0.0026983712 0.10342026 -0.035218738 0.33358753 0.006839744
0.073943764 0.03032557 0.15182097 -0.029675474 -0.10890298 0.11055957 -0.068255335 -0.45095763
0.25240022 -0.022553261 -0.050552394 -0.11668676
00000000: 3bc0 e13e 94c9 533e 6131 5d3e dce0 aa3e
00000010: 3d5b aa3e 3dc2 9f3e f476 353e b276 663e
00000020: 20ce 623e 240d 463e 6786 353e 0e0a 0c3f
00000030: 23f0 c83d c5e6 3e3e 9b09 a93e 4604 673e
00000040: 3863 3f3e 1513 873e 7daa 863e a542 f23e
00000050: bce4 7f3e 4c68 993e 9fc6 f53e fbce 013f
00000060: c055 8e3e 5e09 e73e ece4 433e d50e f23e
00000070: 91e7 e1be 5ed4 8e3e 49fd bd3d cff3 a23e
00000080: 9e0c 55be bb42 98bd 75ad 0abe 2adb c03d
00000090: 5b2f 193e 40a3 dd3d 6f66 b83c 4326 3e3d
000000a0: def2 2c3e af2c 9fbd eec4 663c 28d7 30bb
000000b0: 00ce d33d 8641 10bd fccb aa3e ee1f e03b
000000c0: d46f 973d 546d f83c f576 1b3e fb19 f3bc
000000d0: 8708 dfbd 0e6d e23d 74c9 8bbd ebe3 e6be
000000e0: 9a3a 813e 9ec1 b8bc 0710 4fbd 78f9 eebd

layers.1.lin.weight f4 [30, 30]
-0.65245765 0.55762196 -0.48708245 0.57608134 0.4015902 0.30510065 0.30158082 0.25323677
-0.60006666 0.13512206 0.4103925 -0.31759748 0.71124417 0.4698826 0.6301831 0.33856928
-0.35226268 0.55478173 -0.13749564 -0.04765143 -0.5001052 0.28441095 0.49069735 -0.4806031
-0.38296267 -0.064905584 0.5002011 -0.5217369 -0.30170846 0.6882049 -0.4955574 0.38953185
0.13602994 0.14658654 0.54512554 0.43431357 0.51067644 -0.57990295 -0.027257057 0.24649921
0.5326965 -0.091080464 -0.049059123 0.39621943 0.5607219 0.3951813 0.2246865 0.31741333
0.51594615 -0.5556537 0.1485645 0.32621205 0.37912416 -0.28306067 -0.49365917 -0.2985515
0.3614956 -0.09153914 -0.52241224 0.08301801 0.5462821 0.0856092 0.56173587 0.5229935
-0.0137237115 0.31744885 -0.43835607 0.023096453 0.48218063 -0.03418761 -0.50966895 0.3997213
-0.3484771 0.4765324 -0.05046052 0.53069973 0.5261757 0.111346565 0.5021953 0.16326039
0.45347154 -0.3375039 0.54903054 0.6300781 0.49721387 0.56653285 -0.46554554 0.19890548
-0.45909774 -0.3172129 -0.5246109 0.50153726 0.24879804 0.6155682 0.39444634 0.67863536
0.07939782 0.12608217 -0.57137954 -0.025463935 0.025893968 0.51231 0.28614777 0.36345062
0.58152455 0.5906779 0.49050352 0.59449106 0.39174917 -0.34278536 -0.29285634 -0.2972726
0.6435543 -0.68147445 -0.66048324 0.7491382 0.04112067 -0.44921187 -0.5390705 0.5427641
0.17624202 0.06803286 0.57932276 0.58219784 0.31515393 0.41869104 0.20205687 -0.15298246
0.5223159 0.3403058 -0.60918117 0.3710224 -0.41770464 0.22054037 0.31770012 0.43712214
0.56607324 0.29255033 0.52916926 0.24783674 0.5400751 0.42810628 0.35195678 0.44117668
0.49367547 0.13968778 -0.6431219 0.42555407 -0.5346854 -0.49772444 -0.33138296 0.5762594
0.13740447 0.46170682 0.49650493 0.5605587 0.44747946 -0.24667755 0.19715801 0.42435202
0.25144273 0.1543825 -0.49660945 0.52578944 0.38939872 0.24583502 0.048617683 0.55605245
0.1824994 -0.5419561 -0.14921859 0.46438107 0.3588305 -0.31868437 -0.64962614 -0.18112639
0.50300765 -0.4593986 -0.56606007 -0.048436917 0.6383269 0.1496873 0.5564679 0.36828142
0.33011517 -0.015287004 0.434031 -0.37925526 0.273561 0.48823664 -0.55277056 0.34825844
-0.4382286 0.47411144 -0.19358525 0.45432994 0.49177346 -0.19522895 0.2788719 -0.39482418
0.5481884 -0.011939672 0.26140797 0.31353477 -0.24398576 0.5053362 -0.48418668 0.36699033
0.087758064 -0.5273994 0.36099035 0.24868222 0.40035602 0.4330601 0.14571297 0.45146963
0.30675152 -0.45813563 0.49149436 0.536294 -0.3601193 0.3768745 -0.5193626 0.3395938
0.42666453 0.4739292 0.32815382 0.4436677 0.2200815 -0.5640552 0.37359354 0.22381528
0.35764393 0.16620322 -0.4273028 0.09043087 0.16400176 0.055621143 -0.34285006 -0.48561606
-0.01429567 0.51119244 0.16138682 0.3436666 0.3157402 0.41094476 0.53246486 -0.46056142
0.38244373 0.40785423 0.12972221 0.32461077 -0.58144003 0.5823442 0.3354232 0.279641
00000000: 7707 27bf 50c0 0e3f df62 f9be 117a 133f
00000010: 3b9d cd3e 2736 9c3e cd68 9a3e 40a8 813e
00000020: f89d 19bf 705d 0a3e f71e d23e 239c a2be
00000030: 1914 363f 7494 f03e ae53 213f f458 ad3e
00000040: c65b b4be 2d06 0e3f a8cb 0cbe 252e 43bd
00000050: e506 00bf 509e 913e af3c fb3e 9c11 f6be
00000060: af13 c4be 38ed 84bd 2e0d 003f 8d90 05bf
00000070: 8879 9abe 322e 303f b3b9 fdbe b870 c73e
00000080: 6f4b 0b3e c81a 163e 598d 0b3f 595e de3e
00000090: b1bb 023f 8574 14bf 314a dfbc 4a6a 7c3e
000000a0: cc5e 083f 6588 babd 38f2 48bd 46dd ca3e
000000b0: 788b 0f3f 3455 ca3e 3814 663e 0084 a23e
000000c0: 0c15 043f 523f 0ebf 4b21 183e 4405 a73e
000000d0: 901c c23e 54ed 90be e5c0 fcbe bedb 98be
000000e0: f415 b93e df78 bbbd cfbc 05bf 5905 aa3d
000000f0: 25d9 0b3f e053 af3d eccd 0f3f e7e2 053f
00000100: 6bd9 60bc a888 a23e 3570 e0be c634 bd3c
00000110: 61e0 f63e 4f08 0cbd aa79 02bf 45a8 cc3e
00000120: 976b b2be 0efc f33e b1af 4ebd f0db 073f
00000130: 73b3 063f ab09 e43d df8f 003f bb2d 273e
00000140: 6c2d e83e 50cd acbe 448d 0c3f cc4c 213f
00000150: d192 fe3e 4c08 113f fc5b eebe e1ad 4b3e
00000160: dc0e ebbe bb69 a2be e64c 06bf bf64 003f
00000170: eac4 7e3e e195 1d3f dff4 c93e 0cbb 2d3f
00000180: 539b a23d af1b 013e ee45 12bf be99 d0bc
00000190: 961f d43c c026 033f f681 923e 3316 ba3e
000001a0: cbde 143f ab36 173f 4723 fb3e 9130 183f
000001b0: 5993 c83e 9081 afbe 44f1 95be 1d34 98be
000001c0: f9bf 243f 1c75 2ebf 6e15 29bf 85c7 3f3f
000001d0: 266e 283d 19ff e5be 8600 0abf 97f2 0a3f
000001e0: ca78 343e d054 8b3d 7f4e 143f eb0a 153f
000001f0: db5b a13e ac5e d63e ffe7 4e3e 6fa7 1cbe
00000200: 7fb6 053f 903c ae3e 4cf3 1bbf a6f6 bd3e
00000210: 62dd d5be 56d5 613e 97a9 a23e 79ce df3e
00000220: 2dea 103f 28c9 953e a377 073f eac8 7d3e
00000230: 5d42 0a3f bf30 db3e ae33 b43e e9e1 e13e
00000240: 08c3 fc3e 500a 0f3e a3a3 24bf 39e2 d93e
00000250: 24e1 08bf bdd5 febe 07ab a9be bc85 133f
00000260: c2b3 0c3e d664 ec3e e535 fe3e c680 0f3f
00000270: 071c e53e 0a99 7cbe cae3 493e ab44 d93e
00000280: 1abd 803e 7216 1e3e 9843 febe 239a 063f
00000290: 455f c73e 2dbc 7b3e 5623 473d 7459 0e3f
000002a0: 1fe1 3a3e a3bd 0abf c2cc 18be 5bc3 ed3e
000002b0: a2b8 b73e 992a a3be e64d 26bf 3279 39be
000002c0: 1cc5 003f 4b36 ebbe 50e9 10bf ca65 46bd
000002d0: 6469 233f a147 193e ae74 0e3f 628f bc3e
000002e0: db04 a93e 5876 7abc 5039 de3e bf2d c2be
000002f0: 3010 8c3e 27fa f93e 5f82 0dbf ee4e b23e
00000300: 805f e0be bcbe f23e 363b 46be ef9d e83e
00000310: bbc9 fb3e 19ea 47be 4cc8 8e3e 6526 cabe
00000320: 1356 0c3f 9d9e 43bc 44d7 853e a187 a03e
00000330: 67d7 79be b75d 013f 51e7 f7be 28e6 bb3e
00000340: 80ba b33d a603 07bf bad3 b83e 8da6 7e3e
00000350: 77fb cc3e 0eba dd3e c835 153e 0727 e73e
00000360: 890e 9d3e c190 eabe 26a5 fb3e 904a 093f
00000370: 8f61 b8be b2f5 c03e f3f4 04bf 3ddf ad3e
00000380: c673 da3e d9a6 f23e c703 a83e 6a28 e33e
00000390: 0b5d 613e ec65 10bf a747 bf3e d52f 653e
000003a0: 1b1d b73e 2d31 2a3e 6fc7 dabe d233 b93d
000003b0: 14f0 273e ffd2 633d 0b8a afbe aba2 f8be
000003c0: 6338 6abc 82dd 023f 9642 253e 12f5 af3e
000003d0: b3a8 a13e 5a67 d23e 9e4f 083f b5ce ebbe
000003e0: aacf c33e 45d2 d03e e6d5 043e 6233 a63e
000003f0: 41d9 14bf 8214 153f 97bc ab3e 1b2d 8f3e

linear.weight f4 [7, 30]
0.7043457 0.21137986 -0.44129547 0.72627085 -0.5510583 0.2992599 -0.4626508 -0.13158084
0.005370693 -0.24796776 -0.19005555 0.49535552 0.24315861 -0.518885 -0.3307641 0.19859649
-0.54642177 -0.69548583 0.57053393 -0.71209514 -0.24551031 0.45642218 -0.4885834 0.50185734
-0.58015996 -0.14596665 -0.3365241 0.45304018 0.13024357 -0.22912924 0.18743713 -0.46470246
0.3529879 0.3321939 0.21938154 -0.24388106 -0.28115755 -0.21966486 -0.38378534 -0.53187746
-0.38358355 -0.20399232 -0.07325708 0.27632 -0.3630967 0.17435248 -0.17413041 -0.49342915
-0.44261587 -0.25711006 -0.4031358 -0.06519538 0.49709082 0.25359008 -0.03821155 0.69243306
-0.47774616 0.22633436 0.070482306 0.041569043 -0.70667607 -0.51993155 0.4488823 -0.55528754
0.18083185 -0.3402438 0.4932904 0.31159297 -0.08151507 0.49477318 -0.35836804 0.4546709
-0.38132638 0.5505339 -0.54302585 -0.38364545 0.52922064 -0.50570697 -0.54282594 -0.13892819
-0.4308652 0.22648868 0.29400215 -0.6749433 0.5755398 0.47248095 0.41586664 -0.5437007
-0.06076643 0.5221661 -0.42259595 0.42792916 0.36182937 0.387375 0.36595315 0.40168148
0.45883727 0.45954305 0.2892182 0.50510347 0.3443493 -0.57921064 0.49916866 0.43123904
0.2158005 -0.632136 0.4741199 0.101369254 0.25848657 -0.32805863 0.26959223 -0.63303745
0.2491569 -0.18058594 0.26093185 -0.28622127 0.40955198 -0.5892891 -0.0836242 0.37140003
0.4576589 0.52193475 -0.5924373 0.15412226 -0.5376263 0.5550808 -0.39025304 0.3856166
0.48665878 -0.5467031 0.53909993 -0.60591173 0.63033235 -0.49146193 0.5274165 -0.6777607
0.5397656 0.43609327 0.2667296 -0.62318194 0.590527 -0.5207059 -0.64909947 0.4424914
-0.563838 -0.6428644 -0.14937238 0.5886005 0.1515626 -0.51242274 0.2532556 -0.027699936
-0.4027475 -0.6638703 -0.19543457 -0.41331697 -0.5809187 -0.4905861 -0.35603532 -0.56507343
-0.101824984 0.2071939 -0.33666626 -0.6075243 -0.500783 0.51036525 -0.16806115 0.68337625
-0.52910286 0.5433167 -0.39977804 0.24187568 0.15261407 -0.12951066 -0.57901704 -0.75764275
0.113252625 0.6715235 -0.08288265 -0.60434496 -0.325552 -0.40638214 -0.34009197 -0.4248521
-0.5180883 -0.4656725 -0.10951465 -0.46948004 -0.26540813 -0.40575075 -0.54034656 0.628162
-0.49107808 -0.19390878 -0.4654842 0.41782457 -0.36980662 -0.55389714 -0.42728138 0.5507386
-0.43205896 0.7439911 0.2825907 -0.67906004 0.2989151 -0.6135804 -0.29191956 -0.24924788
-0.15534832 -0.30727956
00000000: 0050 343f f673 583e 7bf1 e1be e3ec 393f
00000010: 2812 0dbf 9838 993e 91e0 ecbe 21bd 06be
00000020: a3fc af3b 43eb 7dbe ec9d 42be 3d9f fd3e
00000030: 92fe 783e a6d5 04bf ea59 a9be e15c 4b3e
00000040: 4ce2 0bbf 5c0b 32bf 830e 123f de4b 36bf
00000050: 0e67 7bbe 2bb0 e93e 9a27 fabe b979 003f
00000060: 5d85 14bf 4878 15be e34c acbe e2f4 e73e
00000070: 925e 053e dba0 6abe 85ef 3f3e 7bed edbe
00000080: d4ba b43e 5215 aa3e 8ea5 603e f5bb 79be
00000090: e2f3 8fbe d3ef 60be 837f c4be 1f29 08bf
000000a0: 1065 c4be 5de3 50be cf07 96bd d179 8d3e
000000b0: d0e7 b9be 7589 323e 3e4f 32be bfa2 fcbe
000000c0: 8c9e e2be eea3 83be d167 cebe 2885 85bd
000000d0: b082 fe3e 8fd6 813e b783 1cbd 4b43 313f
000000e0: 259b f4be 32c4 673e 0759 903d 4d44 2a3d
000000f0: b9e8 34bf 3c1a 05bf e7d3 e53e 5327 0ebf
00000100: fc2b 393e 6f34 aebe 8f90 fc3e 1d89 9f3e
00000110: 5ff1 a6bd e952 fd3e 047c b7be a0ca e83e
00000120: 363d c3be caef 0c3f be03 0bbf 2d6d c4be
00000130: 017b 073f 0376 01bf a4f6 0abf 3143 0ebe
00000140: 5d9a dcbe a6ec 673e 7387 963e 16c9 2cbf
00000150: 9456 133f 06e9 f13e 79ec d43e f82f 0bbf
00000160: 38e6 78bd adac 053f 7f5e d8be 8819 db3e
00000170: b341 b93e 0456 c63e 365e bb3e 32a9 cd3e
00000180: b8ec ea3e 3a49 eb3e 6814 943e 764e 013f
00000190: 8d4e b03e 2647 14bf 0993 ff3e 5dcb dc3e
000001a0: cefa 5c3e aad3 21bf d8bf f23e af9a cf3d
000001b0: 5a58 843e 4df7 a7be fe07 8a3e be0e 22bf
000001c0: fd22 7f3e 85eb 38be dc98 853e 988b 92be
000001d0: ccb0 d13e a7db 16bf 2a43 abbd 2528 be3e
000001e0: 4452 ea3e 849d 053f f9a9 17bf 3ad2 1d3e
000001f0: e1a1 09bf c619 0e3f 3fcf c7be 8a6f c53e
00000200: 572b f93e bcf4 0bbf 7402 0a3f 081d 1bbf
00000210: 765d 213f e6a0 fbbe c504 073f ba81 2dbf
00000220: 142e 0a3f 9e47 df3e c890 883e da88 1fbf
00000230: c72c 173f fb4c 05bf 622b 26bf 3c8e e23e
00000240: b057 10bf c392 24bf 13f5 18be 86ae 163f
00000250: 3a33 1b3e 232e 03bf b8aa 813e faea e2bc
00000260: ec34 cebe 67f3 29bf 0020 48be 489e d3be
00000270: 17b7 14bf 1a2e fbbe 434a b6be a7a8 10bf
00000280: 9e89 d0bd a32a 543e 855f acbe b686 1bbf
00000290: 5133 00bf 4ca7 023f 3918 2cbe bff1 2e3f
000002a0: 4973 07bf ce16 0b3f b5af ccbe 42ae 773e
000002b0: dd46 1c3e 719e 04be 763a 14bf e0f4 41bf
000002c0: fef0 e73d f7e8 2b3f 61be a9bd 5ab6 1abf
000002d0: c0ae a6be 5211 d0be 8920 aebe 3786 d9be
000002e0: 6fa1 04bf a06c eebe 3849 e0bd b05f f0be
000002f0: 93e3 87be 90be cfbe 2754 0abf 3acf 203f
00000300: 966e fbbe 0690 46be f253 eebe 1aed d53e
00000310: 4b57 bdbe 34cc 0dbf a0c4 dabe 34fd 0c3f
00000320: d536 ddbe 3376 3e3f baaf 903e e1d6 2dbf
00000330: 660b 993e 9b13 1dbf 7b76 95be d63a 7fbe
00000340: a113 1fbe bf53 9dbe

linear.bias f4 [7]
0.067628674 0.04370577 -0.18573073 -0.11979546 -0.12380031 0.030981865 -0.053370677
00000000: e780 8a3d d204 333d 3230 3ebe 5257 f5bd
00000010: 048b fdbd aecd fd3c 369b 5abd
