experiments/output-gat/Tree_Cycle/min/42/model.pth (torch, 150205 bytes, 14 tensors)

layers.0.bias f4 [50]
00000000: fa7d dbbd 0000 0000 0000 0000 0000 0000
00000010: 0000 0000 0000 0000 0000 0000 0000 0000
00000020: 0000 0000 b490 c13e bd30 5f3e 0000 0000
00000030: 0000 0000 0000 0000 4b47 ab3e 0000 0000
00000040: 47f6 34be 0000 0000 0000 0000 c808 703e
00000050: 5029 c4bb 0000 0000 0000 0000 0000 0000
00000060: f86d d93e 7c73 863e 392e 7c3e 0000 0000
00000070: 0000 0000 0000 0000 fb23 243e 32b0 51be
00000080: d4fe 6f3e 0000 0000 0000 0000 c98f efbb
00000090: f5ae 753e 0000 0000 bc35 3bbc 6df7 32be
000000a0: 2e90 4abe 0000 0000 0000 0000 cfa4 aa3e
000000b0: 6c18 693e f325 8f3e 4d7d d63e 0000 0000
000000c0: 0000 0000 d00b c43e
-0.107173875 0.0 0.0 0.0 0.0 0.0 0.0 0.0
0.0 0.37805712 0.21795936 0.0 0.0 0.0 0.3345283 0.0
-0.17672072 0.0 0.0 0.2344085 -0.00598637 0.0 0.0 0.0
0.42466712 0.26259983 0.24627008 0.0 0.0 0.0 0.1602935 -0.2047737
0.23437053 0.0 0.0 -0.0073108417 0.23992522 0.0 -0.0114263855 -0.17477198
-0.19781563 0.0 0.0 0.33328864 0.22763222 0.2795864 0.41892472 0.0
0.0 0.38290262

layers.0.combine_aggr.weight f4 [50, 200]
00000000: 1c6f 5d3d 5e65 703d 82b4 87bc 7507 853d
00000010: 34d6 7dbc 80c7 693c 1f02 0dbd 6218 2a3d
00000020: 7652 7f3d 3e7b 54bd 02bf 7b3d 18d4 583c
00000030: 5efb 553d 48e6 1c3c 16a8 0b3d b892 23bc
00000040: ba45 5f3d 783d 2b3c 1736 07bd 24a7 933c
00000050: 8f71 05bd 08dd 07bc a445 ebbc fc21 403d
00000060: 44a0 64bd da85 05bd a691 a3bc aa25 2ebd
00000070: b0b0 da3b fe07 8fbd bfc8 823d 4408 76bd
00000080: 5e9a 5f3d f0cc 403c c616 bcbc 3afa 323d
00000090: 908e 343c de02 6a3d 804c fd3b 04af b6bc
000000a0: 64a3 9b3c 7c15 9dbc 68c9 f33c 614b 813d
000000b0: 886c 273d c63c fdbc 9831 273d 504a 4f3c
000000c0: b215 133d 1288 30bd a45a 8fbd cecd dfbc
000000d0: 5027 5ebd 4aa7 6d3d 78d8 a63c 28f0 ef3c
000000e0: b432 b73c c03a a1ba e6aa 623d 67c9 4dbd
000000f0: d0e3 913b 4caf 45bd d89d b23c d07c c7bc
00000100: cc7e b13c 5c5e 71bc b237 703d 32aa 2bbd
00000110: 3ebc 2cbd e9be 2cbd d540 823d 280a c13c
00000120: 4b59 8b3d 8a06 6fbd 96a3 8fbd c698 62bd
00000130: e2d4 42bd d49f ea3c 706b cf3c 52a9 703d
00000140: a192 15bd e071 45bd feab 193d e823 eabc
00000150: b0c8 2f3d 9075 89bc a4ae 253d b308 61bd
00000160: 8529 12bd 749a b03c b0eb 743c 1ab0 93bc
00000170: e2a3 2c3d d0e4 443d 5c08 52bd f09f 1abd
00000180: 1d9a 843d 3876 c3bc 9c5b cdbc 681f 8cbd
00000190: efdc 25bd a4b3 903c d0ea 18bc 323d 52bd
000001a0: c066 d93a 70d7 45bd d0b8 75bd 2b7d 1fbd
000001b0: 0f7d 7dbd 476b 38bd 43c2 903d f0d0 5a3c
000001c0: 5481 b23c 2f11 87bd d638 3ebd 8acf c0bc
000001d0: e028 353c 3ada 7ebd 9e96 f9bc 9864 2dbd
000001e0: 007a 4d39 948b d7bc c08f a0bb 3643 44bd
000001f0: 21cd 46bd a2f8 28bd a647 c6bc a599 64bd
00000200: cad8 723d e0ec 65bc 9232 793d d47c b43c
00000210: 3542 75bd 506f 483d 8461 9fbc d20b debc
00000220: 036a 70bd 48f8 8fbd a4bb a53c 8c12 7dbc
00000230: 2085 e13c 86b0 6dbd cc07 573d cc9a 54bd
00000240: d40b 48bc 00fb 713c c285 153d 72d2 693d
00000250: c7eb 833d a0a7 65bd 00c8 913c d427 f9bc
00000260: d0e9 fdbb 30c9 58bd 0be8 833d 2593 54bd
00000270: 2acb 1a3d 5893 cb3c 103c bc3c 7f96 1cbd
00000280: 57a1 833d 0896 7e3c 5808 153c 193d 7fbd
00000290: e02a f33c 6ccd 2dbc ddaf 04bd 0ac7 783d
000002a0: 5025 813c f83e 20bd ef97 12bd 004e 5dbb
000002b0: feb7 213d 6005 94bc 9241 25bd 365d c6bc
000002c0: 4260 58bd 6895 ce3c 9e2f 603d cb55 88bd
000002d0: b488 863c f89e 153d 0813 523c 184a cebc
000002e0: ac2b 173d 7434 183d 109a d83c d493 4bbc
000002f0: a863 99bc 40e1 f73b 70a8 4cbc e49e acbc
00000300: 5422 393d a2e8 783d b061 e5bb e6b1 81bc
00000310: 803e 873a d058 8abb d842 8b3c 2454 a23c
00000320: 9687 83bd fec4 d5bc 22e8 733d 84a7 e13c
00000330: 207d 66bb c39e 2ebd 9c32 31bd 8db8 81bd
00000340: 50d1 bcbc 809e c33c caac 383d cab8 053d
00000350: 3f02 80bd 562c 2ebd 98d5 36bc 5116 8c3d
00000360: d096 273c 0a03 96bc 44a6 ef3c 52a1 dcbc
00000370: 1c77 3bbd e065 533d 1ab2 03bd d83e 68bc
00000380: 2410 90bd 6cd7 413d 386f 5b3d 681c d33c
00000390: c3f3 49bd 97ec 8ebd 6f3b 6bbd 56fa 573d
000003a0: b20d 0b3d cab9 733d 9cba 173d 4c9b 923c
000003b0: 8085 35ba 1e44 5cbd d225 78bd f573 87bd
000003c0: b820 ed3c 1433 0ebd e827 69bc 24af 26bd
000003d0: 401c 53bc 35da 4bbd d93f 3dbd c025 c03c
000003e0: 9027 acbc 3ccd 323d 12d5 b9bc ba76 54bd
000003f0: a068 4cbc da65 0cbd 6638 b1bc 1bdd 89bd
0.05406104 0.05869042 -0.016565565 0.06495563 -0.015492965 0.014268756 -0.03442585 0.04152716
0.0623345 -0.051875345 0.061461456 0.013234161 0.052241676 0.009576388 0.034095846 -0.009983711
0.054509856 0.010451667 -0.03301057 0.018024035 -0.032579 -0.008292444 -0.02871973 0.04690741
-0.055816904 -0.032598354 -0.019966912 -0.042516388 0.006673895 -0.06983946 0.063859455 -0.060066476
0.054590575 0.011767611 -0.022960078 0.043695666 0.011020318 0.05713164 0.007730067 -0.02230025
0.01899881 -0.019175284 0.029759124 0.063132055 0.040874988 -0.030912768 0.04081878 0.012651995
0.035909362 -0.043098517 -0.0699971 -0.027319815 -0.05423671 0.058020867 0.020366892 0.02928932
0.022363044 -0.0012300834 0.055338763 -0.0502409 0.004452206 -0.04826288 0.021803781 -0.024351507
0.021666907 -0.01473197 0.058646865 -0.041910358 -0.04217171 -0.042174254 0.06360022 0.023564413
0.06804141 -0.058355846 -0.070136234 -0.055321477 -0.047566302 0.028640665 0.025319785 0.058755226
-0.03651679 -0.048204303 0.03751754 -0.028581575 0.042916 -0.016779691 0.040449753 -0.054939937
-0.035684127 0.021558024 0.01494877 -0.018028308 0.04214848 0.048069775 -0.051277503 -0.037750185
0.06474707 -0.023860082 -0.025068097 -0.06841928 -0.0404939 0.017663784 -0.009333327 -0.05132789
0.0016586408 -0.04830116 -0.059990704 -0.03893773 -0.061886843 -0.045024183 0.070683025 0.013355479
0.021790184 -0.065950744 -0.04644092 -0.023536462 0.011057109 -0.062219836 -0.030467328 -0.04233226
0.00019595772 -0.026311673 -0.004899949 -0.04791566 -0.04853547 -0.04125274 -0.024204087 -0.05581059
0.059288777 -0.014033526 0.060839243 0.022032179 -0.059877593 0.04893428 -0.019455679 -0.027105246
-0.05869485 -0.07029778 0.020231076 -0.015446316 0.0275293 -0.058029674 0.05249767 -0.05190544
-0.012209851 0.014769316 0.036504515 0.057085462 0.06441455 -0.056068063 0.017795563 -0.0304145
-0.00774882 -0.052926242 0.06440743 -0.05189814 0.03779141 0.024850532 0.022977859 -0.03822946
0.064272575 0.0155387 0.009096228 -0.062314127 0.02968353 -0.010608058 -0.03239428 0.060736693
0.015764862 -0.03912255 -0.035789426 -0.0033768415 0.03948211 -0.01806897 -0.040345736 -0.024214368
-0.052826174 0.025217727 0.05473291 -0.06656989 0.016422607 0.036528558 0.01282192 -0.025181815
0.036906883 0.0371594 0.02644065 -0.012425382 -0.018724278 0.0075646937 -0.0124913305 -0.021071859
0.045198753 0.06076873 -0.0070001706 -0.015831899 0.0010318309 -0.004222013 0.016999647 0.019815512
-0.06422345 -0.02609491 0.05954755 0.027545698 -0.0035169795 -0.042631876 -0.043261155 -0.063340284
-0.023049027 0.02387929 0.04508666 0.03264693 -0.062504284 -0.04252275 -0.011159323 0.06840194
0.010228828 -0.018311996 0.029254086 -0.026932392 -0.04576789 0.051610827 -0.032152273 -0.014175139
-0.070343286 0.047324583 0.053572863 0.025770381 -0.049304735 -0.0697872 -0.057429727 0.052728973
0.033948608 0.059503354 0.0370432 0.017896317 -0.0006924495 -0.0537759 -0.060582943 -0.06613914
0.028946266 -0.03471668 -0.014230706 -0.04069437 -0.012885153 -0.049768645 -0.046203468 0.0234555
-0.021014959 0.043652758 -0.022684608 -0.05187104 -0.012476116 -0.03427682 -0.021633338 -0.06731626

layers.0.lin_a.weight f4 [1, 100]
00000000: ae01 9b3d b25f 4dbd c9c7 86bd 71c9 85bd
00000010: 2c94 373d 9cb0 34bb ba9c ecbd 998d cc3d
00000020: cc90 893c 65eb db3d 661f 0dbc 636a 7c3c
00000030: 77f3 ac3d 73f3 92bd c8b0 8e3d 8487 8ebd
00000040: 6adb 7a3c a154 13bd f466 a9bd 36b8 c13d
00000050: 13d9 02bd c50a 3abd 0227 ac3d fa2f c53d
00000060: 41a2 d8bd 603c 02bd 5556 923b c0d5 bb3d
00000070: bb8d 36bd 28ab 8ebd 3bf2 6bbd a77c fb3c
00000080: 2290 76bc 9a9c c93b 26e5 35bb c18d 9fbd
00000090: d119 87bc 82c3 e4bc 44c6 a93c ca3c 843c
000000a0: 5ce2 513d 03a8 dcbd 1b84 a63c c704 963c
000000b0: b023 4d3d 4876 f83c 7f63 7fbd 702a 2bbd
000000c0: 413d c7bd b96e c0ba 6002 87bd 9166 a33d
000000d0: 8fad 4abd 3de9 69bd 52d8 1abb a486 00bd
000000e0: 2359 563d fb63 bb3d bcf0 cabd e814 753d
000000f0: 7789 8fbc 4ac4 5b3d 29ee cebc efaf 30bc
00000100: 0ff9 d9bc 6654 f33c e4b8 623d 6522 8a3d
00000110: 22dd 69bb 9bd7 7ebd 31be 81bd 29e2 abbd
00000120: 23f8 bebd ddd6 bf3d 8aee 7cbd ee82 c7bd
00000130: 60d1 8dbd 6650 4c3d 6dd6 8abd bd67 f7bd
00000140: 3a5f 97bd 7b50 d93c 5d75 36bd 36ec acbd
00000150: ed98 78bd 7316 c3bd fd48 6f3d 358e 613d
00000160: b7f8 393c f6bb 76bd be3f 4bbd 526d 103c
00000170: 31da a93b 94ef a73c 5fe4 a7bd b909 c9bc
00000180: 0e71 123d a22c c43d 345a 893d 6411 11bb
0.0756868 -0.05014009 -0.06581075 -0.065325625 0.044819042 -0.0027571088 -0.11553331 0.09987945
0.016792677 0.10738257 -0.008613443 0.015406224 0.08444875 -0.071753405 0.06967312 -0.06959441
0.015311101 -0.03596938 -0.0827159 0.094589636 -0.0319453 -0.045420427 0.08405878 0.096282914
-0.105778225 -0.03179586 0.004465858 0.09171629 -0.04456876 -0.06966239 -0.057604056 0.030699087
-0.015049012 0.0061527016 -0.0027754991 -0.07790709 -0.016491802 -0.027925257 0.020724423 0.016142268
0.051241264 -0.10774233 0.020326665 0.018312825 0.050082862 0.030329838 -0.062350746 -0.04178852
-0.0972848 -0.0014681435 -0.0659225 0.07978547 -0.049481925 -0.0571072 -0.0023627472 -0.031378403
0.0523311 0.09149929 -0.09909198 0.05983439 -0.017521603 0.053653993 -0.025260048 -0.010784133
-0.026608018 0.02970333 0.055352107 0.067448415 -0.0035684784 -0.062217336 -0.06335104 -0.08392746
-0.09324672 0.09367154 -0.061750926 -0.0974177 -0.06924701 0.04988136 -0.0677918 -0.120803334
-0.0739121 0.026527634 -0.04454552 -0.08443491 -0.060692716 -0.09525766 0.058419216 0.05506726
0.011350802 -0.060237847 -0.049621336 0.0088151265 0.005183481 0.020499982 -0.08197855 -0.024540769
0.03575235 0.095788255 0.06706658 -0.002213561

layers.0.lin.weight f4 [50, 10]
00000000: 02ba c83e 7e9b 933e 14e8 873e 025a f8bd
00000010: 72d9 02be ded8 913e 114d 373e 4a0d b93e
00000020: 68a8 a63e de08 b1bd 793f 723d cb12 7dbe
00000030: fe09 32be 78e6 b33d 721c 89bc 64d7 4dbe
00000040: 0087 dd3d 08ad 613e c2a3 9ebe 0d59 983e
00000050: 6943 323e 0a4b debc 7a40 9dbe 9d92 09be
00000060: 88a9 c43d 7974 0abe 46de d5bd 2338 06be
00000070: ccf5 8a3e dcc6 883e 0fe5 79be 8c74 c2bd
00000080: f6fc 933e 9ea5 7fbc 57fc 1abe f652 273d
00000090: bc71 813e 1a23 1abd 2b71 97be 9422 d3bd
000000a0: af0e 203e d9ca 43bd 69b0 633e 2c87 dc3d
000000b0: 7d64 de3a d42d f53d 493f 33bd 1159 8bbe
000000c0: c24e 8bbe 2dd0 7fbe a2ff 4cbd b4cf 69be
000000d0: 7e20 3f3d e6d2 153d a2b6 763e e645 943c
000000e0: 8e11 5e3d 88f1 e63d d871 b6bd cb06 21be
000000f0: 4bae 94be 3411 9abe 994f e43c 14e2 11be
00000100: fdc7 c13d e972 af3d 7fe6 813e f523 01bd
00000110: 360f bc3b 04bd 663e a148 523d 56dd 113e
00000120: 9633 31be 5a64 6cbe 5288 743e e67c 643e
00000130: 05e7 f9bd 81cc 4d3d c729 91be 6a90 a23c
00000140: 9d3d 96be db2f 373e 2365 a0be 0ae7 9bbd
00000150: 2124 973e 9e15 dbbd 9089 3bbe a923 923e
00000160: c1a1 23be 3829 8f3d 3b39 013f 2c76 d33e
00000170: 6366 e03d e673 1d3f 5b99 f53e ad4a 043e
00000180: 761b 173e 179e 823e e9f9 dd3e 232e e53e
00000190: 7459 023f 3504 2d3f a075 483f a394 083f
000001a0: 80a2 173f bef6 253f 41f9 073f 70d5 f93e
000001b0: 73b6 403f 75d0 2f3f a8bf 533e 887d fbbd
000001c0: 2490 1abe db54 2fbe ec74 87be 2494 02bd
000001d0: 6ab4 363e ecc9 3e3d f294 e4bd 042b 32bd
000001e0: 9f70 79be c94a 51be fd2a e43c 536f 3dbe
000001f0: a179 1a3d d2e1 843e d243 a33d f598 763e
00000200: 8172 4ebe f32e e43b 23a8 9dbe 36e0 a03b
00000210: 3cc3 6bbe 7759 993e 7f05 89be 17f4 e23d
00000220: f9ea 3ebe 33d6 b83d e41f 8c3a 5389 1abd
00000230: 431a 41be 57c8 0c3e b9c1 fbbd 0c4e 1fbd
00000240: 2903 25be 5ab3 97be 7f61 4abe e1e7 5e3e
00000250: c3cd 703e 4cdf 59be 509b fc3c 8c76 4f3d
00000260: e67b 8e3e 74f9 313d c70f 663c 22c7 bdbd
00000270: f630 873d f38e a1be f7e2 a1be 74ec 18bd
00000280: ec69 4abd b398 4bbd ec0e ee3d 6cd3 b03e
00000290: c720 a73e 27f3 753d 141c 173e 604d ed3e
000002a0: a20a 743e bc19 c53e 8110 04be a0db 8fbe
000002b0: 9012 14be 0028 f43c 67bb 98bd 64bf 2ebe
000002c0: 56ba 9c3e 816a 94be c28a 243c fc1b 033e
000002d0: 2374 a5bd d713 113e 1313 b93b 5ada 3bbe
000002e0: 4e71 2bbe 3909 0dbe 94c4 9bbe e374 4e3e
000002f0: d0ba 963e 71b5 21be d0cf 183f 96dc 2f3f
00000300: 61bb 2b3f f1c0 cf3e b63b c73e 879d 633f
00000310: b4f3 433f d57c 603f b6a3 4d3f 79c9 0e3f
00000320: 420e 5e3e f363 82bc de7e fdbb b837 12be
00000330: 3a9e 763e 2f83 95bd 8b68 243d d80f 84be
00000340: 3f56 d23d 3de0 1fbe 6aa5 8fbd 2c44 ddbc
00000350: f0af f23d c942 683c 5ce2 663d 6706 51be
00000360: 2a60 73be 18d5 eb3d 120b 04be 6ef1 8abe
00000370: e774 06be 903f 9fbe 0a88 7f3d 9fda b93c
00000380: fc1a 953e 6761 33be 8349 28be 9401 993d
00000390: eece abbd 4089 7b3e 890a 393d b395 20bc
000003a0: 6e77 febd 2aa7 403e 1794 1abe 6d6c fe3d
000003b0: b605 4d3e a980 80be f0f4 90be 719d 39be
000003c0: a3c0 c33e d90b 663d 4d5e 853e 7182 8e3e
000003d0: 0c0e 983e 3501 8e3d 1373 773e af41 e63e
000003e0: c6fd c93e 63fe 943e 53d1 c13c a00c d93e
000003f0: 4ccf 183e 0a30 fe3e aa1e d03e fb4f 5e3e
0.39204413 0.2882957 0.2654425 -0.12126543 -0.12778261 0.2848577 0.17900492 0.3614295
0.3255036 -0.086442694 0.059142563 -0.247142 -0.17386624 0.08784193 -0.016737197 -0.20101696
0.10816765 0.22038662 -0.30984312 0.2975544 0.17408527 -0.02713539 -0.30713254 -0.13434835
0.09602648 -0.13520993 -0.10442786 -0.13107352 0.27140653 0.26714218 -0.24403785 -0.09494886
0.2890393 -0.015603451 -0.15135323 0.040850602 0.25282085 -0.03763113 -0.29578528 -0.1030933
0.15630601 -0.047800872 0.22235264 0.107679695 0.0016967204 0.11971632 -0.043761525 -0.2721639
-0.27208525 -0.24981757 -0.050048478 -0.22833139 0.046661846 0.03657808 0.24093106 0.018099736
0.05421596 0.11276537 -0.08908433 -0.15725248 -0.29039225 -0.3009125 0.027869986 -0.14246398
0.09461973 0.08566839 0.25371167 -0.031528432 0.005739118 0.22533041 0.051338796 0.14244589
-0.17304835 -0.23085156 0.23880127 0.2231327 -0.122022666 0.05024386 -0.28352186 0.019844253
-0.29343882 0.17889349 -0.3132716 -0.076124266 0.29519752 -0.106974825 -0.18314195 0.28542832
-0.15979673 0.06990284 0.5047795 0.41301095 0.10957029 0.6150497 0.47968563 0.12919112
0.1475657 0.25511238 0.4335473 0.44761762 0.50917745 0.67584544 0.7830448 0.533518
0.5923233 0.64829624 0.53114706 0.48795652 0.75278395 0.68677455 0.2067858 -0.122798026
-0.15094048 -0.17122214 -0.26456392 -0.03187956 0.1784226 0.046579286 -0.111612216 -0.043498054
-0.24359368 -0.20438685 0.02785253 -0.18499498 0.03771365 0.25953537 0.0797192 0.24081786
-0.20160867 0.0069636046 -0.3079234 0.0049095405 -0.23023695 0.2995107 -0.26762006 0.11081713
-0.18644322 0.0902523 0.0010690656 -0.03772862 -0.18857674 0.13748299 -0.12292809 -0.03889279
-0.16114487 -0.29629022 -0.19763754 0.21768142 0.23515992 -0.21276587 0.030835778 0.050650164
0.27828902 0.043450788 0.014041848 -0.09266497 0.066011354 -0.31554374 -0.31618473 -0.037334874
-0.04941742 -0.049706172 0.1162394 0.34536302 0.32642195 0.06004634 0.14756805 0.46348095
0.23832181 0.38496196 -0.1289692 -0.28097248 -0.14460206 0.02980423 -0.07457619 -0.17065197
0.30610913 -0.28987506 0.010042848 0.12803644 -0.08078792 0.14167725 0.005648026 -0.18345013
-0.16742441 -0.1377305 -0.30423415 0.20161776 0.29439402 -0.1579187 0.59692097 0.6869596
0.6708279 0.4057689 0.38912743 0.8891224 0.76543736 0.8769048 0.8032793 0.5577617
0.21685126 -0.0159168 -0.007736071 -0.14279068 0.24083796 -0.07300412 0.040138762 -0.25793338
0.102703564 -0.15612884 -0.07013972 -0.027010046 0.11849964 0.014176079 0.056368217 -0.20412599
-0.23767152 0.11515254 -0.12894848 -0.2713732 -0.13130532 -0.31103182 0.062385596 0.022687254
0.2912215 -0.17517625 -0.16434292 0.07471004 -0.08389078 0.24564075 0.045176063 -0.009801316
-0.12425123 0.18813768 -0.15095554 0.12423024 0.2002171 -0.2509816 -0.28311872 -0.18126465
0.38232908 0.056163643 0.26048508 0.27833894 0.29698217 0.06933824 0.24164991 0.44971988
0.39451426 0.29100332 0.023659384 0.42392445 0.14922827 0.49646026 0.40648395 0.21710198

layers.1.bias f4 [50]
00000000: faa3 acbb bd2a b6bd 0000 0000 33e1 273f
00000010: 2150 abbb 73a4 0b3f 1a93 933e 46c2 183f
00000020: 0000 0000 571c 0e3f 7a2c abbe 4767 adbe
00000030: 0e4a 51bd 1d8f 203f d153 193f f366 263f
00000040: d5b4 183f 0000 0000 0000 0000 ec63 04bc
00000050: 7221 c2be 5bb0 ac3e 33c7 c4bb 6e06 253f
00000060: c86e 153f cb46 6bbc 1891 0e3f 0000 0000
00000070: 39a3 f13e 1bb1 0d3d ec12 2bbe fde9 22bd
00000080: c6e8 cf3a 689b 1f3f 0a0a debb be38 193f
00000090: 1290 263f 774f b9be 3c1b abbe 76c4 b0be
000000a0: 2646 a0be 0222 a1bc 0000 0000 0000 0000
000000b0: 0000 0000 f483 0f3f 3489 08bd 0000 0000
000000c0: 9dec a0be aff0 6a3e
-0.005268571 -0.088948704 0.0 0.65578 -0.005228058 0.54547805 0.28823167 0.5967144
0.0 0.55511993 -0.3343237 -0.33867857 -0.051096015 0.62718374 0.5989352 0.6500084
0.5965093 0.0 0.0 -0.008080464 -0.37916142 0.337283 -0.0060051917 0.64462936
0.58372164 -0.01436014 0.55690145 0.0 0.47194842 0.03459273 -0.16706437 -0.03977393
0.0015862219 0.62346506 -0.006776099 0.59852207 0.65063584 -0.3619344 -0.33419216 -0.34524888
-0.3130352 -0.019669537 0.0 0.0 0.0 0.5606072 -0.033333972 0.0
-0.31430522 0.22943376

layers.1.combine_aggr.weight f4 [50, 200]
00000000: 9a9a 36bd 5875 2d3c 5d29 8f3d 8061 5fbc
00000010: 6f8f 26bd 0d2f 0dbd 2fc3 33bd 82b8 123d
00000020: 4ed4 2abd 9abb 4a3d aa16 293d 423e 2e3d
00000030: e03b 5ebb dcd8 71bc 9cd6 d13c 3c0d 2dbc
00000040: c4ca e83c 944d 813c 4874 c93c d49d f7bc
00000050: 3292 333d 3835 5ebc 1893 243d c0d5 8ebb
00000060: b552 8ebd 2068 c5bb c2b1 b8bc c099 0fbd
00000070: 004c 35bb 5c51 ddbc d08a b53b c804 abbc
00000080: 48b4 33bd c4a7 d43c 3933 6dbd 0e39 60bd
00000090: 5837 36bc 40bf c9bb 5676 87bd 942f 133d
000000a0: 4038 bf3b b846 f43c 00ec 36ba 6cde 7cbc
000000b0: eed9 cbbc a0f2 cebb 0c9d 63bd 1c65 fe3c
000000c0: 30a5 a43c f621 4f3d 3f48 87bd d05c f1bb
000000d0: 402a e3bc 0006 103b 80e6 303c d47e 2cbc
000000e0: 3014 bcbb b046 3fbc 94e5 8c3c c752 1ebd
000000f0: d840 06bc ce27 0f3d 0404 433d 2092 013c
00000100: 2086 febb 1019 423c b057 053d f01c 553c
00000110: 728a 28bd eb3b 64bd 0cbb 063d 7806 f9bc
00000120: 10ef d83c 1bdc 78bd 5c66 1e3d 648a f33c
00000130: 049f 64bc e040 5dbd 98cc 02bc 1a04 243d
00000140: 74df 5a3d 00b1 2bbb 80be bfbb ee96 6d3d
00000150: 60e0 493c 094a 8a3d 4902 833d 1011 3cbd
00000160: fa32 4cbd 2244 c0bc bc25 31bc 6d1d 833d
00000170: 24da 59bd 5e2d 013d fe3d 5e3d 90a8 913b
00000180: 0bd8 72bd 36aa 5abd 4849 2c3c bc99 a73c
00000190: 6c90 863c ee39 343d 8a15 3a3d 1860 7cbd
000001a0: 1e7b 083d 66e4 333d 1d47 12bd 3bb1 34bd
000001b0: 170b 82bd a1e1 8ebd 6c54 173d 0cae a43c
000001c0: 6654 1dbd d574 81bd c49f 86bd 5165 833d
000001d0: 78a6 be3c f067 3d3c b08f bfbb 7c77 ec3c
000001e0: 901c fb3b 2c10 fa3c c4cb 933c 2636 15bd
000001f0: 5e5f 07bd 3092 983c 2cc8 923c be7e 4c3d
00000200: b43d 56bd 54af 0c3d 0ed8 84bd e085 c63b
00000210: 032b 6bbd 8c74 0ebd 4e8c 25bd 0333 813d
00000220: 2de4 803d df73 00bd e053 42bb 3dbb 72bd
00000230: 554c 6dbd 24a4 12bd 306c e13b 355b 82bd
00000240: ac25 71bc f8b9 1f3c 00b8 503a c0a4 12bb
00000250: d07d 503c 3f3e 8f3d f55e 77bd f4f2 50bd
00000260: 965f 173d 246e b13c 1218 763d 2684 663d
00000270: 471c 57bd ee92 83bc d265 82bd 3c76 e93c
00000280: a8dd 2c3d 33bf 65bd e3aa 1dbd 34b3 1a3d
00000290: 8c1f 8d3c 450d 35bd 00f0 b7b9 be83 40bd
000002a0: 709d e03c 5095 563c 8451 9d3c 20b2 5abb
000002b0: e0f6 7b3b 29d4 56bd c72e 873d 409a 3dbb
000002c0: a050 013b d06a d13b 7937 88bd a8ab 953c
000002d0: d254 793d 0681 283d 9045 213c 5c2a a83c
000002e0: 70d6 4d3c 00b4 3e39 04a8 fd3c 08d0 be3c
000002f0: c821 bc3c e0a5 2ebd 4c25 0dbc 9a94 343d
00000300: a4b0 3e3d c00f 23bd e410 bd3c 5941 41bd
00000310: f8f6 963c ac0b c93c 0e6a 2ebd 4cfc 563d
00000320: 0ecd 4e3d 4602 503d b8da 9e3c 0c69 ee3c
00000330: c0ca aaba 3b6b 19bd a469 b03c 7403 fabc
00000340: 646a 953c 22a4 14bd fc4e f5bc 342a 64bd
00000350: e631 9cbc a4b8 2e3d d417 b43c 407d bbbb
00000360: 44d5 373d 64b7 4e3d 2c18 f8bc b25c 56bd
00000370: 5e0b 5f3d ce59 83bd 2c8c 5fbd ea95 6dbd
00000380: 2abf 3abd f1fc 43bd 8076 0c3b 18c2 fdbc
00000390: 4ae6 5e3d 0f17 81bd e49b 5abd 4687 85bd
000003a0: 383a 7fbd 1c8b 8c3c 0680 48bd c01d 7dbc
000003b0: 33c3 13bd dc12 9cbc 8282 f2bc b261 383d
000003c0: 2e40 00bd 0f7c 10bd 38a8 243d 4ba3 833d
000003d0: 4abf 6b3d 90a5 2cbc 00dd 4e3c be43 16bd
000003e0: d0ce e2bb 88c2 023c 6c41 29bd 2c37 29bc
000003f0: 8274 0a3d 4cb5 903c 2bc5 863d d8d5 c6bc
-0.044581033 0.010587059 0.06990311 -0.013634086 -0.040664133 -0.0344687 -0.043887313 0.03582049
-0.041706376 0.049495317 0.04128138 0.042539842 -0.00339102 -0.014761176 0.025615029 -0.010562237
0.028416999 0.015784062 0.02459158 -0.030226626 0.043840595 -0.013562493 0.040179342 -0.004358977
-0.06949369 -0.0060243756 -0.022545699 -0.035058737 -0.0027663708 -0.027016334 0.0055402294 -0.020876303
-0.0438731 0.025958903 -0.057910178 -0.05474191 -0.011121593 -0.006156832 -0.06614368 0.035934046
0.005835563 0.029818878 -0.0006977916 -0.015433889 -0.02488419 -0.0063155442 -0.055569693 0.031054072
0.020098299 0.050569497 -0.06605577 -0.0073658004 -0.027730107 0.0021976233 0.010797143 -0.010528285
-0.005739711 -0.011674568 0.017199315 -0.03865316 -0.008194171 0.03495007 0.04761125 0.007908374
-0.007767454 0.011846796 0.03255433 0.0130073875 -0.041147657 -0.055721205 0.032893226 -0.030398592
0.026481181 -0.060756784 0.038671836 0.029729076 -0.013953928 -0.054016948 -0.007983349 0.040042974
0.053435758 -0.002619803 -0.005851567 0.058005266 0.012321562 0.06752402 0.0639692 -0.04591471
-0.049853303 -0.023469988 -0.010812219 0.06402097 -0.05318655 0.031537406 0.05425834 0.004445143
-0.059288066 -0.053384982 0.0105155185 0.020459048 0.016426288 0.04400056 0.045430698 -0.06161508
0.03332054 0.04391899 -0.03571235 -0.044114333 -0.063497715 -0.06976629 0.036945745 0.020102523
-0.038410567 -0.06321112 -0.065734416 0.06415809 0.023272738 0.011560425 -0.0058459863 0.028865568
0.007663317 0.03052529 0.018041499 -0.036428593 -0.033049934 0.018624395 0.017917715 0.04992556
-0.05230494 0.034346893 -0.06486522 0.0060584396 -0.057414066 -0.034779117 -0.040417008 0.06308558
0.06293521 -0.031360503 -0.0029652044 -0.059260596 -0.057934124 -0.035801068 0.006879352 -0.063650526
-0.014718454 0.009748928 0.00079619884 -0.002237603 0.012725309 0.069942944 -0.060393292 -0.05101295
0.036956392 0.021658964 0.06008155 0.05627837 -0.0525172 -0.016061272 -0.06367077 0.028498761
0.042203575 -0.056090545 -0.03849305 0.037768558 0.017226957 -0.044202108 -0.00035083294 -0.04700064
0.027418822 0.013097122 0.019203909 -0.003337033 0.003844671 -0.052448425 0.06600719 -0.0028931051
0.0019731894 0.006390907 -0.066512056 0.018270329 0.060871907 0.04113867 0.009843245 0.020528011
0.012563333 0.00018186867 0.030963905 0.023292556 0.022965327 -0.04263866 -0.008614849 0.04408703
0.046555176 -0.039809942 0.023079343 -0.04718146 0.01842831 0.024541698 -0.04258161 0.052486703
0.050488524 0.050783418 0.019391403 0.029102825 -0.0013030395 -0.03745578 0.021534748 -0.030519225
0.018239208 -0.03628934 -0.02994489 -0.05570431 -0.019066762 0.042656556 0.021984018 -0.005721718
0.04488112 0.050467864 -0.030284964 -0.052334495 0.0544542 -0.06413613 -0.054577038 -0.058004297
-0.045592465 -0.047848646 0.0021432936 -0.03097634 0.05441884 -0.06303226 -0.053371325 -0.06519942
-0.06231138 0.017156176 -0.048950218 -0.0154489875 -0.03607483 -0.019051962 -0.029603247 0.045015045
-0.031311207 -0.03527456 0.04019949 0.0642763 0.057555474 -0.01053752 0.012625933 -0.036685698
-0.0069216266 0.00798095 -0.041322157 -0.010328095 0.033802517 0.017664574 0.065805756 -0.02427189

layers.1.lin_a.weight f4 [1, 100]
00000000: 04ac e9bd 7ce5 c03d 3fd7 9a3d a1a1 4cbc
00000010: 4497 1f3d 1aaa 42bc 07e1 39bd 646d 0f3e
00000020: ef49 553d 4d1c 5a3e 4fe2 673d dbf0 6b3d
00000030: 4096 9b3e fc1a 5f3d 04e7 77bd 72e9 15bd
00000040: fadc 243e 52d2 fe3d e5cb 0b3d 5688 b8bd
00000050: 96c2 6dbd 24a6 0cbd 8341 c83d 578f 11bd
00000060: d142 023e e097 a3bd 3c81 b03e d1c9 fc3d
00000070: 1d81 20bd 9f12 64bd a796 103d d1f9 0c3e
00000080: 2310 73bd d7c0 86bd ec53 3abd e7ce 433d
00000090: 4b74 6abc 4739 a8bd 0e6e edbc 29bd 6cbd
000000a0: f406 983d e1f6 31be a2ca 663d 5bac eb3d
000000b0: 2bc2 95bd 1c2c c43e 9adc b13d dd1c d83d
000000c0: 7a9b dabb 4a70 b13c 1746 b4bd c326 763d
000000d0: fed1 b4bd 8271 ae3d 2089 90bd 9598 113d
000000e0: 9759 723c 436b a73d 79e1 d5bd 48fe a53c
000000f0: dabe dd3d 9dc0 293d 6e8f 863d 9076 bf3d
00000100: 73dc 3a3c deae 8e3d 6f1e 923c 2944 ce3b
00000110: c821 a6bd adb6 07bd c7fb 28bd 04e6 38bd
00000120: c29d 91bd a878 ebbc 00a2 d83c 7a85 cd3b
00000130: 95cd 383d 2583 e23c a648 72bc bd11 d33c
00000140: c2dc 5fbd 0aa9 3dbd 1fac 9c3d fe97 803d
00000150: 972e 213d 65f5 a2bd 7516 b03d 28d0 8cbd
00000160: 4442 e03c e1ca 1abd 2631 523d 4a2a 5fbd
00000170: 1432 c7bd b761 d1bd c819 b0bd d39c b7bc
00000180: 81d8 0cbd a540 4cbd 294f adbc 8b1b 0fbc
-0.114097625 0.09418771 0.07560586 -0.012489707 0.038962618 -0.011881376 -0.04538062 0.14006573
0.05207246 0.21299858 0.05661231 0.057602745 0.3038807 0.054469094 -0.060523048 -0.036599584
0.16099921 0.12442459 0.034129996 -0.09010379 -0.0580469 -0.03433813 0.0977812 -0.03553709
0.12720801 -0.07987952 0.34473598 0.12343181 -0.039185632 -0.05568182 0.035299923 0.13767172
-0.05934156 -0.0657975 -0.04549019 0.04780474 -0.014309953 -0.0821405 -0.028983142 -0.057797585
0.07423201 -0.17379333 0.05634559 0.115074836 -0.07312425 0.38314903 0.086846545 0.1055238
-0.0066713663 0.021659989 -0.08802431 0.06009556 -0.08829115 0.08517744 -0.070574045 0.035545904
0.014791868 0.081747554 -0.10443396 0.020262852 0.10827418 0.041443456 0.06570326 0.09348786
0.011405098 0.06966947 0.017836777 0.0062947464 -0.08111912 -0.033133198 -0.04125574 -0.045141235
-0.07110168 -0.028744057 0.026444435 0.006272015 0.045117933 0.027650425 -0.014787829 0.025765294
-0.05465389 -0.046303786 0.07650017 0.0627899 0.039351072 -0.079569615 0.08598033 -0.0687564
0.027375348 -0.037791137 0.051316403 -0.05448369 -0.097263485 -0.10223716 -0.085986674 -0.022413647
-0.03438616 -0.049866337 -0.02115591 -0.008734594

layers.1.lin.weight f4 [50, 50]
00000000: da92 0c3d 4a95 c2bd 5071 03bc 6b82 8cbd
00000010: dd54 053e fba4 10be 01b8 91bd 46b5 64bd
00000020: d0b0 7f3d ba84 8abd 7cec c0bd e01f 07bc
00000030: 228c 39bd 83a4 0c3e 56a9 c83d 5a88 e23d
00000040: 7476 05be d467 15bd d6f8 ddbd f447 fc3d
00000050: 8624 aa3d 0ad3 e2bd c414 d6bd 101a 8f3d
00000060: 7a6b 97bd 4a3a 243d 5666 03be 0029 e7bd
00000070: a033 45bd 1190 e2bd 0b1f cf3c 99ec 05be
00000080: 8154 4cbd 7fae 0dbe 39e0 043e f6fc a63c
00000090: 4ab2 1dbf b4c4 fdbc 0ac0 423d a9af 70bd
000000a0: f209 d03d 7639 05bd b98c 073e c9ba 963d
000000b0: 7688 c23d 1053 aaba 30ad 22bd 2872 763d
000000c0: e2f6 b53d b24f 7f3c 4f1d 803d 9a09 f93d
000000d0: 2f3f 9dbd c0df f9bc c04d 303c 1cfb 87bc
000000e0: a476 a6bd 6cc0 393d 709f de3c bf63 50bd
000000f0: 8180 cc3c 98d4 843c 0069 6bbc 0054 323d
00000100: ec2f 28be e0de 9fbc e455 0a3e e021 803b
00000110: f0f8 88bc 50e3 93bb 7da6 abbc 8c48 88bc
00000120: 9124 8dbd f5e7 cebd 8861 9e3c c743 333e
00000130: 2677 0e3e c0d6 e03b a0de 7a3d 58c8 fe3c
00000140: 7952 3d3e 8a7e a73d ab26 c93d a08a 19bc
00000150: 30b4 ac3d 1a4a 723d 48eb 8e3e f0cb 283d
00000160: abd2 5b3d 8091 123e 55e6 87bd 098c 05be
00000170: 1cf2 62bd a937 393d 09eb 9ebd ba4a 1ebb
00000180: fa60 9bbd 0039 dbbd dcd2 2f3d e136 d03d
00000190: 17b4 58bc 22ea c83d 6ad2 0abd 60da 953c
000001a0: ee9a d53d 66e9 ef3d 3cd6 253d 7047 f7bd
000001b0: 9c1b 0c3d 601a 963d 5c28 aa3c c5a2 0ebe
000001c0: 2a50 3dbd a263 94bd 7fd1 3dbe 14f8 f0bd
000001d0: 7ef3 723d 588d b9bd e293 aebd 38ab b8bd
000001e0: a5a6 6abc de2e ac3d 81ab 0ebe 3484 81bd
000001f0: b716 4bbd e538 233c 17bd d9bd 3c7d 1dbd
00000200: 91bc 9bbd 2c06 02bd 6243 a23d 4680 b8bd
00000210: 8c21 3cbd 34b9 bdbd f4cd 213d 5dd4 b4bd
00000220: 9652 f73e ba2c 10be e045 373d 522a a43c
00000230: 4ecf 0bbe 447a 93bc 4ac5 adbd 9110 c1bd
00000240: 64c0 243d dcf1 debd 6e29 7c3d 8262 923d
00000250: 4bd7 013e de88 a4bd 90b4 fdbd b27b bb3d
00000260: c44c 08bd aa07 64bd ed40 89bd 81ac 063e
00000270: 3a5b e1bd 58a0 fb3c 183d e63c f059 e13c
00000280: 89b3 133e 7692 a73d ccd7 c23d 2c16 1c3d
00000290: 0d08 073e 3811 243d 98af 28bd 716b e7bd
000002a0: 40af 873b 59ff a83d 094c a93d 802c c33c
000002b0: 8090 813b 7c3f 4dbd a0de 4a3e 8513 413e
000002c0: 5d73 583e 0046 14bc 522a 8ebd 9d7b eabd
000002d0: 9f10 c2be e13e 15be b90f 2c3d e6a8 e13d
000002e0: 3e7e 05be f3af 29bd b474 353e 280b 883d
000002f0: 5faa 193c 4f2e 80bc ba40 003d 7f7d b5bd
00000300: 74aa 8e3d a9e2 2b3e 0843 b53d 8a2e 233e
00000310: c3c3 4b3e 7da6 07be 1cba 63bd 2df0 3cbd
00000320: e8c2 0e3d 6cec 01be d893 093d 6064 ebbd
00000330: f4c5 933d fe5b c6bd 6364 02be 5204 6abd
00000340: 387d 3f3d fed4 91bd 5ee5 273d a000 943b
00000350: 6588 9dbd c0be ffbb fee2 513d c06b b1bd
00000360: fa43 d93d 1cf8 203d 148e 963d 9dfb 20bd
00000370: d422 d83d a011 d8bd 86cc 69bd 4ec3 b53d
00000380: 00c7 b6bd 995f d63d 6fda 80bd 4a28 09be
00000390: 1da4 083e 8a66 ec3d 981c 193d 89ac 13be
000003a0: 4f21 ab3c 9096 09bd cb71 0b3e cfce 0a3d
000003b0: 5521 b33e ba6a 10be 443f 6fbd edec b93d
000003c0: ae05 f8bd a0cb 693c 42e1 e0bd 24e8 b7bc
000003d0: 8e77 33bd 705c 00bd e222 83bc 4aaa 25bd
000003e0: 029e 56bd 42cd 643d cebc 84bc 6437 90bd
000003f0: 6c31 953d 0953 0e3e 421f 9f3d fc9f 7f3d
0.034319736 -0.09501131 -0.008022621 -0.06860813 0.13020654 -0.14125435 -0.07115174 -0.05583694
0.06242448 -0.06763597 -0.09420106 -0.008247346 -0.045299657 0.13734631 0.09797923 0.11061163
-0.13033468 -0.03647597 -0.10838477 0.123184115 0.083077475 -0.11075409 -0.104531795 0.06987393
-0.073935464 0.04009465 -0.12832007 -0.11287117 -0.048144937 -0.11062635 0.025283357 -0.13078536
-0.049885277 -0.13836096 0.12976159 0.020384293 -0.6160017 -0.030977584 0.047546424 -0.058761273
0.10158147 -0.032525502 0.13237275 0.07359845 0.09498684 -0.0012994725 -0.039715946 0.06016746
0.0888498 0.015582966 0.0625559 0.121600345 -0.07678067 -0.0305022 0.010760725 -0.01659923
-0.08128098 0.045349523 0.027175635 -0.050876375 0.02496362 0.016214654 -0.014368296 0.04353714
-0.1642453 -0.019515455 0.13509327 0.003910288 -0.016720265 -0.0045131817 -0.020953411 -0.016636156
-0.0689174 -0.10102836 0.019333616 0.17506324 0.13912639 0.0068615377 0.061247468 0.03110139
0.18488492 0.08178432 0.098218285 -0.00937143 0.084328055 0.0591527 0.2791388 0.041210115
0.053667706 0.14313316 -0.06635729 -0.130417 -0.055406675 0.045219097 -0.07759673 -0.0024153427
-0.07586856 -0.10704231 0.0429257 0.10166717 -0.0132265305 0.09810282 -0.033892073 0.018292606
0.10429941 0.11714439 0.040487513 -0.120741725 0.034206018 0.073292494 0.020771198 -0.13929279
-0.04621903 -0.07245566 -0.18536948 -0.11766067 0.059314243 -0.09060162 -0.085243 -0.090170324
-0.014321958 0.08407377 -0.13932611 -0.06324044 -0.04958221 0.009962295 -0.10631769 -0.03844951
-0.076043256 -0.031744167 0.079230085 -0.09008841 -0.04593043 -0.0926384 0.039503053 -0.088295676
0.48305196 -0.14079562 0.044744372 0.020039711 -0.13653299 -0.018002637 -0.084848955 -0.09426988
0.04022254 -0.10885975 0.061562948 0.07147695 0.12679784 -0.08033918 -0.12387955 0.091544524
-0.033276334 -0.05567137 -0.06701837 0.13151743 -0.11003728 0.030716106 0.028105304 0.027508706
0.14423956 0.08182232 0.09513816 0.038107082 0.13186665 0.040055484 -0.041183084 -0.1129979
0.0041407645 0.08251829 0.08266456 0.02382493 0.0039539933 -0.05010937 0.19811487 0.18855102
0.21137758 -0.009049892 -0.06941666 -0.114493586 -0.37903306 -0.14574768 0.04200718 0.11018543
-0.13036439 -0.041427564 0.177203 0.06642753 0.009378999 -0.015647082 0.031311728 -0.08861827
0.06966105 0.16785683 0.08850676 0.15935722 0.19898896 -0.13247104 -0.05559741 -0.046127487
0.034853846 -0.12687844 0.03358826 -0.114937544 0.07215491 -0.09685515 -0.12733607 -0.057133026
0.046750277 -0.07120703 0.040990226 0.004516676 -0.07692031 -0.0078047216 0.051241867 -0.0866313
0.106086686 0.039299116 0.07351318 -0.039302457 0.10553518 -0.10550237 -0.057079814 0.08875142
-0.08924675 0.104674526 -0.06291663 -0.13394275 0.13343854 0.11542995 0.037380785 -0.14421286
0.020889906 -0.033590853 0.13617627 0.033888634 0.34986368 -0.14103213 -0.058409944 0.09078393
-0.12110458 0.014269739 -0.109804645 -0.02244956 -0.043815188 -0.031338155 -0.016007844 -0.040445603
-0.05239678 0.05585981 -0.01620331 -0.07041815 0.07284817 0.13898863 0.07769634 0.062408432

layers.2.bias f4 [50]
00000000: 79af 05bc f2b2 153d 59cc fb3b 3079 76be
00000010: c695 c0bc 8320 05bd 7f5e a23d 691e 8ebe
00000020: 8134 44bc d907 87bd 3313 12bd 6080 233d
00000030: 0000 0000 69c0 5cbe 0000 0000 8643 153c
00000040: 43dc 443d f9ff 98be a55b 4e3d 763d 3fbc
00000050: 8b1c 7d3b 9fc9 c4bb 0000 0000 12c9 c4bb
00000060: b82a 9cbe 0000 0000 e93c 6cbc d40d 203d
00000070: caf0 a5be 1f03 eebc e250 503d 19bb 05bd
00000080: dd2e aebb bfc2 f1bc 8fcd 9dbe 8e30 8ebe
00000090: a9b0 03bd 14a2 f83c 4c5e 85bc 43c9 c4bb
000000a0: b4a3 1f3c c8bb a0be 680f f1bb a274 603d
000000b0: 0000 0000 3780 32bd 5445 a9be f689 94be
000000c0: 032e 97be 3d9a 513d
-0.008159512 0.03654761 0.0076842722 -0.24069667 -0.023508918 -0.03250171 0.0792818 -0.27757576
-0.0119754085 -0.06593294 -0.03566284 0.03991735 0.0 -0.21557774 0.0 0.009110337
0.04806162 -0.29882792 0.050380368 -0.011672368 0.003862175 -0.0060054804 0.0 -0.0060054148
-0.30501342 0.0 -0.014418819 0.039075688 -0.3241027 -0.029054223 0.050858386 -0.032649133
-0.005315645 -0.029511807 -0.3082089 -0.2777142 -0.032150898 0.030350722 -0.016280316 -0.0060054376
0.00974362 -0.31393266 -0.007356573 0.05479873 0.0 -0.043579306 -0.33060706 -0.29011506
-0.29527292 0.051172484

layers.2.combine_aggr.weight f4 [50, 200]
00000000: bc2e 42bd 2fa4 8f3d 24a0 32bc e5fa 48bd
00000010: c493 27bd a33b 903d 4878 39bc f62e 243d
00000020: d085 dc3b 76dd 6e3d e89d 57bd 7c50 b83c
00000030: cc7a f83c 74fb a4bc 8096 2dbd 7c3b 5bbc
00000040: 90fd dfbb 2ad8 28bd 06c8 6cbd 087b c33c
00000050: d099 0e3c c355 30bd 4806 a2bc 609e 8fbb
00000060: 2cb0 053d 4089 e13c 020b 7e3d 3067 e73b
00000070: a0be ae3c a486 58bd 944c f63c f843 f7bc
00000080: 1a15 543d 5891 983c f099 d9bb e459 cdbc
00000090: 2649 0b3d c4d8 ee3c 1c85 9e3c b060 393c
000000a0: ce2b 62bd 9fbb 17bd 2410 90bd c850 cabc
000000b0: d45f 06bd fcb8 66bc c619 533d 50db 8b3c
000000c0: c4c6 ff3c 3c75 f53c eaf2 6b3d 3239 663d
000000d0: c0eb 6a3c f262 773d b5cd 80bd 9c58 1c3d
000000e0: 26c5 413d c43f 89bd 2886 76bd a8d1 39bc
000000f0: 1cdb f73c 127c 743d 96c0 83bd 553b 843d
00000100: f096 b1bb 689a 85bc 5e82 93bc 6811 3f3d
00000110: a442 073d b076 d13b c9a0 72bd f064 adbb
00000120: 6df2 69bd b8c1 8fbd 88a4 c73c 84f0 91bc
00000130: 008c 8abd f53e 70bd 5500 8b3d 7380 873d
00000140: 6643 4cbd 5a57 11bd 044f 2e3d 6865 74bc
00000150: 903b bcbb f27c acbc a014 0c3d 79ab 86bd
00000160: ce9c 83bd e446 de3c 7644 103d d613 223d
00000170: 34e8 abbc b20d ffbc 2869 0cbd 546b 1cbd
00000180: 4269 7cbd d017 dc3c 8a59 febc 7787 8cbd
00000190: 808c 363c 5a95 673d e0b8 3ebb cfd1 6bbd
000001a0: c235 1a3d 7d34 1ebd 5c60 363d f232 47bd
000001b0: f74c 833d 4834 8cbc c502 853d a2cd 083d
000001c0: 9252 573d 68b3 523c aaa4 28bd d0ae f23b
000001d0: e292 6c3d ffb6 7bbd 70e2 9f3c e0d5 2a3c
000001e0: f41f 423d fed7 46bd 286a 54bd 1c3d 9c3c
000001f0: e8fd a3bc 72db c6bc f831 823c 925d 653d
00000200: c61a 59bd 80f3 6dbb 088e f1bc 1099 0ebc
00000210: 2c56 fdbc 99f4 893d 62fe 203d 9809 7b3c
00000220: 5c69 a3bc a238 333d 61a3 20bd ee33 82bd
00000230: ce49 42bd 7649 abbc 207b 46bd 566e 383d
00000240: 4062 79bb 5c5c d9bc 0cfa 45bd 5a2f 7d3d
00000250: 3333 853d dc2a 2ebd 1aab 703d e0f9 d0bb
00000260: d017 d6bc 10a5 d73c e084 62bd ce7a 84bd
00000270: 60c1 bfbb 90f1 3e3d c022 523d 927f 773d
00000280: 3480 153d 9835 913c a829 233c 5c84 2ebd
00000290: fefd 6c3d 225d 6f3d d881 79bd ee7c 89bd
000002a0: 4034 8cbc b27f 39bd b664 cbbc 7ec5 7b3d
000002b0: 084a 64bc 39f1 823d 80f0 c9bb c08d bc3b
000002c0: 6044 3dbb bcd5 abbc 287e 42bc 6313 08bd
000002d0: e5fd 50bd 30a5 a93b 601d 783c a00f 833c
000002e0: 683c 883c e417 d7bc 3650 8abd d0e9 0a3d
000002f0: 2855 593c 8c57 89bd 5b33 893d 48e1 8dbc
00000300: d67f 6ebd 3e1d 31bd 1a06 94bc db43 64bd
00000310: b079 523c 827f 18bd 271f 1dbd 5631 7d3d
00000320: c259 c1bc a087 11bb 6460 26bd 18cf 07bc
00000330: eae6 36bd 425e 21bd 3c2b 3ebd ace6 d5bc
00000340: d844 863c 1460 fd3c 169f 273d 7bf5 0bbd
00000350: 5d99 58bd 500f 2cbc bdbf 863d 6056 083b
00000360: 83fb 863d 8e11 5f3d 8c1c 433d 7087 d6bb
00000370: 2891 383c b4d3 3dbd d822 383c 18dc cd3c
00000380: 65f4 36bd 7e0a 4bbd 1d7a 12bd 80b4 503a
00000390: 7cfa 52bc e098 e53c f600 11bd 3bbe 873d
000003a0: f61f 0bbd 68cb 303d cbeb 803d 43ad 833d
000003b0: 92e0 0cbd 617c 19bd 1cd7 f6bc 5a9a 41bd
000003c0: 0681 95bc 5838 a8bc 6893 d33c 52e8 7a3d
000003d0: a477 d53c 00a5 3f3a aae8 ccbc e0aa aabc
000003e0: 8e52 753d 1ac7 79bd ecdd 11bc a617 8cbd
000003f0: fe13 d1bc f93b 56bd 1bb5 8cbd 944b c33c
-0.04740785 0.070137374 -0.010902438 -0.049067397 -0.040912405 0.07042625 -0.011320181 0.040083848
0.006729819 0.05831667 -0.052640826 0.022499315 0.030331992 -0.020139433 -0.042379856 -0.013380881
-0.006835647 -0.041221775 -0.057807945 0.023862377 0.008703664 -0.04305054 -0.019778386 -0.0043828934
0.032638714 0.027531266 0.062022217 0.0070618615 0.021331131 -0.05286278 0.030065812 -0.030183777
0.051777937 0.018623993 -0.0066406652 -0.025067277 0.034005307 0.029156096 0.01935058 0.011314556
-0.055217557 -0.037044164 -0.070343286 -0.024696723 -0.032806233 -0.01408219 0.05153825 0.01707235
0.031222709 0.029963128 0.057604708 0.05620689 0.014338434 0.060397096 -0.062892355 0.038170442
0.047307156 -0.067016155 -0.060186535 -0.01134149 0.030255847 0.059688635 -0.06433217 0.06456629
-0.0054196045 -0.016308978 -0.0180065 0.04664746 0.033022538 0.0063923225 -0.059235368 -0.0052915737
-0.05711596 -0.07019371 0.024370447 -0.017814882 -0.06764984 -0.05865379 0.06787173 0.066162966
-0.049868964 -0.035483696 0.042555824 -0.014916755 -0.005744405 -0.021055672 0.034199357 -0.065756746
-0.064263925 0.027133413 0.03522154 0.0395697 -0.020984747 -0.03113446 -0.034279972 -0.038188294
-0.06162382 0.026866823 -0.031048555 -0.06861775 0.011141896 0.056538917 -0.0029101893 -0.057573136
0.037648924 -0.038624275 0.04452549 -0.04863257 0.06411164 -0.017114773 0.06494669 0.03339923
0.05256898 0.012860157 -0.04117266 0.007406093 0.057757266 -0.061453816 0.019517154 0.010426968
0.047393754 -0.04854583 -0.05185905 0.019072108 -0.020018533 -0.024274562 0.015892968 0.05599744
-0.05300405 -0.0036308467 -0.029486671 -0.008703485 -0.030924879 0.067361064 0.0393051 0.015322112
-0.0199477 0.04375518 -0.03921831 -0.06357561 -0.047433667 -0.020909052 -0.048457265 0.0450271
-0.0038052946 -0.026533298 -0.048334166 0.061812736 0.06503906 -0.042521343 0.058756925 -0.0063774437
-0.026134402 0.026323825 -0.0553025 -0.06468736 -0.0058519095 0.04661709 0.05130267 0.060424395
0.036499217 0.01772575 0.009958662 -0.042606696 0.057859413 0.058438428 -0.060914844 -0.067132816
-0.017114758 -0.045287795 -0.024828296 0.06146764 -0.013933666 0.06393666 -0.006162703 0.0057542026
-0.0028879866 -0.02097594 -0.011870898 -0.033221614 -0.051023383 0.0051771626 0.015143722 0.015998662
0.016630366 -0.02625651 -0.0675358 0.033914387 0.013264932 -0.06706151 0.066992484 -0.017319337
-0.058227383 -0.04324078 -0.018069316 -0.055728775 0.012846395 -0.037230976 -0.038359787 0.06181463
-0.02360237 -0.0022206083 -0.04061927 -0.008289121 -0.04465381 -0.039396532 -0.04642795 -0.02611097
0.01639025 0.030929603 0.0409232 -0.034169655 -0.052880634 -0.010501698 0.0657954 0.0020803437
0.06590941 0.0544601 0.047634646 -0.006546907 0.011265077 -0.046344474 0.011238776 0.025129363
-0.044666667 -0.049570553 -0.035760988 0.0007961467 -0.012877103 0.028026998 -0.035401307 0.066280805
-0.033966027 0.043162733 0.06294974 0.064295314 -0.034393854 -0.037472133 -0.030131869 -0.04726634
-0.01825 -0.02053468 0.025827125 0.061256714 0.026058026 0.00073106587 -0.025013287 -0.020833433
0.059893183 -0.060980894 -0.008903008 -0.06840448 -0.025522228 -0.052303288 -0.068704806 0.02383975

layers.2.lin_a.weight f4 [1, 100]
00000000: 2c15 50bd 10f0 0abe 6b03 023d 2680 4e3e
00000010: 3c69 073e 5b51 303e 33af 1239 5534 773e
00000020: dd98 03bf d198 ffbc 1fb8 c13d 4664 d93d
00000030: 45fe c0bd 77b1 153e 8ff9 203e 03b1 93bd
00000040: cab2 5c3e 2b71 1e3e 5fd4 0f3e 969f 10bf
00000050: 5d5b 6d3c 7596 b0bd f0ba e53d 87bb dabd
00000060: a19f e5bd 9de6 d93d ec95 76be cf58 603e
00000070: 68d1 5c3e 9c5f 83bd 6850 1d3e 8ed7 3a3e
00000080: a7d0 43be 82d6 213e 0e3c 1f3e 1209 f93d
00000090: 8472 163e 8238 303d aa77 fdbd 8577 a5bd
000000a0: 1df5 533d 1509 a13e 8bb7 f9bd f8ee b83c
000000b0: 457a df3d 6ab3 1d3d 11dd 483e 9560 b43d
000000c0: af65 013e b713 ad3d ec2f be3d 5d8b 0c3d
000000d0: 3cc5 2e3d 53e9 3a3d f134 bebc 150f 77bd
000000e0: 85ae e5bd 3ead aa3d d1ca 2abc 4d35 c93d
000000f0: 5434 31bd 3fe8 25ba e4ef 22be 1388 9b3d
00000100: 91c2 05be 9f47 693b f10f 1e3e c3a4 77bc
00000110: 0d18 d73d 6dbe b2bc d0e9 463d 4b77 dfbd
00000120: 1bd1 29be beb7 f0bd 5f01 c13c e72a 25be
00000130: 3c92 883c 38f3 063d c327 6d3d c014 993d
00000140: 163e c63b 475c cfbd 1ee8 29be 4f7c 5bbd
00000150: f605 0dbd 0d57 76bc ee43 5bbd 37f0 a9bc
00000160: 83d3 b93d e496 febd baaf ab3c a23d 053e
00000170: 5957 e53b 97b4 da3d 74ce 0cbe d28d e8bc
00000180: 5fb3 283e 4efb 903d da12 0d3e 47e5 6dbc
-0.05080144 -0.13568139 0.03174154 0.20166072 0.13223737 0.17218535 0.00013988912 0.24141057
-0.51405126 -0.031200798 0.094589464 0.10614829 -0.09423498 0.14618479 0.15720199 -0.07211497
0.21552578 0.15472858 0.14045857 -0.5649351 0.014487115 -0.086224474 0.11217296 -0.10680299
-0.112120874 0.10639689 -0.24080628 0.21908878 0.21564257 -0.064147204 0.15362704 0.1824629
-0.19122563 0.15804484 0.15550253 0.12159933 0.14692122 0.04302264 -0.1237634 -0.08079437
0.05174743 0.31452242 -0.12193211 0.022574887 0.10911993 0.03850118 0.1961558 0.08807484
0.12636445 0.08451026 0.09286484 0.034312595 0.042668566 0.04563267 -0.023218604 -0.060317118
-0.112149276 0.083338246 -0.010424332 0.098246194 -0.043262795 -0.0006328858 -0.15911824 0.075943135
-0.13062502 0.0035595668 0.15435769 -0.015114966 0.10502634 -0.021819318 0.048562825 -0.10911425
-0.16583674 -0.11753796 0.023560224 -0.16129647 0.016671292 0.032946795 0.057899248 0.07474661
0.0060498817 -0.101250224 -0.16592452 -0.053585347 -0.034429513 -0.015035403 -0.05353158 -0.020744426
0.09073546 -0.12431124 0.020957816 0.13011792 0.006998938 0.10678976 -0.1375063 -0.028387938
0.16474675 0.070791826 0.13776723 -0.014519996

layers.2.lin.weight f4 [50, 50]
00000000: bd36 88bd 6daf 353e f16b c2bd b757 e63d
00000010: bf42 033e 8e58 65be 0ed0 963e 0fff 8b3a
00000020: 00ed 9cbb 1e87 1fbe eca5 bf3e 9c09 fc3e
00000030: feb0 32be 71a9 a73e 6873 0e3d 2b95 6d3d
00000040: c207 67be 00b0 8039 a546 ddbd 5d65 6b3d
00000050: 638d e83e 5c5c 883e f2ef 0dbe 2afe 7fbc
00000060: e24f 413d 4a72 c53d 06dc b2be f700 c0bd
00000070: 0556 8b3e 9d1d 113f 79d4 a6be cc9c 953d
00000080: 0bf0 013e 205c 873d 29d2 813d 78aa 973c
00000090: e9eb 873e ac08 e43e 985d f73e 36cc 0c3f
000000a0: b5f8 de3e c964 9dbc e234 f0bd 9dcd 053e
000000b0: c2a2 bc3d 2d55 8ebe d5e2 c6bd 735f 103e
000000c0: 6d16 0e3f 373f 57bf d542 353d 2667 183e
000000d0: f4ef ae3d e184 353d ae01 58bd bb29 4cbd
000000e0: 5996 663e b746 a4bd c676 a93d ed44 0e3e
000000f0: e8df dd3e 0431 ca3e 8259 9dbe eb31 323e
00000100: 12ff a2bd 7770 eb3c c378 cabd 3449 2cbd
00000110: db67 dabd 0d76 f13b 980a 9c3e 1928 9d3e
00000120: 9b89 4f3d 7bd2 c63d 46ea 84bd 4402 8ebb
00000130: 3737 adbd e01b 8a3c e641 c03d efd7 393f
00000140: b79e 37be e6fb fb3e eda7 bb3c 479a 723d
00000150: e8a5 debd 7ba0 76bd 7594 b53a 1ca3 623e
00000160: 2b04 273e d3db a53e e529 963e 4724 2c3d
00000170: fe0a 863d 7a1a bbbd bcec 9dbd b254 23be
00000180: 3a39 7aba 469d 5ebd 1d98 c53e fb70 19bf
00000190: 4845 56bd 655a 1cbe 200b 28bc b892 573d
000001a0: 4302 a83d 2ecc 573e 5e4c a4bc 8b58 713e
000001b0: 92b6 d13d 0252 5e3e af62 74be 2303 8dbe
000001c0: 3a4e 8d3e fe8c 4ebd 7634 fb3d 0af9 d93d
000001d0: 42dd a63e 56d9 e5bd 00ee e7bd 3b63 d63d
000001e0: 120e 3fbe d912 b6bd c380 0ebe 422c 8b3d
000001f0: e515 633e f580 91bd b0f0 843e 6f62 a8bd
00000200: 8fe4 6cbd 25a9 c3be 364a cf3e 5ccf 25bf
00000210: e764 02be a45f d33d d2f0 dbbd 0d53 3c3e
00000220: 9959 1fbd 8a15 9ebe c76d 59be 17f5 18be
00000230: db96 adbe 02ff 02bd cfdd 86bd a91d 87bd
00000240: 9e4b ccbd 27c9 bb3e 0744 a3bd 0a51 ddbd
00000250: 5886 a2be d618 413f c394 e53b 62bf a4bd
00000260: df63 033e 181a 143e 15f8 19bd 65ec 183e
00000270: 032e 4c3c 8f20 1d3e d99f b1bd 361e ed3d
00000280: 9276 bdbd 83a9 28bd 5976 6d3e 58b3 90bd
00000290: 4ce6 5d3d 42a0 253d c4ea 493e 909a a23c
000002a0: 5e6f b43d e92c aa3d 1b7c c83d ab7d d43d
000002b0: 3d7e 073d eb17 153e 4005 2b3e 4388 45bd
000002c0: bc96 183e b0f3 523d 7ca8 f13d 0683 39bf
000002d0: aa49 d83e 9f65 25bf fcc5 fd3c b154 8e3d
000002e0: 4e8a b23d 528f 80bc ab47 813c c562 ffbd
000002f0: 2a9f 033e 873b f0bd 0f14 3a3d 99c9 00be
00000300: c030 323d 99e2 9bbd 62b8 b03d c89c 51bd
00000310: e60d 8d3d 7a27 09bd 7274 eebd 4f9b 0c3f
00000320: 56ef 3fbd 97f6 57bd 5e67 f73d a3e8 a53d
00000330: fa22 36bb 8565 e83d c567 01be 9f30 883c
00000340: ae7e f53d 36c5 633e e533 98bd 9952 d0bc
00000350: b639 a73e c73e 9fbd 0607 df3d 4fa4 36bd
00000360: 97c6 ca3d 00f2 29bb 1c19 eabc d78b f93d
00000370: 4dfb 27be 1a7c ab3d 9571 03bd f04b 4b3e
00000380: e4f0 a13d 6305 dfbc ff8d 373e 500b 633d
00000390: 75fd 223b 752a f5be 23e1 943e a6b8 0ebf
000003a0: 4420 efbd e649 f939 8285 ae3c e142 ce3b
000003b0: 6718 063e dfe6 26be cb9b 72bd 161d b3bd
000003c0: edfd 16be 9d6f a33d 7f93 bfbd 70de 863c
000003d0: 0ce0 043d 1832 813e 873a 9d3d 84c8 943d
000003e0: 770c 38be 8658 1a3f ee5f 603d 482d 22bd
000003f0: 9a77 de3d b3b8 f43d c1bb a93d 2c97 183d
-0.066510655 0.17742701 -0.094932444 0.11247199 0.1281843 -0.22397062 0.29455608 0.0010680872
-0.004788995 -0.15578887 0.37431276 0.4922608 -0.1745033 0.3274646 0.03477803 0.058003586
-0.22561553 0.00024545193 -0.1080449 0.057469714 0.4542037 0.26632965 -0.13861063 -0.015624562
0.047195323 0.096409395 -0.3493349 -0.09375184 0.27214065 0.5668581 -0.3258398 0.07305297
0.12689225 0.06609368 0.06338913 0.018513903 0.26547173 0.44537866 0.48313594 0.549991
0.43549123 -0.019213097 -0.117288366 0.13066716 0.09210731 -0.2779936 -0.097112335 0.14098911
0.5550297 -0.84080833 0.04425319 0.14883098 0.08541861 0.044316176 -0.052735977 -0.049844485
0.2251829 -0.080213 0.08274607 0.1389348 0.4333489 0.3949052 -0.30732352 0.17401855
-0.07958807 0.02874015 -0.09886315 -0.042062 -0.1066434 0.007368809 0.30476832 0.30694655
0.05066834 0.09708115 -0.064899966 -0.004333766 -0.08457797 0.016858995 0.09387569 0.72595114
-0.17931639 0.4921562 0.022907222 0.05922916 -0.10871488 -0.06021164 0.0013853448 0.22132534
0.16310184 0.32394275 0.29328838 0.042026784 0.06545065 -0.091359094 -0.07711169 -0.15950277
-0.00095452706 -0.054349206 0.38592616 -0.5993802 -0.052312165 -0.15268858 -0.010256559 0.052630156
0.082035564 0.21073982 -0.020055946 0.23568933 0.10239901 0.21710971 -0.2386577 -0.27541456
0.27598745 -0.05042743 0.122658655 0.106432036 0.3259068 -0.11223094 -0.11324692 0.104681455
-0.18657711 -0.08890314 -0.13916306 0.06795551 0.22176321 -0.07104675 0.2596488 -0.082219
-0.057835158 -0.38214985 0.40486306 -0.6476953 -0.12733804 0.103209764 -0.10739292 0.18391056
-0.038903806 -0.30875808 -0.21233283 -0.14937244 -0.33904156 -0.031981476 -0.065852754 -0.06597454
-0.0997536 0.36676905 -0.079719596 -0.108064726 -0.3174312 0.7542852 0.007006259 -0.08044316
0.12831067 0.14463079 -0.037590105 0.14933927 0.012462142 0.15344451 -0.08673067 0.11578028
-0.09251131 -0.041177284 0.23189677 -0.07065457 0.054174706 0.040436037 0.19718462 0.019849092
0.08810304 0.08309347 0.09789296 0.10375532 0.033079375 0.14559905 0.16701221 -0.048225652
0.1490125 0.05150193 0.11799714 -0.7246555 0.422437 -0.64608186 0.030978195 0.06949747
0.08717786 -0.01569334 0.015781244 -0.12470011 0.12853685 -0.11730104 0.045429286 -0.12576903
0.043503523 -0.076115794 0.08628918 -0.05117491 0.068874165 -0.033484913 -0.11643304 0.5492448
-0.046859108 -0.0527254 0.120802626 0.081010126 -0.0027791844 0.11347488 -0.12637241 0.016624747
0.11987053 0.22243199 -0.07431773 -0.02543001 0.32661217 -0.07775646 0.108900115 -0.04459029
0.09901159 -0.0025931597 -0.028576426 0.121848755 -0.16404457 0.0837328 -0.032090742 0.19853187
0.07907274 -0.027224248 0.17925261 0.05543071 0.002487031 -0.47883955 0.29078016 -0.557505
-0.11676076 0.0004754804 0.021303896 0.0062945937 0.13095246 -0.16299008 -0.059230607 -0.08745782
-0.14745302 0.07980273 -0.093543045 0.016463488 0.03244023 0.2523353 0.07677179 0.07264808
-0.17973505 0.60291326 0.054778986 -0.039593965 0.10862656 0.11949291 0.08287764 0.037253544
