experiments/output-gat/Cora/multi/42/model.pth (torch, 210075 bytes, 10 tensors)

layers.0.bias f4 [30]
000000 24 93 4a 3d e6 2d c1 3c cb 20 28 3d f4 c2 b1 3d
       0.04945673 0.023581456 0.0410469 0.086797625
000010 2d fa ad 3d 6c 0e 66 3d 04 be af 3d f5 56 b7 3d
       0.08494983 0.056166098 0.085811645 0.089521326
000020 2f 25 b3 3d b1 1e c5 3d 1d d7 21 3d 89 67 c9 3c
       0.087473266 0.096249945 0.03951179 0.024585502
000030 a7 33 a9 3c 1f bf 80 3d 43 e0 05 3d 66 17 df 3a
       0.020654513 0.062864535 0.032684576 0.0017020523
000040 90 fb b3 3d f0 21 f8 3c 77 31 a1 3d 38 f1 e2 3d
       0.08788216 0.03028962 0.07870763 0.11081165
000050 ba 46 b3 3d 5e a6 0d 3d a7 b7 80 3c 28 a6 e3 3c
       0.087537244 0.03458249 0.015712572 0.02778919
000060 31 11 3f 3d ac 4a 80 3d 21 72 05 3d 92 40 cc 3c
       0.046647254 0.062642425 0.032579545 0.024933133
000070 42 a9 b5 3d 3d ad ca 3d
       0.08870174 0.09896324

layers.0.combine_aggr.weight f4 [30, 120]
000000 bc 01 27 3e a3 e4 bf 3d 90 ba ab bd 67 03 3c 3e
       0.16309255 0.09369781 -0.08385193 0.18360673
000010 28 b9 39 3d 04 35 c8 3d 80 80 c0 bd 9f a3 c3 3d
       0.045342594 0.09775737 -0.093995094 0.095526926
000020 7f 7d c6 3d 2c 45 28 be 69 2c d3 bb a0 0f 6a 3d
       0.09691905 -0.16432637 -0.006444503 0.057143807
000030 a1 44 b4 3c 80 fc ca 3d 13 3d 9c ba 4f a5 9d 3d
       0.022005381 0.09911442 -0.0011920057 0.07697546
000040 61 91 01 3e 7f cd 94 bd 7b 7d cc 3c cc 4f 91 bd
       0.12653114 -0.07265758 0.024962178 -0.07095298
000050 f8 92 20 3d 51 09 a0 3d 24 92 52 3d e4 70 db bc
       0.03920266 0.07814277 0.0514089 -0.026787229
000060 e2 12 ce bd 15 3d 56 3d d1 86 80 3d 9f 4a 0f be
       -0.10062195 0.052304346 0.06275714 -0.1399331
000070 22 b3 98 bd da 37 30 be 58 49 32 3e ba 57 c1 bd
       -0.07456042 -0.17208806 0.17410791 -0.09440561
000080 1f e1 02 3d 10 d3 eb 3d 0e 97 b0 3c be db 0d 3e
       0.031952973 0.11514866 0.021556403 0.13853356
000090 90 a1 a4 bc d1 93 af 3d d7 be 94 ba b7 89 fb bd
       -0.02009657 0.085731156 -0.0011348379 -0.122821264
0000a0 26 82 5c bd ba 38 a0 bc c1 ac 7b 3c 80 4f 24 3e
       -0.053835057 -0.0195583 0.015361012 0.16045952
0000b0 b2 1a 05 3d 1f 83 4c 3d f3 21 01 3e 7f 39 8d bd
       0.03249616 0.049929734 0.12610607 -0.06895732
0000c0 15 dc ca 3d 8f 46 19 be 69 d3 0a bc 23 bb 57 3d
       0.099052586 -0.14968322 -0.008473256 0.0526687
0000d0 54 e1 9c 3c 7f 4a c6 bc 72 b0 01 3d 65 a1 07 3e
       0.019150414 -0.024205444 0.031662412 0.13245161
0000e0 56 1a fc 3d 04 0f a8 bd 20 20 75 3b d5 15 0a be
       0.12309711 -0.08205989 0.0037403181 -0.13484891
0000f0 ad b6 c0 3d 81 be a5 bd fa ff 05 bd 11 6b 87 3d
       0.09409843 -0.08092976 -0.03271482 0.06612218
000100 64 bf b9 3d 02 0c 3e 3d b7 29 b7 3c e2 6f 2b bd
       0.09069708 0.04639817 0.022358758 -0.041854747
000110 ff dd ae bd 19 27 1d be 35 18 45 bb cf 01 3c 3d
       -0.08538436 -0.15346946 -0.0030074243 0.045900162
000120 ac b4 f8 3c a0 0e 81 3c 45 b3 16 be b5 cc 21 3c
       0.030359589 0.015754044 -0.14716823 0.009875466
000130 59 c3 6f bd 4f b9 4a bd 6c e5 b4 3d 7b 4b a6 bc
       -0.058535907 -0.04949313 0.08832821 -0.020299664
000140 9c eb bd 3c 2a 5b 43 3c 39 24 f3 3d f3 f3 14 be
       0.023183636 0.011923591 0.11872143 -0.14546184
000150 42 51 1a 3c fc f4 3d 3d 5a 83 05 3e 6a c8 22 be
       0.009418787 0.046376213 0.13038388 -0.15896764
000160 b7 b3 00 be 24 ee 4d bd a5 ae ea 3d e4 3d 54 3c
       -0.12568556 -0.050275937 0.11459092 0.012954209
000170 65 1d 33 3a ca ba 25 3e 7e 64 3e 3b 5e 0d 08 3d
       0.0006832688 0.16184536 0.0029051597 0.033215873
000180 e9 7d 44 3d e7 53 aa 3c 0b 0c 20 ba 9b 94 34 be
       0.04797164 0.02079196 -0.000610531 -0.17634813
000190 39 3c 13 be bd 65 94 3d 74 31 41 bd a6 39 9a 3c
       -0.14378442 0.072459675 -0.047166303 0.018826317
0001a0 0d 60 f5 bc 40 56 cf 3c ca c4 5c 3c 9f 8f 03 be
       -0.029953027 0.025309682 0.013474653 -0.12847756
0001b0 64 03 71 bc 0e 3a 16 be 2e 3f 30 3e 5a 25 e9 3d
       -0.014710281 -0.14670584 0.17211601 0.11384077
0001c0 3a 71 ef 3d e9 35 03 be d3 21 56 bd a0 c4 8a 3d
       0.11691518 -0.12813534 -0.05227835 0.067757845
0001d0 08 f4 d7 3d d9 7d 19 be 9c a8 e8 bd fa 2a 15 be
       0.10544592 -0.14989413 -0.11360285 -0.14567176
0001e0 e8 eb a4 3d 0e 0d 83 3d 96 8f c5 bd cc 17 68 bc
       0.08052808 0.06398974 -0.096465275 -0.01416583
0001f0 7a cc 1f 3c 75 5a 37 bd 50 fc 93 b9 8e 7c c4 3c
       0.009753341 -0.044764 -0.00028226012 0.023985174
000200 31 56 33 3e e8 8d ab bd 2f f7 ac 3c d8 8b 04 3e
       0.17513348 -0.08376676 0.02111396 0.12943971
000210 c4 c7 1f be 21 13 12 3e 61 8b dd bd 54 a4 40 3d
       -0.15603548 0.1426511 -0.108176 0.047031716
000220 80 ff 23 be b0 b8 36 be 2f e2 e7 3d 65 e1 c1 bd
       -0.16015434 -0.1784389 0.11322438 -0.09466819
000230 43 c0 f0 3d 26 5e d3 bc 02 c8 1d 3e a5 84 21 3d
       0.11755421 -0.02580173 0.15408328 0.03943314
000240 19 aa ed bd 8e 39 a5 bc f7 3b fe 3d 63 0e 8f bc
       -0.11604709 -0.020169046 0.12413781 -0.017462915
000250 da 99 5b ba 2d f5 af bd d5 96 c1 3d 66 e8 58 3d
       -0.00083771127 -0.085916854 0.09452597 0.052956007
000260 8a ac 9e bd 5c 56 4e bd dc fd 0c 3e b1 4d 63 bd
       -0.07747753 -0.050375327 0.13768715 -0.055494014
000270 51 3f e5 3d b0 81 fa 3d e6 e3 f4 3d 39 32 b9 bd
       0.11193717 0.12231767 0.11957531 -0.09042782
000280 22 c6 ab 3d fd 78 f0 3d 8b 8d 5f bd db 99 a7 bc
       0.083874 0.11741827 -0.054578345 -0.020459106
000290 46 dd dd bc 29 42 4a 3d af 65 fe bd 05 7c ec bb
       -0.02708305 0.0493795 -0.12421738 -0.0072169327
0002a0 14 64 cd 3d 1f 02 d0 bd 51 76 10 3d bd 87 d0 3c
       0.10028854 -0.101566546 0.035269085 0.02545535
0002b0 e2 2b ee 3d dc bd 95 3d f5 46 1a be a6 ce df bd
       0.11629464 0.073116034 -0.1506613 -0.10928087
0002c0 62 84 16 3a 88 2d 62 bd 7f 68 11 ba 26 3a 5a bd
       0.00057417725 -0.055219203 -0.0005546882 -0.05327811
0002d0 cd df a3 3d d7 a1 16 3e 38 ac 8d bd e9 f1 a2 bb
       0.08001671 0.14710175 -0.06917614 -0.0049726856
0002e0 80 f2 dd 3d 35 25 42 3d ac 21 66 3d bd ac 90 3d
       0.10837269 0.047398765 0.056184456 0.07064197
0002f0 90 66 81 3d cb 9d 85 bd f3 c6 ae bd 2a 42 87 3d
       0.0631839 -0.06524237 -0.0853404 0.06604417
000300 de 57 fe bc 77 3b 17 3e 1e d3 c1 bd 12 19 26 3d
       -0.031047758 0.14768778 -0.094640955 0.040551253
000310 53 a2 aa bd f8 d8 c9 bd 8f 1e d9 3d 52 99 32 bd
       -0.08331742 -0.09855837 0.10601532 -0.04360325
000320 c7 c4 21 bc 74 b6 fb 3b ee 94 14 3e bf 53 f4 3d
       -0.0098735755 0.007681662 0.14509937 0.11930036
000330 ad f5 ca bd c5 5b e3 bd c3 8d 6c 3c 9c 72 3e be
       -0.0991014 -0.11101488 0.0144380955 -0.18598408
000340 84 85 f8 bd 0f a5 0e bc 05 74 18 3e 92 19 0a 3e
       -0.12134841 -0.008706345 0.14888008 0.13486317
000350 c6 05 33 be 1e 53 01 bc 2c 32 81 3d 8b 29 0e 3e
       -0.17482671 -0.007893352 0.06308398 0.13883035
000360 c7 7e 61 3d 72 ba 8b 3d c0 7b 06 3e 8e ef b1 bd
       0.055052545 0.06822671 0.13133144 -0.086882696
000370 20 af a3 bd 64 8b 27 3e 01 ac e4 bd 8d 44 75 3d
       -0.07992387 0.16361767 -0.1116562 0.05987983
000380 2d e7 26 be ff 3a 11 3e 9f fa 8d ba 78 d5 04 bd
       -0.16299124 0.14182661 -0.0010832137 -0.032430142
000390 d3 52 b2 3c aa d7 38 be bc 74 43 3c 37 d3 0b 3e
       0.02176801 -0.1805102 0.011929687 0.13654791
0003a0 78 84 08 3e 65 de 3a 3e fb 1b 63 bd dc 9e 0f 3d
       0.13331783 0.182489 -0.055446606 0.03506361
0003b0 28 07 b1 3d 46 6f 0e be 04 85 19 be d1 b8 89 bd
       0.08643943 -0.13909635 -0.14992148 -0.06724704
0003c0 fc 6e ec 3d 4e 3b fc 3c e6 1f cf bd bb 39 f2 3c
       0.11544606 0.030789997 -0.10113506 0.029568544
0003d0 99 30 9a 3d 2c 2d 40 bd f8 61 1e be 3f 88 ee 3d
       0.075288005 -0.04691808 -0.1546706 0.11647081
0003e0 e0 30 78 3d 6d ff cb 3a 6f ae ff bd 59 fc ad 3c
       0.060593486 0.0015563794 -0.124844424 0.021238493
0003f0 fe c0 ba bd ed a8 7f 3d ce 87 ff bd 47 e6 02 3c
       -0.091188416 0.06241696 -0.124770746 0.007989473

layers.0.lin_a.weight f4 [1, 60]
000000 82 ef 04 3e 86 1c 33 bd 94 8e 1c 3d 56 b0 25 bd
       0.1298199 -0.043728374 0.03822191 -0.04045137
000010 39 44 1b 3d fb 67 54 bd 2c 1a 45 3d a6 37 0f 3e
       0.03790686 -0.051856976 0.048120663 0.13986072
000020 29 e5 45 3d f6 17 4c bd 51 f7 f0 bd eb 6c 0a bd
       0.048314247 -0.04982754 -0.11765922 -0.03379528
000030 0e fa b6 bd 8c 53 df 3d 9b 55 9b bd 71 66 1a 3e
       -0.08934413 0.10904607 -0.07584687 0.15078141
000040 0b 68 9a bc 9d a4 ce bc ce de 29 bd 90 fd 80 3c
       -0.01884844 -0.025224978 -0.04147225 0.015745908
000050 14 6b 13 be 5a 0b df 3c 73 24 63 3d df 6c 90 3d
       -0.14396316 0.027227093 0.055454683 0.070520155
000060 5a ae 65 3d 75 b3 3d 3d c2 4f 6a bc 92 72 10 be
       0.056074478 0.04631372 -0.014301242 -0.14106205
000070 b6 86 3a be ff 30 72 bb 65 cd 53 3d 4c 5d cd bd
       -0.1821545 -0.0036955473 0.05170955 -0.100275606
000080 14 c1 97 3d 1e 41 d0 bd 8c 0d bf 3d fa 53 b6 bb
       0.074098736 -0.1016867 0.09328756 -0.00556421
000090 49 60 22 3e a8 37 c5 3d f5 d2 6e 3d 19 cc 22 3e
       0.15857042 0.09629756 0.058306653 0.1589817
0000a0 f8 b9 84 3d d2 c3 a0 3d 43 64 24 be 20 b5 a6 bc
       0.06480783 0.0784985 -0.16053872 -0.020350039
0000b0 13 84 4b 3b 5b 0d da 3d 93 03 03 be 6d 55 c8 bb
       0.0031054064 0.106470786 -0.12794332 -0.006113699
0000c0 9d 86 0d 3e d5 b3 e9 3d b1 6e ff 3d ba d4 9f bd
       0.13820882 0.11411253 0.124722846 -0.07804246
0000d0 dc 7d c5 39 7d 8b 62 bd 20 e6 a2 3d 14 b5 96 bd
       0.0003766854 -0.055308808 0.07954049 -0.07358757
0000e0 2d b1 8e 3c fd a0 48 be 57 cb 0e 3e 86 17 0b 3c
       0.017418468 -0.19592662 0.13944755 0.008489495

layers.0.lin.weight f4 [30, 1433]
000000 f9 e7 61 3c a8 46 e6 3c 1e e0 d5 3c 85 da 83 3d
       0.013788217 0.028109863 0.026107844 0.06438164
000010 b7 f0 2f 3c d5 b5 60 bc 0e dc 51 bd fd 4a c2 3d
       0.010738543 -0.013715227 -0.05123525 0.09486959
000020 8f c6 91 3b 61 e1 ad 3d 00 51 51 bd f3 57 be 3d
       0.004448719 0.08490253 -0.05110264 0.09294119
000030 93 26 81 3c 8b 53 b8 3d f4 fc 56 3d da bc 8e 3d
       0.015765464 0.090003096 0.05248733 0.06969614
000040 31 1f af 3d f6 b3 e5 ba 65 b5 04 3e f1 e1 b5 3d
       0.08550871 -0.0017524946 0.12959822 0.088809855
000050 24 f7 ef 3d c7 cc 18 bd c6 22 8a bd a9 0d 2b 3d
       0.1171706 -0.037304666 -0.06744914 0.041761074
000060 5d 1f ec bd cc 28 32 bb 66 19 a0 3c a6 6b 07 3c
       -0.115294196 -0.0027184961 0.01954336 0.0082654115
000070 96 69 86 bd 1e 64 c2 3b 00 f9 97 bd 2e 5f 18 3e
       -0.06563108 0.005932345 -0.0742054 0.14880058
000080 9b 11 db 3c 1c dd e5 3d 4d d8 44 bd 7e 6d 77 3c
       0.026741793 0.11223814 -0.048057843 0.015101789
000090 76 47 b2 3d 1a 5d ba bd 08 9d 58 bd 4f c7 df 3d
       0.08705036 -0.09099789 -0.05288413 0.10926687
0000a0 3f d8 a2 bc 6f dd f5 3c 2d 50 b7 3c 66 83 e5 3d
       -0.019878505 0.030012814 0.022377098 0.11206703
0000b0 20 37 2f bd 69 e1 b3 bb f3 23 1c 3d 42 d8 64 bd
       -0.04277718 -0.0054895175 0.03812022 -0.055870302
0000c0 c8 ef 4d 3d 12 b1 9e 3b 30 70 ee bd d8 11 f0 3d
       0.0502775 0.004842886 -0.11642492 0.117221534
0000d0 bc a9 03 3d fd 96 87 3d fe 70 2d bd 54 27 9f 3d
       0.032144293 0.066205956 -0.042344086 0.07771173
0000e0 e5 31 2b 3d 2a 0e b8 3c e6 2f 09 3e f3 e9 91 3c
       0.04179563 0.022467691 0.13397178 0.017811751
0000f0 f9 d4 8c bc 96 10 dc 3d 0e c8 af 3b 85 14 d6 bd
       -0.017191397 0.10745351 0.0053644245 -0.104531325
000100 27 0e 67 3d ae 73 2e 3d ec 0b 32 3d 73 24 27 bd
       0.05640998 0.04259079 0.0434684 -0.040806245
000110 70 62 09 bd 7b d1 a9 3d 2f 5c 36 bd cc 04 aa 3c
       -0.033541143 0.08291908 -0.044521507 0.02075424
000120 50 d8 4b 3d 2c 6b f6 3c 08 27 a2 bd 56 4a 6b 3d
       0.04976684 0.0300804 -0.07917601 0.05744394
000130 61 5f ba bd d1 1a 97 3d 75 94 97 3c 03 0b b3 3d
       -0.09100223 0.07378162 0.018503407 0.08742335
000140 d7 ca c1 3d a5 a1 34 bd 84 51 26 bd 69 36 43 bd
       0.09462517 -0.04409947 -0.040605083 -0.04765931
000150 18 29 fd 3b 5a 40 3c 3d 9e 79 95 3d c1 4c c5 3d
       0.007725846 0.045959808 0.07298587 0.0963378
000160 a8 03 91 3c 35 ff 23 3d 45 92 0d 3d c5 07 be bc
       0.017701939 0.040038306 0.03456332 -0.023197064
000170 f8 00 0e 3d 2a de 9c bc 2c e1 1e bd c9 48 11 3e
       0.034668893 -0.019148905 -0.03878896 0.14187922
000180 b9 a0 71 3d bf 40 47 3d b3 8a 89 3c 85 12 4f bd
       0.058991168 0.04864573 0.01678977 -0.05055477
000190 c7 ea c0 3d 38 12 74 3d 53 81 a0 3d 68 ea e9 3c
       0.0941978 0.059587687 0.07837167 0.028554156
0001a0 d6 33 83 3d a7 b1 6a bd 12 c9 ee bd 46 07 7b bd
       0.06406371 -0.05729833 -0.11659445 -0.061286233
0001b0 af c6 b5 bd aa 72 ad 3d fd 63 aa 3d 00 19 52 3b
       -0.088757865 0.08469136 0.083198525 0.0032058358
0001c0 82 2b 7c bd 62 ce 71 bd 1c 83 64 bd d8 2c 55 3d
       -0.06156493 -0.059034713 -0.0557891 0.05204472
0001d0 b6 7b cb 3d 7f 02 66 bc fd 0f 66 bd c8 bd 89 bd
       0.09935705 -0.014038681 -0.05616759 -0.06725651
0001e0 45 70 90 3d 62 e3 3f bd c5 24 32 bd 36 23 a1 3d
       0.07052664 -0.04684771 -0.043492097 0.07868044
0001f0 a2 22 fe 3d 13 5e a1 3d 6e 34 1c bd 60 81 0f 3e
       0.124089494 0.07879271 -0.03813594 0.14014196
000200 97 ee 6c 3d d1 91 be 3d e0 b3 9f 3d 25 bc ee 3d
       0.057844725 0.09305156 0.0779798 0.116569795
000210 10 8d 96 3c 4f 92 e9 3d ef d4 20 bd 48 17 ab 3d
       0.01837781 0.11404859 -0.03926557 0.0835405
000220 ee f3 3d 3d 94 1f c6 bd 4d 30 85 bc 80 ca d6 bd
       0.046375208 -0.09673992 -0.016258383 -0.104878426
000230 ff 34 c9 bd 39 a6 b0 bd 6e 43 21 bd 96 05 03 3d
       -0.09824561 -0.086254545 -0.039370947 0.03198775
000240 96 58 d1 3d 60 57 e0 3d 5e 39 10 bd 3b cb 78 bd
       0.102219746 0.109541655 -0.03521096 -0.06074069
000250 f7 31 30 bd 67 6d 2f bd e1 9f 08 bd 77 19 a3 3d
       -0.0430164 -0.042828944 -0.033355597 0.079638414
000260 18 b1 c6 3d e7 ba da 3d 26 9c 0d 3c ab 3c 05 3e
       0.09701747 0.1068018 0.008643186 0.13011424
000270 46 95 3c bd ad ef 9a 3d 9a 4d 9e bd eb fe ca bd
       -0.046040796 0.07565246 -0.07729645 -0.09911903
000280 40 39 71 3d 2a 27 8a bb 89 44 c5 3d 37 14 a7 bd
       0.05889249 -0.0042160945 0.09632213 -0.081581526
000290 f4 a9 ba bc d7 06 3c 3d f9 d9 3b 3d c8 02 7b 3c
       -0.022786118 0.04590496 0.04586217 0.015320487
0002a0 ef 05 6f 3c 52 dd a8 bc b0 2c 4e bd f3 73 ea 3d
       0.014588817 -0.020613346 -0.050335586 0.11447897
0002b0 e1 dc b7 3d e0 be 7a 3d 83 40 05 bd 8e 8e 93 bd
       0.08977676 0.06121719 -0.032532226 -0.072049245
0002c0 dd 11 ed 3d 7c 2a 83 3d 15 d8 e3 bd 68 ce 16 3d
       0.11575673 0.064045876 -0.11125199 0.036817938
0002d0 5c 8a 56 bc 21 81 4f bd d6 81 5f 3c 6f 0a 92 3d
       -0.013094511 -0.050660256 0.013641795 0.07130896
0002e0 6e 71 3a 3d e9 67 ca 3d 61 01 c7 3c c0 60 9a bc
       0.04551833 0.098831005 0.02429265 -0.018844962
0002f0 9c ed 39 bc a7 c9 60 3d d0 d3 37 bc 60 ae ae bd
       -0.011348154 0.05487981 -0.011219934 -0.08529353
000300 0e d8 bd 3c 0a ec 16 bd 2a 44 a3 bd 2f 26 d6 3d
       0.023174312 -0.0368462 -0.07971986 0.10456502
000310 ca 9b 21 3d 2b a0 bb 3a 79 62 75 3c 10 eb 8e bd
       0.039455213 0.0014314702 0.014977091 -0.06978428
000320 4f 6a bb bd 63 28 cd 3c 0a 91 33 3b b1 a6 90 3d
       -0.09151136 0.025043672 0.0027399682 0.07063044
000330 4c 51 1b 3c 17 cb aa 3b ad 83 01 3e 3a af 54 3d
       0.009479832 0.0052121985 0.12647887 0.05192492
000340 e3 57 55 3d 61 ed 51 3d 8f 6e 39 bd 36 37 58 3c
       0.05208577 0.051251773 -0.045271453 0.013196757
000350 52 9a bb 3d 18 33 90 3b bc b5 6b 3d 0e db ae 3d
       0.09160294 0.004400622 0.057546362 0.08537875
000360 68 14 cf 3d e0 3f 80 3d 89 de fe 3d f2 ad 4d 3c
       0.10111314 0.06262183 0.12444789 0.012553679
000370 11 35 40 bd 53 07 ff 3c 28 ac 32 3d cc 3e 33 bd
       -0.046925608 0.031131422 0.043621212 -0.04376106
000380 5a fb 3b 3d 13 42 2e 3d 40 fe 8a 3b 8e 06 ad bd
       0.045894004 0.042543482 0.0042417347 -0.08448516
000390 44 06 8b 3b 67 62 da bd 84 3a be 3b e1 52 68 3b
       0.0042426903 -0.106633 0.0058053154 0.003544979
0003a0 dd c9 aa 3c e0 bf 40 3d e4 41 82 bc 07 9d 5a 3d
       0.020848209 0.047057986 -0.01590056 0.05337241
0003b0 72 45 c7 3d a7 bf 24 3d 6b 9a 77 3d f7 fe ba 3a
       0.097300425 0.040221836 0.06045 0.0014266659
0003c0 b7 e5 e3 3d 8b 6b dd 3d 33 02 d5 bd 27 f7 68 3d
       0.11127799 0.10811528 -0.1040081 0.056876328
0003d0 6a 4d 0c 3d 77 36 73 3c a2 63 fc 3d fa 9a 31 3d
       0.034253515 0.014844528 0.12323691 0.043360688
0003e0 84 e1 68 bd e9 ee a3 3d c8 ef 14 3c a8 c5 6d 3d
       -0.056855693 0.08004553 0.009090371 0.058049828
0003f0 b0 43 5b bd 27 44 5a 3d ee 40 9e 3d a4 77 80 bd
       -0.05353135 0.05328765 0.07727228 -0.0627282

layers.1.bias f4 [30]
000000 87 83 53 3d 6b c2 0d 3d 09 c6 8b 3d 22 b7 21 3d
       0.051639106 0.03460924 0.068248816 0.03948129
000010 bc 54 94 3d e3 02 ff 3c 23 40 0b 3d 2e 97 b7 3c
       0.07242724 0.031129306 0.033996712 0.022410955
000020 87 2f 27 bc cc 58 f0 3c 23 4d ea 3c 4c dd 74 3d
       -0.0102042025 0.029339217 0.028601235 0.059781358
000030 24 01 1b 3d 0d c2 f0 3b eb 7a 93 3c bc 61 93 bc
       0.037842885 0.0073473514 0.018002948 -0.01799094
000040 d9 cf 29 3c 5d 96 0a 3d 3e 7a 46 3d ee 92 0e 3d
       0.010364496 0.033834804 0.048456423 0.03480809
000050 8e 4d 70 3c bb 55 62 3d 12 f0 91 3d 67 c8 82 3d
       0.014666928 0.05525754 0.07125868 0.0638588
000060 6a 0d e2 3c 80 ee 59 3d 24 1a d1 3c 9d bf 83 3d
       0.027594287 0.053205967 0.02552516 0.06433032
000070 65 ef b5 3d e8 68 e9 3c
       0.088835515 0.028492406

layers.1.combine_aggr.weight f4 [30, 120]
000000 46 0a 71 bd 9e 1f 00 be 8c 10 4a 3d 68 c5 11 bc
       -0.05884769 -0.12512061 0.049332187 -0.008897163
000010 fb 6a 1b 3d 74 8a 80 bc 99 f1 fb bd 5f 15 95 3d
       0.03794382 -0.01569102 -0.123019405 0.07279467
000020 4a 9f cb 3d 4b 87 54 bd a0 4e 5d bd 45 59 80 3d
       0.09942491 -0.051886838 -0.05403006 0.06267027
000030 dc e4 1d bd f5 3c 8d bd 17 9c b9 bd 2f f7 f0 3d
       -0.038548335 -0.06896392 -0.09062975 0.117658965
000040 0f 25 02 be 25 3e 12 be 91 ce c9 bc 0c 4e ef 3d
       -0.12709449 -0.14281519 -0.024634631 0.11684808
000050 b1 0f 72 bd b1 cc ad 3c 1f 49 a1 3d c5 61 4f 3c
       -0.059096996 0.021215769 0.07875275 0.012657587
000060 49 a5 22 3c 4f 78 04 bc dd f1 b2 bd 0e d3 99 3d
       0.009927102 -0.008085324 -0.08737538 0.075109586
000070 31 55 4a bd f7 96 63 bd 92 be ca 3b 9b cc c7 bd
       -0.04939765 -0.055563893 0.0061872685 -0.09755822
000080 c4 58 cf 3d 1f 7c 89 3d 20 2d 10 3d 43 f0 c6 bd
       0.101243526 0.06713127 0.035199285 -0.09713795
000090 bd c0 86 bd d7 b3 f4 bc d1 3e 90 bc b6 ac e6 bd
       -0.06579731 -0.02987091 -0.017608078 -0.11263411
0000a0 d3 37 11 be 2a 88 4d 3d 56 fd f5 bc 4a ef e4 bc
       -0.14181451 0.050178684 -0.030028027 -0.027946133
0000b0 48 ed c8 bb dd 93 f9 3d f2 1e 16 be 35 b2 17 be
       -0.0061318018 0.12186406 -0.14660242 -0.14814074
0000c0 0b 65 ce 3d 68 cc e0 3c 6e b9 3f bc 86 86 7d bd
       0.10077866 0.027441218 -0.011701925 -0.06189587
0000d0 fe bb 12 3b e9 64 67 bd 0a 17 b6 3c 00 d0 09 3d
       0.0022389884 -0.05649272 0.022227783 0.03364563
0000e0 f2 cb 01 be 02 b0 b6 3c 14 57 14 3d cf 6e 26 bc
       -0.12675455 0.022300724 0.036215857 -0.010158255
0000f0 eb a4 0f bd dc 93 8c bd 90 f4 69 3d 29 9c 0b 3e
       -0.035069387 -0.068641394 0.057118 0.13633789
000100 0f 67 31 bd 72 52 9a 3c cb bb dd 3c 34 7e c0 bd
       -0.043311175 0.018838141 0.027067086 -0.09399071
000110 e7 3c e2 bc 03 27 18 bd c5 ec 00 be 3c 47 c6 3c
       -0.027616931 -0.03714658 -0.1259032 0.02420389
000120 30 79 23 3d 4f e2 98 3c 3f 21 02 3b ae aa 7c 3c
       0.039910495 0.0186626 0.0019856242 0.015421553
000130 49 16 8c bd 21 4b 7e bc ae 57 99 bc b4 06 de bc
       -0.06840188 -0.015520842 -0.018718567 -0.027102806
000140 ae 86 14 bd aa 46 70 3a a7 fd b6 bd 36 bf a9 bd
       -0.036261253 0.0009165803 -0.08935099 -0.08288424
000150 66 c0 ac 3d e1 e0 dd bb f1 20 86 bc 4e c7 c1 3d
       0.084351346 -0.0067711924 -0.01637313 0.094618425
000160 50 e0 91 bd 78 aa c5 bd c1 ac 6c 3d 22 28 f3 bb
       -0.07122862 -0.09651655 0.05778194 -0.0074205557
000170 50 05 b9 3d 1c 04 a3 3d 41 67 cb 3d 07 38 05 be
       0.090342164 0.07959768 0.099318035 -0.13009654
000180 33 aa 97 ba 26 0f 51 3d 28 9f 42 3d ca 22 70 bd
       -0.0011571109 0.051039837 0.047515064 -0.058626927
000190 e0 87 a7 bc 11 34 8a 3d bf 30 bb 3d bc 2b b7 bd
       -0.020450532 0.06748212 0.09140157 -0.089438885
0001a0 63 37 61 3d ae d2 ec 3d 05 9f e1 bc 4d 99 14 3c
       0.05498446 0.115636215 -0.027541647 0.009069753
0001b0 27 0f c4 3d 4b d7 94 bc 93 03 1d 3c 24 14 92 bd
       0.095732026 -0.018169066 0.009583372 -0.07132748
0001c0 3e c0 0a 3d ab be b3 bd 32 6d 19 3e 5e ea 4f bd
       0.033874743 -0.087766014 0.14983061 -0.05076062
0001d0 fb 06 bf bd f4 54 ac 3c 4e d0 92 3d 92 49 91 bd
       -0.09327503 0.021036603 0.07168637 -0.070941105
0001e0 8d ca 45 3d a5 cc 4e bd 8f 15 24 3e e4 67 db 3c
       0.04828887 -0.050488133 0.16023849 0.026782937
0001f0 f0 29 77 3b 00 a2 f7 3d 37 ec d3 bc 49 14 e0 3d
       0.0037714206 0.12091446 -0.025869472 0.10941369
000200 79 fc 25 bd bf 6c 18 39 85 d4 d6 bd eb d0 0b bd
       -0.04052398 0.0001453636 -0.10489754 -0.034134787
000210 83 8c 85 3d 9d c0 79 3c 88 a8 84 bd 12 48 e0 bd
       0.06520941 0.0152436765 -0.06477457 -0.10951246
000220 a4 cb 24 3d 15 1b 21 bd 80 ec 94 3d 0d 16 40 bc
       0.04023327 -0.039332468 0.07271671 -0.011724007
000230 d3 6f 93 3b a8 dc 86 bd d2 f6 e6 3d 41 d4 1e 3e
       0.0044994145 -0.065850556 0.11277546 0.15510656
000240 29 2a ec bd a2 e8 bc 3b 08 87 ad 3d 29 81 71 3d
       -0.11531479 0.0057650367 0.08473021 0.058961067
000250 78 74 c4 bd e9 cb 47 3c 8f 2c b4 3d ae 39 2d bd
       -0.09592527 0.012194612 0.087975614 -0.042291336
000260 4d e1 e0 3d 0e e1 13 3d 8e 7e 4f bc f4 e0 f8 3d
       0.10980473 0.0361033 -0.01266445 0.121522814
000270 17 b0 05 be 2c e6 d7 3d 7e ec 28 be 62 a5 bc 3d
       -0.13055454 0.10541949 -0.16496465 0.09211232
000280 0f 81 d9 bd 2a 17 a5 ba 6f f1 76 3d da 4a 8c bd
       -0.10620319 -0.0012595404 0.060288843 -0.06850214
000290 cc e1 29 bd 84 23 f3 bd 84 b0 d1 3b bc 88 0d be
       -0.041475102 -0.118720084 0.006399216 -0.13821691
0002a0 f5 c4 0a 3e fb b0 1f be 59 c1 44 3d c9 5e 1b bd
       0.13551696 -0.15594856 0.048035953 -0.03793219
0002b0 13 4d 0a bd 7b a5 73 3d a0 92 2d bd e0 9a c9 bd
       -0.03376491 0.059483986 -0.04237616 -0.09843993
0002c0 a9 78 98 3c f0 79 22 3e d9 a8 f0 bd 3e b5 01 3e
       0.018612223 0.15866828 -0.11750955 0.12666795
0002d0 e0 ac dd 3d 32 ca a8 bd 0c 42 15 3e 99 dc fa 3d
       0.10823989 -0.08241691 0.14575976 0.12249107
0002e0 31 a4 20 bd dd c0 b1 3a 5b 72 6e 3c 1a 40 3a 3d
       -0.039219085 0.0013561506 0.014553632 0.04547129
0002f0 89 2a 05 be 3f f4 8d 3d 0d 68 75 3c 91 14 f8 3c
       -0.13004507 0.06931352 0.014978421 0.030283244
000300 c5 03 2e bc 9a 40 df 3c 69 1e 84 bd 4a 96 cf bd
       -0.010621016 0.027252484 -0.06451113 -0.10136087
000310 89 9a a1 3d aa cc 56 bd 9b 79 55 3c bc 16 27 bc
       0.07890803 -0.052441277 0.013029481 -0.010198291
000320 0c b5 bd 3d 07 4d d8 bd 69 db 9c 3c 31 54 a6 bb
       0.092630476 -0.10561567 0.019147592 -0.0050759544
000330 20 e5 18 bd 2a c9 13 be 24 31 2c 3b a5 52 24 3e
       -0.037327886 -0.14432207 0.0026274407 0.16047151
000340 82 32 13 be 0b b3 b6 3d 98 8c 26 39 07 1c df bc
       -0.14374736 0.089208685 0.00015883369 -0.027235044
000350 ef ef 0c 3e 07 6c 30 3c c3 dc a0 bd e4 82 44 3c
       0.13763402 0.010767943 -0.07854607 0.011994097
000360 c3 89 54 bc e9 da 8d 3d a3 ad bc bd 89 ef 90 3d
       -0.012972298 0.069265194 -0.09212806 0.07076938
000370 f1 b5 0a be 1a a9 66 3d cd 4b c1 3d 62 b0 14 bd
       -0.13545968 0.05631361 0.09438286 -0.036301024
000380 42 10 95 bd e8 5e a6 bd 76 5d 9a 3d d3 c3 0d be
       -0.072784916 -0.08123571 0.075373575 -0.13844232
000390 05 8e a3 3d 44 03 12 be 0c 4c 4a bc 69 17 98 bd
       0.079860725 -0.14259058 -0.012347233 -0.0742634
0003a0 3e 4c a6 3c 0f 54 bb 3d 07 31 06 be e1 02 83 bd
       0.020300027 0.09146892 -0.1310464 -0.063970335
0003b0 4e 5b 4e bd 06 56 4f bc 4b 0d 02 be 48 1d 05 3d
       -0.050380044 -0.012654787 -0.12700383 0.032498628
0003c0 e1 9d 81 bd 70 4a af 3d a5 29 b3 3d 93 da 0f 3e
       -0.06328941 0.0855912 0.087481774 0.14048223
0003d0 5c 27 e4 3d 52 79 ce bd 54 e1 e8 3d e0 6c 55 bd
       0.1114032 -0.10081734 0.11371103 -0.052105784
0003e0 10 b3 10 3e a7 00 0f 3e c9 ff 13 bc 5e 78 0c bc
       0.14130807 0.13965093 -0.009033152 -0.00857362
0003f0 f6 34 89 bc d5 3e 13 be fc 79 7f bd 50 83 a1 3d
       -0.016748887 -0.14379437 -0.062372193 0.07886374

layers.1.lin_a.weight f4 [1, 60]
000000 80 02 d4 bb 81 00 04 be b6 2b 06 bd b8 21 06 be
       -0.0064700246 -0.12890817 -0.03275653 -0.130988
000010 cf b9 ca 3d c1 c8 bf bc f3 2c 95 bd 74 fb 35 bb
       0.098987214 -0.023411157 -0.07283964 -0.0027768286
000020 15 f1 c3 bd 33 63 d3 bb 09 23 e3 bd bd 60 67 3d
       -0.09567467 -0.0064510345 -0.11090667 0.05648874
000030 32 6f 07 be 1c e9 68 bd 40 05 a4 3d 19 44 21 bd
       -0.13226011 -0.056862935 0.08008814 -0.039371584
000040 5a 01 01 bd dd d6 ac bc a9 08 5b bd 70 e5 08 ba
       -0.03149543 -0.021098549 -0.053475056 -0.0005222177
000050 44 e7 2d 3d db 01 1a 3d a1 c7 1f 3e 4b 84 00 3e
       0.04245688 0.037599426 0.15603496 0.12550466
000060 f9 8f b2 3c 04 c7 a1 bc 31 44 37 bd a0 1a 71 3d
       0.021797167 -0.019748218 -0.044742767 0.058863282
000070 d1 db 83 bd dd 77 3c 3d 8b 85 8a 3d 21 70 d8 3d
       -0.06438411 0.046012748 0.067637525 0.10568262
000080 0b 62 0e 3d 85 cc 60 bd e7 f6 09 be 0d a3 96 bb
       0.03476147 -0.054882545 -0.13473092 -0.004597074
000090 43 67 12 3e 95 89 8f 3d 65 fa 53 be 24 89 05 3d
       0.14297204 0.070086636 -0.20700987 0.03260149
0000a0 34 de 16 bb 7e 00 24 be 63 8c ab bd 3a c7 13 3e
       -0.0023020627 -0.16015813 -0.08376386 0.14431468
0000b0 f4 ec 86 bd eb 40 09 be e8 78 53 3e fc ac ba bc
       -0.06588164 -0.1340367 0.20651591 -0.022787564
0000c0 95 8e a3 bd e7 d8 02 be 2a 91 ab bd 73 1b f2 3b
       -0.0798618 -0.12778054 -0.08377297 0.007388526
0000d0 90 56 31 bd 9d 64 98 3c f4 00 1b bd b1 c5 0c be
       -0.043295443 0.018602664 -0.037842706 -0.13747288
0000e0 92 04 46 3e 3e d5 5e bd c7 06 d3 bd 0f 51 c6 3d
       0.19337681 -0.054402582 -0.10304027 0.096834294

layers.1.lin.weight f4 [30, 30]
000000 d2 8c 3d be 21 87 58 3e 60 02 6e bd 81 e5 66 3e
       -0.1851075 0.21145298 -0.058107734 0.22548486
000010 ab a2 46 bd 15 0f 28 be 68 67 ef 3d e0 48 65 be
       -0.048494976 -0.16412003 0.11689645 -0.22391081
000020 91 6b 5e 3c 1e 55 51 be 2a 57 bf 3c 5c 0a 59 3e
       0.0135754505 -0.20442626 0.023356993 0.21195358
000030 65 74 84 3e 7f 25 71 3d 96 6f 6b 3e e5 07 01 bc
       0.25870052 0.05887365 0.22991785 -0.007875417
000040 5f f4 35 3e bb 95 1a 3e 3e ad fd bd 4c 26 89 be
       0.17769001 0.1509618 -0.12386559 -0.2678703
000050 70 09 eb bd 9e 85 86 3d 23 68 c2 3d e8 0c 93 3d
       -0.114764094 0.06568454 0.09492519 0.07180196
000060 1c 18 5f 3d cf 7f f0 3d 0e f1 bd 3d b1 10 78 3d
       0.054466352 0.117431276 0.09274493 0.060562793
000070 00 8a 24 be cf 61 d4 3d 23 da 85 be 8a 04 c1 bd
       -0.16068268 0.10370218 -0.26142988 -0.09424694
000080 5b 1c 42 be d1 65 55 be 27 56 81 3d 7a ae ba bc
       -0.18956129 -0.20839621 0.063152604 -0.022788275
000090 bd 36 1e 3d c2 9f 43 be db d3 50 be f4 5f 1f be
       0.03862642 -0.19103912 -0.20393316 -0.15563947
0000a0 4e 3b 86 bd 9c 5c 7c be 88 35 d9 3d 8c 1d 03 bd
       -0.0655428 -0.24644703 0.106059134 -0.0320106
0000b0 6a 5b a2 3d 60 48 6b bc 72 e1 2a bb c8 28 01 be
       0.07927592 -0.014360517 -0.0026074317 -0.12613213
0000c0 73 82 1e 3e e2 f3 1c be 1b b5 b1 3d 54 0d 2a be
       0.1547945 -0.15327409 0.08677121 -0.16606647
0000d0 98 3b 72 bd f5 21 49 be 84 5a 14 be c3 c3 50 be
       -0.059138864 -0.1964186 -0.14487654 -0.20387177
0000e0 3f d4 62 be a3 c7 a7 bd 30 ea 67 be b5 2b 28 3b
       -0.22151278 -0.081923746 -0.22647929 0.0025660817
0000f0 b2 f2 6b 3e 97 a6 b8 3d 1c 83 f5 3d f4 96 2c bd
       0.230418 0.090161495 0.11987898 -0.042136148
000100 19 56 2c 3d e2 a2 42 3e 26 43 84 be 9f bf 52 be
       0.042074297 0.19007447 -0.2583248 -0.2058091
000110 61 d3 7d bd eb 2f 2f be 61 a2 ee bd 6e be 42 3d
       -0.061969165 -0.17108123 -0.11652065 0.04754489
000120 e6 e0 f0 3d c2 8e 2d 3e a5 60 56 3e c1 6a 47 3e
       0.11761646 0.16948989 0.20935304 0.19474317
000130 7d 26 a1 bc 67 6d 3b 3e 97 9f 94 3c ff 9e 8d bd
       -0.019671673 0.18303452 0.018142505 -0.06915092
000140 d4 93 27 3e 76 11 18 be dc 1c 7a 3e fc f5 7c 3e
       0.16364986 -0.14850411 0.24425071 0.2470321
000150 6b 3b 25 be 19 b5 78 3e 19 8b dc 3d cc 45 77 be
       -0.16135947 0.24287833 0.10768718 -0.24147719
000160 c9 48 36 3e 48 1d 4c 3e b1 0a 85 3d a5 e3 fe bd
       0.17801203 0.19933045 0.0649618 -0.124457635
000170 00 c0 34 be 4d c5 36 bc 32 39 d5 3d b7 de 67 3e
       -0.17651367 -0.011155439 0.104113 0.22643553
000180 7b ef aa 3c 4e e8 36 3d 15 bb 6b be 40 1f b8 bd
       0.020866146 0.044655137 -0.23020585 -0.089903355
000190 9b 11 3b be ad 2a fc bb f2 ef 2f 3d 78 c3 2c bd
       -0.18268435 -0.007695517 0.04295344 -0.0421786
0001a0 6a 43 db 3d df 8b ac 3d 2f e1 48 3d 3c bc 91 3c
       0.107062176 0.08425116 0.049042877 0.017789952
0001b0 42 b1 86 bb 86 ef 29 3e 61 0a 90 3e 42 80 89 be
       -0.0041104862 0.16595277 0.28132918 -0.26855665
0001c0 15 79 90 3d 09 9a 87 be 87 bd 8c be 1c 09 5e 3e
       0.070543446 -0.26484707 -0.27488348 0.21683162
0001d0 62 be 34 be 7c 7d bb 3c f2 5b 00 3e 9f 5a 96 3e
       -0.1765075 0.022886984 0.12535074 0.29366013
0001e0 81 1e 58 be 57 c8 ea 3c 1e df 2c 3e f8 1d 73 3e
       -0.21105386 0.028659983 0.16881987 0.23741901
0001f0 dc 75 24 3e 8d a8 f3 3c e9 64 65 3e f3 43 28 3e
       0.16060585 0.029743457 0.22401775 0.1643217
000200 3e 27 42 3e cd 50 1c 3e 5e b5 a2 bd 34 dd 5b bd
       0.18960282 0.15265198 -0.07944749 -0.053677753
000210 78 ae 83 bd af 01 08 3e ad aa 82 3c f7 1f fe 3b
       -0.06429762 0.13281892 0.015950525 0.0077552754
000220 09 4c 67 3e f8 cd 80 bd 23 fa 6c 3e 3a 54 44 3e
       0.22587599 -0.062892854 0.23142295 0.19172755
000230 61 ef 16 3e 9f 9f 53 3e ee f4 93 bd 9e a8 98 bc
       0.14739753 0.2066636 -0.07224451 -0.01863509
000240 f9 32 35 3e 9e ce 66 be f0 c3 6f be d2 ea ba 3d
       0.17695226 -0.22539756 -0.23414588 0.0912682
000250 e6 0d 9a bd 0e f8 c8 3d 88 65 19 3d 81 ca 37 3e
       -0.07522182 0.09812938 0.037450343 0.17948343
000260 f4 bd 6a be f4 3e 72 bb ea 41 40 3d 58 fe 38 3e
       -0.22924024 -0.0036963793 0.04693786 0.18065774
000270 c1 45 1e bd cf 2e cd 3c 29 c0 46 bd f7 af 7e bd
       -0.03864074 0.025046734 -0.048523102 -0.062179532
000280 4f 64 6a be e0 89 fd bc 75 b1 6b be e6 66 a9 3d
       -0.22889827 -0.030949533 -0.23016913 0.082715794
000290 79 be 53 3a 49 55 d2 bd 37 6c 87 be e6 2a 18 3e
       0.0008077394 -0.10270173 -0.2644975 0.14860114
0002a0 e0 17 9a be 5d d5 1c be 14 b6 1a be 08 7e 3a bb
       -0.3009634 -0.15315767 -0.1510852 -0.0028456468
0002b0 ff 7b 4d ba 19 a4 e1 bd 9b 5e 85 be e4 a3 eb bd
       -0.0007838606 -0.11017627 -0.2604874 -0.11505869
0002c0 67 4c 3a 3d 67 0b 0c be 2e 13 0a be 0a 6c 00 be
       0.04548302 -0.13676225 -0.13483879 -0.12541214
0002d0 68 24 b7 3d d6 01 61 be 8c fb aa 3d 8e a7 ba bd
       0.08942491 -0.21973357 0.0834876 -0.0911399
0002e0 b8 6d 9d bd e0 53 21 be db b9 a5 3c 91 0a 52 be
       -0.07686943 -0.15754652 0.020230224 -0.20511843
0002f0 13 12 90 be 8e 25 d1 3d 26 0a 4d be c9 4d 38 be
       -0.2813879 0.10212241 -0.20023403 -0.17998423
000300 bd 85 01 be 15 ae 6e 3d 5d 4b 49 be 32 57 94 3c
       -0.12648673 0.058271486 -0.19657655 0.018107984
000310 4e b4 e9 bc c5 28 37 be b7 a3 59 be 3d 0a cd bd
       -0.028528359 -0.17886646 -0.21253859 -0.100117184
000320 9c 27 0c 3e 99 0d 47 be 66 2a a0 bc 4f df 5d be
       0.13686985 -0.19438781 -0.019551467 -0.21667217
000330 7e 73 17 be c8 b2 13 bd 3a 4c f7 bd 02 43 55 be
       -0.1479015 -0.03605917 -0.12075086 -0.20826343
000340 f6 b4 95 3d f8 10 02 be ba b1 f4 3d 33 31 8b bd
       0.07309906 -0.12701786 0.11947961 -0.067964934
000350 1a e6 e0 3d 3c b8 a8 3d d6 9b 92 be 9e 5d 5f 3e
       0.109813884 0.08238265 -0.28634518 0.21813056
000360 da 7b 8e bd 8b 7f c7 bd 89 58 ff 3d d4 5b 0a 3e
       -0.069572166 -0.09741124 0.124680586 0.13511592
000370 f8 02 da 3c 07 aa 07 3e 97 e8 e0 bc 5c b5 ee bd
       0.026612744 0.13248454 -0.027454657 -0.11655685
000380 43 f9 57 3e 96 06 76 3e 12 7b e9 3c 6e e2 85 3e
       0.2109118 0.2402595 0.028501067 0.26149315
000390 49 9a 33 be 4f 0e 80 be 8b 3b c5 bc 29 ac b6 bd
       -0.17539324 -0.25010917 -0.024076244 -0.08919556
0003a0 55 1f 12 3e 9a a7 a7 3b ae ea 31 3d 8e e0 9f 3c
       0.14269765 0.005116415 0.0434367 0.019516256
0003b0 56 8b 39 3e f4 fd fa 3c 72 91 e6 3d 1d b4 3e be
       0.18119559 0.030638672 0.1125821 -0.18623395
0003c0 c6 6a 6e bb 5d 15 a8 3c 45 a8 28 bd c2 af 52 3e
       -0.003637956 0.020518 -0.0411761 0.20574859
0003d0 f5 2f 61 3d 2a 41 23 3d ec fd 0b 3e 47 52 74 3d
       0.054977376 0.039857067 0.13671082 0.05964878
0003e0 a7 c8 eb 3d a9 54 6c 3d 58 47 51 3d cc f5 02 bc
       0.11512881 0.057697926 0.05109343 -0.007993173
0003f0 a2 7d 55 be 0e 41 83 3e 4f 5c 20 bd 76 57 ef bd
       -0.20848706 0.2563557 -0.039150532 -0.11686604

linear.weight f4 [7, 30]
000000 4c 84 33 3e 5a 27 b2 3d dc 4f ef bd e7 02 04 3d
       0.17530936 0.08698912 -0.11685154 0.03222933
000010 0f 98 d6 bd 24 14 12 3e 72 28 69 bd dc 66 0d 3e
       -0.104782216 0.14265496 -0.056923337 0.13808769
000020 59 99 11 3e da f6 09 3e 5d af b0 3d 70 e2 19 bd
       0.14218654 0.13473073 0.08627198 -0.037569463
000030 ad e9 15 3e a4 1b d6 bd 7d 4a b0 bd 13 99 91 bd
       0.14639921 -0.10454491 -0.086079575 -0.07109275
000040 60 bd 16 be 73 b1 7a be 0e 72 ea 3d be 55 6e be
       -0.14720678 -0.24481754 0.114475355 -0.23274896
000050 ac 4a 32 be 60 4f f1 3d 21 7d ab bc 36 e8 4a bd
       -0.17411298 0.11782718 -0.02093369 -0.04953786
000060 d6 f7 04 be f2 f5 fb bc 9b 4e a6 3d e3 dc 17 3e
       -0.12985167 -0.030756924 0.081204616 0.14830355
000070 d3 d4 c5 3d 3c 16 1b 3e 42 fd 0c 3e 01 a6 dc bd
       0.096597336 0.151452 0.13768485 -0.1077385
000080 ad 63 64 3e f2 12 09 3d f7 ba 3a 3e 30 4e 16 3d
       0.22303648 0.033465333 0.18235384 0.03669566
000090 22 58 0d bc e0 b3 e8 ba 6a a6 ea bd ae d6 5e be
       -0.0086269695 -0.0017753802 -0.11457522 -0.21761581
0000a0 e1 59 8d bd 85 f5 5e be 92 1b 2b 3e 1e 0a 0b 3e
       -0.06901909 -0.21773346 0.16709736 0.13578078
0000b0 70 b9 8d 3b ea e2 55 3d c5 95 0d 3e f9 e9 96 bd
       0.0043250844 0.052218355 0.13826664 -0.073688455
0000c0 c7 13 12 be a6 44 0c be 76 22 37 3c 61 7f 55 bc
       -0.14265357 -0.13698062 0.01117765 -0.013030858
0000d0 51 90 c2 3d c6 99 0b 3e 78 82 9b bd 44 ee 09 bd
       0.095001824 0.13632879 -0.07593244 -0.033674493
0000e0 d6 bc 3c be a1 03 01 3e 6e 2b 1a 3e 65 ee a4 3c
       -0.1843141 0.1259904 0.1505563 0.020133207
0000f0 10 10 7d be f3 db 66 be 30 3a 36 3d dc c6 1f bd
       -0.24713159 -0.22544841 0.044489086 -0.039008006
000100 12 49 6d be 15 0b ee 3c 0a bd fe 3d 19 bf 20 3d
       -0.23172405 0.029058019 0.124384 0.039244745
000110 c3 32 c2 3d f2 5d d0 b9 69 51 c6 bc 1f 10 85 3e
       0.09482338 -0.00039742846 -0.024208741 0.25988862
000120 61 3a 9b bd e0 a9 39 3e 3c 44 7c be 59 db ee 3d
       -0.07579494 0.18131208 -0.24635404 0.11662931
000130 9b 66 fc 3d 9c 59 6f be 12 60 01 be f1 d2 8b be
       0.12324258 -0.23374027 -0.12634304 -0.27309373
000140 65 d2 24 be 6a 66 37 be 89 35 0e be 18 53 60 be
       -0.16095884 -0.17910162 -0.1388761 -0.21906698
000150 40 86 61 3e a6 1f e3 3d 54 9e ea 3d 89 7a dc bd
       0.22023869 0.11090021 0.1145598 -0.10765559
000160 08 24 24 be a1 56 2b 3e f8 ce 12 be 33 93 30 3e
       -0.1602937 0.16732265 -0.14336765 0.17243652
000170 5d 54 b0 bc 9d 2c cb bd 43 c1 02 3e f8 8a 25 3e
       -0.021524603 -0.09920619 0.12769036 0.16166294
000180 e3 e6 31 3e c3 e6 56 3e cc b6 4f 3c 95 16 67 3e
       0.17373233 0.20986466 0.0126778595 0.22567208
000190 2a 76 d6 3d 47 af 33 be e9 90 6f 3e 85 9a 3d 3e
       0.10471757 -0.17547332 0.23395123 0.18515976
0001a0 04 1a 76 bd 45 08 1f be b7 c2 56 3e 17 44 09 be
       -0.060083404 -0.15530498 0.20972715 -0.1340488
0001b0 fb a5 1c be ca 43 15 be 44 4c f0 ba ab 89 85 be
       -0.15297692 -0.1457664 -0.0018333276 -0.26081595
0001c0 e9 d9 88 bd 66 ed 42 be 04 fa 31 3d 82 0e 8f be
       -0.06682188 -0.19035873 0.043451324 -0.27940756
0001d0 ff 05 2f 3e 6e 07 84 be d5 ce a8 bd b8 7f 02 3e
       0.17092131 -0.25786918 -0.08242575 0.12744033
0001e0 5b f4 4e 3d 95 2b 1b 3e 25 30 37 be 2b e2 2c bc
       0.050526004 0.15153344 -0.1788946 -0.0105519695
0001f0 3f ca a1 bd 31 4c a3 3d 47 96 de bd 7e da 0a 3e
       -0.078999035 0.07973517 -0.10868507 0.1355991
000200 6d e1 8e 3d 3c 70 09 be 74 a3 c5 3d e1 62 7b be
       0.0697659 -0.1342172 0.09650317 -0.24549438
000210 c1 1a 86 3e 67 73 9c bd 7f 39 27 3e e7 c4 39 be
       0.26192287 -0.07639199 0.16330527 -0.18141519
000220 5c 68 8c 3e 9d f4 b1 bd a0 62 80 be 48 a9 17 be
       0.2742337 -0.086892344 -0.25075245 -0.1481067
000230 1c a1 7b 3e 28 5d d6 bd da ab 6b be 29 e8 7c bd
       0.24573177 -0.10466987 -0.23014775 -0.061744843
000240 7e 82 68 be a8 8a 50 be bd e9 0b be 0c ce 52 3e
       -0.22706029 -0.20365393 -0.13663383 0.20586413
000250 87 ed 77 3e 78 1c 0b be 8d 21 f6 3d b6 45 ce bb
       0.24211703 -0.13585079 0.12018118 -0.0062949313
000260 09 37 26 3e c2 4e 79 be 3a 34 93 3c 6d 5b d4 bd
       0.16231932 -0.2434645 0.01796924 -0.103690006
000270 da fc 70 be dd 5a 1f be 62 3f 13 3c 60 a0 6d be
       -0.23533955 -0.15562005 0.00898728 -0.2320571
000280 a6 bb 4a bc 05 45 38 bd 5c 4d 5c bc e3 15 4c be
       -0.01237384 -0.044987697 -0.013446178 -0.19930224
000290 0e b6 73 be f8 fd 58 3d 0e 20 10 3d 6f 3a 1c 3e
       -0.23799917 0.05297658 0.03518682 0.15256666
0002a0 ed 75 a1 3c ba 21 0b 3e f7 38 04 be 9f 82 d8 3d
       0.019709552 0.13587084 -0.12912355 0.10571789
0002b0 4e d5 2c 3e 83 69 e1 3d b8 64 0d be 94 2f dc bd
       0.16878244 0.11006453 -0.13807952 -0.10751262
0002c0 21 2b 4a 3d 56 08 89 3e e0 24 03 bd ff e0 5a be
       0.049357537 0.26764172 -0.03201759 -0.21374892
0002d0 14 3d 87 3c f9 1c c7 bd 83 02 e0 3a 0b 9c 28 3e
       0.016508617 -0.09722323 0.0017090592 0.16465776
0002e0 02 90 83 be ce 5c 57 be fd d4 1d 3e 25 34 42 be
       -0.25695807 -0.21031496 0.1541328 -0.18965204
0002f0 4b e6 84 3d 55 db 21 be 17 70 7c be fe 9d a2 3d
       0.064892374 -0.15806325 -0.24652134 0.07940291
000300 d3 6d 5b be 0e 06 01 3c d7 14 57 be dc 03 29 be
       -0.21428613 0.007874979 -0.21004044 -0.16505378
000310 3d df ba bd 73 47 0d be 1a 35 8f 3c 18 84 04 3e
       -0.091246106 -0.13796787 0.017481375 0.12941015
000320 3d ef 06 be f8 eb 40 3e ab 7d 45 3e 25 49 e4 bd
       -0.131772 0.18840015 0.1928622 -0.11146764
000330 dd 6d 47 3e 6c b4 8f bd 16 7d 90 bc f3 35 32 be
       0.19475503 -0.070168346 -0.01763777 -0.17403392
000340 a7 f0 89 be 44 9d 96 bd
       -0.26941416 -0.07354215

linear.bias f4 [7]
000000 81 13 e1 3d 2d 5a 7a 3d 53 c8 28 be 29 02 1b be
       0.10990048 0.061121155 -0.16482668 -0.15137543
000010 9d 3e 98 bd dd c4 46 3d 93 62 c6 bc
       -0.074338175 0.048527587 -0.024216926
