experiments/output-gat/BA_Community/add/42/model.pth (torch, 119523 bytes, 26 tensors)

layers.0.bias f4 [30]
000000 dc 3a 1d 3e a7 25 62 3e 2d e4 2b 3e d1 38 56 3e
       0.15354484 0.22084676 0.16786261 0.20920111
000010 07 0a ea 3d 08 ed 5c 3e 28 9e 2e 3d 78 fe e3 3d
       0.11427694 0.21574795 0.0426313 0.111325204
000020 0b 56 c4 3d 96 84 8e 3d dc 88 68 3e 98 cf 63 3e
       0.09586724 0.069588825 0.22708458 0.2224716
000030 82 1b fc 3d c5 42 0c 3e df db 8f 3e 0e 05 3e 3e
       0.12309934 0.13697346 0.28097436 0.18556616
000040 b5 56 29 3e 92 c4 5d 3e 6d c3 50 3e 1a 62 2c 3e
       0.16536982 0.21657017 0.20387049 0.16834298
000050 ae 49 f8 3d ba e6 c4 3d 82 fa 21 3e ab 41 2a 3e
       0.12123428 0.0961432 0.15818217 0.16626613
000060 af 96 17 3e d0 81 5e 3e 90 d7 86 3c 61 87 13 3e
       0.14803575 0.21729207 0.01646021 0.14407112
000070 4e d7 a4 3e d8 22 24 3e
       0.32195514 0.16028917

layers.0.combine_aggr.weight f4 [30, 120]
000000 5e ef 8e 3d c8 2c 9b 3d cc 31 af bc 68 bd ab 3d
       0.069792494 0.07576901 -0.02138605 0.08385736
000010 d4 d9 a3 bc 64 e7 96 3c 79 0a 36 bd 8c 97 5b 3d
       -0.02000133 0.018420883 -0.04444358 0.053611323
000020 48 cf a4 3d fa 27 89 bd 5c 80 a2 3d 50 f6 8b 3c
       0.08047348 -0.06697078 0.07934639 0.017085224
000030 ee 1f 8a 3d 70 8e 4a 3c c0 4b 34 3d 08 2c 53 bc
       0.06744371 0.012363061 0.044017553 -0.012888916
000040 28 1f 90 3d f0 11 5d 3c 98 8e 2e bd 78 9e be 3c
       0.070371926 0.013493046 -0.042616457 0.023268923
000050 61 46 2c bd 20 66 2f bc 11 de 17 bd d4 0a 78 3d
       -0.042059306 -0.010705501 -0.037077013 0.0605572
000060 d4 93 93 bd 94 60 2c bd a4 2a d3 bc ad d2 60 bd
       -0.0720593 -0.04208429 -0.025777169 -0.054888416
000070 f8 29 0d 3c 0a a7 b8 bd 74 d7 a8 3d 2b d0 9e bd
       0.008615963 -0.09016235 0.082442194 -0.07754549
000080 ca 55 90 3d 88 e7 78 3c 60 d2 f2 bc 10 0f 67 3d
       0.07047613 0.01519192 -0.02964133 0.05641085
000090 10 19 69 3c b6 0d 97 3d f8 80 23 3c f6 d7 eb bc
       0.014227167 0.07375662 0.009979479 -0.028789502
0000a0 94 ed c8 3c 60 cb ca bc 18 5d 1d 3d 1e eb a6 3d
       0.024527349 -0.02475518 0.03841886 0.08150314
0000b0 b4 24 58 3d ca 76 23 bd 9c d8 57 3d 28 ce 85 3c
       0.052769378 -0.039908208 0.05269681 0.016333655
0000c0 b4 e2 3d 3d b6 e6 63 bd bd 11 b9 bd fe 76 10 bd
       0.04635878 -0.055639945 -0.090365864 -0.03526973
0000d0 45 66 8f bd 96 67 99 3d 90 65 d7 3c 20 e1 1a 3d
       -0.07001928 0.074904606 0.026293546 0.037812352
0000e0 f4 81 ec 3c 40 25 d0 ba 34 50 92 3d b2 d5 84 bd
       0.02887056 -0.0015880242 0.07144204 -0.06486072
0000f0 d0 57 bc 3b bd 35 7f bd cc 97 e6 3c c6 c4 00 bd
       0.0057477728 -0.06230711 0.028148554 -0.031437658
000100 38 25 e5 3c 80 cd 9b bc 4c 0f 9b 3d 4a 9e 5d bd
       0.027971849 -0.019018888 0.07571277 -0.054106034
000110 15 00 5f bd 87 03 5f bd fc 27 a8 3d 90 36 f9 3c
       -0.054443438 -0.054446723 0.082107514 0.030421525
000120 04 e6 b3 3d 52 4a 9a bd e9 6f b9 bd 80 44 92 bd
       0.087841064 -0.07533707 -0.09054548 -0.071419716
000130 c6 86 7b bd 08 73 17 3d 8a e3 05 3d a6 58 9b 3d
       -0.061407827 0.036974937 0.0326877 0.07585268
000140 fd 18 41 bd 72 e6 7e bd b4 63 46 3d 0a 23 17 bd
       -0.04714297 -0.06223149 0.048434928 -0.03689865
000150 a0 ef 62 3d 84 75 b1 bc 10 e5 55 3d 41 42 91 bd
       0.055404305 -0.021662481 0.052220404 -0.07092715
000160 cf b1 3c bd 70 fe e3 3c 78 18 9e 3c 0c aa be bc
       -0.04606801 0.027831286 0.019298777 -0.023274444
000170 a4 e0 5e 3d 54 30 7e 3d 53 93 87 bd a4 9e 47 bd
       0.054413453 0.062057808 -0.06619897 -0.048735276
000180 3e 30 ab 3d 10 57 fc bc d3 8e 04 bd c8 e5 b4 bd
       0.08358811 -0.030803233 -0.03236277 -0.0883289
000190 d3 20 56 bd 24 cf ba 3c 50 6a 45 bc 6e b5 87 bd
       -0.052277397 0.02280385 -0.012049273 -0.06626402
0001a0 00 55 0c 3b 8e 69 7f bd e1 9c 9e bd 3a e6 4d bd
       0.0021412969 -0.062356524 -0.07744766 -0.05026839
0001b0 49 a0 a3 bd 7e 15 6e bd 02 e2 ba 3d c4 3e 8d 3c
       -0.07989556 -0.058125965 0.09125139 0.017241843
0001c0 fc 72 e6 3c f3 5e ae bd 58 93 75 bd e2 ea f8 bc
       0.028131 -0.08514204 -0.05995497 -0.030385438
0001d0 48 e0 69 3c ac 81 a4 bd cb 1b 21 bd 6d d9 5f bd
       0.014274664 -0.080325454 -0.039333146 -0.054650713
0001e0 00 a2 84 39 43 22 0b bd c0 48 cf bb b4 5f 7d bd
       0.000252977 -0.03396822 -0.006325811 -0.061858848
0001f0 5f 53 80 bd 11 24 5a bd 6a fa ff bc 8e 8f 93 bd
       -0.06265902 -0.05325705 -0.031247336 -0.07205115
000200 c6 c1 9c 3d 88 6a 94 bc 36 db a0 3d 30 02 e9 3c
       0.07654147 -0.018117204 0.07854311 0.028443426
000210 52 50 9e bd 4e 61 81 3d 84 c2 cd bc 87 54 0f bd
       -0.07730164 0.063173875 -0.025117166 -0.03499272
000220 c7 2f 9b bd 40 dd b9 bd dc f5 d5 3c 88 5b a3 bc
       -0.07577472 -0.09075403 0.026118211 -0.019941106
000230 94 92 11 3d 8c 6d 99 bd 32 cd 8a 3d 58 3c 89 bd
       0.03554018 -0.074915975 0.06777419 -0.06700963
000240 18 21 81 bc a0 32 9c 3c 60 08 41 3d 76 ee 96 3d
       -0.01576285 0.019067109 0.047127128 0.073697016
000250 2c 4f aa 3d d4 3d 94 bd e8 33 bc 3c 48 d4 20 bd
       0.08315882 -0.07238355 0.02297397 -0.039264947
000260 78 e6 23 bc 48 ef 8b bd 5c 4a aa 3d 68 37 89 bd
       -0.0100036785 -0.06832749 0.08314964 -0.06700021
000270 74 d6 47 3d 50 68 03 3d 84 02 f3 3c 70 27 4a bd
       0.048788503 0.032081902 0.029664285 -0.049354017
000280 14 ef a9 3d a8 55 a4 3c 70 66 40 3c 7f c1 a4 bd
       0.08297554 0.020060375 0.011743173 -0.08044719
000290 c4 f6 1c 3d c0 60 60 bc 52 4c 2b bd ce 95 a0 3d
       0.03832127 -0.013694942 -0.04182083 0.07841073
0002a0 f8 b9 a6 3c 6c e0 4e bd 5a 40 3d bd 00 da 8e bb
       0.020352349 -0.050506994 -0.04620395 -0.0043594837
0002b0 28 c7 50 3d 24 18 bf bc 42 58 55 bd 21 0b 00 bd
       0.05097118 -0.02332694 -0.052086122 -0.031260613
0002c0 8c ab 8b bd 60 59 05 3d 20 b6 90 3d 05 02 b0 bd
       -0.06819829 0.032555938 0.070659876 -0.08594135
0002d0 c0 ae ad 3c ec 28 41 3d 38 9a 87 3c c5 28 05 bd
       0.021201491 0.047158167 0.01655303 -0.032509584
0002e0 10 29 43 3d e4 7e 44 3d dc d0 0b 3d 9c 68 83 bc
       0.047646582 0.047972575 0.03413473 -0.016041093
0002f0 54 06 c6 bc 78 01 20 3c 2c 1b 84 bc 30 da de bc
       -0.02417294 0.009765975 -0.016126238 -0.02720365
000300 d0 01 6f 3d 7c ab a0 3d b0 10 14 bc 78 6f a7 bc
       0.058351338 0.07845208 -0.009037182 -0.020438895
000310 80 99 ae 3a e0 9a b2 bb 08 c9 b3 3c bc 90 d1 3c
       0.0013320893 -0.0054505914 0.021946445 0.02558171
000320 d4 cd a9 bd d4 fc 09 bd ee 70 9d 3d c4 a8 11 3d
       -0.08291212 -0.03368838 0.07687555 0.035561338
000330 a0 c7 94 bb 04 6f 61 bd df c2 64 bd 0d 78 a7 bd
       -0.0045403987 -0.055037513 -0.055849906 -0.08177195
000340 32 c3 f3 bc 10 8b fc 3c 10 6a 6e 3d 58 a2 2c 3d
       -0.029756162 0.030828029 0.058206618 0.04214701
000350 34 42 a5 bd 4a db 60 bd c0 09 6c bc 0e da b4 3d
       -0.08069268 -0.05489663 -0.014406621 0.08830653
000360 50 5b 58 3c 1c aa c1 bc 6c b1 1a 3d 89 6a 0e bd
       0.013205364 -0.023640685 0.03776686 -0.03476957
000370 41 04 72 bd f0 74 88 3d b7 04 2a bd f0 e9 95 bc
       -0.059086088 0.06662929 -0.041508403 -0.018300027
000380 0e fc b9 bd 90 3f 7a 3d f2 a4 8d 3d 82 45 08 3d
       -0.09081279 0.061095774 0.069162264 0.033269413
000390 0d 5c 82 bd a9 83 b8 bd 7a d7 97 bd c2 69 8b 3d
       -0.063652135 -0.09009487 -0.07414146 0.06807281
0003a0 6c 84 33 3d 04 53 9d 3d 94 e1 43 3d b4 44 bd 3c
       0.04382746 0.076818496 0.04782255 0.02310405
0003b0 80 57 6a ba 5f 2e 8e bd bd 2d a0 bd 77 de ae bd
       -0.000893943 -0.06942438 -0.07821224 -0.085385256
0003c0 b8 10 19 3d 2b 94 37 bd 60 80 96 bc 33 30 57 bd
       0.03736946 -0.04481904 -0.01837176 -0.0525362
0003d0 68 45 88 bc 0c 96 83 bd e6 51 74 bd b0 0f f8 3c
       -0.016634658 -0.064251035 -0.059648417 0.030280918
0003e0 24 40 de bc fc d4 66 3d 90 e8 ef bc 10 25 89 bd
       -0.027130194 0.05635546 -0.0292857 -0.06696522
0003f0 fc f1 83 bc ba 40 35 bd 58 ca e4 bc 34 fb b1 bd
       -0.016106598 -0.04425118 -0.027928516 -0.08690491

layers.0.lin_a.weight f4 [1, 60]
000000 31 be 21 3d 6f 1d e5 bd 19 0f 4f 3e 14 95 48 bd
       0.03948802 -0.11187255 0.20220603 -0.048970297
000010 39 4b 25 bd 2b 9b a5 bd 05 de 9a 3d ed ac 0e 3e
       -0.04035494 -0.080862366 0.07561878 0.13933153
000020 fc b9 72 bd 53 c1 6f 3e 2f 95 4a 3b f4 db b3 bb
       -0.0592594 0.23413591 0.0030911674 -0.005488867
000030 ef f2 7d bd 2e 75 f2 3d 1c 2f e0 3d f5 b5 95 3d
       -0.061999258 0.118387565 0.109464854 0.07310096
000040 8d f6 ba bd ae 23 24 3e b9 90 33 be f6 06 09 3e
       -0.09129057 0.16029236 -0.17535676 0.13381562
000050 fb 3c b3 bd 3a d9 01 be fb 4e 02 3e ca dd d8 3d
       -0.087518655 -0.12680522 0.12725441 0.10589178
000060 13 6a ff bd 1a c2 c1 3d 99 64 bc 3d 47 6c c2 3d
       -0.12471404 0.0946085 0.09198875 0.094933085
000070 ae 8c 1a be 2e ea 62 bd 0e 11 50 be 23 6b a5 3d
       -0.15092728 -0.055399112 -0.20319006 0.08077075
000080 50 c2 99 3e f6 54 33 3e 70 4d 2e 3e 8e f3 28 be
       0.3003106 0.17512879 0.17021728 -0.16499159
000090 ec 85 f3 3d 2e 17 cf 3e 1c 22 5d 3e f4 9a 13 3e
       0.11890778 0.40447372 0.21595043 0.14414579
0000a0 97 a7 a2 3e d4 88 36 3e cc 59 b3 be 5e 7f 8c 3e
       0.31768486 0.17825633 -0.35029447 0.27440923
0000b0 03 55 13 3e 56 ea ca 3e cb 17 95 be 1e 38 5d 3e
       0.14387898 0.3963191 -0.29119715 0.21603438
0000c0 42 c7 04 3e b4 0f e5 bd 3f 03 c1 3e 60 b1 a4 be
       0.12966636 -0.11184636 0.3769779 -0.32166576
0000d0 97 3b b0 3e f3 d9 20 3e 95 53 05 3e af 85 f0 bd
       0.34420463 0.15708141 0.13020165 -0.11744248
0000e0 e5 6b f8 bd 37 b6 b0 be bc dd 12 3d 5a 10 5b 3e
       -0.12129954 -0.3451402 0.035855994 0.21392956

layers.0.lin.weight f4 [30, 10]
000000 77 82 80 be 58 9a d2 bd 2b 90 4a bd 5e c0 07 bf
       -0.25099537 -0.10283345 -0.049453896 -0.53027904
000010 23 5a fb 3e c8 a1 3f be 23 bc 28 be f4 f1 c4 be
       0.49092206 -0.18714058 -0.16478018 -0.38465846
000020 fb a8 6e be 98 af 96 bd 29 25 6a 3e cb 39 39 bd
       -0.23306648 -0.073577106 0.22865738 -0.04522113
000030 b7 da a4 be 5c f8 1e bf b1 e3 81 3e 24 4d 81 bc
       -0.32198116 -0.62097716 0.25369027 -0.015783854
000040 cb 3e c7 3e 2c 27 23 3e 9b f7 05 3f bc 0e 95 3e
       0.38915095 0.15932912 0.5233094 0.29112804
000050 73 16 1c 3e bb ec fb 3d 1c 90 c6 3e f7 78 a3 be
       0.15242939 0.12301012 0.38781822 -0.31928226
000060 51 8b 16 be 5f 53 26 3e 37 d7 9c be e0 e3 8e bc
       -0.14701582 0.16242741 -0.30632946 -0.017442644
000070 e1 69 dc be 5b 9d ce be 86 71 d2 3e 10 3a e7 3e
       -0.4304953 -0.40354428 0.41102237 0.45161486
000080 f0 b4 63 be e3 a1 0b 3d b2 4d 15 be 05 5c 99 3d
       -0.22236991 0.034089934 -0.1458042 0.074882545
000090 48 da c6 bd 1f 8a 62 3c e6 fd 62 be 54 5b 30 3e
       -0.097096026 0.013826876 -0.22167167 0.17222339
0000a0 b5 e1 e7 bd d6 10 87 be 89 52 78 3e ab 69 24 bf
       -0.11322347 -0.26380032 0.24250235 -0.64223737
0000b0 6e e5 fa bd d8 e0 ad 3e 83 e8 d8 bd 3a 2f 00 be
       -0.122507915 0.33960605 -0.10591223 -0.12518016
0000c0 55 5c 9d be c9 34 8c be 72 5e 83 3d 60 b4 08 bf
       -0.30734506 -0.27384022 0.064144984 -0.5340023
0000d0 33 ba 51 3d 88 79 ff 3e 00 e6 77 3e cd 2a 8d bc
       0.051202964 0.49897408 0.24208832 -0.017232323
0000e0 d1 a0 23 bd a7 ac 7f 3e b8 13 04 bd b6 1f ea bc
       -0.03994829 0.24968205 -0.032245368 -0.028579574
0000f0 c5 3d 83 3c b2 44 c0 be c3 9a 8e 3d 89 fc c4 be
       0.016020665 -0.3755241 0.06963112 -0.3847392
000100 c7 5d f1 3e d4 9d c3 bc 36 50 45 be d8 18 e0 3d
       0.4714186 -0.02387897 -0.1926888 0.109422386
000110 d6 b1 96 bd 3f 48 ad be 9d 73 2e 3e eb 3d ac 3e
       -0.07358138 -0.33844182 0.1703629 0.3364099
000120 ce 7c 7c be 04 ca 3a be b5 6d e7 3d a5 e1 b2 3d
       -0.24656984 -0.18241125 0.11300222 0.087344445
000130 ad 1d ea bd 03 cf 0c 3f 67 7e 63 be 53 3a 35 3e
       -0.114314415 0.55003375 -0.22216187 0.1769803
000140 b9 1d 35 3e bd 0a 5d bd c3 e5 5a 3e 95 6a cc 3e
       0.1768712 -0.05396532 0.2137671 0.39925066
000150 d9 17 e7 3e fe fb 5f bd 97 9b 0d 3f 33 f2 e6 bd
       0.45135382 -0.054683678 0.55315536 -0.112766646
000160 33 57 e8 3d 56 11 dd bd 52 75 bb bc 3d b7 ac be
       0.11344757 -0.10794322 -0.022883091 -0.3373355
000170 f3 bb 32 3e 2c 64 b3 be 7c a6 ea 3e f4 3e b9 3b
       0.1745451 -0.35037363 0.45830142 0.0056532566
000180 19 c5 fc be 05 77 d3 3b 96 e8 fe bd 7b 1c 0b 3e
       -0.49369124 0.006453397 -0.12446706 0.13585083
000190 c3 78 d6 3e f1 56 cb 3e 75 48 46 bc 7b dd 6a 3e
       0.4188901 0.3971477 -0.012102236 0.2293605
0001a0 68 32 bb be 33 93 91 3e 03 7c 88 be 59 8e 23 3e
       -0.36561894 0.28432617 -0.26657113 0.1597227
0001b0 7a c4 9b bd 2f ab 64 be c4 b9 80 3e 8d 1a 9a bd
       -0.07605834 -0.22330926 0.25141728 -0.075245954
0001c0 fa 5d 38 be 52 17 ed 3e 08 f1 ec bc ba 84 33 3e
       -0.18004599 0.46306854 -0.028923526 0.175311
0001d0 b5 a3 03 bf 77 83 58 be cb 6e 48 3e 8c ee 24 bd
       -0.5142167 -0.211439 0.19573514 -0.04026656
0001e0 3f 1a ac be 3f 90 9c 3d 6d 5c 4a 3e 8f 56 07 3f
       -0.33613774 0.076447 0.1976182 0.5286645
0001f0 3e cb 12 bf 15 6f 5c be eb 92 9f be b6 cf 48 be
       -0.5734137 -0.2152675 -0.31166777 -0.19610485
000200 e3 b2 6d be df 91 a8 be 1b 21 a2 3e fd d5 23 bd
       -0.23212771 -0.3292379 0.31665882 -0.039998997
000210 29 59 d8 3e b8 73 06 bf f7 36 72 3e 59 46 c7 be
       0.42255524 -0.5252032 0.2365378 -0.38920859
000220 30 7a e3 3e 3a c4 ef 3e ba 9b d1 3e ea ea c5 be
       0.4442916 0.46829396 0.40939122 -0.38655788
000230 e9 44 72 3e f3 e5 a0 be ed 80 e3 3e 1a 4f 92 be
       0.236591 -0.31425437 0.444343 -0.28575975
000240 42 c9 a5 be 8d c6 ef be d3 8d 06 bf 6e 35 65 3e
       -0.3238011 -0.4683117 -0.52560157 0.22383663
000250 4d f6 84 be 9a 01 98 be 60 da ce 3e a5 a2 05 bd
       -0.25969163 -0.29688722 0.40400982 -0.032625813
000260 0f da 99 3e cd 8c 8f be b2 32 9d 3e 4c db b9 3d
       0.30049178 -0.2803711 0.3070274 0.09075031
000270 1e fc 8a 3e 66 27 87 3e e6 03 9e be 38 db 51 3d
       0.27145475 0.26397246 -0.3086235 0.051234454
000280 02 25 73 be b7 a8 ef be e0 78 6d 3e 8e 62 47 be
       -0.23744586 -0.46808407 0.23190641 -0.1947119
000290 2a e4 c3 bd 2f ce fe 3d 5d 04 2c 3e 67 02 cc be
       -0.09565003 0.1244167 0.1679854 -0.39845583
0002a0 5b 30 67 be 4a c3 60 be c9 42 0e bd 26 67 c0 3d
       -0.2257704 -0.21949497 -0.03473166 0.09394674
0002b0 07 59 ea 3e 5e 2a df be 04 0d f1 bd 11 be ed be
       0.45771047 -0.4358701 -0.11770061 -0.46434072
0002c0 89 d5 45 be 37 c3 56 3e fd 72 6f be 5b be 41 bd
       -0.19319738 0.20972906 -0.23383708 -0.047300678
0002d0 c2 67 38 be 74 2e 07 3f 32 10 f4 3d 73 d5 21 be
       -0.1800833 0.52805257 0.119171515 -0.1580408
0002e0 1f 7a 72 be 14 87 bb 3e 2f 51 6f 3e f7 72 a4 be
       -0.23679398 0.36626494 0.23370813 -0.3211896
0002f0 60 a0 d6 3a 55 49 82 3e a6 f4 2b be ce 16 d1 be
       0.00163747 0.25446573 -0.16792545 -0.4083771
000300 a3 0e e4 bd b6 0f 65 3e 88 1f 69 3e 88 bf 00 bf
       -0.11135604 0.22369274 0.22765934 -0.50292253
000310 47 bd 5d be 2b 66 c2 3e 95 be 69 3e de 8a c9 3e
       -0.21654235 0.37968573 0.22826608 0.3936376
000320 9e 92 b9 3d 28 2c 7c 3e a0 cd a1 be eb 7a 50 3e
       0.09061168 0.2462622 -0.31602192 0.2035939
000330 73 26 01 3f e6 00 9e 3e 24 40 23 3e 06 0d 2a 3f
       0.50449294 0.3086006 0.15942436 0.6642612
000340 2b ae 25 bf 2b df 2e be 26 e6 ad be 56 2b 07 bf
       -0.64718884 -0.1707732 -0.33964652 -0.528005
000350 83 e6 42 bd f6 a4 b1 be 06 32 b2 bd 89 31 36 3e
       -0.047583114 -0.34696168 -0.087009475 0.17792334
000360 27 0b da 3e d6 2a c1 be ad 96 05 3e 71 4f 83 bd
       0.42586634 -0.37727994 0.1304576 -0.064116366
000370 31 29 c5 3e 63 9c b0 3e 2a 06 2f be 21 a6 a0 be
       0.3850799 0.34494314 -0.17092195 -0.31376746
000380 c9 2f 8b 3e d5 71 90 3e 5e 1b bf be 83 53 86 3e
       0.27184895 0.28211847 -0.37325567 0.2623559
000390 00 62 92 be 3d 3d ed 3e 9c e3 a5 3e be c5 66 3e
       -0.28590393 0.46335784 0.32400215 0.2253637
0003a0 47 6c a0 3e fb 46 88 be a0 db fc 3e f5 73 71 be
       0.3133261 -0.26616654 0.4938631 -0.2357939
0003b0 68 e6 6b 3d fc d3 1e 3d 5b 30 fe be 48 80 d3 be
       0.05759278 0.038776383 -0.49646267 -0.41308808
0003c0 c9 69 e3 3d 17 11 6f 3c 60 d4 82 be a8 6f bc be
       0.11104161 0.014591477 -0.25552654 -0.36803937
0003d0 1c 37 83 3e 57 25 de be dc dd d8 3e 2d b3 96 be
       0.25627983 -0.43387863 0.42356765 -0.29433575
0003e0 ee c8 9a be 52 75 20 bf f1 fb dd be eb 75 b1 be
       -0.30231422 -0.62679017 -0.4335628 -0.34660277
0003f0 98 12 c6 3e 27 85 06 3f 56 37 82 3e 2f 3b 97 3d
       0.3868606 0.52546924 0.25432843 0.07384335

layers.1.bias f4 [30]
000000 c7 5c 07 3e cf 50 a9 3d 7d cd 7a 3d 1d f4 53 3d
       0.13218985 0.08267366 0.061231125 0.051746476
000010 44 c3 ba bd e9 51 e3 3d 3c ad 10 3e 4e 6a db 3d
       -0.09119275 0.110996075 0.14128584 0.107136354
000020 21 6a 01 3e e2 88 64 3d ae 7d 11 3e 39 bc e9 3d
       0.12638141 0.055794604 0.14208099 0.11412854
000030 a9 1c 0d 3e 0d 79 a0 3d b5 a8 5b bb 3c 58 00 3e
       0.13780464 0.078355886 -0.0033517305 0.12533659
000040 c4 15 12 3e 29 42 a0 3d d8 e8 a3 3d ef 60 f5 3d
       0.14266115 0.07825119 0.08003396 0.11981379
000050 6e 3d ce 3d 20 bc bc 3d 19 95 8b 3d d3 6b 11 3e
       0.100703105 0.092155695 0.068155475 0.14201288
000060 fa ac fa 3d ea ad 2f 3e 2e dd 4b 3b 15 04 a1 3d
       0.12240024 0.17156187 0.0031107175 0.07862107
000070 78 ed e4 3d 1f 11 f3 3d
       0.11178106 0.118685

layers.1.combine_aggr.weight f4 [30, 120]
000000 b8 be 45 bd 57 c3 4b bd 30 94 7b 3d 90 77 17 bd
       -0.048277587 -0.049746837 0.06142062 -0.036979258
000010 60 2a 6c 3d 9a 9b b5 bd 20 15 4e 3b 29 2d 81 bd
       0.0576576 -0.08867569 0.0031445697 -0.06307442
000020 a2 a2 04 3d c6 d4 97 3d 88 23 13 3d 96 8f 00 bd
       0.03238166 0.0741363 0.035922557 -0.031386934
000030 a9 62 af bd d8 28 31 bd 1f 8a 5c bd 0a 87 b2 3d
       -0.0856374 -0.043251842 -0.05384266 0.08717163
000040 e5 09 49 bd 08 93 10 3d f4 14 96 3d 4c cd 06 3d
       -0.0490817 0.03529647 0.07328215 0.03291063
000050 0f 0e a4 bd 40 e6 29 bc e4 f3 dd bc 80 ea 70 3d
       -0.08010494 -0.010369837 -0.027093835 0.058817387
000060 38 4c 0c bc 40 c6 9d bb 86 4f a6 3d 24 f4 b1 3c
       -0.008563094 -0.004814893 0.08120637 0.02172286
000070 1c 54 2d 3d 3c bb f0 bc 54 87 74 3d b8 0b 57 3c
       0.04231654 -0.029386155 0.05969937 0.013125353
000080 c8 37 96 bc 98 1d 90 3c 52 29 93 bd e0 fa 5b 3b
       -0.018337145 0.017592236 -0.071856156 0.0033566281
000090 1c 7b 2b 3d 1c 10 af bd 53 9d 46 bd 8c 43 6a 3d
       0.041865453 -0.085479945 -0.04848988 0.057193324
0000a0 60 ac 07 3b e0 c7 4b bb 08 a1 18 3c ab d1 27 bd
       0.0020702109 -0.0031094477 0.009315737 -0.04097144
0000b0 20 99 9a 3d 28 4c 14 bc 20 25 08 bd c8 d2 44 3d
       0.075487375 -0.00905136 -0.03323853 0.04805258
0000c0 c6 9c 9b bd 50 f0 89 bc 70 be 16 3c dc 14 e8 bc
       -0.075982615 -0.016838223 0.009200677 -0.028330259
0000d0 d4 80 4b 3d 05 a9 9f bd c4 97 d7 bc 86 27 1d bd
       0.049683407 -0.0779591 -0.026317485 -0.03836777
0000e0 1e ff ac 3d 04 39 15 3d 53 76 8b bd 40 ea 10 3d
       0.08447097 0.036431327 -0.06809678 0.03537965
0000f0 40 bf fd ba f6 24 ab 3d 44 59 4e 3d fa 5f 5a bd
       -0.0019359365 0.08356659 0.0503781 -0.053314187
000100 90 a6 a6 3d 98 c0 85 bc 5c 49 aa bc bc 9e df 3c
       0.08137238 -0.016327187 -0.020786934 0.02729737
000110 26 be b9 3d e0 a3 e1 3c 12 63 b4 bd 60 b9 ee bc
       0.09069471 0.027543962 -0.08807959 -0.029141128
000120 46 17 ae 3d 4d c9 03 bd 19 e3 33 bd 28 05 95 bd
       0.08500533 -0.032174397 -0.04391775 -0.07276374
000130 83 67 4e bd 3e 6f 4c bd bc 99 b2 3c 28 63 15 3d
       -0.050391685 -0.049910776 0.021801822 0.036471516
000140 16 6d b2 3d f8 62 75 3d 40 cc b0 3a 30 a6 49 3d
       0.08712213 0.059908837 0.0013488606 0.049230754
000150 28 b9 55 3d 13 41 a1 bd 94 ac 3c 3d ec c7 7f bd
       0.052178532 -0.0787374 0.04606302 -0.06244652
000160 dc 5e 90 3d 68 a1 22 bd 14 2a 9b 3c 00 a1 7e ba
       0.07049343 -0.03970471 0.018940963 -0.0009713322
000170 54 79 2d 3d 28 a2 68 3c ee 9d 87 bd e0 77 17 3d
       0.042352036 0.014198817 -0.066219196 0.036979556
000180 bc 91 5c 3d 52 b8 42 bd 25 8f 72 bd 06 9c 7e bd
       0.05384992 -0.047539063 -0.059218545 -0.062160514
000190 c9 ed 35 bd b8 90 3c bc 10 a9 df 3b 80 c8 28 ba
       -0.044416223 -0.011509113 0.0068255737 -0.0006438568
0001a0 94 ca c5 bc bc 08 68 3d 00 15 9e 3b e9 1c 59 bd
       -0.024144448 0.056648955 0.0048242807 -0.053006086
0001b0 5c e9 c5 bc fa d5 5b bd 40 e9 03 bd 3f 5b b0 bd
       -0.024159126 -0.05367086 -0.032204866 -0.08611154
0001c0 e0 aa 82 3c 40 dc 90 bd c0 9d 10 3d 80 12 80 3d
       0.01595062 -0.07073259 0.035306692 0.062535286
0001d0 ea 14 8b bd 38 53 45 bd 83 b8 93 bd 7c 92 c7 3c
       -0.067910984 -0.048175067 -0.07212927 0.024361841
0001e0 40 b3 90 3c 66 fe 40 bd 7c df 61 3d 50 27 1b 3d
       0.017663598 -0.047117613 0.055144772 0.03787929
0001f0 02 ec a8 bd 20 b6 a2 bb 10 f7 20 bd 50 aa 81 bc
       -0.0824814 -0.0049655586 -0.039298117 -0.015828282
000200 28 32 50 3d 50 df 20 bc ee d7 81 bd e4 82 83 3d
       0.050829083 -0.009818867 -0.063400134 0.0642145
000210 e4 e2 aa bd e8 69 00 bd c4 12 10 3d 92 3f a5 3d
       -0.08344057 -0.031351 0.035174146 0.08068766
000220 e0 72 b5 3d d0 ad af bc d8 8b f9 3c cb 30 a4 bd
       0.08859801 -0.021445185 0.03046219 -0.08017119
000230 04 83 91 bc 90 9d e8 bc a0 49 d4 3c f0 fc 74 bd
       -0.017762668 -0.028395444 0.025914013 -0.059811532
000240 b8 90 a1 3c 0c 2d 41 3d 20 b4 91 3d 38 e5 7c bc
       0.019722328 0.0471621 0.07114434 -0.015435509
000250 dc cd aa 3d 1a a3 b0 bd fc e9 d3 bc 6c c1 0d 3d
       0.08340046 -0.08624859 -0.025868408 0.03460829
000260 08 c3 bf 3c d4 16 30 3d 61 1e 78 bd cc 3a 66 3d
       0.023408428 0.04299052 -0.060575847 0.056208417
000270 78 76 af bd 0f 31 80 bd c0 6e cb bb 07 a1 b5 bd
       -0.08567518 -0.06259357 -0.006208271 -0.08868604
000280 00 b5 b1 bd 86 f7 a5 bd 7e 4f 96 3d f4 09 a4 3c
       -0.08677101 -0.08103852 0.07339381 0.020024277
000290 f0 9b ee bc a0 e0 75 bb 4d f4 a2 bd 18 92 b0 bd
       -0.029127091 -0.003751792 -0.07956753 -0.08621615
0002a0 12 61 82 bd 4f de b4 bd 58 00 76 3d e7 d7 02 bd
       -0.06366171 -0.088314645 0.06005892 -0.03194418
0002b0 e8 de c9 bc 0e ff a0 bd f0 b5 77 3c f8 65 60 bc
       -0.024642423 -0.07861148 0.015119061 -0.013696186
0002c0 fc 8d 7e bd d4 bc 6f 3d 46 96 9d 3d 24 42 85 bd
       -0.062147126 0.05852969 0.07694678 -0.06506756
0002d0 e4 d9 53 3d d0 db 72 bc 80 ed 61 ba b4 27 1f 3d
       0.05172147 -0.014822915 -0.0008618459 0.038856223
0002e0 70 57 88 bc 8c d8 9e 3d 24 0e 66 3d d9 b7 72 bd
       -0.016643256 0.07756147 0.05616583 -0.059257362
0002f0 7c 8c 63 bd 69 3c b9 bd 84 6d ef 3c 35 a0 8c bd
       -0.0555539 -0.090447254 0.029227026 -0.068664946
000300 db b3 9c bd 4e aa 6f bd 8d d6 b8 bd 44 3a 98 bd
       -0.07651492 -0.058512025 -0.09025297 -0.07432988
000310 16 c2 a6 3d 9c dc 50 3d da a5 a5 3d aa 60 35 bd
       0.08142488 0.05099164 0.08088274 -0.04428164
000320 4c 5c 19 bd 95 31 03 bd c0 af e9 3a c7 30 86 bd
       -0.037441537 -0.032029707 0.0017828867 -0.06552272
000330 d8 43 5b 3c c4 a3 6f bd a8 57 6c 3c 4e 40 ab 3d
       0.013382874 -0.05850579 0.014425196 0.083618745
000340 10 9d 7c 3c ba 5f 88 3d d8 26 85 bd 48 12 53 bc
       0.015418306 0.066588834 -0.065015495 -0.012882777
000350 f0 e1 66 bd 00 f0 25 bc b2 bd 14 bd 87 4d 54 bd
       -0.056367815 -0.010128021 -0.03631372 -0.05183175
000360 9e 96 b4 bd d5 a4 0a bd 78 4b 48 3c bc 8e 83 bc
       -0.088177904 -0.033848602 0.012225024 -0.016059272
000370 da 1e ae bd f2 6f 8c 3d 1a a0 8a 3d 95 6e 61 bd
       -0.08501978 0.068572894 0.06768818 -0.0550371
000380 58 0a 18 3c e8 47 78 3d db 8a b1 bd be 31 a5 bd
       0.00927981 0.06061545 -0.08669063 -0.08066128
000390 84 78 4f 3d 00 fc ec ba b4 22 ee 3c 3d 7e 1b bd
       0.050652042 -0.0018080473 0.029069282 -0.037962187
0003a0 9c 96 87 3c 60 fe 77 3d 08 f4 b6 bc 1a 8d f1 bc
       0.016551308 0.060545325 -0.02233316 -0.029486228
0003b0 76 04 b2 bd 78 ca 66 bc 64 ef 6c 3d ae af b0 bd
       -0.08692257 -0.014086358 0.05784549 -0.08627258
0003c0 50 11 e7 bb 58 47 88 3d a0 70 d5 bc 0c 26 0a bd
       -0.0070516244 0.06654233 -0.02605468 -0.03372769
0003d0 40 91 e1 bc 3a 7e 17 bd 28 02 33 3c 7f 00 b4 bd
       -0.02753508 -0.036985613 0.010925807 -0.08789157
0003e0 b8 e2 0e 3d 08 de bc bc 70 6c 3e bc f0 d1 c9 bb
       0.034884185 -0.023055092 -0.011622533 -0.0061590597
0003f0 50 e1 50 3d c6 42 68 bd 7c 20 aa bd 05 3c 87 bd
       0.050996125 -0.056704305 -0.08306977 -0.06603245

layers.1.lin_a.weight f4 [1, 60]
000000 7a 17 b2 3b ae fb 24 bd 51 ab 85 3d a6 03 43 ba
       0.0054349275 -0.040279083 0.06526817 -0.00074392033
000010 8e 4c 65 be 16 f0 8c be 17 e0 ab bc 8a 79 06 3d
       -0.22392485 -0.2752692 -0.020980878 0.032830752
000020 40 62 05 be 1f f8 05 3e 6f 43 cd bc 24 d6 c1 3d
       -0.1302576 0.13082932 -0.025056569 0.09464672
000030 97 d1 4a 3d 92 24 0b be 4c 27 4c bb f9 2f 3d 3d
       0.049516287 -0.13588169 -0.0031151352 0.04618833
000040 60 48 b4 3d e6 96 ef bd d4 36 37 bd ec c0 71 3d
       0.08802867 -0.116987035 -0.044730023 0.059021875
000050 1d d8 54 bd 01 18 28 3d 29 4b 02 3b fa d1 c6 3c
       -0.051963914 0.041038517 0.0019881225 0.024270047
000060 71 ea 3b bd 60 c6 04 3d bb c4 23 3e 54 d4 d9 3c
       -0.045877878 0.032415748 0.15993015 0.026590504
000070 e7 35 bf bd 87 31 85 bd 91 c3 60 3e 00 31 4a be
       -0.09336453 -0.06503587 0.21949603 -0.19745255
000080 2a 94 1a 3d 16 eb a9 3d 78 26 c7 3e 66 fb ec bd
       0.037738957 0.08296792 0.38896537 -0.11571388
000090 96 9f b6 3d 31 f8 ca 3d de 76 88 be 12 de 03 bd
       0.08917157 0.0991062 -0.26653188 -0.032194205
0000a0 b4 e2 44 be 80 c6 80 3e c6 18 cc 3d b3 c5 ed 3d
       -0.19227105 0.25151443 0.09965663 0.11609974
0000b0 7f 7e 86 3e 3f 84 0b be 36 f8 86 3e aa 06 55 be
       0.26268384 -0.13624667 0.26361245 -0.20803323
0000c0 33 35 4a be c3 23 b8 bb 75 ff 57 be 72 f9 ad be
       -0.19746856 -0.0056194975 -0.21093543 -0.33979374
0000d0 c8 d0 d5 3c 78 9a 5e 3c 53 e8 7b be ba d7 b8 3e
       0.026100531 0.013586633 -0.24600343 0.36102086
0000e0 79 f2 4e 3e 8b c2 d7 bc be 0a 99 bd 07 2f 5b 3e
       0.20209683 -0.026337883 -0.07472752 0.21404658

layers.1.lin.weight f4 [30, 30]
000000 51 e2 d0 be 9d 93 20 3e b3 6e 61 3e 7a db ab 3c
       -0.40797666 0.1568131 0.22014885 0.020978678
000010 74 bf 84 bd fd 03 5e be 6f d9 9f be 3c 5b 1f 3d
       -0.06481829 -0.21681209 -0.31220576 0.038905367
000020 5e 14 b0 3c 01 a7 b9 3d a0 bd e5 3d a2 d2 5f bc
       0.021494087 0.090650566 0.11217809 -0.013661059
000030 64 42 b3 be 92 8a 1b 3e 3f 43 8e 3e 25 13 97 3e
       -0.3501159 0.15189579 0.2778568 0.29506794
000040 e3 48 ba be 34 8d a5 3b de 1f 53 be 16 38 4a be
       -0.36383733 0.005052233 -0.20617625 -0.19747958
000050 1c 01 c7 3e 44 7b 13 be a9 99 01 3e 13 e8 79 3e
       0.38868034 -0.14402491 0.12656273 0.24404936
000060 4e 9d 48 3e 10 73 8e be 5e ca f3 bd 44 b8 2e be
       0.19591257 -0.2782216 -0.11903833 -0.1706248
000070 b7 5f 5e be 37 aa f4 3d 91 d0 9a 3e a2 64 00 bd
       -0.217162 0.119465284 0.3023725 -0.03134597
000080 61 4b 16 3e 32 55 0e be 27 82 a9 3e 99 a8 78 3d
       0.14677192 -0.13899687 0.3310711 0.060707662
000090 28 0a bd 3d b1 d8 73 bd eb 5e 92 3d 57 0a 40 3e
       0.09230453 -0.059532825 0.071470104 0.18753944
0000a0 0b c4 fd bd 16 6a 0e 3e 94 15 e6 3d 58 ad 58 3e
       -0.12390908 0.13907656 0.112345845 0.21159875
0000b0 fa 19 d9 bd ac 36 27 be a2 45 90 3e 8d 55 36 3e
       -0.10600658 -0.1632945 0.28178126 0.17806073
0000c0 00 ce 85 3e 84 f2 ba 3e b1 f8 4f 3d c2 9f c1 3e
       0.26133728 0.3651315 0.05077428 0.37817198
0000d0 d4 a2 90 bc de 48 21 be 58 36 16 be d5 30 8c 3d
       -0.017655768 -0.15750453 -0.14669168 0.068452515
0000e0 47 f5 85 3e 0a 79 a9 3e 08 bb de 3e 6f 02 d8 3b
       0.26163694 0.33100158 0.4350207 0.006592087
0000f0 c6 6c 1a 3d ef 12 f5 3e 01 88 65 bd 2c de 0e be
       0.03770139 0.47866008 -0.056037907 -0.1395194
000100 c4 d9 08 be 2c 89 58 3e 26 fb 4a 3e ab 08 3f be
       -0.13364321 0.21146077 0.19822368 -0.1865565
000110 50 b7 aa 3e ff ab ed 3d 4c 57 5c be 50 83 58 3e
       0.3334298 0.11605071 -0.21517676 0.21143842
000120 03 27 82 3e f8 3d b6 3e b9 cc f6 bd a8 94 49 bc
       0.2542039 0.35594153 -0.120507665 -0.012303509
000130 92 a2 65 be 49 f2 e6 3d 8d 29 e2 3e 59 18 0c 3e
       -0.22425297 0.11276681 0.44172326 0.13681163
000140 ea 37 8b bd a2 62 17 be ca 94 6f be 05 48 60 3d
       -0.06797774 -0.14783719 -0.23396602 0.054756183
000150 c2 94 f0 3e d7 9a 9f 3c 28 b1 f5 3e ed 47 f1 3d
       0.46988493 0.019483013 0.47986722 0.11781297
000160 2b b6 13 bd e8 59 e9 3d 0d 45 a0 be 70 df 3d 3e
       -0.0360624 0.113941014 -0.31302682 0.18542266
000170 cf d4 63 3e 55 3c 84 3e e1 6c 26 be 7a fc ac bd
       0.22249149 0.2582728 -0.16252472 -0.084465936
000180 92 3d 2b be 6f bf aa 3e 4d c0 08 be c3 3d 15 be
       -0.16722706 0.33349177 -0.13354607 -0.14574341
000190 01 66 44 bd 79 45 69 3d da b5 8d be 10 6f 64 3d
       -0.04794884 0.05695102 -0.27677804 0.05576998
0001a0 42 35 3c 3e 4d 6a b8 3e a0 6a 05 bc c3 4b 69 3e
       0.18379691 0.360186 -0.008143097 0.22782807
0001b0 19 9a 93 be d8 6e 7d bd 76 8f 01 bc cd 77 7a 3d
       -0.28828505 -0.061873287 -0.007907739 0.061149407
0001c0 d0 56 10 3e 61 5c 7e 3e 32 ae a9 bd cc c7 20 be
       0.14095616 0.24839927 -0.08285178 -0.15701216
0001d0 a9 c5 b3 be 69 35 a5 be 8b 89 4d be b5 9a 64 3d
       -0.3511174 -0.3226731 -0.20072 0.055811603
0001e0 f8 ee e9 3e 18 a8 92 3e d4 1d 0a be 97 4b 7a 3e
       0.4569013 0.2864387 -0.13487941 0.24442898
0001f0 87 05 52 3e 12 6e 28 be bf 19 48 3e 00 58 73 3c
       0.20509921 -0.16448238 0.19541071 0.014852524
000200 6e 80 4b 3e fe 7e 2e 3e 44 5c 88 bd 54 9d f0 3d
       0.19873211 0.17040631 -0.06658223 0.11748758
000210 00 f2 20 be 2d 73 b7 bd d7 fe d9 be ee 1e 04 3d
       -0.15717316 -0.08957515 -0.4257724 0.03225606
000220 19 53 7d be a0 36 76 be e6 94 e1 3d 26 94 c6 3e
       -0.2473873 -0.24044275 0.11014728 0.38784903
000230 b6 2f 32 3e fd 9b a4 bc e3 49 75 3e 1a 52 ea 3d
       0.17401013 -0.020093912 0.23953967 0.11441441
000240 d2 0f 6f 3e 0a ea 0f be 16 11 8b 3d cf ec b9 3e
       0.23345879 -0.14054123 0.06790368 0.36313483
000250 6a ee e7 be 54 d1 85 3e ef 22 96 3e 28 3b 43 be
       -0.45299083 0.26136267 0.29323527 -0.19065535
000260 d5 10 0d 3e e0 12 4b be 2f e4 c8 3e df 8d c8 bd
       0.13775952 -0.19831419 0.3923659 -0.09792685
000270 10 f5 85 3e 3f a9 60 be 37 10 3d 3e 2e 01 83 3e
       0.2616353 -0.21939562 0.18463217 0.25586838
000280 92 79 08 3e 9a ed 3f 3d 73 12 00 bd c9 df 0c 3d
       0.13327625 0.046857454 -0.031267595 0.034393106
000290 e9 b5 5b 3e be cc 71 be c5 de 0b 3e c5 e1 5f 3c
       0.21456112 -0.23613259 0.13659199 0.0136646675
0002a0 f4 a0 03 bd 2f 09 38 3e c7 68 3c 3e d7 2f cc 3e
       -0.03213592 0.17972253 0.18399344 0.3988025
0002b0 58 0f 47 be d3 50 f9 bd e5 1f 5c 3e 8a 35 45 3e
       -0.19439447 -0.12173619 0.21496542 0.19258705
0002c0 b6 84 37 3e 95 f4 49 3e bd d5 58 3e 0f dd 57 3e
       0.17921719 0.19722207 0.21175285 0.21080421
0002d0 84 8d 74 bd 4b 2c e1 3e a6 4e 6e 3e 40 21 8d 3e
       -0.059705272 0.43979105 0.2327219 0.2756443
0002e0 4f 18 9b 3d a9 6a 36 3e 98 6d 22 be 3a 2f 45 3e
       0.07572996 0.17814125 -0.15862119 0.19256297
0002f0 f0 9e 81 3e 1b bd ee bd bd 24 fc 3c cf 91 c5 3e
       0.25316572 -0.11657163 0.030779237 0.38587806
000300 91 db c0 3d a7 fd 9b 3e b7 b9 8f 3d d4 12 8d 3e
       0.09416879 0.3046696 0.07017844 0.27553427
000310 ef 01 55 be 59 80 58 3e c5 86 e0 3e c4 19 b5 3e
       -0.20801519 0.21142711 0.4385282 0.3537122
000320 22 c6 dc 3e 4e b0 bf 3b f4 62 2f 3e 8d 58 9e 3e
       0.43119913 0.0058498746 0.17127591 0.30926934
000330 26 dd 80 3e 2a 5b 30 3e 5f 3c 00 3f 26 a4 46 3e
       0.25168723 0.17222276 0.5009212 0.19398555
000340 b6 8e 0f 3d 3f b0 32 3e 75 17 b6 3c 0c bd e1 3e
       0.03504821 0.17450045 0.022227982 0.44089544
000350 06 71 a8 3d 1a 53 11 3e 20 d6 14 bd 42 10 de 3d
       0.082246825 0.14191857 -0.036337018 0.10842945
000360 dd 8d e2 3d 0c a6 65 3e bd 7a 8c 3e 07 0c 21 be
       0.110622145 0.22426623 0.27437392 -0.15727244
000370 18 c3 8c 3e 1e 49 b6 3e 48 d0 cd ba 9e 4c af 3e
       0.27492595 0.3560266 -0.0015702331 0.34238142
000380 8f d5 c5 3d 6d c4 f1 3d ff e3 ea 3b 37 eb 43 3e
       0.09659874 0.11805043 0.0071682925 0.19132696
000390 b3 a0 d2 3e 61 ec 55 3e 9e 16 c9 3e bc 65 25 3e
       0.4113823 0.20890953 0.39275068 0.1615209
0003a0 86 f6 87 3e 48 7c c5 3d 48 b4 39 3e 3e e8 30 3e
       0.2655527 0.096428454 0.18135178 0.17276093
0003b0 e7 6b e3 3d 36 68 a5 bc 89 f3 36 3e 7f 0a 3c 3e
       0.11104565 -0.020191293 0.17866339 0.18363379
0003c0 b2 b9 b6 3e 10 5c 3e bd 42 21 e1 bd 84 85 57 bd
       0.3568855 -0.046474516 -0.109926715 -0.052617565
0003d0 64 16 41 3e 40 2c 4e 3e 13 36 a5 3d f0 e1 39 be
       0.18856198 0.20134068 0.080669545 -0.18152595
0003e0 d5 a2 1d 3e c9 00 c5 3e 1a 36 17 be ee af 09 be
       0.15394147 0.38477162 -0.14766732 -0.13446018
0003f0 24 de ca 3d 82 5b 2d 3e 2c 45 34 3e 13 a3 ab bd
       0.09905651 0.16929439 0.17604512 -0.08380713

layers.2.bias f4 [30]
000000 b8 8c bd 3d 23 29 cd 3d 72 fc a3 3d 80 ee 3e 3e
       0.092553556 0.10017612 0.080071345 0.18645668
000010 da 3c 16 3e d7 c4 93 3c ff 57 5c 3d 8f 3f 42 bd
       0.1467165 0.018038196 0.053794857 -0.047423895
000020 10 55 1a 3e fa 81 fb 3d 43 3a 0c 3e 22 0f f7 3c
       0.15071511 0.122806504 0.136941 0.030158583
000030 d9 0c 6b 3d 88 ef fd 3c a6 8b 39 3e 8b 4d 0e 3e
       0.0573853 0.030998006 0.18119678 0.13896768
000040 b6 7b ed 39 db 84 6f 3d 00 00 00 00 c7 7d 38 3d
       0.00045296334 0.05847631 0.0 0.045041826
000050 e4 cd 8c 3d 1e 47 84 3b 9d 68 e1 3d d2 f6 92 3d
       0.06875208 0.004036798 0.110062815 0.071759835
000060 93 c3 3b 3d 6e 5a c3 3d eb b9 af 3d 00 00 00 00
       0.04584081 0.095387325 0.08580383 0.0
000070 65 d8 c3 bc 6f d9 5c 3d
       -0.023906896 0.0539183

layers.2.combine_aggr.weight f4 [30, 120]
000000 6e cb 9b 3d e0 82 3b 3c aa b6 01 3d c7 d8 b9 bd
       0.076071605 0.011444777 0.031668343 -0.0907455
000010 08 0c 1a 3d 64 1d 7c 3d 26 95 0f bd cc 11 8e 3d
       0.03760913 0.061551467 -0.03505435 0.06936988
000020 6c 69 28 3d 22 82 88 bd 70 25 8c bd 40 fb a7 3a
       0.041116163 -0.06665446 -0.06843078 0.0012815967
000030 1e 53 b4 bd 15 a7 82 bd 80 40 12 3d e4 0c f6 bc
       -0.08804916 -0.063795246 0.035706043 -0.030035444
000040 40 fd 53 bb 15 c6 18 bd f4 01 72 3d 42 85 99 3d
       -0.0032346994 -0.03729828 0.059083894 0.0749612
000050 76 e7 86 3d 25 41 a6 bd 40 17 dd bc 88 18 35 3d
       0.065871164 -0.08117894 -0.026988626 0.044212848
000060 c4 26 5d 3d cc 9a a7 bc dc bd 4c 3d 00 e1 30 bb
       0.053992048 -0.020459555 0.04998575 -0.002698958
000070 80 21 26 3c 48 f0 7b 3d f4 c9 7f 3d 30 fc 83 bd
       0.010139823 0.061508447 0.062448457 -0.06444585
000080 a3 01 63 bd 7e 75 04 3d 04 ba 60 3d ec 1f ae bc
       -0.055421483 0.03233861 0.0548649 -0.021255456
000090 ce ca a5 3d b0 4c 2c bc e9 9d 3d bd 98 aa 18 bc
       0.080953225 -0.010516331 -0.046293173 -0.0093180165
0000a0 0f 20 9f bd 08 b4 e7 3c ed e1 ab bd 66 7a ad 3d
       -0.077697866 0.028284088 -0.08392701 0.08470611
0000b0 76 db 8d bd 5c 66 73 3d ba 3b 8c bd 30 f9 59 bc
       -0.069266245 0.05942379 -0.068473294 -0.01330404
0000c0 71 13 4f bd 7c 10 3f 3d 50 dd 58 3d 01 d3 ae bd
       -0.05055565 0.04664658 0.052945435 -0.085363396
0000d0 32 80 a0 bd d8 e4 44 3c 20 b3 00 bb 00 c1 0a 3a
       -0.07836951 0.012017451 -0.0019638017 0.00052930415
0000e0 38 58 e3 3c 1c cc 93 bc 26 c4 9d 3d 60 c5 d4 3b
       0.027752027 -0.018041663 0.07703428 0.0064932555
0000f0 68 41 2c bd 2c be 01 3d 8f 0d 91 bd d8 d2 32 bd
       -0.042054564 0.031675503 -0.07082664 -0.043658108
000100 14 08 da 3c 27 df 1c bd 44 7c b2 bd ec 23 3b 3d
       0.02661518 -0.038298752 -0.08715108 0.045688555
000110 a8 78 c0 3c b4 a8 d9 3c 4e f7 01 3d ab 7b b8 bd
       0.023495033 0.026569702 0.03172999 -0.09007963
000120 82 e5 22 bd 5c a2 35 bd 44 e4 b2 3d 74 87 1d bd
       -0.039769657 -0.04434429 0.087349445 -0.038459256
000130 b6 a4 75 bd ef 3b 03 bd 78 b5 0f 3c 5c af 16 3d
       -0.059971534 -0.03203958 0.008771293 0.03678833
000140 44 ae 89 3d c6 f7 86 3d f8 99 19 3c 66 51 aa 3d
       0.06722692 0.06590228 0.009375088 0.08316307
000150 78 ce 46 3d e0 7f 47 3d c2 50 a0 bd a0 61 f4 3b
       0.048536748 0.048705935 -0.07827903 0.007457927
000160 48 d4 9e bc 10 ac b1 bd 4d a8 38 bd 0c 40 8e 3d
       -0.019388333 -0.086753964 -0.04508238 0.0694581
000170 e4 1e 09 3d 36 c8 ac 3d 78 f3 7e 3d 80 10 37 ba
       0.033476725 0.08436625 0.06224391 -0.00069833547
000180 52 07 a8 3d f4 bb 9d 3c 10 b2 5b bc d0 e4 1f bd
       0.08204521 0.019254662 -0.013409153 -0.039036572
000190 30 01 71 3d 10 a1 27 3d 94 ce 81 3d 58 e9 81 bc
       0.058839023 0.040925086 0.0633823 -0.015858337
0001a0 52 07 ad bd 54 9c 87 3c b8 ac 23 3c 82 62 73 bd
       -0.08448662 0.016554035 0.00998991 -0.059420116
0001b0 18 4e b5 3c b0 03 35 bc d0 80 9f 3d 40 c5 8c 3b
       0.022131965 -0.011048242 0.07788241 0.004295975
0001c0 ab ab 38 bd 92 c7 95 3d 20 c5 31 3b b8 31 7b bc
       -0.04508559 0.07313456 0.0027125552 -0.015331678
0001d0 1c 97 32 3d 30 57 b4 3d 60 7e 2a 3d c0 b1 28 3b
       0.04360114 0.08805692 0.041624427 0.0025740713
0001e0 ca 1e 99 3d 05 fb 23 bd 02 3a a5 3d 09 0a 55 bd
       0.07476576 -0.040034313 0.08067705 -0.052011523
0001f0 80 3d db 3a 6e 26 aa 3d a8 e6 14 3d c4 b8 9c bc
       0.0016726702 0.08308111 0.036352783 -0.019131072
000200 d0 5d 66 3d 74 8e 5c 3d 78 85 a8 bd 60 b2 26 bc
       0.05624181 0.05384679 -0.08228582 -0.010174364
000210 f2 21 93 bd ec 30 a1 bc f0 49 34 bc d3 94 15 bd
       -0.07184209 -0.019676648 -0.011003956 -0.036518883
000220 03 a9 08 bd 90 39 4a 3d 60 ac 31 bb 51 04 ba bd
       -0.033364307 0.049371302 -0.00271108 -0.090828545
000230 bc 8b 80 3c 19 dc b7 bd 9f 41 80 bd 78 8e 64 3d
       0.01569163 -0.08977527 -0.06262516 0.05579993
000240 de ea 8e 3d 19 aa 04 bd b9 0b 63 bd d8 34 29 3d
       0.06978391 -0.03238878 -0.0554311 0.04131016
000250 db 97 b2 bd 58 ae 66 3d 4a c7 80 3d 74 c7 1d 3d
       -0.087203704 0.05631861 0.06288011 0.03852029
000260 f4 3d e4 3c 74 a3 9a 3c a8 52 8f bd a5 c6 15 bd
       0.027861573 0.018876769 -0.06998187 -0.036566395
000270 38 30 71 3d 80 76 9d 3d e0 cb 1f 3b 10 20 c0 3c
       0.058883876 0.07688618 0.0024382994 0.023452789
000280 1a 54 b1 bd b8 fa 83 3d 28 c9 59 bd d3 6f 48 bd
       -0.08658619 0.06444305 -0.053170353 -0.04893477
000290 ee 79 b8 3d b8 5e d6 bc ab e7 3c bd b0 bb 4d 3c
       0.09007631 -0.026168212 -0.046119373 0.012556955
0002a0 92 55 93 3d 60 e0 a9 3d 10 67 fa 3b 58 8e 7e 3d
       0.071940556 0.08294749 0.0076416805 0.06214747
0002b0 de 54 85 3d d8 f8 79 bc 55 ba 93 bd a0 f4 20 3b
       0.06510328 -0.015257083 -0.072132744 0.002455987
0002c0 04 09 fe bc 98 08 03 3d 0a fb 88 bd 3a ce 7a bd
       -0.031010158 0.031990618 -0.06688507 -0.06123183
0002d0 40 cc 8c bd da dc 8b bd 58 35 8e 3d a1 4a ba bd
       -0.06874895 -0.068292335 0.06943768 -0.090962656
0002e0 20 38 5c bb 74 c4 66 bd 9c 44 1d bd d8 82 d7 bc
       -0.003360279 -0.056339696 -0.03839551 -0.026307508
0002f0 44 6a 2f 3d 24 6d 7b 3d c0 41 a8 bc 80 15 43 3b
       0.042825952 0.06138338 -0.020539165 0.0029767454
000300 40 9d 83 ba f2 40 aa 3d b0 1d 27 3d ec 45 9b bc
       -0.0010041371 0.083131686 0.040799797 -0.01895424
000310 f0 31 7d 3d 67 f5 96 bd f0 31 14 3d 3c 06 91 3d
       0.061815202 -0.073710255 0.036180437 0.07081267
000320 88 12 42 bd 8c e9 0b 3d 2c 72 2b 3d b9 d9 9c bd
       -0.047380954 0.034158275 0.04185693 -0.07658715
000330 c8 1e d7 3c 30 62 8d 3d 68 59 09 3c c8 88 90 bc
       0.026259795 0.069034934 0.0083831325 -0.017643347
000340 2d 89 12 bd ae 2a 78 bd dc 9b b5 3c f6 ba b0 bd
       -0.035775352 -0.060587578 0.022169046 -0.0862941
000350 36 08 a0 bd c4 4a 07 bd 86 0a b1 bd 3e 93 ae 3d
       -0.07814066 -0.033030286 -0.08644585 0.08524178
000360 68 f6 f0 bc b3 cb 46 bd 4c fc bb 3c 20 eb 20 3d
       -0.02941437 -0.048534106 0.022947453 0.039286733
000370 66 ca 8c 3d d4 f4 16 bd 74 ac 82 bc 79 2d 8d bd
       0.06874542 -0.03685458 -0.015951373 -0.06893439
000380 e4 3f a3 bd 68 b1 22 bd c8 47 28 3c 41 5d 39 bd
       -0.079711705 -0.03971997 0.01027102 -0.04525495
000390 e8 6f ce bc 22 0e 09 3d dc 4c 9a 3c 40 b6 66 3d
       -0.025199845 0.033460744 0.018835478 0.05632615
0003a0 40 aa 2c 3d b8 2b 45 3d 3d 4d 41 bd c4 8d 48 3d
       0.04215455 0.048137397 -0.0471928 0.048963323
0003b0 42 91 a7 bd e0 4a e6 3c e3 d1 6b bd c4 7f ce 3c
       -0.081820026 0.028111875 -0.05757321 0.025207408
0003c0 26 0c ab bd 80 b7 77 bc c8 fc 65 3d 94 fc 3a bd
       -0.083519265 -0.015119433 0.056149274 -0.045651034
0003d0 40 78 67 3d a8 8b 68 bc ce 64 af 3d 2e 24 b0 3d
       0.056511164 -0.014193453 0.08564149 0.08600651
0003e0 48 9d 5c bd c8 27 af bc f8 d7 98 bc fe 60 0d bd
       -0.053860933 -0.021381274 -0.01865767 -0.034516327
0003f0 2c d3 f5 3c 3a 39 aa bd 1e 3c 60 bd c8 76 6a bc
       0.030007921 -0.08311696 -0.054744832 -0.014310546

layers.2.lin_a.weight f4 [1, 60]
000000 1a 5a cf bd b1 8d f4 3c 4b 5e eb bb 2c b0 f3 bd
       -0.101246074 0.02985272 -0.0071828715 -0.118988365
000010 b8 2d aa be 26 84 7f 3b e8 fe e8 3a 1d 0b 9c bd
       -0.33238006 0.0038988679 0.0017776163 -0.07619307
000020 9f b2 6d 3b 52 49 05 3d 19 49 50 3e 0b ea db 3c
       0.0036269797 0.032540627 0.20340385 0.026844999
000030 1e 74 1c 3b 1a d3 0d be 19 54 dc 3d 52 70 ac 3d
       0.0023872922 -0.1385006 0.10758228 0.08419861
000040 9b 00 5f 3c 65 48 ba bc 36 a1 c3 3d 6c d8 1b bd
       0.013610984 -0.022739599 0.09552233 -0.038048193
000050 39 01 c7 3d 02 6d 59 bd a9 fb 21 be b4 14 92 bd
       0.0971703 -0.053082474 -0.15818657 -0.07132855
000060 e4 24 bc bc 88 05 2d bd 47 a7 62 3d a8 b3 c8 3c
       -0.02296681 -0.042241603 0.05533531 0.02449973
000070 b7 0e 83 3e 66 a2 c6 3b 2d f4 41 be 1e ad b0 3e
       0.25597164 0.00606184 -0.18940802 0.34507078
000080 ba 36 15 3e 24 56 ad 3e 06 8b e8 bb 02 4c ab bd
       0.14571658 0.33854783 -0.007096651 -0.08364107
000090 e7 98 13 be 54 b1 29 be 5c 19 93 3e 19 d6 4d be
       -0.14413796 -0.16571552 0.28730285 -0.20101203
0000a0 b6 c3 01 3d c7 95 92 3c 41 77 e4 bd 63 46 8d bd
       0.031680785 0.017893685 -0.111555584 -0.06898191
0000b0 5b d0 8a be 63 df 39 3e 85 53 7c be 54 e1 00 bd
       -0.27112088 0.18151622 -0.24641235 -0.03146489
0000c0 a7 76 94 be dc b6 b9 3b b4 dc 2f 3e 4b c0 00 be
       -0.28996775 0.0056675505 0.17174035 -0.12573354
0000d0 ca 00 92 3d 4d 0c ce 3d 05 6b cf be 9d a9 f3 bc
       0.07129057 0.1006094 -0.40511337 -0.029743964
0000e0 31 ff a5 bd 1b 45 1a be 07 f6 e9 bd 68 78 5b 3e
       -0.081053145 -0.15065424 -0.11423879 0.2143265

layers.2.lin.weight f4 [30, 30]
000000 f7 5f ad 3e d0 b6 21 be c2 8f 31 be 84 cd 95 3e
       0.33862278 -0.15792394 -0.17339996 0.29258358
000010 00 9c a5 3c 6e 4d 76 3d 66 54 78 3e 0c 35 53 3d
       0.020215988 0.060132436 0.24250945 0.05156426
000020 65 ba 38 be 8c 0b ad 3e 0a 4d 9c be c8 8d 68 3c
       -0.18039854 0.33797872 -0.30527526 0.0141939595
000030 72 24 b3 3d a9 15 07 3e f0 65 a6 be 34 03 40 be
       0.08747186 0.13191856 -0.32499647 -0.18751222
000040 37 01 2d 3e 7d 69 87 be 87 10 47 bd 4c d7 45 3e
       0.16894995 -0.2644767 -0.048599746 0.1932041
000050 69 bb 73 be 50 f9 f3 bd cb b1 8a 3e f4 35 81 3e
       -0.2380196 -0.11912787 0.2708877 0.25236475
000060 c0 62 94 be 6b 78 ee 3d 75 75 68 be 62 ea 49 3e
       -0.2898159 0.11644062 -0.22701056 0.19718316
000070 fd e5 91 be 97 13 6d 3e 2b 5f 04 be f8 9f 14 3d
       -0.2849578 0.23152004 -0.12926929 0.03628537
000080 86 13 00 bd 31 27 0f bd bf a7 92 3e 96 0a 6d 3e
       -0.03126862 -0.034949485 0.28643605 0.2314857
000090 02 be e9 3d 61 e2 67 3e 2c e2 9b 3e 18 12 21 be
       0.11413194 0.2264495 0.30445993 -0.15729558
0000a0 6c a1 23 3e e1 4a 37 be 94 ab 81 3e 94 96 43 be
       0.15979546 -0.17899658 0.25326216 -0.1910041
0000b0 92 80 a1 3e 92 2d 1a bd d2 75 46 bd 57 06 6f 3d
       0.31543404 -0.037641115 -0.048452206 0.058355656
0000c0 1c 7e 97 3e ae 17 a3 bd 77 1e a3 3e 2d e8 ee 3d
       0.295884 -0.07963501 0.3185918 0.11665378
0000d0 08 e5 c1 3d 7e 2b 94 bc ea f8 4a 3e 27 f5 8c 3d
       0.09467512 -0.018087145 0.19821516 0.068826966
0000e0 77 db d5 3e 9b 6a da 3d b8 5f 41 3e c9 78 5b be
       0.41769 0.10664865 0.1888417 -0.21432795
0000f0 78 fb 0c 3e 06 6d 61 3e f4 b7 a1 3e cb 6b 80 3e
       0.13767803 0.22014245 0.31585658 0.2508224
000100 48 ee 3d 3e c4 31 30 3e 83 fb ac 3e 9f a1 9d 3e
       0.18547928 0.17206484 0.33785638 0.3078737
000110 9f 9b 6e bc 50 93 8b 3e 3e 13 72 be 5d 0b d1 3c
       -0.01456347 0.27260828 -0.23640153 0.025518114
000120 01 01 71 3e 4c 71 9e 3e f6 78 9c 3e 63 70 3a 3d
       0.23535539 0.30945814 0.30561036 0.045517337
000130 26 cc 7d bc 57 6b 4f 3e 55 ef 90 bb 2e b8 9d 3e
       -0.015490567 0.2025579 -0.004423062 0.3080458
000140 b1 09 0c 3e e7 1c 1e 3e 84 26 53 3e 2b ad de 3d
       0.13675572 0.15440713 0.20620161 0.10872873
000150 3e d2 77 bd 0f 18 75 3d 7d b7 82 3e 95 7a fa 3c
       -0.060503237 0.059837397 0.25530615 0.03057603
000160 27 10 44 3e e3 e0 2d 3e 89 fd 8f be 2d bb f6 3d
       0.19146787 0.16980319 -0.2812312 0.1204742
000170 db 83 55 be 50 08 2a 3d ba 51 bb bd b0 c4 c5 3e
       -0.2085108 0.041511834 -0.091464475 0.38626623
000180 4d 59 9d bd 20 14 a9 3d 7c f7 a7 3e 36 97 45 3c
       -0.076830484 0.08255792 0.32806003 0.012059977
000190 e1 48 d1 3e 27 90 4a be cb c6 b8 3e 25 76 85 be
       0.40875915 -0.19781552 0.36089167 -0.260667
0001a0 04 fa 94 3c f4 75 22 3a 3e f4 f2 3d 79 31 57 3e
       0.018185623 0.0006197386 0.11862992 0.21014966
0001b0 b3 3a 4b 3d d2 75 97 3d 54 30 9d 3d e0 1e be 3d
       0.049616527 0.07395519 0.076752335 0.09283233
0001c0 f1 d8 15 be 9b a5 89 3e e8 19 a5 3e 48 35 a0 bd
       -0.14633538 0.2688416 0.32246327 -0.078226626
0001d0 9e 5b dc 3e aa e6 d7 bd 04 dd 76 3e d3 e1 e8 3d
       0.43038648 -0.105420426 0.24107748 0.113711976
0001e0 c8 b5 9d 3e 54 a8 70 3e 09 18 6e be 45 9a 76 3e
       0.3080275 0.23501712 -0.23251356 0.24082287
0001f0 11 1b 23 3e f8 e3 61 bd 89 83 02 3d e9 48 af 3e
       0.15928294 -0.05514905 0.031863723 0.34235314
000200 d5 a7 2e 3e ac f2 ff 3d 92 58 d2 bc 02 ad 9f bd
       0.1705621 0.12497458 -0.025677 -0.077966705
000210 9e 11 66 3e ce c7 cc bd bf 91 78 3d 02 d3 bd 3d
       0.22467658 -0.09999047 0.06068587 0.09268762
000220 66 20 12 3e d8 67 2e 3e 2b fb a7 bd c1 76 50 3e
       0.14270172 0.17031801 -0.08202203 0.20357801
000230 d2 70 b3 3c 56 b5 0b 3e 82 27 47 3c a3 ec a9 3d
       0.021904383 0.13643393 0.0121554155 0.08297088
000240 32 9f 2e 3e 83 f5 62 3e e1 2c f2 3d 17 16 07 3e
       0.17052916 0.22163968 0.11824966 0.1319202
000250 59 a5 1f 3e 7f 68 1e 3e 3a 8a f2 3d f2 5f c1 3d
       0.15590419 0.1546955 0.11842771 0.09442128
000260 89 28 00 3f 93 66 31 bd 39 64 f7 3e da b2 c6 bd
       0.5006185 -0.043310713 0.4831865 -0.09702082
000270 18 73 56 3e 57 15 80 3d 97 6c 18 be 87 71 87 3e
       0.20942342 0.0625407 -0.14885174 0.26453802
000280 0b 23 a0 be 7f 43 91 3e b9 d7 34 3d 34 ed 6c 3e
       -0.31276736 0.28371808 0.04415104 0.23137361
000290 01 8c f1 3e 11 a3 32 be e6 16 d6 3d 1f b3 17 3e
       0.47177127 -0.17445017 0.10453586 0.14814423
0002a0 3e a0 03 3e 60 d0 d1 3e 46 9b 97 3e 92 0e 72 be
       0.12854096 0.4097929 0.29610652 -0.2363837
0002b0 b0 66 be 3e 91 70 af 3d 96 25 cb bb bb 82 e4 3d
       0.3718772 0.08566392 -0.006199549 0.11157747
0002c0 b3 69 fa 3e 19 1c 7c 3e ab 00 68 3e 6e ba f8 3c
       0.48908767 0.24620093 0.22656505 0.030362334
0002d0 38 76 9f 3e c7 55 e1 3d f4 2a b4 3e d4 2c 8e 3d
       0.3114488 0.11002689 0.3518902 0.06942144
0002e0 19 1f 64 3e 8b 57 87 3c e7 8e ea 3d e0 e5 a8 3d
       0.22277488 0.016521236 0.11453038 0.0824697
0002f0 55 bb 89 bc c5 13 d0 3e 7d e9 97 be ac 18 6f 3e
       -0.01681296 0.40640083 -0.29670325 0.23349255
000300 9f 0f 0c 3b e5 23 82 3e 8f 8d b6 3e be ab 43 be
       0.0021371616 0.2541801 0.35654876 -0.19108483
000310 b0 6e b9 3e c5 73 d1 3d 21 86 e2 3c 44 81 ab 3e
       0.3621726 0.102271594 0.027651848 0.3349706
000320 c8 5c 36 3e b8 34 af bd 68 8b 96 3e 1e 41 d5 3c
       0.1780883 -0.08554977 0.29403234 0.026032027
000330 a9 a1 78 be 3a 86 a9 3e 01 6c f0 bc c5 ba ec 3d
       -0.24280418 0.3311022 -0.029348375 0.11559061
000340 17 83 b3 bb 0e 7f b5 3c 79 32 c4 3e fc 49 06 be
       -0.0054782736 0.022155311 0.38319758 -0.1311416
000350 60 a2 0c bf a5 1a 47 3e e3 8e 04 bf e4 0f 6e bd
       -0.54935265 0.19443758 -0.5178053 -0.058120623
000360 93 41 c5 bb 37 04 7b bd 11 92 33 be 21 24 b2 bd
       -0.00601978 -0.061283316 -0.17536189 -0.08698297
000370 90 8f 41 be 2b 7d 43 3e 43 8d b6 3d a3 69 07 bc
       -0.18902421 0.19090717 0.08913662 -0.008264932
000380 57 17 84 be 6d 14 cb be 24 57 92 bd aa ab af be
       -0.25799057 -0.3966402 -0.07145527 -0.34310657
000390 e7 70 ea be 90 e0 2c 3e c5 d6 a7 be 72 79 92 be
       -0.45789263 0.16882539 -0.32781044 -0.2860828
0003a0 ee 30 15 3d af 68 bc bd 53 7a 5e bd f6 91 91 3e
       0.036423616 -0.09199654 -0.054315876 0.28431672
0003b0 37 d0 ed be ae 05 35 3b 5c 6d b3 be 56 44 2b 3e
       -0.46447918 0.0027621794 -0.35044372 0.16725287
0003c0 28 5d 64 be de 80 59 3e 2e 22 22 3e 50 c9 3e be
       -0.22301161 0.21240565 0.15833351 -0.18631482
0003d0 4c 4c a4 3e 70 37 1b 3e f7 c1 23 3e 8e 5d 89 3d
       0.3208946 0.15157866 0.1599196 0.06707297
0003e0 71 56 26 3e 8f c4 01 be e1 99 7a 3e e0 30 0b 3d
       0.16243912 -0.12672637 0.24472763 0.033982158
0003f0 24 d9 77 3e bf 50 56 be 5c 01 b2 3d 4e f1 a6 3e
       0.24203926 -0.2092924 0.086916655 0.32605976

layers.3.bias f4 [30]
000000 b3 f2 a7 3c 0c 71 0c bd ee d1 ab 3d 61 6d 8c 3d
       0.02050147 -0.034287497 0.0838965 0.068568
000010 89 c3 5a 3d 48 d7 a0 3d 60 9f 3f 3d 71 4d 55 3d
       0.053409133 0.07853562 0.04678285 0.052075807
000020 30 fc 13 3e b4 f7 32 bd cc fe f5 bc 8f 1b 87 3d
       0.1445167 -0.04369326 -0.030028723 0.06597053
000030 c1 44 0a 3d bc 26 19 3d 4c dd b2 3d 2d 31 12 3e
       0.033756975 0.037390456 0.08733615 0.14276572
000040 4b a2 0d 3d 3b fa 46 3d 4a 0e ae 3d 13 2d 17 3d
       0.034578603 0.048578482 0.08498819 0.03690822
000050 36 59 20 bc 50 2c 2a 3e bd a2 63 3e 44 82 0e 3d
       -0.009786895 0.16618466 0.22230048 0.0347922
000060 c2 64 c5 3d 71 06 fc 3d 91 8d f4 3d b2 cc 38 3d
       0.09638359 0.12305916 0.11941064 0.045117088
000070 eb 68 a7 3c 7d ee 21 3d
       0.020435771 0.03953408
