experiments/output-gat/BA_Community/max/42/model.pth (torch, 119523 bytes, 26 tensors)

layers.0.bias f4 [30]
00000000: 3403 7d3e 7070 2e3e d27a 943e a987 ad3e
00000010: d4f8 8f3e 9240 973e 671a e03d 1648 553e
00000020: fabe 7c3e a73e a93d 2786 933e 9bb9 a83e
00000030: 3932 b23e 2234 953e d29d 673e a950 613e
00000040: bb23 8c3e ec17 a23e 581f a53e 295b 953e
00000050: 16e3 a63e 587e 233e 6891 8d3e 754c 1a3e
00000060: 2511 1a3e 6049 923e 3166 943e ef22 ab3e
00000070: 7137 a73e 6371 2d3e
0.24708253 0.17035079 0.28999954 0.33892563 0.28119528 0.2954145 0.10942536 0.2082828
0.24682227 0.08263903 0.28813288 0.32954106 0.34803942 0.29141337 0.22618797 0.22003426
0.2737101 0.31658876 0.32250476 0.29171112 0.32595128 0.15966165 0.2765 0.15068229
0.15045603 0.28571606 0.28984216 0.3342509 0.32659486 0.16937785

layers.0.combine_aggr.weight f4 [30, 120]
00000000: 5eef 8e3d c82c 9b3d cc31 afbc 68bd ab3d
00000010: d4d9 a3bc 64e7 963c 790a 36bd 8c97 5b3d
00000020: 48cf a43d fa27 89bd 5c80 a23d 50f6 8b3c
00000030: ee1f 8a3d 708e 4a3c c04b 343d 082c 53bc
00000040: 281f 903d f011 5d3c 988e 2ebd 789e be3c
00000050: 6146 2cbd 2066 2fbc 11de 17bd d40a 783d
00000060: d493 93bd 9460 2cbd a42a d3bc add2 60bd
00000070: f829 0d3c 0aa7 b8bd 74d7 a83d 2bd0 9ebd
00000080: ca55 903d 88e7 783c 60d2 f2bc 100f 673d
00000090: 1019 693c b60d 973d f880 233c f6d7 ebbc
000000a0: 94ed c83c 60cb cabc 185d 1d3d 1eeb a63d
000000b0: b424 583d ca76 23bd 9cd8 573d 28ce 853c
000000c0: b4e2 3d3d b6e6 63bd bd11 b9bd fe76 10bd
000000d0: 4566 8fbd 9667 993d 9065 d73c 20e1 1a3d
000000e0: f481 ec3c 4025 d0ba 3450 923d b2d5 84bd
000000f0: d057 bc3b bd35 7fbd cc97 e63c c6c4 00bd
00000100: 3825 e53c 80cd 9bbc 4c0f 9b3d 4a9e 5dbd
00000110: 1500 5fbd 8703 5fbd fc27 a83d 9036 f93c
00000120: 04e6 b33d 524a 9abd e96f b9bd 8044 92bd
00000130: c686 7bbd 0873 173d 8ae3 053d a658 9b3d
00000140: fd18 41bd 72e6 7ebd b463 463d 0a23 17bd
00000150: a0ef 623d 8475 b1bc 10e5 553d 4142 91bd
00000160: cfb1 3cbd 70fe e33c 7818 9e3c 0caa bebc
00000170: a4e0 5e3d 5430 7e3d 5393 87bd a49e 47bd
00000180: 3e30 ab3d 1057 fcbc d38e 04bd c8e5 b4bd
00000190: d320 56bd 24cf ba3c 506a 45bc 6eb5 87bd
000001a0: 0055 0c3b 8e69 7fbd e19c 9ebd 3ae6 4dbd
000001b0: 49a0 a3bd 7e15 6ebd 02e2 ba3d c43e 8d3c
000001c0: fc72 e63c f35e aebd 5893 75bd e2ea f8bc
000001d0: 48e0 693c ac81 a4bd cb1b 21bd 6dd9 5fbd
000001e0: 00a2 8439 4322 0bbd c048 cfbb b45f 7dbd
000001f0: 5f53 80bd 1124 5abd 6afa ffbc 8e8f 93bd
00000200: c6c1 9c3d 886a 94bc 36db a03d 3002 e93c
00000210: 5250 9ebd 4e61 813d 84c2 cdbc 8754 0fbd
00000220: c72f 9bbd 40dd b9bd dcf5 d53c 885b a3bc
00000230: 9492 113d 8c6d 99bd 32cd 8a3d 583c 89bd
00000240: 1821 81bc a032 9c3c 6008 413d 76ee 963d
00000250: 2c4f aa3d d43d 94bd e833 bc3c 48d4 20bd
00000260: 78e6 23bc 48ef 8bbd 5c4a aa3d 6837 89bd
00000270: 74d6 473d 5068 033d 8402 f33c 7027 4abd
00000280: 14ef a93d a855 a43c 7066 403c 7fc1 a4bd
00000290: c4f6 1c3d c060 60bc 524c 2bbd ce95 a03d
000002a0: f8b9 a63c 6ce0 4ebd 5a40 3dbd 00da 8ebb
000002b0: 28c7 503d 2418 bfbc 4258 55bd 210b 00bd
000002c0: 8cab 8bbd 6059 053d 20b6 903d 0502 b0bd
000002d0: c0ae ad3c ec28 413d 389a 873c c528 05bd
000002e0: 1029 433d e47e 443d dcd0 0b3d 9c68 83bc
000002f0: 5406 c6bc 7801 203c 2c1b 84bc 30da debc
00000300: d001 6f3d 7cab a03d b010 14bc 786f a7bc
00000310: 8099 ae3a e09a b2bb 08c9 b33c bc90 d13c
00000320: d4cd a9bd d4fc 09bd ee70 9d3d c4a8 113d
00000330: a0c7 94bb 046f 61bd dfc2 64bd 0d78 a7bd
00000340: 32c3 f3bc 108b fc3c 106a 6e3d 58a2 2c3d
00000350: 3442 a5bd 4adb 60bd c009 6cbc 0eda b43d
00000360: 505b 583c 1caa c1bc 6cb1 1a3d 896a 0ebd
00000370: 4104 72bd f074 883d b704 2abd f0e9 95bc
00000380: 0efc b9bd 903f 7a3d f2a4 8d3d 8245 083d
00000390: 0d5c 82bd a983 b8bd 7ad7 97bd c269 8b3d
000003a0: 6c84 333d 0453 9d3d 94e1 433d b444 bd3c
000003b0: 8057 6aba 5f2e 8ebd bd2d a0bd 77de aebd
000003c0: b810 193d 2b94 37bd 6080 96bc 3330 57bd
000003d0: 6845 88bc 0c96 83bd e651 74bd b00f f83c
000003e0: 2440 debc fcd4 663d 90e8 efbc 1025 89bd
000003f0: fcf1 83bc ba40 35bd 58ca e4bc 34fb b1bd
0.069792494 0.07576901 -0.02138605 0.08385736 -0.02000133 0.018420883 -0.04444358 0.053611323
0.08047348 -0.06697078 0.07934639 0.017085224 0.06744371 0.012363061 0.044017553 -0.012888916
0.070371926 0.013493046 -0.042616457 0.023268923 -0.042059306 -0.010705501 -0.037077013 0.0605572
-0.0720593 -0.04208429 -0.025777169 -0.054888416 0.008615963 -0.09016235 0.082442194 -0.07754549
0.07047613 0.01519192 -0.02964133 0.05641085 0.014227167 0.07375662 0.009979479 -0.028789502
0.024527349 -0.02475518 0.03841886 0.08150314 0.052769378 -0.039908208 0.05269681 0.016333655
0.04635878 -0.055639945 -0.090365864 -0.03526973 -0.07001928 0.074904606 0.026293546 0.037812352
0.02887056 -0.0015880242 0.07144204 -0.06486072 0.0057477728 -0.06230711 0.028148554 -0.031437658
0.027971849 -0.019018888 0.07571277 -0.054106034 -0.054443438 -0.054446723 0.082107514 0.030421525
0.087841064 -0.07533707 -0.09054548 -0.071419716 -0.061407827 0.036974937 0.0326877 0.07585268
-0.04714297 -0.06223149 0.048434928 -0.03689865 0.055404305 -0.021662481 0.052220404 -0.07092715
-0.04606801 0.027831286 0.019298777 -0.023274444 0.054413453 0.062057808 -0.06619897 -0.048735276
0.08358811 -0.030803233 -0.03236277 -0.0883289 -0.052277397 0.02280385 -0.012049273 -0.06626402
0.0021412969 -0.062356524 -0.07744766 -0.05026839 -0.07989556 -0.058125965 0.09125139 0.017241843
0.028131 -0.08514204 -0.05995497 -0.030385438 0.014274664 -0.080325454 -0.039333146 -0.054650713
0.000252977 -0.03396822 -0.006325811 -0.061858848 -0.06265902 -0.05325705 -0.031247336 -0.07205115
0.07654147 -0.018117204 0.07854311 0.028443426 -0.07730164 0.063173875 -0.025117166 -0.03499272
-0.07577472 -0.09075403 0.026118211 -0.019941106 0.03554018 -0.074915975 0.06777419 -0.06700963
-0.01576285 0.019067109 0.047127128 0.073697016 0.08315882 -0.07238355 0.02297397 -0.039264947
-0.0100036785 -0.06832749 0.08314964 -0.06700021 0.048788503 0.032081902 0.029664285 -0.049354017
0.08297554 0.020060375 0.011743173 -0.08044719 0.03832127 -0.013694942 -0.04182083 0.07841073
0.020352349 -0.050506994 -0.04620395 -0.0043594837 0.05097118 -0.02332694 -0.052086122 -0.031260613
-0.06819829 0.032555938 0.070659876 -0.08594135 0.021201491 0.047158167 0.01655303 -0.032509584
0.047646582 0.047972575 0.03413473 -0.016041093 -0.02417294 0.009765975 -0.016126238 -0.02720365
0.058351338 0.07845208 -0.009037182 -0.020438895 0.0013320893 -0.0054505914 0.021946445 0.02558171
-0.08291212 -0.03368838 0.07687555 0.035561338 -0.0045403987 -0.055037513 -0.055849906 -0.08177195
-0.029756162 0.030828029 0.058206618 0.04214701 -0.08069268 -0.05489663 -0.014406621 0.08830653
0.013205364 -0.023640685 0.03776686 -0.03476957 -0.059086088 0.06662929 -0.041508403 -0.018300027
-0.09081279 0.061095774 0.069162264 0.033269413 -0.063652135 -0.09009487 -0.07414146 0.06807281
0.04382746 0.076818496 0.04782255 0.02310405 -0.000893943 -0.06942438 -0.07821224 -0.085385256
0.03736946 -0.04481904 -0.01837176 -0.0525362 -0.016634658 -0.064251035 -0.059648417 0.030280918
-0.027130194 0.05635546 -0.0292857 -0.06696522 -0.016106598 -0.04425118 -0.027928516 -0.08690491

layers.0.lin_a.weight f4 [1, 60]
00000000: 4808 813e 4403 6e3d 95b4 563e 60f3 4abe
00000010: 0e7a 013e e144 35be 4205 863e 4a1a 973c
00000020: 802e da3d 0f07 123e 1277 44be 10b0 09be
00000030: bda7 2fbe f196 213e ee77 733d 0f7f 573e
00000040: 989c 393d e8fb 223d cd22 36be bf76 2bbd
00000050: 8ce0 80be 11d8 363e b7da 72bb 1fe1 013e
00000060: 55d6 553e 2a62 6a3c 22f7 09be 1a4e 6bbe
00000070: db25 67be d5d4 483e 2d4f c43d f86f 46be
00000080: 4403 393d da12 673e 519b 233d 51c6 9cbc
00000090: e1b6 56bb 899d 033e 45f6 d23d c161 bbbb
000000a0: 7a43 543d 0b4a 133e 8f4f 87bd 4af6 52be
000000b0: 3a49 0dbe 7ff5 c83d 5f36 54bd 8268 a4bb
000000c0: 06bb 473e 0f70 b4bd 217b e03d 400f b9bd
000000d0: 6caf 233e cbda dfbc 66e4 f73d 6f1a 37be
000000e0: bb85 ec3c 7af5 1fbe b9f2 1d3e 5d86 9bbd
0.2520163 0.058108583 0.20967324 -0.19819403 0.12644216 -0.17702056 0.26175886 0.018445153
0.106534004 0.14260505 -0.19186047 -0.13446069 -0.17153831 0.15780236 0.059440546 0.21044563
0.045315355 0.039791018 -0.17786713 -0.041861292 -0.25171316 0.1785586 -0.0037056634 0.12683533
0.20882542 0.014305631 -0.1347318 -0.22979012 -0.22573034 0.19612439 0.09585414 -0.1937865
0.04516913 0.22565785 0.039943043 -0.019137533 -0.0032762813 0.12853064 0.103008784 -0.0057184403
0.051822163 0.14383714 -0.066069715 -0.20601764 -0.13797465 0.0981245 -0.051809665 -0.005017341
0.19504938 -0.08810436 0.10960985 -0.09036112 0.15984887 -0.027326008 0.121041104 -0.17881177
0.028872361 -0.15620986 0.15424623 -0.07593987

layers.0.lin.weight f4 [30, 10]
00000000: 1b73 94be 18c9 98bd ae96 633c a738 69be
00000010: 2f74 d13e bd7c 073e 4602 593e 993b cfbe
00000020: f2fb d23d 7c91 21bd e99b 903e da1d 2bbe
00000030: 878e c73d a42d e4be 9943 c33e f63d d53d
00000040: 2c85 733e e093 1f3e 5046 ac3e 005e 813e
00000050: 2c40 5d3e 8483 b13d 8df9 093e 557b a3be
00000060: aa35 773e 766b 37bd 7700 48be 7607 1cbe
00000070: 96c9 e8bd c84d bfbe f711 7e3e ae05 593e
00000080: 9f70 09be 4eda b03e 60c7 3fbe 2397 303e
00000090: c66b 2cbe aa50 a3be fb28 82be cd1f f03e
000000a0: 21d9 743e 08f8 09be 06de cd3b 0775 f5be
000000b0: ee19 ce3d db23 6c3e 0fb2 a83d f488 02bb
000000c0: 65d9 63be bd5f 3bbe 9e31 e43d 66f1 97be
000000d0: eb1c 65be 1569 b43e 20b2 2f3d df20 953e
000000e0: 6d6f c8be 79db b83e ff18 05be b5a8 363d
000000f0: 588b d13e c784 bebe 9801 6a3e 91e5 c6be
00000100: 7617 d13e ecee 8a3c b553 003e 29b6 79be
00000110: 769a 5e3e 860c 9fbe 59ba b63e a8ba c03e
00000120: 4ba5 1abe b7f7 13be 9c15 343e 2c44 293d
00000130: 4af9 d63d 59a7 5d3d be1c 9bbd ad18 f4bd
00000140: 241b cd3e c8b6 d23c 83d1 eb3e b667 343e
00000150: c0fd 763e 4e1b c4bd 2424 c53e 6238 9cbe
00000160: e2ee 423e dbd2 86bd 396e 923e 7ff6 a1be
00000170: d706 aa3d 5886 96be 5784 8d3e e703 5f3d
00000180: 95ae 0dbe c5a4 80bd ed89 003e 05e0 343d
00000190: c50e 073f f181 b33e 92e3 323d 207f 983e
000001a0: 7125 febe 9171 0d3e 3f84 9abd 6882 7e3e
000001b0: e10d 913d 7006 80bd 2439 ca3e acf6 113d
000001c0: 0b00 693e 00ef 853e 1a7c 3abe cd42 e03d
000001d0: 7faa fabe 7e0e 55be dec1 7e3e 4023 2d3e
000001e0: 2a50 ecbe fb3c ac3d 9a6e b2bd d5c2 ea3e
000001f0: 9b12 d6be a8f5 4fbd e4eb 74be 37ce 00be
00000200: 7942 09be 158a d4be 0d32 d33e a197 f1bd
00000210: d093 373e b29d b5be 3952 9f3d 77c3 bbbe
00000220: 5852 b93e 480c 5e3e cb54 c03e a92f 7bbe
00000230: 7aee ed3e 817a a3be 4606 763e 4cb1 0bbe
00000240: 00a2 01be 2b9f dbbe ace0 87be 595c b43c
00000250: 5f4b eebd 1c48 88be 7d50 053f 15b2 9fbc
00000260: ece8 8c3e f008 53be de31 9d3e 2e69 a23d
00000270: fd81 903e b04e cfbb ae06 2f3c 36fd 483e
00000280: 3963 35bd 2512 68be ceb9 62bd e9c2 15be
00000290: 19b7 1fbe bd7c 24bd 75b3 44be eacd 12be
000002a0: b1ca 00be aa8c 8bbe 68e7 2d3d 49e6 aa3d
000002b0: 0de4 dd3e 422c 3bbe 9cd6 95bd 18b4 ddbe
000002c0: 29ef 253d cb7e 84bc c07a 43be b304 5d3c
000002d0: afba 98be ef0f ed3e e982 da3c 00a9 d63d
000002e0: ca4a 23be dd86 343e 5eba 963e d6d6 2abe
000002f0: a898 1fbe b2a9 ca3e b921 23be fed5 a0be
00000300: b9bf 25be 1bd2 42be cec3 d63d c7d7 d4be
00000310: 0d49 aabd e47e d43e 37ac de3e c10f 923e
00000320: 5256 60bd 4167 323e c2b6 d6be 9c9b dd3e
00000330: a477 913e 43f5 243e 6cb8 9fbe e34b a23e
00000340: a8e1 c5be 4295 b8bd 8863 813d 9d49 c5be
00000350: c7fb 04be d888 d2be 2dbd 433e bd69 20be
00000360: a602 6f3e c8c9 63be f039 bd3e dfbd b1bd
00000370: 0517 f33e 10ea a53e f4cb 91be e747 88be
00000380: 9721 b43e a84b e33e a0ac a8be 05a2 cdbd
00000390: 7314 c1bd 3f03 cb3d 3849 0f3f 67d0 a63e
000003a0: c63d 9d3e 31ac a8bd 7867 cf3e 3fd0 81be
000003b0: 7545 c13d d6b4 fdbd c7da 53be 9a6c 95be
000003c0: dce5 593e 584a 4cbd fc60 38be 1293 2abe
000003d0: 2003 7a3e b9c9 96be 15fa 833e 0438 d8be
000003e0: ee91 0c3e 572c debe 6cf5 ffbb 8858 313e
000003f0: 2b73 c23e 756a 593e d0e4 8c3e b603 923e
-0.28994069 -0.074602306 0.013890905 -0.22775517 0.40908954 0.13231178 0.21192273 -0.40475157
0.10301961 -0.039445385 0.2824395 -0.16710606 0.09743982 -0.4456607 0.3813751 0.10412209
0.2378127 0.15583754 0.33647394 0.2526703 0.21606511 0.08667663 0.13474102 -0.31930032
0.24141565 -0.044780217 -0.19531427 -0.15237221 -0.113665745 -0.3736403 0.2481154 0.21193573
-0.13421868 0.34541553 -0.187284 0.17245154 -0.16837987 -0.3189748 -0.2542189 0.46899262
0.23910953 -0.13473523 0.006282571 -0.47940847 0.100635394 0.23060553 0.08237087 -0.0019918056
-0.22250898 -0.1829824 0.11142276 -0.2967636 -0.22374313 0.3523642 0.042894483 0.2912664
-0.3914751 0.36104944 -0.12997817 0.044594485 0.40926623 -0.37210676 0.2285217 -0.3884702
0.40838212 0.01695963 0.12531932 -0.24385895 0.2173861 -0.31064242 0.35689047 0.37642407
-0.15102117 -0.14449964 0.17586368 0.04132478 0.10496767 0.054114673 -0.075738415 -0.11918769
0.4005977 0.025721923 0.46058282 0.17617688 0.24120235 -0.095755205 0.38504136 -0.30511767
0.19036439 -0.06583186 0.28599718 -0.31633374 0.08302086 -0.2939937 0.2764003 0.05444708
-0.13836129 -0.06281427 0.12552615 0.044158954 0.5275691 0.35060075 0.04367406 0.2978449
-0.4963794 0.13812853 -0.07544755 0.24854434 0.07082725 -0.06251228 0.3949672 0.035635635
0.22753923 0.26158905 -0.18211403 0.10950241 -0.48958203 -0.2080631 0.24878642 0.16907978
-0.4615491 0.084100686 -0.08712502 0.4585177 -0.4181107 -0.050771385 -0.2391811 -0.12578665
-0.13404264 -0.41511598 0.41249123 -0.11796499 0.1792748 -0.35471874 0.077793546 -0.36672565
0.36195636 0.21684372 0.37564692 -0.245299 0.46471006 -0.319294 0.2402583 -0.13641852
-0.12659454 -0.42894873 -0.265386 0.022016691 -0.1163547 -0.26617515 0.5207594 -0.019494096
0.27521455 -0.20608878 0.30702108 0.07930218 0.28224173 -0.006326519 0.010682745 0.19627842
-0.04428408 -0.22663172 -0.05535298 -0.14625134 -0.1559719 -0.040158022 -0.19209082 -0.14336362
-0.1257732 -0.27255756 0.042457014 0.08344705 0.4333805 -0.18278602 -0.07316324 -0.43301463
0.040511284 -0.01617374 -0.19089794 0.01348989 -0.29829928 0.4630122 0.026673751 0.10481453
-0.15946499 0.17629571 0.29439062 -0.16683516 -0.15585577 0.39582592 -0.15930833 -0.31413263
-0.16186418 -0.19025461 0.104865655 -0.41570875 -0.083147146 0.4150306 0.43490764 0.28527644
-0.05476982 0.174222 -0.41936308 0.43282783 0.2841159 0.16109185 -0.3119539 0.31698522
-0.38648725 -0.09012844 0.06317812 -0.38532725 -0.1298667 -0.41120028 0.19115134 -0.15665336
0.23340854 -0.22244942 0.36958265 -0.08678793 0.474785 0.32405138 -0.28475916 -0.26617357
0.35181877 0.4439366 -0.32944202 -0.100406684 -0.094277285 0.099127285 0.559711 0.32580873
0.30711192 -0.08235968 0.40508628 -0.25354192 0.09437076 -0.12388007 -0.20688926 -0.2918442
0.2127909 -0.049875587 -0.18005747 -0.16657665 0.24415255 -0.29450777 0.25776735 -0.42230237
0.13727543 -0.43393204 -0.007811239 0.17318928 0.3797849 0.21232016 0.2751832 0.28518456

layers.1.bias f4 [30]
00000000: c1de a93e 100e cc3e f935 a2bc cff3 bf3e
00000010: cccf 4f3e 5ce5 84bb efce c3bc 5e0e ab3e
00000020: 5faf c63e 0d5a 863e b004 dcbc 2950 ed3d
00000030: a254 aa3e c1ff e3bc 4594 9c3e ea0b 3b3e
00000040: b9ef ab3e 00a5 a73e 7abd d83e f9f0 a23e
00000050: 657a 48bc e5a2 afbe 6291 6c3e 21a9 b73e
00000060: a558 b63e b4da cf3e 8bf8 bebc a1de a83e
00000070: 3afb db3e 11f7 a73e
0.3317776 0.3985448 -0.019801127 0.374907 0.20294112 -0.004055662 -0.023902385 0.334094
0.38805673 0.26240578 -0.026857704 0.11587555 0.33267695 -0.027831914 0.3058187 0.18266264
0.3358133 0.32743073 0.4233206 0.31824473 -0.012236212 -0.34303966 0.23102334 0.35871223
0.35614505 0.40596545 -0.023311874 0.32982352 0.42965108 0.32805684

layers.1.combine_aggr.weight f4 [30, 120]
00000000: b8be 45bd 57c3 4bbd 3094 7b3d 9077 17bd
00000010: 602a 6c3d 9a9b b5bd 2015 4e3b 292d 81bd
00000020: a2a2 043d c6d4 973d 8823 133d 968f 00bd
00000030: a962 afbd d828 31bd 1f8a 5cbd 0a87 b23d
00000040: e509 49bd 0893 103d f414 963d 4ccd 063d
00000050: 0f0e a4bd 40e6 29bc e4f3 ddbc 80ea 703d
00000060: 384c 0cbc 40c6 9dbb 864f a63d 24f4 b13c
00000070: 1c54 2d3d 3cbb f0bc 5487 743d b80b 573c
00000080: c837 96bc 981d 903c 5229 93bd e0fa 5b3b
00000090: 1c7b 2b3d 1c10 afbd 539d 46bd 8c43 6a3d
000000a0: 60ac 073b e0c7 4bbb 08a1 183c abd1 27bd
000000b0: 2099 9a3d 284c 14bc 2025 08bd c8d2 443d
000000c0: c69c 9bbd 50f0 89bc 70be 163c dc14 e8bc
000000d0: d480 4b3d 05a9 9fbd c497 d7bc 8627 1dbd
000000e0: 1eff ac3d 0439 153d 5376 8bbd 40ea 103d
000000f0: 40bf fdba f624 ab3d 4459 4e3d fa5f 5abd
00000100: 90a6 a63d 98c0 85bc 5c49 aabc bc9e df3c
00000110: 26be b93d e0a3 e13c 1263 b4bd 60b9 eebc
00000120: 4617 ae3d 4dc9 03bd 19e3 33bd 2805 95bd
00000130: 8367 4ebd 3e6f 4cbd bc99 b23c 2863 153d
00000140: 166d b23d f862 753d 40cc b03a 30a6 493d
00000150: 28b9 553d 1341 a1bd 94ac 3c3d ecc7 7fbd
00000160: dc5e 903d 68a1 22bd 142a 9b3c 00a1 7eba
00000170: 5479 2d3d 28a2 683c ee9d 87bd e077 173d
00000180: bc91 5c3d 52b8 42bd 258f 72bd 069c 7ebd
00000190: c9ed 35bd b890 3cbc 10a9 df3b 80c8 28ba
000001a0: 94ca c5bc bc08 683d 0015 9e3b e91c 59bd
000001b0: 5ce9 c5bc fad5 5bbd 40e9 03bd 3f5b b0bd
000001c0: e0aa 823c 40dc 90bd c09d 103d 8012 803d
000001d0: ea14 8bbd 3853 45bd 83b8 93bd 7c92 c73c
000001e0: 40b3 903c 66fe 40bd 7cdf 613d 5027 1b3d
000001f0: 02ec a8bd 20b6 a2bb 10f7 20bd 50aa 81bc
00000200: 2832 503d 50df 20bc eed7 81bd e482 833d
00000210: e4e2 aabd e869 00bd c412 103d 923f a53d
00000220: e072 b53d d0ad afbc d88b f93c cb30 a4bd
00000230: 0483 91bc 909d e8bc a049 d43c f0fc 74bd
00000240: b890 a13c 0c2d 413d 20b4 913d 38e5 7cbc
00000250: dccd aa3d 1aa3 b0bd fce9 d3bc 6cc1 0d3d
00000260: 08c3 bf3c d416 303d 611e 78bd cc3a 663d
00000270: 7876 afbd 0f31 80bd c06e cbbb 07a1 b5bd
00000280: 00b5 b1bd 86f7 a5bd 7e4f 963d f409 a43c
00000290: f09b eebc a0e0 75bb 4df4 a2bd 1892 b0bd
000002a0: 1261 82bd 4fde b4bd 5800 763d e7d7 02bd
000002b0: e8de c9bc 0eff a0bd f0b5 773c f865 60bc
000002c0: fc8d 7ebd d4bc 6f3d 4696 9d3d 2442 85bd
000002d0: e4d9 533d d0db 72bc 80ed 61ba b427 1f3d
000002e0: 7057 88bc 8cd8 9e3d 240e 663d d9b7 72bd
000002f0: 7c8c 63bd 693c b9bd 846d ef3c 35a0 8cbd
00000300: dbb3 9cbd 4eaa 6fbd 8dd6 b8bd 443a 98bd
00000310: 16c2 a63d 9cdc 503d daa5 a53d aa60 35bd
00000320: 4c5c 19bd 9531 03bd c0af e93a c730 86bd
00000330: d843 5b3c c4a3 6fbd a857 6c3c 4e40 ab3d
00000340: 109d 7c3c ba5f 883d d826 85bd 4812 53bc
00000350: f0e1 66bd 00f0 25bc b2bd 14bd 874d 54bd
00000360: 9e96 b4bd d5a4 0abd 784b 483c bc8e 83bc
00000370: da1e aebd f26f 8c3d 1aa0 8a3d 956e 61bd
00000380: 580a 183c e847 783d db8a b1bd be31 a5bd
00000390: 8478 4f3d 00fc ecba b422 ee3c 3d7e 1bbd
000003a0: 9c96 873c 60fe 773d 08f4 b6bc 1a8d f1bc
000003b0: 7604 b2bd 78ca 66bc 64ef 6c3d aeaf b0bd
000003c0: 5011 e7bb 5847 883d a070 d5bc 0c26 0abd
000003d0: 4091 e1bc 3a7e 17bd 2802 333c 7f00 b4bd
000003e0: b8e2 0e3d 08de bcbc 706c 3ebc f0d1 c9bb
000003f0: 50e1 503d c642 68bd 7c20 aabd 053c 87bd
-0.048277587 -0.049746837 0.06142062 -0.036979258 0.0576576 -0.08867569 0.0031445697 -0.06307442
0.03238166 0.0741363 0.035922557 -0.031386934 -0.0856374 -0.043251842 -0.05384266 0.08717163
-0.0490817 0.03529647 0.07328215 0.03291063 -0.08010494 -0.010369837 -0.027093835 0.058817387
-0.008563094 -0.004814893 0.08120637 0.02172286 0.04231654 -0.029386155 0.05969937 0.013125353
-0.018337145 0.017592236 -0.071856156 0.0033566281 0.041865453 -0.085479945 -0.04848988 0.057193324
0.0020702109 -0.0031094477 0.009315737 -0.04097144 0.075487375 -0.00905136 -0.03323853 0.04805258
-0.075982615 -0.016838223 0.009200677 -0.028330259 0.049683407 -0.0779591 -0.026317485 -0.03836777
0.08447097 0.036431327 -0.06809678 0.03537965 -0.0019359365 0.08356659 0.0503781 -0.053314187
0.08137238 -0.016327187 -0.020786934 0.02729737 0.09069471 0.027543962 -0.08807959 -0.029141128
0.08500533 -0.032174397 -0.04391775 -0.07276374 -0.050391685 -0.049910776 0.021801822 0.036471516
0.08712213 0.059908837 0.0013488606 0.049230754 0.052178532 -0.0787374 0.04606302 -0.06244652
0.07049343 -0.03970471 0.018940963 -0.0009713322 0.042352036 0.014198817 -0.066219196 0.036979556
0.05384992 -0.047539063 -0.059218545 -0.062160514 -0.044416223 -0.011509113 0.0068255737 -0.0006438568
-0.024144448 0.056648955 0.0048242807 -0.053006086 -0.024159126 -0.05367086 -0.032204866 -0.08611154
0.01595062 -0.07073259 0.035306692 0.062535286 -0.067910984 -0.048175067 -0.07212927 0.024361841
0.017663598 -0.047117613 0.055144772 0.03787929 -0.0824814 -0.0049655586 -0.039298117 -0.015828282
0.050829083 -0.009818867 -0.063400134 0.0642145 -0.08344057 -0.031351 0.035174146 0.08068766
0.08859801 -0.021445185 0.03046219 -0.08017119 -0.017762668 -0.028395444 0.025914013 -0.059811532
0.019722328 0.0471621 0.07114434 -0.015435509 0.08340046 -0.08624859 -0.025868408 0.03460829
0.023408428 0.04299052 -0.060575847 0.056208417 -0.08567518 -0.06259357 -0.006208271 -0.08868604
-0.08677101 -0.08103852 0.07339381 0.020024277 -0.029127091 -0.003751792 -0.07956753 -0.08621615
-0.06366171 -0.088314645 0.06005892 -0.03194418 -0.024642423 -0.07861148 0.015119061 -0.013696186
-0.062147126 0.05852969 0.07694678 -0.06506756 0.05172147 -0.014822915 -0.0008618459 0.038856223
-0.016643256 0.07756147 0.05616583 -0.059257362 -0.0555539 -0.090447254 0.029227026 -0.068664946
-0.07651492 -0.058512025 -0.09025297 -0.07432988 0.08142488 0.05099164 0.08088274 -0.04428164
-0.037441537 -0.032029707 0.0017828867 -0.06552272 0.013382874 -0.05850579 0.014425196 0.083618745
0.015418306 0.066588834 -0.065015495 -0.012882777 -0.056367815 -0.010128021 -0.03631372 -0.05183175
-0.088177904 -0.033848602 0.012225024 -0.016059272 -0.08501978 0.068572894 0.06768818 -0.0550371
0.00927981 0.06061545 -0.08669063 -0.08066128 0.050652042 -0.0018080473 0.029069282 -0.037962187
0.016551308 0.060545325 -0.02233316 -0.029486228 -0.08692257 -0.014086358 0.05784549 -0.08627258
-0.0070516244 0.06654233 -0.02605468 -0.03372769 -0.02753508 -0.036985613 0.010925807 -0.08789157
0.034884185 -0.023055092 -0.011622533 -0.0061590597 0.050996125 -0.056704305 -0.08306977 -0.06603245

layers.1.lin_a.weight f4 [1, 60]
00000000: 0764 563e 4c8c 8abe 8ba7 783e 5f94 ae3d
00000010: fb8e 493c 20d4 8dbe fcdf 7bbe 39cd 2c3e
00000020: 265d 92be 2c50 873e 5543 10be 1ec6 643e
00000030: 4002 383e 4507 a1be 5c97 593e 17f2 573e
00000040: f6a2 423c acdb 8dbc c94c 6abe 0080 9b3e
00000050: 6a2f c8be 8731 953e 6de4 dc3d 242b 5b3e
00000060: de49 9d3e 2523 40bd 1ea4 b7be ecc2 313e
00000070: 8f1a c1be b010 883d a40c 193d 2331 f13d
00000080: 872d b53d 304e 853c b8bd 2a3e f4c6 bd3d
00000090: 7f45 bebd dc93 173e 1a48 87be 7183 7dbd
000000a0: e721 4fbd d9fa ba3d c973 023e 2e16 afbb
000000b0: d078 273e 6094 dfba e8bb 5e3e edc7 91bd
000000c0: dbb3 19bd 3798 06bd 56f2 48be eec1 09be
000000d0: ea83 cbbd 646d 313b fa5f 0e3d 1e5b 743e
000000e0: 56e2 f6b9 cdb0 92bc 70b1 a0bc 9e72 e03d
0.20936595 -0.27060163 0.24282663 0.08524393 0.012302156 -0.277009 -0.24597162 0.16875161
-0.28586692 0.26428354 -0.14088185 0.223412 0.17969608 -0.3145086 0.21249145 0.21088444
0.011879673 -0.017316662 -0.22880854 0.30371094 -0.39098674 0.2913935 0.10785756 0.21403176
0.3072042 -0.046908516 -0.358674 0.17359513 -0.37715575 0.06643808 0.03736557 0.1177695
0.08846574 0.016272634 0.16673934 0.09266463 -0.09290599 0.14802498 -0.26422197 -0.06189293
-0.05056944 0.09129877 0.12739481 -0.00534322 0.1635468 -0.0017057769 0.21751368 -0.07118211
-0.03752504 -0.032860007 -0.19623694 -0.13452885 -0.0993727 0.0027073259 0.0347595 0.23862883
-0.0004708941 -0.01790657 -0.019615859 0.109593615

layers.1.lin.weight f4 [30, 30]
00000000: 1c1f 46bc 63d0 833e c836 033e 7f2c 6abe
00000010: 85cf 263d bb31 193f 5d1e 81bc ae3a ed3b
00000020: 0443 553c d399 b03e 45c0 373e fa57 813d
00000030: e8fa 8e3d c032 053e dd45 6e3e 737a 8c3e
00000040: 7f8f 18bd 6b72 4a3d 09e5 62bd 0c34 c83e
00000050: 4092 f53e 3cd4 8c3e 9e7a ca3d 8429 783e
00000060: 29c1 b83d 142a b03d ef42 893e 1293 963e
00000070: c3a7 173f 843a 103e 917a 813e 2d04 d2bb
00000080: ace8 ac3c 80f1 753e 001e 4a3e 6a1d 053e
00000090: 4632 16be 9cd8 95bd c92e 01be 1181 eebd
000000a0: 4f39 e33d 8abd 853e d863 043f 1866 333e
000000b0: 0ba8 b0be 8371 5dbe 6610 343d c751 203e
000000c0: 4151 203f bc0d cb3e a994 483e f3d3 333e
000000d0: de52 47be f659 c4be ec4c 58be dc21 713c
000000e0: e527 ef3e 376e 5c3e 3110 933e e117 f8bd
000000f0: e570 133e b40a 873e c937 133e fbe1 6abe
00000100: ae83 abbd e22c 18be de52 9e3e 0ddf 8a3c
00000110: 6caa 6b3e 71a5 833e 90c5 62be ca28 95be
00000120: cf1f 62be d1ca 7f3e 7245 643e 512a f83d
00000130: b211 f6bd ad0c 723e 3f62 05be 459a 8fbe
00000140: 7ffd 0bbd 99c3 393c 8a65 34bd 442b 543e
00000150: e0a9 893e faeb 3b3c 2558 e0bc ec3d 113d
00000160: 3cb5 15bd 41c9 d63c 5368 cf3b 03ed 963e
00000170: 4cd2 743e dd3e 443e 386f de3d 9850 033f
00000180: 3846 1e3d 5199 cb3e 75fd e8bd dc0f 113d
00000190: 8ca3 303e c7bc 903e 1443 413e 0f9a f1bc
000001a0: 8597 9b3c 8509 a43e 633e 4c3e eacc 523e
000001b0: 7808 533e 4a8b b23e 0a5c da3d 63f6 623e
000001c0: 3be5 803e ae4e 9b3e af54 90bd e0ad 3e3d
000001d0: 568f 173e 300c 183e 4aec a93e 8113 0f3e
000001e0: e770 9d3e 65cd 983e 864b 523e 5fef 5e3e
000001f0: 78ee 833e f21a 143e f6b4 063e 5db5 bc3d
00000200: 44c1 a13e 8b7b 583e d8f9 693e 0d24 b43e
00000210: 885e 453e 87a0 f13d a474 f5bd 135a 3e3e
00000220: 675a 3ebd f4ff 843d 3d11 463d 6ab5 983e
00000230: 82a2 103e a71b 883e 3054 a03e edf9 903e
00000240: 3ca6 a13e b0fc 383e 6a8b 373e dbe8 5f3e
00000250: 443d cc3d 6e67 d93e a13d 65be 9ab2 50be
00000260: e7aa 22bc c7d2 3c3e c8f6 27bd 9c9e cabe
00000270: ef86 29be 7830 93be 18af 9fbd 767a b7bc
00000280: 888a 413e 5554 8b3e e005 89bc aa9c 98bb
00000290: 8976 8abd 4ecb 84be 21f7 83be 5ffd 21be
000002a0: 9dbd 9cbd 89ef 6c3d a214 e5bd e2f7 1bbd
000002b0: 94ee 81be d8e7 9fbe 8d13 bcbd bb7a 513c
000002c0: 2d18 e3bb cf12 76be 8600 f2be ff79 98bc
000002d0: 8a95 4fbe 6e78 c93c b841 acbc 560d db3e
000002e0: b709 6abd 9dfc abbe b077 8abe 29ab f5bd
000002f0: b3ee b5be 20a0 57be f525 f5bd 1e2f 233e
00000300: 7722 a2bd 6bb7 133c afce dbbd 7a65 31bc
00000310: 13bf a5be d2a6 4b3d cbdc c43d 82c5 5b3e
00000320: e6a9 6cbe 5510 d6bd 7eaa 03be 2e10 81bd
00000330: e97e b8be b3a3 3d3e bfee 513e 4643 95be
00000340: 5a68 14bf 819a 5abe 1a32 283e d177 b83e
00000350: 8c3c 113e 1d71 cdbd 5f5e 003d e807 e23e
00000360: b403 643e 8644 713e 60fc 113e 7721 f63c
00000370: dad2 b73e 9c61 453e e287 923c fe0e 963e
00000380: 76b7 3b3e 6ebd 353e 017d 113c 4dc9 983e
00000390: 042c 9b3e 4aa0 8a3e 066a e43e 228b 673e
000003a0: 519a 873e b1dc 2b3e 0b1b f03d f49b 4f3e
000003b0: 33b6 a93d 6bbb 4b3e ca6e 203f 8f0d 003e
000003c0: 7044 20bd 5df7 d8bd 0e33 62be 6f9c c63e
000003d0: 5292 c1bd 4616 bbbd 923a 63be 975b 85be
000003e0: 6af8 48be 2361 dc3d c059 35bd 4e29 153e
000003f0: 714c 393e 7a3f f43d 341f f2bc ef1b 23be
-0.012092378 0.25744924 0.12813866 -0.22868536 0.04072525 0.5984151 -0.015761549 0.007239661
0.013016466 0.3449236 0.17944439 0.06315608 0.0698145 0.13007641 0.23268838 0.2743717
-0.037246224 0.049425524 -0.055394206 0.3910221 0.47963142 0.27505672 0.098866686 0.24234587
0.090212174 0.08601776 0.2680888 0.2940908 0.5924036 0.14084822 0.25288823 -0.006409189
0.02110704 0.24017906 0.19738007 0.12999502 -0.14667615 -0.073167056 -0.12615503 -0.11645711
0.11094915 0.2612117 0.5171485 0.17519414 -0.34503207 -0.21625333 0.04396095 0.15656196
0.62623984 0.39658916 0.1958796 0.17561321 -0.19465205 -0.38349885 -0.21123093 0.014717545
0.46710125 0.21526419 0.2872329 -0.121139295 0.14398535 0.26375353 0.14376749 -0.22937767
-0.08374725 -0.14860871 0.30922598 0.016952062 0.2301423 0.2571216 -0.22145677 -0.29132682
-0.22082447 0.24979712 0.22292116 0.12117446 -0.12015094 0.23637648 -0.13025759 -0.28047386
-0.0341773 0.011338138 -0.044042148 0.2071963 0.26887417 0.011469835 -0.02738578 0.035459444
-0.03654979 0.026219012 0.006329575 0.294777 0.23908347 0.19164605 0.10861057 0.5129485
0.038641185 0.3976541 -0.11376468 0.035415515 0.17249888 0.28269026 0.18873245 -0.029492406
0.018993149 0.32038513 0.19945674 0.20585981 0.206087 0.34871894 0.10662086 0.22164302
0.2517489 0.30333465 -0.07047402 0.04655254 0.14800772 0.14848399 0.33188087 0.13972284
0.307502 0.29844204 0.20536622 0.21771 0.25767875 0.14463404 0.13154969 0.0921428
0.31592762 0.21140878 0.22849214 0.35183755 0.19274342 0.11798196 -0.11985138 0.18589048
-0.046472933 0.06494132 0.048356283 0.29825908 0.14124492 0.26583597 0.3131423 0.28315678
0.3157214 0.18065143 0.17924276 0.21866171 0.09972623 0.42461723 -0.22386791 -0.20380631
-0.009928442 0.1843978 -0.041006833 -0.39574134 -0.1655538 -0.28747916 -0.07797068 -0.022397261
0.18900502 0.27212778 -0.016726434 -0.0046573477 -0.0676089 -0.2593636 -0.25774482 -0.1581931
-0.07653353 0.057845626 -0.11185576 -0.038078196 -0.25377333 -0.3123157 -0.091834165 0.012785609
-0.006930372 -0.24030612 -0.47266024 -0.01861286 -0.20271888 0.024593558 -0.02102743 0.42783612
-0.05713817 -0.33591166 -0.2704444 -0.11995537 -0.35533676 -0.21057177 -0.1197013 0.15935943
-0.0791673 0.009015898 -0.10732781 -0.010827417 -0.3237234 0.04971964 0.096124254 0.21462062
-0.23111686 -0.10452334 -0.12858006 -0.06301914 -0.36034325 0.18519478 0.2050123 -0.29152888
-0.5797173 -0.21348001 0.16425362 0.36028913 0.14183253 -0.1003134 0.03134 0.44146657
0.22267038 0.23561296 0.1425643 0.030045254 0.35903054 0.19275516 0.01788706 0.29308313
0.18331704 0.17748043 0.008879901 0.2984108 0.3030702 0.27075416 0.4461214 0.22611669
0.26484922 0.16783406 0.11723908 0.20274335 0.08286705 0.19895713 0.6266905 0.12505172
-0.039127767 -0.10594056 -0.22089788 0.38791224 -0.094517365 -0.09135108 -0.22190312 -0.2604644
-0.19626012 0.10760715 -0.044275045 0.14566538 0.18095566 0.1192617 -0.029555894 -0.15928625

layers.2.bias f4 [30]
00000000: 8819 923e 10b2 43bc 66c1 d53d 1134 7d3e
00000010: c267 6e3e 7eaa 573e 2cbd bc3c 2edf 783e
00000020: 9746 df3d 679a 733e 8c71 afbd 9e35 fdbd
00000030: 9e1d 9b3e a52f 743e ec17 8c3e f906 433e
00000040: 3f15 15bc 174d bfbb 0000 0000 210c 883e
00000050: f91e 343d aa60 b3bb 22be c9bb 4ea4 973e
00000060: 0000 0000 0b06 693e 7a0b a93d 0000 0000
00000070: 734f 313e 22ac 7f3e
0.28535104 -0.011944309 0.104372784 0.24726893 0.23281768 0.21061131 0.023039423 0.24303886
0.10902136 0.23789369 -0.08566579 -0.12363742 0.30296034 0.238463 0.27362 0.19045629
-0.009099304 -0.0058380472 0.0 0.26571754 0.04397485 -0.0054741697 -0.006156699 0.29617542
0.0 0.22756211 0.08254142 0.0 0.17315464 0.24968007

layers.2.combine_aggr.weight f4 [30, 120]
00000000: 6ecb 9b3d e082 3b3c aab6 013d c7d8 b9bd
00000010: 080c 1a3d 641d 7c3d 2695 0fbd cc11 8e3d
00000020: 6c69 283d 2282 88bd 7025 8cbd 40fb a73a
00000030: 1e53 b4bd 15a7 82bd 8040 123d e40c f6bc
00000040: 40fd 53bb 15c6 18bd f401 723d 4285 993d
00000050: 76e7 863d 2541 a6bd 4017 ddbc 8818 353d
00000060: c426 5d3d cc9a a7bc dcbd 4c3d 00e1 30bb
00000070: 8021 263c 48f0 7b3d f4c9 7f3d 30fc 83bd
00000080: a301 63bd 7e75 043d 04ba 603d ec1f aebc
00000090: ceca a53d b04c 2cbc e99d 3dbd 98aa 18bc
000000a0: 0f20 9fbd 08b4 e73c ede1 abbd 667a ad3d
000000b0: 76db 8dbd 5c66 733d ba3b 8cbd 30f9 59bc
000000c0: 7113 4fbd 7c10 3f3d 50dd 583d 01d3 aebd
000000d0: 3280 a0bd d8e4 443c 20b3 00bb 00c1 0a3a
000000e0: 3858 e33c 1ccc 93bc 26c4 9d3d 60c5 d43b
000000f0: 6841 2cbd 2cbe 013d 8f0d 91bd d8d2 32bd
00000100: 1408 da3c 27df 1cbd 447c b2bd ec23 3b3d
00000110: a878 c03c b4a8 d93c 4ef7 013d ab7b b8bd
00000120: 82e5 22bd 5ca2 35bd 44e4 b23d 7487 1dbd
00000130: b6a4 75bd ef3b 03bd 78b5 0f3c 5caf 163d
00000140: 44ae 893d c6f7 863d f899 193c 6651 aa3d
00000150: 78ce 463d e07f 473d c250 a0bd a061 f43b
00000160: 48d4 9ebc 10ac b1bd 4da8 38bd 0c40 8e3d
00000170: e41e 093d 36c8 ac3d 78f3 7e3d 8010 37ba
00000180: 5207 a83d f4bb 9d3c 10b2 5bbc d0e4 1fbd
00000190: 3001 713d 10a1 273d 94ce 813d 58e9 81bc
000001a0: 5207 adbd 549c 873c b8ac 233c 8262 73bd
000001b0: 184e b53c b003 35bc d080 9f3d 40c5 8c3b
000001c0: abab 38bd 92c7 953d 20c5 313b b831 7bbc
000001d0: 1c97 323d 3057 b43d 607e 2a3d c0b1 283b
000001e0: ca1e 993d 05fb 23bd 023a a53d 090a 55bd
000001f0: 803d db3a 6e26 aa3d a8e6 143d c4b8 9cbc
00000200: d05d 663d 748e 5c3d 7885 a8bd 60b2 26bc
00000210: f221 93bd ec30 a1bc f049 34bc d394 15bd
00000220: 03a9 08bd 9039 4a3d 60ac 31bb 5104 babd
00000230: bc8b 803c 19dc b7bd 9f41 80bd 788e 643d
00000240: deea 8e3d 19aa 04bd b90b 63bd d834 293d
00000250: db97 b2bd 58ae 663d 4ac7 803d 74c7 1d3d
00000260: f43d e43c 74a3 9a3c a852 8fbd a5c6 15bd
00000270: 3830 713d 8076 9d3d e0cb 1f3b 1020 c03c
00000280: 1a54 b1bd b8fa 833d 28c9 59bd d36f 48bd
00000290: ee79 b83d b85e d6bc abe7 3cbd b0bb 4d3c
000002a0: 9255 933d 60e0 a93d 1067 fa3b 588e 7e3d
000002b0: de54 853d d8f8 79bc 55ba 93bd a0f4 203b
000002c0: 0409 febc 9808 033d 0afb 88bd 3ace 7abd
000002d0: 40cc 8cbd dadc 8bbd 5835 8e3d a14a babd
000002e0: 2038 5cbb 74c4 66bd 9c44 1dbd d882 d7bc
000002f0: 446a 2f3d 246d 7b3d c041 a8bc 8015 433b
00000300: 409d 83ba f240 aa3d b01d 273d ec45 9bbc
00000310: f031 7d3d 67f5 96bd f031 143d 3c06 913d
00000320: 8812 42bd 8ce9 0b3d 2c72 2b3d b9d9 9cbd
00000330: c81e d73c 3062 8d3d 6859 093c c888 90bc
00000340: 2d89 12bd ae2a 78bd dc9b b53c f6ba b0bd
00000350: 3608 a0bd c44a 07bd 860a b1bd 3e93 ae3d
00000360: 68f6 f0bc b3cb 46bd 4cfc bb3c 20eb 203d
00000370: 66ca 8c3d d4f4 16bd 74ac 82bc 792d 8dbd
00000380: e43f a3bd 68b1 22bd c847 283c 415d 39bd
00000390: e86f cebc 220e 093d dc4c 9a3c 40b6 663d
000003a0: 40aa 2c3d b82b 453d 3d4d 41bd c48d 483d
000003b0: 4291 a7bd e04a e63c e3d1 6bbd c47f ce3c
000003c0: 260c abbd 80b7 77bc c8fc 653d 94fc 3abd
000003d0: 4078 673d a88b 68bc ce64 af3d 2e24 b03d
000003e0: 489d 5cbd c827 afbc f8d7 98bc fe60 0dbd
000003f0: 2cd3 f53c 3a39 aabd 1e3c 60bd c876 6abc
0.076071605 0.011444777 0.031668343 -0.0907455 0.03760913 0.061551467 -0.03505435 0.06936988
0.041116163 -0.06665446 -0.06843078 0.0012815967 -0.08804916 -0.063795246 0.035706043 -0.030035444
-0.0032346994 -0.03729828 0.059083894 0.0749612 0.065871164 -0.08117894 -0.026988626 0.044212848
0.053992048 -0.020459555 0.04998575 -0.002698958 0.010139823 0.061508447 0.062448457 -0.06444585
-0.055421483 0.03233861 0.0548649 -0.021255456 0.080953225 -0.010516331 -0.046293173 -0.0093180165
-0.077697866 0.028284088 -0.08392701 0.08470611 -0.069266245 0.05942379 -0.068473294 -0.01330404
-0.05055565 0.04664658 0.052945435 -0.085363396 -0.07836951 0.012017451 -0.0019638017 0.00052930415
0.027752027 -0.018041663 0.07703428 0.0064932555 -0.042054564 0.031675503 -0.07082664 -0.043658108
0.02661518 -0.038298752 -0.08715108 0.045688555 0.023495033 0.026569702 0.03172999 -0.09007963
-0.039769657 -0.04434429 0.087349445 -0.038459256 -0.059971534 -0.03203958 0.008771293 0.03678833
0.06722692 0.06590228 0.009375088 0.08316307 0.048536748 0.048705935 -0.07827903 0.007457927
-0.019388333 -0.086753964 -0.04508238 0.0694581 0.033476725 0.08436625 0.06224391 -0.00069833547
0.08204521 0.019254662 -0.013409153 -0.039036572 0.058839023 0.040925086 0.0633823 -0.015858337
-0.08448662 0.016554035 0.00998991 -0.059420116 0.022131965 -0.011048242 0.07788241 0.004295975
-0.04508559 0.07313456 0.0027125552 -0.015331678 0.04360114 0.08805692 0.041624427 0.0025740713
0.07476576 -0.040034313 0.08067705 -0.052011523 0.0016726702 0.08308111 0.036352783 -0.019131072
0.05624181 0.05384679 -0.08228582 -0.010174364 -0.07184209 -0.019676648 -0.011003956 -0.036518883
-0.033364307 0.049371302 -0.00271108 -0.090828545 0.01569163 -0.08977527 -0.06262516 0.05579993
0.06978391 -0.03238878 -0.0554311 0.04131016 -0.087203704 0.05631861 0.06288011 0.03852029
0.027861573 0.018876769 -0.06998187 -0.036566395 0.058883876 0.07688618 0.0024382994 0.023452789
-0.08658619 0.06444305 -0.053170353 -0.04893477 0.09007631 -0.026168212 -0.046119373 0.012556955
0.071940556 0.08294749 0.0076416805 0.06214747 0.06510328 -0.015257083 -0.072132744 0.002455987
-0.031010158 0.031990618 -0.06688507 -0.06123183 -0.06874895 -0.068292335 0.06943768 -0.090962656
-0.003360279 -0.056339696 -0.03839551 -0.026307508 0.042825952 0.06138338 -0.020539165 0.0029767454
-0.0010041371 0.083131686 0.040799797 -0.01895424 0.061815202 -0.073710255 0.036180437 0.07081267
-0.047380954 0.034158275 0.04185693 -0.07658715 0.026259795 0.069034934 0.0083831325 -0.017643347
-0.035775352 -0.060587578 0.022169046 -0.0862941 -0.07814066 -0.033030286 -0.08644585 0.08524178
-0.02941437 -0.048534106 0.022947453 0.039286733 0.06874542 -0.03685458 -0.015951373 -0.06893439
-0.079711705 -0.03971997 0.01027102 -0.04525495 -0.025199845 0.033460744 0.018835478 0.05632615
0.04215455 0.048137397 -0.0471928 0.048963323 -0.081820026 0.028111875 -0.05757321 0.025207408
-0.083519265 -0.015119433 0.056149274 -0.045651034 0.056511164 -0.014193453 0.08564149 0.08600651
-0.053860933 -0.021381274 -0.01865767 -0.034516327 0.030007921 -0.08311696 -0.054744832 -0.014310546

layers.2.lin_a.weight f4 [1, 60]
00000000: 8bd7 b03d 6d29 923c a913 cc3e e8e0 c73c
00000010: 136b f53c 897c e73e 7c93 e03e 4a5a 063e
00000020: 6dc4 bd3e bb6d 1fbf 9b24 d73e d00b 883e
00000030: e57b 1c3e c64e 463d 4148 6b3e cae0 ac3e
00000040: 735d f4be 724b d2be 47fc eebe d31d 073e
00000050: 3499 da3e b568 01bf c5ab 16bf 95ee d53e
00000060: 8a80 f5be 340c a43e 7f35 b33e d603 f3be
00000070: 703a d33e 257e 7a3e e247 1abe 718a e33d
00000080: 8a0e 893d 24a1 7d3d d2d5 b6bc 0afe 2dbd
00000090: 28d3 4dbe a3fc 743d d243 913d 078e 4cbd
000000a0: 7e1c 3bbc a563 10bd bbad 8dbc ae36 5bbd
000000b0: 6aed f6bc bd3e 49bd eede 103e f7de 3f3c
000000c0: baa1 0fbe 7723 453c 0f37 48bd c6c4 f4bd
000000d0: 1527 07be 17cc dbba 2f08 ecbd 27eb d5bd
000000e0: 2dc5 863d edc9 a6bc 5563 7cbd e3b6 6a3d
0.086348616 0.017842019 0.3985875 0.024399236 0.029958284 0.452122 0.43862522 0.1312038
0.37063923 -0.6227681 0.42020115 0.26571512 0.15281637 0.048414968 0.22976781 0.3376525
-0.47727546 -0.41073185 -0.46676847 0.13194971 0.4269501 -0.50550395 -0.5885585 0.41783586
-0.4794963 0.3204056 0.35001752 -0.47463864 0.41255522 0.24462183 -0.15066484 0.1111039
0.06692226 0.061921254 -0.022318754 -0.0424786 -0.20100081 0.059811246 0.07093014 -0.049940135
-0.011420367 -0.03525128 -0.017294755 -0.053518943 -0.030142505 -0.049132098 0.14147541 0.011710874
-0.14026538 0.012032381 -0.048880633 -0.11951594 -0.13198502 -0.0016769198 -0.115249984 -0.104452424
0.06580577 -0.020359958 -0.061618168 0.05730332

layers.2.lin.weight f4 [30, 30]
00000000: 3dbd 5f3e 67e4 573f c050 f3bd 0762 843e
00000010: 7d44 733e d74a 573e a742 cd3d 8e69 383d
00000020: c952 993e f7dd 893e 81f7 ffbd d057 b8bd
00000030: 42ad e23d d155 75bc 07a3 2d3e 7a20 48bc
00000040: 61b2 883e bdd7 e1bc 1258 ef3e e7ff f53d
00000050: 38c3 b5bd 16ac 45be 597d 583e a5ae 853e
00000060: 8635 30bd f695 343e e3b4 2f3d 6f62 3d3e
00000070: d86d 693e 7737 3a3e 71da fd3d 2293 4a3f
00000080: 4b0e 0abe d3ba 1f3e 90f1 003e 0921 ba3d
00000090: b2d1 823d d113 603e 1325 b83e 5d76 15bd
000000a0: f007 81bd beed b7bd ad5b 803e 6a38 34be
000000b0: 8463 a3bd 1cf9 80bd 8125 193e 2be1 653b
000000c0: bd93 903e c5a2 e1bd e901 fb3d f238 0ebe
000000d0: ebc3 be3d 3efc adbd 5db0 c53d 2559 813e
000000e0: bff7 7a3d d282 1a3e a2e1 153d 1dd2 aabd
000000f0: 9691 4b3e 1b2e 6cbe 831b 923e ca3c 913e
00000100: db45 283d ba41 0e3e 56e8 fc3d 115d 8d3e
00000110: 2d08 34be 1184 913e 501a 1cbe 0bd6 833d
00000120: 2a03 673e e206 103e bc9b 713e 7de2 c33d
00000130: c1bd f9bd f6c1 7d3e bd40 3fbe 9988 883e
00000140: 1cb2 c63c 886e 893e e25f 3e3e 8c6d a73d
00000150: 6f4f 0f3d 2535 593d c8fa 4dbd de44 6fbc
00000160: c396 11ba d27d 5e3e 0e0b b6bd 6180 1e3f
00000170: f412 30be 2222 ed3d 2f95 8abc e62c 413e
00000180: 20c4 fcbd 4d0c d43c 813a fc3e baa6 a93d
00000190: aeac 1c3e b718 ebbc ae39 813e e3ff e3bd
000001a0: e81f 553c 5f1f 8fbd a0ee c33e 96f5 233e
000001b0: f3cb 863e cf94 c33d 7e1f e23b a0c6 5abe
000001c0: 47e3 29bd 51fa 333e 49a2 6d3e b11f 6e3e
000001d0: 7a1f 3d3e 17dd c93d 3ed8 d63e 67f5 173e
000001e0: d293 a93e 2c14 793f 98b4 fdbd 0b46 8c3e
000001f0: 302a e23c 8e0c d0bd 492d fabd d392 9d3e
00000200: bb6f bf3e a7cb 3d3e 9c88 96bd ca9f 83bd
00000210: 6e60 483e 58ee 02be 0a7c c63d f2d2 e43d
00000220: b030 933e cad4 6f3e ada7 083e e8b6 173e
00000230: 4806 a6bd 0697 d5bd eedf 293c 2e3f 033d
00000240: 47bd 363e ddf5 9e3e a335 01be 3eaf 313e
00000250: 1897 963e 7079 743e c662 833e 2045 67bd
00000260: 48a6 b03e c016 493d ddd3 b53e 2cf1 963d
00000270: f73f 3d3b ed91 013e 40a7 3bbd 834b 953e
00000280: b58a 80bd f0f5 8f3e a2fa 3f3e 5c1e bbbc
00000290: d092 8d3e e51b c43d 0476 0c3e 7752 b93e
000002a0: a311 183e 8978 c23e 65b0 2b3e 3101 4c3d
000002b0: 92cd b03e 7289 463e ed6b a93e db06 723e
000002c0: 7084 ed3d aec3 4e3e df17 e03d be33 263e
000002d0: a6cb 7b3e c08c c3be c6ac 9d3e 307f ac3c
000002e0: 9bc9 063d 223c 903d 6957 00be 914f 303d
000002f0: 7344 bcbd 9944 aa3e 1a51 02be 2c53 0a3e
00000300: 4df2 793b 7ee6 9fbc c9ea 873e 4bb8 b03b
00000310: b010 223e f61b 773e 5989 d3bd 89dc 873e
00000320: 455e d73d 955f 623e 30b0 3c3e cae7 1539
00000330: a866 36bd 1c32 423e d3e5 87bd 5286 97bc
00000340: e6d9 34be bc91 0e3d 1bc7 833e 0d51 673f
00000350: 2085 32be e8b6 583e 2143 da3c 50ec 5f3e
00000360: 9b43 223d f2dc bc3d 260b c33e dc32 8abd
00000370: 5783 89bd 960b 633e cf17 8b3e 7be6 55bc
00000380: 3c26 633e 63e3 26bd 33a1 ac3d 9eb8 883d
00000390: 2608 eb3d 5669 6f3e 4070 67bc 94c4 27be
000003a0: e4ad 173e 00c2 953d 19dd 583e 632b aa3e
000003b0: f475 f3bd 042f 273e 38fa 723e 3d4c 363e
000003c0: 311a 9c3d d989 b1be e305 8a3e 6226 9d3c
000003d0: 7424 613e 6be0 eabc b740 c13d 49e1 ec3d
000003e0: aa1f fbbd 876c 8f3c 93cc 96bc 1a66 a93e
000003f0: 0ca2 773e f01c 01be b517 4cbd 37df aa3e
0.21849532 0.8433289 -0.11880636 0.2585604 0.23756595 0.21024643 0.100224786 0.04502254
0.29945973 0.26927158 -0.124983795 -0.09001124 0.110682026 -0.0149740735 0.16956721 -0.012214774
0.26698592 -0.027568692 0.4674688 0.120117 -0.08875126 -0.19303927 0.21141566 0.26109806
-0.043019794 0.1763533 0.042897116 0.1849458 0.22795808 0.1818522 0.1239518 0.79130757
-0.13482015 0.15598612 0.12592149 0.09088332 0.063876525 0.2188256 0.35965785 -0.036489833
-0.06300342 -0.089808926 0.25069943 -0.17599645 -0.079779655 -0.06297514 0.14955713 0.0035076838
0.28237715 -0.11017374 0.12256224 -0.1388891 0.09314712 -0.08495377 0.09652779 0.25263324
0.061271425 0.15088966 0.036592133 -0.08340857 0.19879755 -0.23064463 0.28536615 0.2836669
0.041082244 0.1389226 0.12349002 0.27610067 -0.17581244 0.2842107 -0.15244412 0.0643731
0.225598 0.14065126 0.23594564 0.095646836 -0.12194396 0.24781021 -0.1867704 0.26666716
0.024254851 0.2684214 0.18591264 0.08175191 0.034987863 0.0530292 -0.05028799 -0.014603822
-0.0005553776 0.21727684 -0.08888827 0.6191464 -0.1719473 0.11578776 -0.01691684 0.18864784
-0.123420954 0.025884772 0.49263385 0.08283754 0.15300247 -0.028698308 0.2523932 -0.11132791
0.013008095 -0.069884054 0.38267994 0.16011652 0.26327476 0.09549867 0.006900727 -0.21364832
-0.041476514 0.17575957 0.23206438 0.23254277 0.18469039 0.09856623 0.41961855 0.14839707
0.3312059 0.97296405 -0.12387961 0.2739719 0.027608007 -0.101586446 -0.12215669 0.3077608
0.3738993 0.18534718 -0.07350275 -0.06426962 0.19568035 -0.12786233 0.09691627 0.11173047
0.28748083 0.23421016 0.13345213 0.14815867 -0.08106667 -0.10429196 0.01036833 0.032042675
0.17845641 0.31046954 -0.12618117 0.17352006 0.2941215 0.2387445 0.25661296 -0.056462407
0.34501863 0.04909396 0.355132 0.07370219 0.0028877237 0.12653323 -0.0458138 0.29159173
-0.06276456 0.28117323 0.18747953 -0.022841625 0.27651072 0.09575633 0.13716894 0.36195728
0.14850478 0.37982586 0.16766508 0.049805824 0.34531838 0.19388369 0.33090153 0.23635428
0.11597526 0.20191833 0.10942053 0.16230676 0.24589404 -0.3819332 0.30795878 0.021056741
0.03290711 0.070427194 -0.12533344 0.04304463 -0.09192743 0.3325546 -0.1272625 0.1350829
0.0038138807 -0.019519087 0.26546314 0.005393063 0.15826678 0.2413176 -0.10328931 0.26535442
0.10516027 0.22106774 0.18426585 0.00014296095 -0.044531494 0.18964428 -0.06635632 -0.018496666
-0.17661247 0.034806952 0.25737843 0.9035805 -0.17433596 0.21163523 0.026643338 0.2186749
0.039615255 0.092218295 0.38094443 -0.06747982 -0.06714504 0.22172388 0.27166602 -0.013055439
0.22182554 -0.040744197 0.08429184 0.06675838 0.114761636 0.23380026 -0.014125884 -0.16383582
0.14812428 0.07312393 0.21178092 0.33236226 -0.11887732 0.16326529 0.23728263 0.1780252
0.07622183 -0.34675482 0.26957616 0.019183341 0.21986562 -0.028671464 0.094361715 0.11566407
-0.12261899 0.017507805 -0.018408095 0.3308571 0.2418291 -0.12608695 -0.049827296 0.33373424

layers.3.bias f4 [30]
00000000: fc19 c9bb 478a c4bb 0b20 c1bb 9bc0 c4bb
00000010: 42e4 63be a139 283f a2c2 94bd 254f a3bd
00000020: a45d 743d 0000 0000 dc32 f2bd ac94 b7bd
00000030: aca5 c4bb 932c 8b3f 4982 37be ef99 3cbc
00000040: 7a56 eb3e 2e4e 813e d884 ee3d fc48 ccbd
00000050: 0000 0000 75e0 bfbb efcb 87be b703 abbb
00000060: cac8 09be 1af7 64be 5a31 593f 69ff 453f
00000070: 01e5 b8be 0515 f0be
-0.006137131 -0.0059979293 -0.0058937124 -0.0060044057 -0.22255042 0.65712935 -0.07263686 -0.0797408
0.059659615 0.0 -0.11826107 -0.08963904 -0.006001195 1.0872978 -0.17920794 -0.01151131
0.45964414 0.2525496 0.11646432 -0.09974858 0.0 -0.005855615 -0.26522776 -0.0052189487
-0.13455501 -0.22359887 0.8484093 0.7734285 -0.36112216 -0.46891037
